Models/Precipitation_Models/amman_precipitation_model.pth (torch, 223662 bytes, 11 tensors)

lstm.weight_ih_l0 f4 [256, 11]
000000 7a bb b6 3d dd 89 f2 3d de e3 43 3e a5 5f 54 3e
       0.08922477 0.118427016 0.19129893 0.2073961
000010 6d 3b 69 be f9 52 9f bd f9 b7 25 be 7b b1 cf be
       -0.22776575 -0.07779498 -0.16183461 -0.40565094
000020 eb a2 01 3d 95 88 71 3d 51 b5 4e 3e fb 3e a2 be
       0.03164951 0.058968145 0.20186354 -0.31688675
000030 af 1c 7b bd 09 1e b4 3d 19 b9 a2 be d6 d5 b8 39
       -0.06130665 0.08794791 -0.31781843 0.00035254535
000040 ea 64 5d 3e f6 1a d1 3d c7 8e 77 be d6 83 43 bd
       0.21620527 0.102102205 -0.24175559 -0.04773315
000050 ae bd 8b 3d d7 74 93 3e 1f 92 42 bd 02 07 91 bd
       0.06823288 0.2880008 -0.047502633 -0.07081415
000060 60 80 f5 3d 9a 7a 43 3f 38 9e 62 3e 92 32 88 3e
       0.11987376 0.7635895 0.22130668 0.26601082
000070 1d 7e 05 3c 78 14 8d 3e ca 02 cd 3d 22 45 5b 3e
       0.0081477435 0.2755468 0.100102976 0.21413091
000080 e8 d8 41 3e 27 00 22 3e f3 a1 c3 3e bb 24 9f bd
       0.189304 0.1582037 0.38209495 -0.07770678
000090 5a 3e c2 3c d6 65 6f be d1 6a a2 3e 58 0c 79 be
       0.023711372 -0.23378691 0.3172212 -0.24321115
0000a0 9b 79 31 3e d9 b0 9c 3d 44 7d 6e 3d c7 5b 16 be
       0.17331545 0.076509185 0.05822493 -0.14683448
0000b0 c5 66 82 3e 11 98 3a 3e 4b 97 0d 3d 7c 16 c1 3c
       0.25469032 0.18222071 0.034568112 0.023570292
0000c0 e0 dd b2 bd 62 1e ca bb b7 fa 79 be 69 b7 21 be
       -0.087337255 -0.0061681727 -0.24412046 -0.15792622
0000d0 f7 c5 16 bc 9e 2d 8a bd ef 30 b3 be 51 00 cb be
       -0.009202472 -0.06746982 -0.3499827 -0.3964868
0000e0 46 3a 03 3d 21 11 83 3e 28 11 1e 3e 06 7b d7 bd
       0.032037996 0.25599006 0.15436232 -0.10521512
0000f0 39 b4 7e 3e fc 31 a4 3d 7a 78 6b bd 28 76 fa 3d
       0.24873437 0.08017346 -0.057487942 0.12229568
000100 ce 71 4a be ea c4 fb bd db 87 46 3e 93 2a c4 3e
       -0.19769976 -0.12293418 0.19387762 0.38313732
000110 21 ad 24 be 22 ce 54 be 14 51 95 be 2e 99 20 3e
       -0.16081668 -0.20781758 -0.2916342 0.15683433
000120 f9 91 86 be d7 1c 3f be 50 ea a3 be 10 a6 d4 bd
       -0.26283243 -0.18663345 -0.32014704 -0.103832364
000130 cc 00 b2 bd 7e 96 1a be 62 ce 5a 3d 39 c6 43 bd
       -0.08691558 -0.1509647 0.05341948 -0.04779646
000140 5d 7b ae 3e ab 01 c5 bd 81 b9 39 3d 45 f7 aa 3d
       0.34078494 -0.09619459 0.045342926 0.08347944
000150 df a1 9f 3e 11 9e 7b 3e 66 7d 29 3d f3 5d 8b be
       0.31178185 0.24572016 0.041379355 -0.27220115
000160 a0 84 9a bd 31 72 f0 3d ef 6d 13 be 92 c4 e0 3e
       -0.075448275 0.1174053 -0.14397405 0.4389997
000170 30 93 b1 ba f2 cd b5 bc b9 d1 c5 3d b4 2b 04 3e
       -0.0013547894 -0.022192929 0.09659142 0.12907296
000180 70 8b f6 3d 5e 09 39 be 4f 41 13 bd ff fa e6 3e
       0.12038314 -0.1806998 -0.035950955 0.4511337
000190 4a 84 37 3d 3c e7 cd 3c 4f 8d 8f 3d 2a 90 e5 bd
       0.044803895 0.025134675 0.07009374 -0.11209138
0001a0 67 7d 3c 3e ee 73 12 be 48 fa 43 bc 4e e9 67 bd
       0.18407212 -0.14302036 -0.011961527 -0.05661898
0001b0 83 bd d4 bd e0 22 8d 3e 9c 81 ab bd 11 bd 94 3e
       -0.10387709 0.2756567 -0.083743304 0.29050496
0001c0 bd 7e fb be 96 bd f6 be ad 11 ad 3d 55 ce 0c be
       -0.4912013 -0.48191518 0.08450637 -0.13750584
0001d0 3c 43 2c be 8a 81 2d be 7a d9 72 3d 32 71 ee bc
       -0.16822523 -0.16943946 0.059289433 -0.02910671
0001e0 e7 34 e0 bd 82 a0 0a 3f 0a 05 91 3e 7e 8e a5 bd
       -0.1094759 0.54151165 0.28324157 -0.08083819
0001f0 ca 60 0c be d8 cd ed bd 81 90 49 be d1 1e 19 bf
       -0.13708797 -0.11611527 -0.1968403 -0.5981265
000200 fc 30 ea bd 5b 2a 5c bc 66 87 69 3e 44 70 a5 be
       -0.11435124 -0.013437833 0.22805557 -0.32312214
000210 cd e0 6a 3e 50 7e e3 bd 9f f4 9f 3e 37 ce cb 3c
       0.22937317 -0.111080766 0.3124132 0.024878604
000220 3a 9f ae be 67 fc 09 3e 00 6d b6 be 1e a1 28 3e
       -0.34105855 0.1347519 -0.35630035 0.16467711
000230 48 75 1b 3d 40 f7 9a be bc 47 94 bd 3e e3 bf bc
       0.037953645 -0.30266762 -0.07240245 -0.023423787
000240 67 e4 5f 3d 9c 54 34 be a5 82 eb 3d 83 74 cb be
       0.05466118 -0.17610401 0.11499528 -0.3973733
000250 66 65 50 3e 1d 4e fe bd e3 4f 1b bd d0 a7 84 3b
       0.2035118 -0.12417243 -0.037917983 0.004048325
000260 52 f1 77 be 32 7f ce 3d 0a ae 0f 3e 38 0b 8c 3e
       -0.2421315 0.10082854 0.14031234 0.2735231
000270 8f 77 a3 bd d9 88 dd bd a5 53 95 be 14 20 97 be
       -0.07981788 -0.10817117 -0.29165378 -0.2951666
000280 dd 14 3f be 2a e5 fd bd 38 c7 3b be c0 41 a3 be
       -0.18660302 -0.12397225 -0.18337715 -0.318861
000290 30 01 0a bd 1d a8 92 be b7 dc fd 3c 12 5d a0 bc
       -0.03369254 -0.28643885 0.030989034 -0.01957563
0002a0 73 85 b9 3c 35 90 26 3e 36 16 57 3d 1f b1 c8 bd
       0.022646641 0.16265948 0.052511416 -0.09799408
0002b0 ac 4e 1d bd 49 bc 5f be 9f fc 39 3e 88 14 13 3e
       -0.038405105 -0.21849169 0.18162774 0.14363301
0002c0 02 5e 5c 3e db 54 4f bc fb c4 8a 3e d1 12 83 bd
       0.21520236 -0.012654508 0.2710341 -0.06400073
0002d0 1d 88 7d be c8 8b 2c be 75 13 41 3e cf ad b0 bd
       -0.24758954 -0.16850197 0.18855079 -0.08626901
0002e0 b1 4f 81 3d a4 a9 3d 3e 3f 48 c2 be 2b 65 94 3e
       0.06314028 0.18521744 -0.37945744 0.28983435
0002f0 10 24 20 3e 47 2a ec 3d 7a f7 dd 3e f0 fe ae bd
       0.15638757 0.11531501 0.43352872 -0.08544719
000300 fb 52 51 3d 47 c8 7e 3d bf 39 b4 bb e2 37 9d 3e
       0.051104527 0.062202718 -0.005500048 0.30706698
000310 55 3e 00 3c 66 71 83 bd d1 7c d3 3c f7 8a 55 3e
       0.007827361 -0.064181134 0.025816353 0.20853792
000320 ce ab 3a be f0 05 1f be d3 16 9c bd 98 0c 03 3d
       -0.18229601 -0.15529609 -0.07621541 0.031994432
000330 81 e4 f1 3d 7b 76 2f be 98 ed db 3b c1 03 6b 3d
       0.11811162 -0.1713504 0.006711673 0.057376627
000340 d0 c6 fd bd e2 ed cc bd 39 26 2f 3d 1b 43 86 3e
       -0.12391436 -0.1000631 0.04276106 0.26223072
000350 16 60 12 3d d7 b8 a9 be 8d 0a d6 3d 44 59 7a bc
       0.035736166 -0.33148834 0.10451231 -0.015280072
000360 d5 52 22 be f4 77 a1 bd 06 db 48 be ed 4a e2 3e
       -0.1585191 -0.07884207 -0.19614801 0.4419779
000370 c4 13 15 3e 52 cb 90 3d 48 72 24 3e ee 1a 30 be
       0.14558321 0.0707003 0.1605922 -0.17197773
000380 2f 2a 4d be b4 16 d2 3d d1 45 6c bd ae 1e ad 3e
       -0.20035623 0.102582365 -0.05768377 0.3381247
000390 a9 fd 28 3e 64 32 6d be fe 70 9d be c8 c4 ab 3e
       0.16503014 -0.23163754 -0.3075027 0.3354857
0003a0 43 d7 cf 3e 29 88 b3 be 8f e1 16 3d e1 c6 17 be
       0.4059392 -0.3506482 0.036836203 -0.1482196
0003b0 fd b2 44 bd 51 c1 7b bd e4 d5 0a 3e 68 6b a8 3d
       -0.04802226 -0.061463658 0.13558155 0.08223611
0003c0 fc 83 e5 be 1e 58 83 bd 3c dc bc be 41 f0 f2 bd
       -0.4482726 -0.064132914 -0.36886775 -0.11862231
0003d0 fb 4c bd bd 97 5e fd bc e7 f6 c8 bd f3 1a fc 3d
       -0.092431985 -0.030928893 -0.09812718 0.12309828
0003e0 28 f1 a1 3d 08 e2 dc 3d 31 54 19 3d d5 28 99 3e
       0.07907325 0.107852995 0.037433807 0.29913965
0003f0 f4 f6 1e bd f1 9d ce be 44 53 65 be 15 ed e2 3d
       -0.03880973 -0.40354875 -0.22395045 0.11080376

lstm.weight_hh_l0 f4 [256, 64]
000000 ec 38 d5 bd f0 47 aa 3e 50 2f e2 3e 06 c2 82 3e
       -0.104112476 0.3325801 0.44176722 0.25538653
000010 14 00 5e bd 86 ab 04 bf e5 ea 7a be e6 06 ff bd
       -0.054199293 -0.51824224 -0.24503668 -0.12452488
000020 ac 05 b1 3d 69 8a 75 3e fd 66 f5 be d2 dd 97 3e
       0.0864366 0.2397858 -0.47930136 0.29661423
000030 af 0b a9 3e 6e 7c 5e be 14 aa 46 be 45 08 26 3e
       0.33016726 -0.21727154 -0.19400817 0.16214092
000040 40 ff 80 3e 0e 41 8e bc dd 10 6d be ba 1d 51 be
       0.2519474 -0.017365005 -0.23150964 -0.20421496
000050 86 36 8e bd c0 9a c0 3e ec 69 a0 be 5c 9d c1 3e
       -0.06943993 0.37618065 -0.31330812 0.37815368
000060 2c 15 e7 3d 9e 19 5f 3c 89 6f 48 bc b1 77 28 be
       0.11283335 0.013616947 -0.012233623 -0.16451909
000070 03 14 21 be b6 cb b2 3e f2 74 0b 3e 84 92 98 3e
       -0.1573029 0.34921044 0.1361883 0.29799283
000080 8a f9 42 3d eb f5 ee bd d9 93 23 3e 3c ff ee 3d
       0.04760126 -0.11667999 0.15974368 0.11669776
000090 1b 78 e7 be 66 98 8a be b6 48 55 be 8d 48 39 bc
       -0.4520882 -0.27069396 -0.20828518 -0.011308801
0000a0 99 c8 37 be 7c 18 e1 be ea 11 69 3e d2 f3 eb bd
       -0.17947616 -0.43963993 0.2276074 -0.115211144
0000b0 eb 5c 88 3e f6 43 53 3d 02 77 8f bd fe 60 25 be
       0.2663339 0.051578484 -0.07005121 -0.16150281
0000c0 fe 6c 6d be 73 fb 02 bd c0 f3 9f bc 7f a4 76 be
       -0.23186108 -0.031978082 -0.019525409 -0.24086188
0000d0 3e 31 e3 3d 63 37 3d 3e 32 f2 45 be cf 2f fe 3e
       0.110933766 0.1847816 -0.19330671 0.4964585
0000e0 88 b8 8b bd 9e 03 9f 3e 89 3b 27 be d9 b3 5e 3e
       -0.06822306 0.31057447 -0.16331305 0.21748294
0000f0 ef 20 2e be 2e bb 9b be dc 34 39 be ce 2b 3a bd
       -0.1700475 -0.30416244 -0.1808657 -0.04545193
000100 7c 03 99 be 20 a7 7a 3e 93 05 97 3e f4 99 81 3d
       -0.2988547 0.24477816 0.2949644 0.06328192
000110 79 df 90 3c f3 b4 75 bd 14 3b 0d be 98 9c c9 be
       0.017684685 -0.05998702 -0.13792068 -0.39377284
000120 a3 f3 3a be 54 12 dc 3e 53 d0 73 be 37 9d f3 be
       -0.18257003 0.42982733 -0.23809938 -0.47580883
000130 c2 5e c8 3d d0 1f 9d be 5e ae c1 bd a4 0c e3 3d
       0.097836986 -0.30688334 -0.09457086 0.110863954
000140 bf c0 a1 be 1a 3a db 3e 45 f4 0d 3e 48 f3 87 3c
       -0.31592366 0.42817765 0.13862713 0.016595498
000150 4e e5 82 3e bd 04 8f 3e 96 da 45 3e 40 eb 4f be
       0.2556557 0.27933303 0.19321665 -0.20304585
000160 b9 eb a2 3e 27 0b b9 bd 11 56 96 3e cb af b1 3e
       0.31820467 -0.0903533 0.29362538 0.34704432
000170 5f 2c 43 be 10 7f 76 3c 25 2f 78 bd 57 81 3d be
       -0.19059895 0.0150449425 -0.060591836 -0.1850637
000180 52 2a 8e 3d 94 1f bf 3a 12 c5 b6 be 58 90 5b be
       0.06941666 0.0014581555 -0.35697228 -0.21441782
000190 cc fa 0f be 15 f2 d1 3d f2 e7 bf 3e d6 1c dd be
       -0.14060515 0.102512516 0.37481648 -0.43186063
0001a0 61 91 03 be c2 8c 8f 3d 3f 1f 84 be c5 ab 4e 3e
       -0.12848426 0.07009269 -0.2580509 0.20182712
0001b0 a7 da 97 3e f2 66 8e 3d 03 c4 90 be dc 4b 20 3e
       0.29659006 0.06953229 -0.28274545 0.15653938
0001c0 01 d0 d7 bc 5d ee 23 3e e1 5f 4d be fe 10 35 3e
       -0.026344301 0.16008897 -0.20056106 0.17682263
0001d0 49 26 c3 3e 8e 61 31 bc 61 a8 19 3e 0c 77 02 3e
       0.38115147 -0.0108264815 0.15005638 0.12740725
0001e0 51 f2 cc bd 39 ea 38 3e ea db a9 bd 04 59 66 3d
       -0.10007156 0.18058099 -0.082938984 0.056237236
0001f0 75 64 04 be f8 2b 96 be 31 11 f9 bd 6d 2d 1d 3f
       -0.12928946 -0.2933042 -0.12161482 0.6139744
000200 00 26 88 be 46 4f 74 be d7 79 91 bc 94 12 a1 bd
       -0.26591492 -0.23858365 -0.017758293 -0.078648716
000210 b0 ca 85 3d 25 69 7d 3e 91 d6 ef 3e 02 f3 2a be
       0.065328 0.2474714 0.4684339 -0.16694263
000220 eb 18 84 3e 1d 72 13 be f7 c6 da 3d f1 b5 b3 3d
       0.2580026 -0.14399 0.10682481 0.08774937
000230 ac ad 53 be 46 6a 8d 3e fb 03 aa 3d c3 02 25 3e
       -0.2067172 0.27620143 0.083015405 0.16114335
000240 19 d5 18 3e 08 01 41 be 55 75 a1 be 39 3b 61 3e
       0.1492504 -0.1884805 -0.3153483 0.21995248
000250 b4 e6 57 bc 62 a0 fc bd a8 12 27 be 45 5d 1a bb
       -0.0131775625 -0.12335278 -0.1631571 -0.0023554128
000260 bc 00 6e 3e 8b ce be 3c a7 a4 4f bd 15 45 f2 bd
       0.23242468 0.023291847 -0.050694134 -0.118295826
000270 a6 08 21 3e b7 f4 cf bd 34 54 cf bb 1d e5 c4 3d
       0.15725955 -0.101540975 -0.0063271765 0.096140124
000280 55 30 f8 3d 3a 73 87 3b fd 67 50 be 18 7f bf bc
       0.121185936 0.004133609 -0.20352168 -0.023376033
000290 65 dd fc 3d 2d 9d 5b be 56 fd 17 be a8 11 2e 3e
       0.12346915 -0.21446677 -0.14842734 0.16998923
0002a0 cc 5b 04 bd a5 b5 51 be 28 25 82 be c7 9b d4 3e
       -0.032314107 -0.20479448 -0.25418973 0.415251
0002b0 94 de 02 be 1e 13 0b be 59 16 bd bd dd 1f b8 bb
       -0.1278022 -0.13581511 -0.09232778 -0.005619033
0002c0 9e 8a 80 bd 7e 3f b6 be bf 9c b1 3e 97 f1 62 3b
       -0.06276439 -0.35595316 0.346899 0.0034628862
0002d0 9d e7 59 3c a7 00 80 bd 7f 48 24 bd 5e ce 81 be
       0.01329985 -0.062501244 -0.0401082 -0.25352758
0002e0 8a 8c da 3d ab a6 5f be a7 12 71 3c ae 01 ad 3e
       0.10671337 -0.21840923 0.01471392 0.33790344
0002f0 3d 40 02 bd a4 5c fe 3b c8 76 d4 bd dc 27 25 bd
       -0.031799544 0.0077625085 -0.10374218 -0.040321216
000300 ba 4b df 3d b1 df bc 3e c3 1d c7 bd 60 11 19 be
       0.109031156 0.36889413 -0.097224735 -0.14948034
000310 12 47 d3 3d 4b 67 24 be d7 dd e1 bb 9c 8a 28 3e
       0.1031629 -0.16055028 -0.0068929004 0.16459125
000320 08 0a ad be c0 a7 65 3e 2f df 34 be a2 b9 43 be
       -0.33796716 0.22427273 -0.17663263 -0.19113782
000330 5b a0 34 be 85 89 86 be 9e a6 b5 3e 95 6a 29 3e
       -0.17639296 -0.26276794 0.3547868 0.16544564
000340 0c 05 c4 bd c9 f8 2e bd 34 c4 c2 be 5b 55 50 be
       -0.09571275 -0.04271773 -0.38040316 -0.2034506
000350 44 5e 8c 3c c7 0d 69 3e 8b fb d9 bd 69 4e 9b 3e
       0.017134793 0.22759162 -0.10643681 0.3033326
000360 98 9b e6 3e 8e a6 6b 3c 6a 1d 50 3c 4b c7 1a bd
       0.45040584 0.014382971 0.012702325 -0.037787717
000370 da b2 64 be d1 b0 b8 3e d2 2e 0d 3f 6d f7 49 3e
       -0.22333851 0.360724 0.5514957 0.19723292
000380 77 08 d5 bd a1 49 04 3e ce bf 6e 3e a1 57 fe be
       -0.10402005 0.12918712 0.23315355 -0.4967623
000390 8e ef 15 bf 73 5a c6 3d 44 6e 36 be 78 bc d7 bc
       -0.58568656 0.096852206 -0.178155 -0.026334986
0003a0 2c cf ae be 2c 3b 75 ba 54 e9 17 bf c4 f4 64 3e
       -0.34142435 -0.00093548256 -0.59340405 0.22358996
0003b0 62 48 93 be 9c 06 17 3d f9 2b 21 be 19 2a a0 3d
       -0.2876616 0.036871538 -0.1573943 0.078205295
0003c0 29 81 22 be 0f 8b 90 3e c2 51 84 3e cd c0 5f 3e
       -0.15869583 0.28231093 0.25843626 0.21850891
0003d0 54 7f 76 3e 9a 18 1c be f9 72 c4 be 8e 6d e6 3e
       0.2407201 -0.1524376 -0.38368967 0.4500546
0003e0 6f 09 78 be c5 44 c1 3e 55 3f 84 b8 81 25 01 3e
       -0.24222349 0.3774778 -6.306047e-05 0.12611963
0003f0 04 23 cc bd e3 df cc be 4a e6 8e be 52 08 39 3e
       -0.09967616 -0.40014562 -0.27910072 0.1806958

lstm.bias_ih_l0 f4 [256]
000000 93 76 d2 3d ad 0c 99 3e 49 7e f2 bd bf 4e a0 bd
       0.102765225 0.29892483 -0.11840493 -0.078275196
000010 f0 e9 30 be 94 89 84 be 2a 2a b6 bc 01 ed 4a be
       -0.1727674 -0.25886214 -0.022236902 -0.19816972
000020 12 34 a4 bd 2b 7b 43 3d 41 bc ad 3c d7 be 2e be
       -0.08017744 0.047724884 0.02120793 -0.17064987
000030 c8 f8 59 be 23 c2 ec bc dd 43 88 3e b3 66 45 be
       -0.21286309 -0.028901165 0.26614276 -0.19277458
000040 72 28 77 be 56 94 ec bb a1 28 2d bd 5a 4b 7c 3d
       -0.24136522 -0.0072198315 -0.042275075 0.0615953
000050 2c 48 d5 bd 3f 81 5f bd a8 af 99 bd 97 21 8d be
       -0.10414156 -0.054566618 -0.07504207 -0.2756469
000060 dc b4 14 bd ed 2f 10 be ec 02 0f be 0b 12 17 be
       -0.036305293 -0.14080782 -0.13965958 -0.14752977
000070 2b 71 2f be 89 85 9b 3d 15 52 cb bd 8f 47 35 bd
       -0.17133014 0.07593829 -0.09927765 -0.044257697
000080 4a de bb bd 04 21 0b be 2e 4b 16 be c9 80 a1 bd
       -0.09173258 -0.13586813 -0.14677116 -0.07885892
000090 e8 25 b6 3d b0 7f 17 be 6d da 71 3e 19 22 63 be
       0.08893949 -0.14794803 0.23618479 -0.22180976
0000a0 44 72 a7 bd a5 0d 86 bc e4 26 50 be 60 1f 04 be
       -0.08176091 -0.016363928 -0.20327336 -0.12902594
0000b0 ae ca 9a 3b 5d 2a 09 3d 22 a4 c1 3b cb 1e f5 bd
       0.0047238683 0.033487666 0.0059094587 -0.11968764
0000c0 6e 80 be 3c d6 f2 18 be 9e 72 29 bc 46 c9 b5 bd
       0.0232546 -0.14936385 -0.010342268 -0.088762805
0000d0 8f 31 9d 3d 2f 86 28 be 6c a4 cf 3d 1a 97 d2 bd
       0.07675468 -0.16457437 0.10138783 -0.102827266
0000e0 d9 a2 14 bd 7c db b0 bd e7 95 88 3d 4d 22 5f 3d
       -0.036288116 -0.08635613 0.066692166 0.05447607
0000f0 f1 08 8c bd 94 bb 5e 3d 0c 15 1c 3e de 72 84 3d
       -0.06837643 0.054378107 0.15242404 0.06467222
000100 0c f2 48 bd 6f 35 99 3c d9 0c bd 3b b6 f7 39 3e
       -0.04905896 0.018702237 0.005769354 0.181609
000110 3d 11 08 3e fb 9f 92 bd ea a7 03 bd 07 90 b6 bc
       0.13287826 -0.0715942 -0.032142557 -0.022285474
000120 2f d3 b9 b9 4d 57 65 3e df a3 f0 3d 28 2d a4 bd
       -0.00035443294 0.22396584 0.11750006 -0.08016425
000130 3e 6d 0a be 90 d2 1a 3e 89 d5 24 3e 28 e2 c1 3d
       -0.13518235 0.15119386 0.16097082 0.09466964
000140 a6 24 94 3e 0c 27 9e 3b 0f 04 22 3e 34 ff a5 bd
       0.2893421 0.004826432 0.1582186 -0.08105317
000150 b5 02 6c bd c0 0e c2 3c 04 0c 06 be 80 64 a8 3d
       -0.05761977 0.023688674 -0.13090521 0.08222294
000160 f8 7d 99 bd 72 24 b8 bc 09 8a 27 3e 31 d8 e9 3d
       -0.0749473 -0.022478316 0.1636125 0.11418188
000170 18 a0 82 3c 2b c5 2d 3e 56 4d 08 3d f5 35 f8 3d
       0.01594548 0.16969745 0.03327688 0.121196665
000180 ac 5c 94 bd a7 86 6e 3c d5 22 66 be f6 4d 7f 3e
       -0.07244238 0.014558471 -0.22474225 0.24932083
000190 fe 01 3e bd 9d d7 94 bd d9 ef 7e 3d 2c a5 84 bd
       -0.04638862 -0.072676875 0.062240455 -0.064768165
0001a0 ea a1 89 3b 70 4b 45 3d c4 d4 d7 3d 2c 80 cc 3d
       0.00420021 0.048167646 0.10538629 0.09985384
0001b0 a7 22 8e 3e 9f 26 d9 3b ac df a9 3b aa a0 74 3d
       0.27760813 0.0066269184 0.0051841345 0.059723534
0001c0 e0 e6 69 3c 01 98 91 bd 16 cc 67 be e0 2b 0b bd
       0.014276236 -0.071090706 -0.22636446 -0.03397739
0001d0 01 46 53 3e 29 7d 26 bc 53 13 31 3e 60 ed df 3d
       0.20632173 -0.010161676 0.17292528 0.109339476
0001e0 93 3e 0a 3d c8 19 9e 3d 1f 27 21 3e 01 3b 3c bd
       0.03375108 0.07719761 0.1573758 -0.045954708
0001f0 df 5c b3 3d 11 69 34 3e 00 3e 9e bc fd 6d 9f 3e
       0.08757948 0.17618205 -0.019316673 0.31138602
000200 ed 79 47 3e b0 29 0b 3e 37 df 83 3d 7b d0 50 3d
       0.19480105 0.13590121 0.06439059 0.050980072
000210 5b e3 21 3c 91 f5 46 be 57 2f 62 bd 53 e1 2c be
       0.009880866 -0.19429614 -0.055220928 -0.1688283
000220 6f 5f dd 3d 05 83 ea 3d 3d 4e 99 bd 61 62 c7 bd
       0.10809218 0.11450771 -0.07485626 -0.09735561
000230 78 15 04 3e e8 0a 45 bd 58 bf b4 3d f4 b5 92 3d
       0.12898815 -0.048106104 0.088255584 0.07163611
000240 b4 7e 84 3d 3f 6f b9 3d 43 94 e7 bd 09 3d 21 be
       0.06469479 0.09054422 -0.113075756 -0.1574594
000250 67 42 31 bd 5d 09 02 3e ca d2 61 be fb 94 16 3e
       -0.043276217 0.12698884 -0.22053066 0.14705269
000260 b9 ba 41 3e 21 9b 00 be 3f 0a 89 bd 9d 7a 05 3e
       0.18918885 -0.12559177 -0.066914074 0.13035055
000270 83 25 dc 3d ec 14 41 3d 43 d6 0e 3e e6 80 df bb
       0.10749342 0.047139093 0.13948922 -0.006820786
000280 fd 27 3f 3e 01 84 2e be a8 ff 20 3e 72 8f 13 be
       0.18667598 -0.17042543 0.15722525 -0.14410189
000290 15 c4 34 be 6e fa 0c 3d af 30 29 bd b9 e7 39 3d
       -0.17652924 0.034418516 -0.041306194 0.045387004
0002a0 bd 9b 0b be eb 06 00 be 0b 3c bf bd 93 aa 41 bd
       -0.13633628 -0.12502639 -0.09337624 -0.047281813
0002b0 46 89 fd 3c aa 45 c7 3c 5e 91 19 3d 9e 44 80 3d
       0.030949246 0.02432521 0.03749215 0.06263088
0002c0 1d 71 ff 3d 4e db cb bd 8b 57 e4 3d 03 be 13 bc
       0.124727465 -0.099539384 0.1114951 -0.00901747
0002d0 a3 cf 03 3e ce 6f 48 be 22 6b b2 bd 29 29 96 3d
       0.12872176 -0.195739 -0.0871184 0.073320694
0002e0 a1 58 d1 3c e2 ed cc 3d df f7 f7 3d 16 16 d1 bd
       0.025554957 0.1000631 0.121078245 -0.10209291
0002f0 45 63 23 be fc 1e f6 3c f5 74 bb bd 4a 4c 6f 3d
       -0.15955837 0.030044071 -0.09153167 0.058422364
000300 dd 10 5d 3d e9 4f 9b 3e da 66 2c be 86 87 f1 3d
       0.05397116 0.30334404 -0.1683611 0.11793427
000310 74 f7 ae bb 22 be 45 be b0 af 6d be 49 b4 d2 bd
       -0.0053395573 -0.19310811 -0.2321155 -0.10288293
000320 16 0e 07 3d d9 ef ee 3d 3d d6 39 3d 15 80 4a 3c
       0.032972418 0.11666841 0.04537033 0.012359639
000330 99 dd 9f bd c8 46 1d 3e 52 8b 12 3e 1d 1b 27 bd
       -0.07805938 0.15359032 0.14310959 -0.04079734
000340 60 c0 fd 3d 3a 96 f6 3d ac a2 0c 3e 1c 2c 0d 3e
       0.12390208 0.12040372 0.1373393 0.13786358
000350 ed b0 2d 3d cd 7d e7 bc d5 b1 26 3c 8f c4 10 bd
       0.042405058 -0.028258229 0.010174234 -0.035343703
000360 4f 80 39 bd 73 37 4c be 0b 1d 45 3e 4a 29 ef 3d
       -0.04528838 -0.19943027 0.1924936 0.11677797
000370 6c c5 05 3e d7 5b 5e 3c d3 d6 24 3d 7d 7a e3 bd
       0.13063592 0.013571701 0.040243935 -0.11107347
000380 ce 58 34 be 5f 24 a9 bd 48 4e 70 bc f2 e7 19 3e
       -0.17612001 -0.0825889 -0.014667101 0.15029886
000390 ba 9c af bd 9e 47 3a 3e 11 90 9e 3e a1 28 dd 3c
       -0.08574815 0.18191382 0.3096929 0.026996912
0003a0 65 2a d2 3c 5f d2 97 3c 8a ac f1 bd 72 2d 45 bc
       0.02565498 0.01853293 -0.11800487 -0.012034761
0003b0 52 37 d1 3e 60 36 ea 3d 02 52 b2 3d d3 f0 17 be
       0.4086252 0.114361525 0.08707048 -0.14837961
0003c0 f9 f1 b8 bd d9 5f e6 3d 50 af b6 3d 09 8c f7 3c
       -0.090305276 0.1124875 0.08920157 0.030218141
0003d0 a7 44 c7 bd 37 70 99 3d 2e 07 bc bc cd 83 eb 3c
       -0.09729891 0.074921064 -0.022952642 0.028749371
0003e0 77 bf f0 3d e1 ad 84 3d d9 4d 04 3c 5b 8d 6f bd
       0.11755269 0.06478477 0.008075201 -0.058484416
0003f0 bb d5 a4 3d 7a 9f 3f bd 56 08 9f 3e b6 3e b7 bc
       0.08048578 -0.046782948 0.31061047 -0.02236877

lstm.bias_hh_l0 f4 [256]
000000 04 64 a9 3b a4 7c 4c 3e c2 43 7c bd e8 a0 0a be
       0.0051693935 0.19969422 -0.061588056 -0.13537943
000010 ef 87 64 be a3 22 52 be c4 4b 1c bd 5c 3e 93 be
       -0.2231748 -0.20521025 -0.038158193 -0.28758514
000020 4f bc 37 be 0a 28 a0 bd 1c e5 0b be c4 4e 73 3b
       -0.17942928 -0.07820137 -0.13661617 0.0037125805
000030 0b 86 80 be 4b 64 44 3c ed 51 8a 3e eb be 20 be
       -0.25102267 0.011986802 0.2701563 -0.1569783
000040 cb d4 68 be 2f 00 d5 3c 68 35 0c be 59 5d be bb
       -0.22737424 0.026001064 -0.13692248 -0.0058094678
000050 ae a2 d9 bd cc 3f 9b bd fb 26 9c bc ce 81 9e bd
       -0.10626732 -0.07580528 -0.019061556 -0.07739602
000060 b8 fd b2 3d 70 4b 21 be 4a 09 70 bd 45 7c 80 be
       0.08739799 -0.15751433 -0.05860261 -0.2509481
000070 e0 d9 d2 bd c6 9d 37 bd 4e a0 b5 bd bb ae 59 bd
       -0.102954626 -0.0448282 -0.08868466 -0.05314515
000080 46 21 48 bd 82 0c 80 be 4f 77 38 3d e1 ef 07 be
       -0.048859857 -0.25009543 0.045035657 -0.132751
000090 7c b9 ca bd e3 3c 04 be 00 37 21 3e c4 a1 63 bd
       -0.098986596 -0.12913851 0.15743637 -0.055574194
0000a0 2d 31 84 3d 95 09 91 3c a8 21 04 be cb 9e 3e be
       0.06454692 0.017704764 -0.12903464 -0.18615262
0000b0 6b 32 d2 bd c3 d3 72 3c 6d 7b 67 bd a2 17 a6 bc
       -0.10263523 0.014820996 -0.056514192 -0.02027494
0000c0 f8 94 ae 3d f8 b8 50 3d c3 39 04 be ba f3 b8 bd
       0.08524507 0.05095765 -0.1291266 -0.09030862
0000d0 6b bd 95 bd 19 b3 8a bc 1d e0 25 3e 32 67 f4 3c
       -0.07311519 -0.016931104 0.16198774 0.029834364
0000e0 6c e8 21 3c 98 85 d9 bd 69 03 de 3d ae 3d 33 3d
       0.009882074 -0.10621184 0.10840494 0.043759994
0000f0 71 99 27 be 9f a7 a8 3d 93 1e 42 3e 84 63 f8 bd
       -0.16367127 0.08235096 0.18956976 -0.12128356
000100 15 d2 e5 3c 2d ca b1 3d 01 e2 62 bd d4 60 9d 3d
       0.028054276 0.0868114 -0.055391315 0.07684484
000110 96 6f bc 3e 9d ed df bc 3b a8 35 bd 0d 7b 8e 3c
       0.36803883 -0.027334983 -0.04434989 0.01739266
000120 bf 04 9f bd d8 dd 8f 3d 47 36 e1 3d 85 cd ab 3d
       -0.07764577 0.07024735 0.10996681 0.08388809
000130 ca 55 e9 3c d9 b5 20 3e 90 d0 33 3e f9 d4 41 3d
       0.02848329 0.1569437 0.17560029 0.047322247
000140 35 92 76 3e fe 02 b2 3d 7f 5f 01 3e ef 88 43 be
       0.24079211 0.08691977 0.12634085 -0.19095205
000150 bc 2e 32 3d e4 e6 96 3d c6 c4 5f be 50 8e 10 3d
       0.0435016 0.07368258 -0.21852407 0.03529197
000160 0e 0f 31 bd cf 75 de 3d 19 ed 91 3d 0c 23 31 bd
       -0.043227248 0.10862314 0.07125301 -0.043246314
000170 38 cd 1a 3d 33 fa b9 3d f3 67 7b bd 74 5c 7f 3e
       0.037793368 0.09080925 -0.06137843 0.24937612
000180 0d 09 9d bb 39 8a 8e 3c ed 65 9e 3c d7 a5 11 3e
       -0.0047923387 0.017399894 0.019335711 0.14223419
000190 ec c9 7c 3c 0c cf a0 bc 8f e3 50 3d 69 1a 8c 3d
       0.015429001 -0.019629978 0.050998267 0.06840975
0001a0 29 8b 42 3d 0a 1e 3d be 20 77 60 3e a4 e1 2f 3e
       0.047495995 -0.1846849 0.21920443 0.17175919
0001b0 b0 9f 46 3e 43 3c 98 bd 92 92 b7 bd 14 59 b7 3d
       0.19396853 -0.07433369 -0.08963503 0.08952537
0001c0 f4 d6 0d bd 5f 5f b0 bd c8 9e 51 be c9 55 9b 3d
       -0.034628823 -0.086119406 -0.20470726 0.075847216
0001d0 f6 af 0f 3e 2a a7 2a 3d b1 8c 3b 3e 5f 92 46 3e
       0.14031968 0.041663326 0.18315388 0.19391774
0001e0 5a 88 1c 3e ad 06 25 3e df a2 a8 3d 47 9d e2 3d
       0.15286389 0.16115828 0.0823419 0.110651545
0001f0 53 55 8c 3d dc 37 25 3e a3 8c db bd 0a 08 53 3e
       0.06852212 0.1613459 -0.10720184 0.20608535
000200 80 76 ec 3d 76 9b 5e 3e 3f 78 1b 3d b4 86 df bd
       0.115460396 0.21738991 0.037956472 -0.109143645
000210 97 ec 1c 3e 46 1e 88 bd 8c 9a 1b be 24 57 3f be
       0.15324627 -0.06646399 -0.15195674 -0.18685585
000220 95 de 26 bc e0 d7 3a 3d 07 84 66 3d 94 83 88 bd
       -0.010184904 0.04561603 0.056278255 -0.066657215
000230 7d 92 45 3d e9 41 a6 bd fa db 0e bd 4d a0 b2 bd
       0.048235405 -0.0811804 -0.034877755 -0.08721981
000240 ad 0c 03 bd 1d 74 04 3b 45 b2 b0 bd 1f 8c ff 3c
       -0.03199451 0.002021081 -0.08627752 0.031194745
000250 59 fc 9b bd 6b 34 43 3d 61 28 e8 bd ce 05 2f 3d
       -0.07616491 0.04765741 -0.11335827 0.042730145
000260 1f 75 d5 3d 7e bd 35 be 22 d4 06 be 14 c5 92 bd
       0.1042273 -0.17748067 -0.1316686 -0.07166496
000270 37 a2 80 3d 79 25 8b bd c3 da ba 3d 61 43 cb 3d
       0.0628094 -0.06794257 0.09123757 0.09924961
000280 f3 fe 00 3e 52 c3 63 be eb fa 4d 3d e3 28 57 be
       0.12597255 -0.22242478 0.050288122 -0.21011691
000290 d6 68 2e bd d0 ae f6 3c 53 c9 44 be bd 9b aa bb
       -0.042580448 0.030112654 -0.19217424 -0.0052065537
0002a0 67 bf 84 bd d3 68 9d bd dd 92 0e be 13 de 8a 3d
       -0.064818196 -0.07686009 -0.13923211 0.067806385
0002b0 e8 53 17 be 06 57 fe 3c 0a 36 bf 3c ae a9 b0 bd
       -0.14778101 0.031047355 0.023341198 -0.08626114
0002c0 db b6 0b 3e a1 07 97 bd 43 db b5 3d 3e 86 3a bd
       0.13643973 -0.07374502 0.088797115 -0.04553818
0002d0 b6 71 2f 3e 81 92 06 3d 9d 72 4f be bb d8 ab 3d
       0.17133221 0.03285456 -0.20258565 0.083909474
0002e0 59 32 3e bd 11 97 51 3e 6c 94 20 3e f9 4c 18 bc
       -0.046434734 0.20467784 0.15681618 -0.009295695
0002f0 e4 54 17 bd 2c ee 28 bd 6e 80 e3 bd 0c b3 27 3d
       -0.036946192 -0.041242763 -0.111084804 0.040942237
000300 d7 f9 e1 3d 3f b6 6a 3e fc 95 18 be c8 20 54 3e
       0.11033981 0.22921084 -0.14900964 0.2071563
000310 c8 7b fb 39 0d b1 58 be 2d 1d 61 be 3f 5f 25 be
       0.00047966675 -0.2116129 -0.21983786 -0.16149615
000320 55 c2 a4 bb 4f ec 10 3c c5 d1 1b 3e fd 00 01 3e
       -0.005028049 0.008845403 0.1521674 0.12598033
000330 92 92 88 bc 88 8a 16 3e a0 c6 73 3e b4 fa ae bd
       -0.016671453 0.14701283 0.23806238 -0.085439116
000340 2f 1b ab 3b 63 65 94 3d 3f 7a 34 bd c2 61 42 3d
       0.0052217464 0.072459005 -0.044061895 0.04745651
000350 16 f9 31 be 46 13 72 3d d6 ad 0b 3e a6 55 36 bc
       -0.17380175 0.05910041 0.13640532 -0.011128819
000360 56 89 ec bd 88 eb 3f bc 29 fa 28 3e d1 20 b7 3d
       -0.11549632 -0.01171387 0.16501679 0.08941806
000370 1e 15 00 3e 00 c5 c8 3d 86 31 52 bc 46 da 03 3c
       0.12508056 0.098032 -0.01282919 0.008047646
000380 5f 0c fa bd 12 d5 ec 3c dc ca 9e 3d d0 5a ff 3c
       -0.12209391 0.028910194 0.07753536 0.031171232
000390 41 82 cf bd 84 60 12 bd eb 64 6a 3e d3 77 95 3d
       -0.10132266 -0.035736576 0.2289006 0.07298245
0003a0 42 f2 16 be 3e ed c9 3c 07 ed 73 3d 47 90 15 3e
       -0.14740852 0.024649259 0.05955222 0.14605819
0003b0 1c 84 cc 3e 0d 57 9a 3b 5f 00 3a 3e 70 8d cf 3c
       0.3994454 0.0047100843 0.18164204 0.025335997
0003c0 21 a8 92 3d 5c 10 e2 3d 95 15 73 bd 5e c1 de bd
       0.07160974 0.110382766 -0.059346754 -0.108767256
0003d0 e7 c1 db bd 64 59 eb bb f9 04 ac 3b bd 44 04 3e
       -0.10730343 -0.007182287 0.005249616 0.12916847
0003e0 86 62 3c 3d 61 93 e6 3d d5 73 3c 3e b2 60 f9 3d
       0.045992397 0.11258579 0.18403561 0.12176646
0003f0 68 56 55 3e 79 a4 64 3d 4e b4 6e 3e 24 ee 00 bd
       0.20833743 0.055820916 0.23310968 -0.03147711

lstm.weight_ih_l1 f4 [256, 64]
000000 32 85 a6 bc 94 e9 0a 3f 1a 25 d9 3e 3c b6 88 bd
       -0.020327184 0.5426266 0.4241112 -0.066753834
000010 d8 50 4b be 44 50 89 be c4 88 13 bd 90 f3 1f bd
       -0.19855058 -0.2681905 -0.0360191 -0.03905064
000020 89 57 10 bd c0 84 b5 3e b5 3b 67 bd 61 8c 40 be
       -0.03523973 0.35452843 -0.056453425 -0.1880355
000030 ce 24 30 be bd ef 57 3e f4 37 f3 bc 5c f2 d3 3d
       -0.1720154 0.21087547 -0.029689766 0.10348961
000040 60 b7 7d be 3e 5e 1a be 7b 77 13 be 07 9f b7 bd
       -0.24776983 -0.15075013 -0.14401047 -0.08965879
000050 07 bf 15 3e 6f d8 17 3e ee e3 90 be 71 45 16 be
       0.14623652 0.14828657 -0.28298897 -0.14674927
000060 54 20 bc 3d bf a2 18 3d ae f0 9e 3d a1 53 05 3e
       0.091858536 0.03726458 0.0776075 0.13020183
000070 49 61 41 3d a5 6b 7b bd 11 1c d3 3e d8 8c 91 be
       0.04721192 -0.061381955 0.4123235 -0.28427768
000080 ac c5 62 be 73 f5 d9 bc f9 c6 84 3e ed 16 24 3e
       -0.22145718 -0.026606297 0.25933054 0.1602437
000090 8c a2 df bd e4 1c 15 be 57 f2 82 bd f9 c1 f5 bd
       -0.10919675 -0.14561802 -0.06393879 -0.11999888
0000a0 d0 8b 42 3e ac 99 8e bd 92 ad a7 bd 9b b4 10 be
       0.18998647 -0.06962904 -0.08187403 -0.14131396
0000b0 90 96 1d be 58 1d b0 3e 7c 96 d8 3d f4 cd 89 3e
       -0.15389466 0.34397388 0.105755776 0.26914942
0000c0 b7 67 d6 bc da 2e 5d 3d 4e 60 f3 3d 87 5a 43 3d
       -0.026172502 0.05399976 0.11883603 0.047693755
0000d0 42 14 b2 3c 11 a0 78 3e b1 ad 81 be 7e 40 d8 3d
       0.021738175 0.2427981 -0.2532783 0.10559176
0000e0 c1 22 83 be 90 cf 25 bd 8f fd 2d 3e 75 b4 50 be
       -0.25612453 -0.04048115 0.16991256 -0.20381339
0000f0 6c 5a 43 3e d3 04 62 be 25 e7 70 bd 59 12 05 3e
       0.19077462 -0.22072153 -0.058814187 0.1299528
000100 b7 2e 7d 3e 81 68 10 be 65 2c 94 3d 4f e9 63 3d
       0.24724852 -0.14102365 0.0723503 0.055642422
000110 ba 6f 8a 3b 81 a6 07 bd fb 35 0d bb d0 cc d8 bd
       0.0042247446 -0.033117775 -0.0021547067 -0.1058594
000120 e4 6f b1 3d bc 35 58 bd 64 1d 73 bd 71 76 76 be
       0.086639196 -0.05278562 -0.0593542 -0.2406862
000130 59 16 8b be a6 ae de 3d 6e ef a5 3e 2d ae 0e bd
       -0.27165487 0.10873155 0.32409233 -0.034834076
000140 35 6a 78 be 86 f3 18 be b0 a0 a2 3c b0 76 0b be
       -0.24259265 -0.14936647 0.019852012 -0.13619494
000150 fb ff 62 bc 61 9e d4 3d 40 6d 6f be 05 b0 43 3e
       -0.013854976 0.10381771 -0.2338152 0.19110115
000160 05 c8 63 3d a8 c6 fb bd 74 e1 c5 bd be ca 3e 3e
       0.055610675 -0.1229375 -0.096621424 0.18632028
000170 d8 e4 f4 bd de 50 5e be f5 45 6b 3e 1f ea fe 3c
       -0.11957711 -0.21710536 0.22975905 0.031117497
000180 9c 86 0b 3e b8 f3 af be d5 62 65 3c 93 1d 8c 3d
       0.13625568 -0.3436563 0.014000614 0.06841578
000190 ff 74 e6 bd 47 80 17 bd 06 a3 b4 bd 55 37 2a bd
       -0.11252784 -0.03698757 -0.08820157 -0.041556675
0001a0 0c 95 b9 bd 34 07 6f be 8b ba 9c bc a7 92 e4 3d
       -0.090616316 -0.23342592 -0.01913192 0.11160784
0001b0 1e 73 32 be 75 bb 45 be fa 75 e0 bd 00 9c 23 be
       -0.17426726 -0.1930979 -0.10960002 -0.15977478
0001c0 0d f3 b6 3e 19 d2 48 be 18 ab 13 3d c5 c2 07 3e
       0.35732308 -0.19611396 0.03605184 0.13257892
0001d0 cc ed dd bd 6d e2 bc bd 40 f7 f9 be 33 77 33 3e
       -0.10836372 -0.09222875 -0.4882145 0.1752594
0001e0 61 dc a2 bd e5 ba ec 3d 88 73 39 3b b4 28 fe bc
       -0.0795219 0.11559085 0.0028297622 -0.031025268
0001f0 70 51 8a bd fd d8 4e 3e 4a ea 74 bd 4e 74 f2 3b
       -0.06753814 0.20199962 -0.059793748 0.0073991185
000200 42 eb eb 3d ce 04 bb 3e c2 3f 7d bb 82 22 ff bd
       0.11519481 0.36527103 -0.003864274 -0.12457754
000210 46 01 cf 3d 62 01 7f be 9c 71 47 3a 5f 2b 8b 3e
       0.10107665 -0.24902871 0.00076081767 0.27181527
000220 a1 02 55 3e 72 84 98 3d 1a 3f 47 3e b8 70 36 be
       0.20801784 0.07447137 0.19457665 -0.17816436
000230 d4 e0 83 bc 4f c5 ac 3d dd 6b 87 3d 91 4a 27 3e
       -0.016098417 0.08436071 0.0661237 0.16337039
000240 91 ba 23 3d 58 f4 53 3d 13 54 3b bd 4e c3 97 be
       0.039972845 0.051746696 -0.045734476 -0.29641193
000250 1c c4 27 be 02 38 92 bc a2 80 cd bd ae d1 70 3d
       -0.16383404 -0.017848972 -0.100343004 0.058793716
000260 9c 99 99 3c bb 6b f9 bb b0 90 d3 bd f3 e7 1f bd
       0.018750004 -0.0076117194 -0.10330331 -0.039039563
000270 d6 f7 3b be c0 87 ad 3c 8b 91 4c 3e 8c b3 39 3e
       -0.1835626 0.021182895 0.19977395 0.18134898
000280 81 39 23 be e6 b7 21 be 6a 5a fd 3d 78 d4 d8 ba
       -0.15939905 -0.15792808 0.12370761 -0.0016542813
000290 15 be 8e be 8d bb 19 bd ee 58 00 be 2c 07 07 bd
       -0.27879396 -0.037532378 -0.12533924 -0.032965824
0002a0 47 b7 c3 bd 20 9c 6b bd d4 1f b7 bd fb ca 11 be
       -0.09556442 -0.05752194 -0.089416176 -0.14237587
0002b0 64 d4 a1 bd 8b 87 0e 3e ac 37 b4 bd e1 ca bb bd
       -0.079018384 0.13918893 -0.08799681 -0.091695555
0002c0 87 1d 38 be e4 7f 68 be 55 d9 5c 3d af 7a 7c 3d
       -0.17980014 -0.22705036 0.0539182 0.061640438
0002d0 db d6 d8 3d 82 ea e4 3d b2 43 a0 bb 6f 53 18 3e
       0.105878554 0.11177541 -0.0048908824 0.14875577
0002e0 3e 71 9b be 2a 6d 76 3e 0f 45 cb 3d a6 74 1a be
       -0.30359834 0.2406508 0.09925281 -0.1508356
0002f0 68 7c f1 bd 41 9b a9 3d e2 e6 33 be d9 00 55 3e
       -0.11791307 0.082815655 -0.17568544 0.20801105
000300 96 33 45 3e 08 df 9e 3e 30 d2 ff bd fd a9 8e be
       0.1925796 0.31029534 -0.12491262 -0.27864066
000310 a6 b5 eb 3e bc 76 fd bd a5 9f 80 3e f5 14 23 be
       0.46037024 -0.123761624 0.251218 -0.15925963
000320 39 bc 9f 3d 3e c8 11 be 23 d5 64 3e 1e 87 0d 3c
       0.077995725 -0.14236543 0.2234693 0.0086381715
000330 5e 05 be be 12 bb 54 3d e7 5d c6 3e f9 17 8e 3d
       -0.3711347 0.051936217 0.38743517 0.06938166
000340 8b 22 a3 be c6 a2 1a be 7d ac 8a 3d 89 5e e8 bc
       -0.31862292 -0.15101156 0.06771181 -0.02836539
000350 54 7f 1d be 2b 54 bb 3e 4f 5e 0d be 01 4f ba bc
       -0.15380603 0.36587653 -0.13805507 -0.02274275
000360 58 6b b8 3e ef e4 d2 bd bd bc da bd 0d 44 67 3e
       0.36019397 -0.10297572 -0.1068053 0.22584553
000370 4f 4d 8f 3e b9 3d f7 bc 6e a8 21 bd b9 66 47 3e
       0.2798867 -0.030180799 -0.039467268 0.1947278
000380 77 66 5a 3e 7f 97 57 be b8 cc a3 3d 31 6a 30 3e
       0.2132815 -0.21053885 0.079980314 0.17228009
000390 dc fc b9 be e3 b8 95 3e 59 53 38 3e b5 c7 b5 bd
       -0.3632573 0.2924262 0.18000545 -0.08875982
0003a0 d9 0f b2 be 4c 48 83 be 7d 12 27 bd 81 2b 69 be
       -0.34777716 -0.25641096 -0.040789116 -0.22770502
0003b0 16 d7 39 3d da 56 b5 bc 2a 6e e3 3d c0 33 35 3e
       0.045371138 -0.02213614 0.111049965 0.17695522
0003c0 1c 83 47 3e a2 6f 35 be 93 e6 a7 3e a7 c9 fd 3d
       0.19483608 -0.17718366 0.32793102 0.12391978
0003d0 33 cd 98 3d 18 54 67 bc 0c f6 0e bf a2 ee 20 3e
       0.07461014 -0.014119171 -0.5584419 0.15716031
0003e0 1a 4a 0b be 2d 35 c0 3d 26 04 cd bd cf 6a 15 bd
       -0.13602486 0.093851425 -0.10010557 -0.036478814
0003f0 89 12 0f be d4 3f e5 3e ac 0e 9a 3e 9b 3b d3 bd
       -0.13971914 0.4477526 0.3008932 -0.10314103

lstm.weight_hh_l1 f4 [256, 64]
000000 cf 2b 11 be 28 73 49 3e d1 56 3d 3e 5e 7f 7b 3d
       -0.14176868 0.19672835 0.18490149 0.061400764
000010 0b 4f e3 3b cb 27 7a bd 2a e7 14 be 65 1f 55 3c
       0.006936913 -0.061073106 -0.14541307 0.013007973
000020 ae 09 9b 3d e1 d8 13 be a3 65 23 bd 97 6b 86 be
       0.07570206 -0.14438201 -0.03989185 -0.2625396
000030 97 8a c0 3e 91 b8 0c 3d 04 cb 8c bc 2c c7 c1 bd
       0.37605736 0.034355704 -0.01718665 -0.09461817
000040 0b ef 15 bd c5 cf 15 bd 75 07 66 3d d2 91 3d 3e
       -0.036604922 -0.036575098 0.056159455 0.18512657
000050 77 13 0e bf 18 bd e7 be 05 b2 4f bd b8 dc 01 3e
       -0.5549845 -0.45261455 -0.050706882 0.12681854
000060 7f 98 87 be ed 7e 9c bd ad 6f 82 3d 47 3d 59 bd
       -0.26483533 -0.07641397 0.06368957 -0.053036954
000070 27 f7 69 be 69 67 be bd 36 f9 c1 3d 69 2c e9 3d
       -0.22848187 -0.09297068 0.09471361 0.11385424
000080 20 5f cc bd 2c 02 63 3d 7d 67 c6 3d 48 f6 15 3b
       -0.09979081 0.055421993 0.096877076 0.002288239
000090 e6 cd c5 3c d7 a7 9e 3b 44 3f 1f 3e 81 3b 3f 3e
       0.024146032 0.0048417854 0.15551478 0.18675043
0000a0 86 4e 2c 3e ee 49 04 be 9d da 4c bd 94 01 19 bd
       0.1682683 -0.12918827 -0.050013173 -0.03735502
0000b0 58 f6 01 bd ae f5 81 be ca 4c 3f 3d 5b 27 0d be
       -0.031729072 -0.2538275 0.04670409 -0.13784544
0000c0 49 35 cc bd c6 4f 87 be f9 c6 6a be 29 65 c5 3c
       -0.09971101 -0.2642805 -0.22927465 0.024096088
0000d0 c6 72 6b 3e 77 87 04 3d e2 cd d1 bd 77 d6 32 3e
       0.22993001 0.03235575 -0.10244347 0.17464624
0000e0 e5 14 b5 3e 8e ac e5 3d 15 c8 03 bd 42 e6 af bd
       0.35367504 0.11214553 -0.032173235 -0.0858884
0000f0 a4 4a 8e bd 51 77 70 be af 8a f7 be 66 64 f1 3d
       -0.0694783 -0.23483016 -0.48347995 0.117867276
000100 12 44 97 3e 81 83 aa 3d 59 93 17 3e 3c b5 22 3e
       0.2954412 0.08325864 0.14802302 0.15889448
000110 3f 8f 2c 3c b5 43 a7 3d a5 eb ec bb 7e 18 0a be
       0.010532199 0.08167211 -0.0072302395 -0.13485906
000120 28 fe 3e be 40 a5 b2 bd e0 3c 94 bd 69 20 8d bd
       -0.1865164 -0.08722925 -0.072381735 -0.06890947
000130 6b 41 ec 3a b6 3f 44 3e d4 ad 56 bd 49 79 dc bd
       0.0018024867 0.19164929 -0.05241187 -0.10765321
000140 e3 d6 3a 3e fa 0b e4 3d 58 80 ea bd d6 68 46 3c
       0.18246035 0.11135097 -0.11450261 0.012109956
000150 db 3d 89 3d f8 b8 fa bd 5c 82 c1 bd 62 4e 9b 3d
       0.06701251 -0.12242311 -0.09448692 0.0758331
000160 43 b3 91 3e 0d d0 02 3b e7 6a e9 3d bc 31 29 3d
       0.28457078 0.0019960434 0.11397343 0.041307196
000170 8f 0c 9d 3d db 45 b0 3d 0d f5 4a be c5 cb 8c bd
       0.07668411 0.08607074 -0.19820042 -0.068748035
000180 63 35 91 be f9 43 e8 3d 17 b2 e6 bc df 00 eb bd
       -0.28361043 0.1134109 -0.028161092 -0.114747755
000190 e6 15 1f 3d fd 48 f6 3d de e2 be bd 0f d7 3b bd
       0.038839243 0.1202564 -0.09320615 -0.045859393
0001a0 dc 9c 41 be 3e 25 cb bd d9 90 1f be 80 12 bf 3d
       -0.18907493 -0.09919213 -0.15582599 0.093297005
0001b0 6f 63 56 3e 17 89 01 3e c0 04 ab bd a9 e6 33 3e
       0.20936368 0.12649952 -0.08350515 0.17568459
0001c0 67 86 3a 3e 71 3b 12 bd 08 3e eb 3c d7 ca 2e 3e
       0.18215333 -0.03570122 0.028716102 0.17069565
0001d0 56 5a c4 3d b6 46 53 bd 62 87 94 bd 35 82 32 be
       0.09587543 -0.051581107 -0.07252385 -0.17432483
0001e0 82 d1 df 3c 43 bd 37 be 98 c0 2e be 38 aa 51 3e
       0.02732158 -0.17943291 -0.17065656 0.2047509
0001f0 cd dd 09 be 0e 03 36 be 50 8c df 3d e8 9e bd 3d
       -0.13463517 -0.17774603 0.10915434 0.092588246
000200 d9 14 94 3e 96 6d a4 bd 56 20 70 3e ca 54 df bd
       0.28922155 -0.08028714 0.23449835 -0.10904844
000210 8d 8c f1 3d 16 f4 8f bd 19 4c 4a be e8 b8 6e 3c
       0.11794386 -0.070289776 -0.19755591 0.014570452
000220 a8 8c d3 3d c9 2b 90 3d 48 f0 09 be 98 5c 1e be
       0.103295624 0.07039601 -0.13470566 -0.15465009
000230 63 cc c0 3c 69 fc 3f bd e4 e5 36 bd 8b da 14 be
       0.02353496 -0.046871576 -0.044652835 -0.14536493
000240 71 c8 1e 3e 0c ca 13 be 3c 3a 11 be a5 1a 56 bd
       0.1550615 -0.14432544 -0.14182371 -0.052271504
000250 4a 75 02 3d e7 2b a0 be 27 71 a0 bd e2 c6 be 3d
       0.031850137 -0.31283495 -0.07834082 0.09315278
000260 f1 6f 7a bd 34 70 62 3c c3 36 55 be 31 48 75 3e
       -0.061141912 0.013820697 -0.20821671 0.2395332
000270 bc 83 a6 bd 30 bd fa bd b0 78 cc 3d d1 3a f0 3d
       -0.08130595 -0.12243116 0.09983957 0.11729968
000280 f6 4b 48 be dd ac 3c 3e 14 95 04 3d 36 fb 34 be
       -0.19560227 0.18425317 0.032368734 -0.17673954
000290 80 46 4e be cb 97 e6 3d 36 2b 67 bd b5 63 0f 3e
       -0.20144081 0.11259421 -0.056437694 0.14002879
0002a0 e9 33 d4 3d 34 d5 39 be 3d 7b 3d be f9 41 9c 3d
       0.103614636 -0.18147737 -0.18504043 0.07629771
0002b0 de dc 8b 3d 89 f2 e7 bd 6c 54 42 3e 05 74 e1 bd
       0.068292364 -0.11325557 0.18977517 -0.11008457
0002c0 9c 31 04 3e 67 d9 e3 3c 72 07 13 be f7 e2 b3 3d
       0.1290955 0.027813626 -0.14358309 0.087835245
0002d0 48 9f 0e 3e 7e 1d 54 3e 2d ff 67 3e bf 6b f3 3d
       0.13927948 0.20714375 0.22655936 0.11885785
0002e0 10 8d a1 3e f5 f1 a2 bd 71 2d a2 bc 9a 41 1c 3e
       0.31552935 -0.07956306 -0.019797059 0.152594
0002f0 f3 18 c5 bd c1 7b 9a 3c da 5d 85 3c 8b 61 cd bb
       -0.09623899 0.018857839 0.016280103 -0.0062677315
000300 4c 4e ba 3d d1 5f 18 be 6b 48 f3 3d 06 1e c7 bd
       0.09096965 -0.14880301 0.11879047 -0.097225234
000310 e8 c0 1a be 86 7e 9d 3d 8c 5a 7f 3e 9b 4f a3 3c
       -0.1511265 0.07690148 0.24936885 0.01993542
000320 4f cf a8 3d 4c be 3d bc d0 db aa 3d bd 65 1a be
       0.08242666 -0.011581015 0.08342707 -0.15077873
000330 86 e5 86 be 6e 6a 4d 3d db 88 6d 3e 01 12 1b 3d
       -0.26346987 0.050150327 0.23196737 0.037858967
000340 44 9a 33 bc 6c 5d 6e 3c 36 42 30 be 58 9e ec 3d
       -0.010962073 0.014548641 -0.17212757 0.11553639
000350 7d 09 d1 bd e2 0e 2f 3e c5 f8 a9 bd 7a a8 f6 bc
       -0.10206888 0.17095521 -0.08299402 -0.030109633
000360 05 01 50 3d fb 5a 90 3d bc 24 b6 bd 3d 33 17 be
       0.050782222 0.07048603 -0.08893725 -0.1476564
000370 ac 28 05 3e 91 5a 46 3d e5 d4 dd bd 55 9b 3e 3e
       0.13003796 0.048426215 -0.10831622 0.18613942
000380 03 ae 0d bd 34 3c 89 be 16 46 20 3e fc 11 c2 3d
       -0.03458978 -0.26803744 0.15651736 0.094760865
000390 7e ab 85 3d 67 b7 cf bd 69 c5 0a 3e 87 0d 27 3e
       0.0652685 -0.10142403 0.13551868 0.16313754
0003a0 d4 0c dc 3d db e0 0e 3e d1 f6 ad bd 11 28 10 be
       0.10744634 0.13952963 -0.08494342 -0.14077784
0003b0 a5 c7 22 3e ec e9 9f 3d 0b 05 be bd 74 cb ce bd
       0.15896471 0.07808289 -0.092783056 -0.10097399
0003c0 e8 aa 58 bd 95 3e ec bd 92 de ec 3d 5e 49 43 3e
       -0.052897364 -0.11535374 0.115658894 0.19070956
0003d0 94 25 80 be 8e 6d 54 3e 3f c5 07 bb cd a3 c8 3c
       -0.2502867 0.20744917 -0.0020716933 0.024492169
0003e0 a0 7e 17 be 75 84 5f bc 2d ae d0 ba 21 11 ea bd
       -0.14794397 -0.01364242 -0.0015921049 -0.11429048
0003f0 54 ea 83 be 2f 96 2f 3e a3 14 57 bd ca d1 d3 bd
       -0.25764716 0.17147134 -0.052509915 -0.103427485

lstm.bias_ih_l1 f4 [256]
000000 cb 00 22 be 80 66 25 be 45 2a 27 bc 62 ea 2b b9
       -0.15820615 -0.16152382 -0.010202949 -0.00016395145
000010 97 82 22 bd df 6f 72 be d4 8f ee bd 50 eb 22 3c
       -0.03967532 -0.23675488 -0.11648527 0.009943798
000020 1c 9e b2 3d f6 c0 c7 3d 38 c3 42 bd b9 94 3c be
       0.08721563 0.09753601 -0.047549456 -0.18416108
000030 f0 dc cb 3c 14 16 34 be 53 eb b3 3b 2a 2a 1b be
       0.024885625 -0.17586547 0.0054906993 -0.15152803
000040 3b df 16 be fa f2 ca bc f4 4c 9e 3b 67 3b aa bc
       -0.14733593 -0.024774063 0.004830951 -0.020780278
000050 c3 a8 cc bd 0d e7 ce 3d fa 19 a8 bb fd df c2 bd
       -0.09993126 0.10102663 -0.00513005 -0.095153786
000060 c1 7a 6d 3e a9 3b a5 bc 2c 58 88 3e d0 9a c1 bd
       0.23191358 -0.02017005 0.2662977 -0.09453356
000070 85 94 86 3e 4d 18 ae be c0 d0 e9 bc 34 6a 82 be
       0.26285186 -0.34002915 -0.028541923 -0.25471652
000080 73 92 4f 3e a7 05 0d be d2 70 0e be 9c 12 83 3d
       0.2027071 -0.13771687 -0.13910225 0.06400034
000090 13 c1 5f be ff b8 df bd ef 8a 30 be ea 7d b1 3e
       -0.21850996 -0.10923957 -0.17240499 0.34666377
0000a0 14 1f 83 bd 66 a4 fd 3e 3d da 8d bd b6 be 3a 3d
       -0.06402412 0.4953949 -0.06926391 0.045592032
0000b0 0a 5a 61 bc ad d7 aa bd de 25 b9 3d 1b 73 27 3f
       -0.013754377 -0.08341918 0.09040426 0.6541001
0000c0 b7 7b 2a be f1 47 d0 bd 14 7f 33 3e 92 08 76 be
       -0.16648756 -0.10169972 0.17528945 -0.24026707
0000d0 b9 ab e2 bd 1a e9 61 3f ab 7a 0d 3c ee 01 dc 3d
       -0.1106791 0.8824631 0.008635203 0.107425556
0000e0 98 28 e6 3e 85 18 3f be 3c 43 8f be 38 c3 23 be
       0.44952846 -0.18661697 -0.27980983 -0.15992439
0000f0 a7 98 74 3e 00 66 41 3c 1a b4 23 3f 23 a3 5c 3b
       0.23886357 0.011804104 0.6394669 0.0033666573
000100 24 b6 22 3e d5 10 66 be 53 b5 c5 3d 79 34 b4 bd
       0.15889794 -0.22467358 0.096537255 -0.08799071
000110 5d 06 14 3e 3b 52 86 bd 7d 46 94 bd 63 6e 89 be
       0.14455552 -0.06558653 -0.07240007 -0.2684203
000120 9c 14 76 be 54 fc a8 be 25 0f a5 bc e9 9f bb 3d
       -0.240313 -0.3300501 -0.020148823 0.0916136
000130 3c 8a f7 3d c6 e8 81 3e 97 64 31 3e 46 d8 cf bd
       0.12086913 0.25372905 0.17323528 -0.10148673
000140 32 dd b5 ba 10 ea 65 3e 5b 08 da ba ea 79 9e 3e
       -0.0013875125 0.22452569 -0.001663457 0.30952388
000150 b9 68 35 bd 25 a7 ba bd 8d ec 29 be 4f 7d bb 3d
       -0.044289324 -0.091139115 -0.16594143 0.0915476
000160 ec 18 d7 be 94 e6 07 3b c5 dc cd bd 84 3f 80 be
       -0.420112 0.00207368 -0.10051874 -0.2504846
000170 7f 5a 15 be 18 cc 40 be 3c fe cc 3d 50 8c 27 be
       -0.14585303 -0.18827856 0.10009429 -0.16362119
000180 0e 74 31 be 9f 82 80 be 5e 06 57 be 11 0d 6e bd
       -0.17329428 -0.25099656 -0.20998523 -0.05811793
000190 f4 6a 77 be 55 a0 81 3e 61 d6 71 3d c4 0a d9 be
       -0.24161893 0.25317636 0.05904234 -0.42391026
0001a0 c3 60 86 bd 92 9d 86 bd f8 c5 49 3e 1b 81 1b bd
       -0.065614246 -0.06573023 0.19704425 -0.03796492
0001b0 57 78 0f 3e 70 c5 8f 3d 21 cd 4a be ab e2 9f be
       0.1401075 0.0702008 -0.19804813 -0.3122762
0001c0 f1 c9 d3 bd da 7e fc bd 50 a8 b8 bd fc 3d 61 be
       -0.10341252 -0.123288825 -0.09016478 -0.21996301
0001d0 40 0a bf 3d 08 71 a3 be a9 ec fd 3d e9 3f bb 3c
       0.09328127 -0.31922174 0.12398655 0.022857623
0001e0 d1 bd 8e be 93 b9 87 bd cc f1 b5 3c ba dc a8 3d
       -0.27879193 -0.06627192 0.022210024 0.08245225
0001f0 25 5d 0c be 58 1a 38 bd 43 bc 94 be 32 0d 7c be
       -0.13707407 -0.044947 -0.29049882 -0.24614409
000200 78 3b b8 3d cc 3c 35 3e 46 85 ee 3d db 34 13 3e
       0.08995718 0.17698973 0.11646514 0.14375632
000210 ad a6 4e be ca 23 9d bd d4 f7 04 3c db 0e 2b 3d
       -0.2018077 -0.07672842 0.008115727 0.041762214
000220 11 01 9f 3c af 53 0c 3d 34 a9 e6 3d e0 9c 22 be
       0.019409688 0.034259494 0.11262742 -0.15880156
000230 f5 76 bb bd 53 5c 3a be 34 74 b7 3d ef 05 1b 3e
       -0.09153549 -0.18199281 0.08957711 0.15138982
000240 f6 1e ea bd 9a 71 1a 3e 03 77 67 bd 8d 06 ec 3d
       -0.114316866 0.15082398 -0.056509983 0.11524687
000250 7e 20 ed 39 00 8d c4 ba 58 95 29 bd 50 a4 6b 3e
       0.0004522837 -0.0014995635 -0.04140219 0.23011899
000260 2b 3c 61 3c c4 b6 61 be 90 09 fa 3d b1 eb 92 bd
       0.013747255 -0.22042376 0.12208855 -0.07173861
000270 8c 4d 0f bd e3 45 f1 3d 1f d2 a8 bd e2 fc e5 bd
       -0.034986064 0.11780908 -0.082432024 -0.11229874
000280 88 6a 2d 3e 24 7e f2 bd cc 88 0f 3e 90 c7 8f 3d
       0.1693517 -0.11840466 0.14017028 0.070204854
000290 5f 14 c7 3b a4 2b 2f be fa e0 2b 3e 6a 08 15 3e
       0.0060754265 -0.17106491 0.1678504 0.14553991
0002a0 97 5a 12 3e d3 64 14 3e 52 08 e9 3d 1a dc da bc
       0.1429237 0.14491586 0.1137854 -0.02671628
0002b0 0d b9 f0 3d 9b d2 54 bd 49 31 03 3d b5 81 00 be
       0.11754046 -0.05195866 0.032029424 -0.1254948
0002c0 0f c0 3f be 93 63 8d bd 82 91 fb bd 8d dc ff bd
       -0.18725608 -0.06903758 -0.12283613 -0.124932386
0002d0 80 56 25 be d0 df d4 3d c4 80 30 be 22 21 51 3e
       -0.16146278 0.10394251 -0.1723662 0.20422795
0002e0 fb c2 a6 3d ae 06 6c 3e b9 be 23 3e 07 a4 49 be
       0.08142658 0.23049423 0.15990724 -0.19691478
0002f0 fb 15 35 be ff be 2d be be c3 13 be 82 ab a9 3d
       -0.17684166 -0.1696739 -0.14430138 0.08284666
000300 58 f4 07 bd 40 35 50 be cc c1 98 be 2d cc b0 bd
       -0.03319201 -0.20332813 -0.29835355 -0.086326934
000310 52 c5 d7 bd c4 4a 01 be 34 6d 00 be fa 6c 11 3e
       -0.10535683 -0.12626177 -0.12541658 0.14201728
000320 3a a4 97 3e bf 20 d9 bd 9b a3 15 be 5d 57 cd bd
       0.29617482 -0.10601949 -0.14613192 -0.10026429
000330 b6 69 3d 3e 63 01 e1 3d 59 92 a8 3d 1e f7 2f be
       0.18497357 0.109865926 0.082310386 -0.17184111
000340 e7 90 14 bd 02 69 59 3d da 32 5d 3d fa 11 37 be
       -0.036271002 0.05307866 0.054003574 -0.17877951
000350 eb 5b 54 3d 04 be a5 3e c5 29 26 be 27 51 89 3c
       0.051845472 0.32371533 -0.16226871 0.01676233
000360 9c 3c bc 3d 10 76 c8 bd 61 74 b1 3e 68 df 9a bc
       0.09191248 -0.09788144 0.34659103 -0.018905357
000370 92 f2 a5 3e 0c 1d 96 be a7 0e a5 bb 72 ff 19 be
       0.3241163 -0.29319036 -0.005037147 -0.15038851
000380 d4 4b c0 3e 14 35 5d be ba 94 ed bd 67 9c c5 3c
       0.37557852 -0.21602279 -0.11600633 0.02412243
000390 5b 76 a9 bd cf a1 2b 3e 69 39 bb 3c d7 cf c7 3e
       -0.08274528 0.16760944 0.022854524 0.39025757
0003a0 6e 0e 6a bd d3 ec ea 3e f0 16 05 be 7b 5f b5 bd
       -0.057142667 0.45883808 -0.12997031 -0.08856102
0003b0 4c 47 70 3d 0e ae 6f 3d 96 68 f0 3d db 2d 30 3f
       0.058661744 0.0585156 0.11738698 0.6881997
0003c0 08 68 b3 bd 50 b6 a7 3c dd f1 ef 3d 8c 9d ce bd
       -0.08760077 0.020472676 0.11716054 -0.100886434
0003d0 51 c2 4c be 36 c2 52 3f 62 cc 79 bd ab bc cf 3d
       -0.19996001 0.8232759 -0.06098593 0.101434074
0003e0 b6 dc e8 3e 0d c0 b2 be fe 84 54 be 40 44 0c 3e
       0.4548089 -0.34912148 -0.20753857 0.1369791
0003f0 7d 08 93 3e 3f 18 d7 bb ff 74 1f 3f 7c bd 53 3d
       0.28717414 -0.0065641697 0.62287897 0.05169438
