Models/Precipitation_Models/amman_precipitation_model.pth (torch, 224095 bytes, 11 tensors)

lstm.weight_ih_l0 f4 [256, 11]
00000000: 6696 35bd 9478 0f3e bfae 5fbd 2c99 fa3c
00000010: 3d2c 01be ac28 59be 6b09 f83d 9e9c d0be
00000020: 6896 37bd 94cf 92be f7c5 263e 888e a73d
00000030: f14e ce3e f9a9 2fbe 51b7 febd 91f8 7d3d
00000040: 8421 3ebe d5f3 3fbd c23f 4abe f94f 483e
00000050: af56 0abe 4d22 d8be 0708 3e3e c32a 00bd
00000060: ff9f 193e fae9 9c3d c934 5abe be52 c3bd
00000070: 4b53 94be 2aaa 8abe e46e 343d 4d2f debe
00000080: c305 ca3d d284 08be 3710 a9bc e211 663e
00000090: efb0 693e 1ccc 27be 0d6a 433e 5781 47bd
000000a0: a579 a4be 4251 b73e d6b0 a4bd a76c 84be
000000b0: 5386 76be 6ff1 943e dff7 d1be 0393 7e3e
000000c0: bca0 bb3c 1d6a 4fbd 87e9 96be 2c58 41be
000000d0: 2b49 1ebe afb9 913d 3969 72be 8364 0abe
000000e0: 9277 68be 5bce 3e3d 80ba a23d 4654 6abe
000000f0: 22b3 543c 5f8a 91bd 4a62 cd3d 218a 273c
00000100: 7159 c2be 2672 013e d208 a53d d570 91bc
00000110: ff7a a33d ca8d 983e 4039 8abe 0010 d7bd
00000120: dea6 11be a968 983e e004 9cbd f13a 30be
00000130: 1601 5cbc 488e 57bc 8363 9e3d d3e5 56be
00000140: 578e 623d 326e 7abe aad8 413e 8eb2 dd3e
00000150: c736 983c 17bf 90be da4c 4e3c 99a5 c6be
00000160: b7a9 f1be 1f83 3dbe e505 a1bd 16c6 9bbb
00000170: 1c4e ccbe 0ee1 813e c26e 11be 6c27 fc3d
00000180: 51e0 a1bd 8020 1b3d 2dd8 89bd 39ac d73e
00000190: 89bc 8abd c98e 803e 8640 983c cdda a0be
000001a0: e58e a8bd 8d62 ba3e be1e 20be b7d2 f53e
000001b0: 4d6d 73be a706 9abe a2be 923d e1ae 183d
000001c0: 90bd 823d 5a91 923e d4d9 8fbe 7cdd 7bbe
000001d0: 5d84 c0be 51b9 4e3d 35b3 653e c10c b33e
000001e0: 1dba e2bd 5967 68bc f16b a23e 17a5 eabe
000001f0: ae57 d4be bb00 45be e67d f83e 24c2 ae3d
00000200: 358a 083e 4ad0 8fbd ccf7 82bb 69c2 d6be
00000210: 6e3e 93be 9cbb 1a3e aa49 7cbe c20f ec3e
00000220: 5b64 a3bd 3d88 14be 329d aebe 69ff 0bbe
00000230: 5616 5ebd ceca 56be e0ab 1bbe 5a77 593e
00000240: 7c81 543e 1ba4 25be 4bc5 133e a215 8e3d
00000250: 1cf7 b3bd a84a d43e 89f4 ff3d db4a 473e
00000260: a723 a6bd a859 43bd 576e 323f cc1b c73d
00000270: cc53 203e 7f16 47be 4e4d 16bd a8db a7bd
00000280: e36a d73e 98d9 f03d 3b8c 97be a64d 75be
00000290: b64d a1bc 2792 e33e 7010 ad3d eb03 afbd
000002a0: 2cc3 74bd 14a7 5bbe b77d 843e a415 1abc
000002b0: 1464 fc3e 0dbb 933d b41c ee3d a656 b93d
000002c0: b098 09be a085 a6bc 8633 283e 5836 30be
000002d0: d280 18be 94c2 7a3c d30b 2bbd 5d12 393e
000002e0: e88c 39bd 99ac 6ebe 6c83 27bd 772f 113e
000002f0: 6aea 9f3d df25 69be b3d5 cd3e adf2 5cbd
00000300: 7438 4ebe 3617 c2be d68e a43e d332 713e
00000310: 94bf bebb 5731 62be cdc6 773d baf6 5f3e
00000320: c8c2 5cbe 6723 58be 6f5a a83d d16d 803e
00000330: bef6 33be a9cf 05bb 9174 97be 0bd9 813e
00000340: 9901 323e 5686 45be 9b49 86bd 0903 6bbd
00000350: 20d8 e2bd 91b1 09be ccc1 2ebe 8522 523e
00000360: f911 09bf 22a9 943d 0398 ccbe 54a0 90bd
00000370: c7b3 4fbe f582 be3d be3e 69bd 312f ef3d
00000380: c465 9f3d b861 1fbe 0c9f d5bd 653e 7c3d
00000390: 8c3c 2c3e f493 85be f801 84be 3faf 763e
000003a0: 5774 203b d892 a03c 8d54 a33e a34d 233e
000003b0: 1d04 0f3e 8d39 e73d cb28 193f a444 8abe
000003c0: 0892 123e 5cdd 3a3d 1443 c03d 12cd b73e
000003d0: 69c0 3dbe e1f5 cfbe 2a01 d43c 9dbf 1cbe
000003e0: 041e c9be d921 a13d 3ab5 183e 7086 c2be
000003f0: 5c25 10be a6fd 17bd b8e0 8f3c 8630 3ebd
-0.044332884 0.1401084 -0.05461001 0.030590616 -0.12614532 -0.21206921 0.12111171 -0.4074449
-0.044821173 -0.28673995 0.16286455 0.081814826 0.40294603 -0.17154683 -0.124373086 0.06200463
-0.18567473 -0.046863396 -0.19750884 0.19561757 -0.1350963 -0.4221367 0.1855775 -0.03129078
0.1500244 0.07661815 -0.21309198 -0.09537266 -0.28969797 -0.2708295 0.044051066 -0.43395463
0.0986438 -0.13331917 -0.020637615 0.22467759 0.22821401 -0.16386455 0.19083424 -0.048707332
-0.32124057 0.35804182 -0.08041541 -0.25864145 -0.24074678 0.2909045 -0.41009423 0.24860768
0.022903793 -0.050638307 -0.29475042 -0.18881291 -0.15457599 0.071154945 -0.23672952 -0.13514905
-0.22701862 0.046583515 0.07945728 -0.2288371 0.012982162 -0.0710647 0.10028513 0.010225804
-0.37958863 0.126412 0.08058323 -0.017753998 0.07982444 0.29795676 -0.26996803 -0.10501099
-0.14223811 0.2976735 -0.07618117 -0.17209984 -0.013427993 -0.013156481 0.07733824 -0.20986108
0.055311527 -0.24456099 0.18930307 0.4330029 0.018580807 -0.2827079 0.012591565 -0.38798216
-0.47199795 -0.1850705 -0.078624524 -0.0047538383 -0.39903343 0.25367016 -0.14202407 0.123122066
-0.07904113 0.03787279 -0.067306854 0.42123583 -0.067742415 0.25108936 0.018585455 -0.31416932
-0.0823038 0.36403313 -0.15636727 0.48012325 -0.23772164 -0.300832 0.071652666 0.037276153
0.063838124 0.2862652 -0.28095877 -0.24596208 -0.37600985 0.0504697 0.22431643 0.34970668
-0.110706545 -0.014184796 0.31722978 -0.4582908 -0.41473144 -0.1923856 0.48533553 0.08533123
0.13333972 -0.0702215 -0.003996825 -0.41945198 -0.28758568 0.1511063 -0.24637476 0.46105772
-0.07978126 -0.14505096 -0.34104306 -0.1367165 -0.05422052 -0.20975801 -0.15202284 0.21236935
0.2075252 -0.16175883 0.1443073 0.0693772 -0.08787367 0.41463208 0.12497813 0.19462149
-0.08112269 -0.047692925 0.69699615 0.09722099 0.15656966 -0.19442175 -0.036694817 -0.08196193
0.42073736 0.11760253 -0.29599175 -0.23955402 -0.019690376 0.44447443 0.08450401 -0.08545669
-0.059756443 -0.21450454 0.25877163 -0.009404574 0.49295104 0.072134115 0.116265684 0.0904973
-0.13437152 -0.02032739 0.16425905 -0.1720823 -0.14892891 0.01530518 -0.041759323 0.18073411
-0.045300394 -0.23308028 -0.040896818 0.14178263 0.07808383 -0.22768353 0.40202102 -0.05394237
-0.20138723 -0.37908334 0.32140225 0.23554544 -0.0058211777 -0.22089134 0.060492326 0.21871462
-0.21558678 -0.21107255 0.08220374 0.25083783 -0.17574593 -0.0020417965 -0.2958112 0.25360903
0.17383422 -0.19289526 -0.06557008 -0.05737594 -0.11076379 -0.13446642 -0.17066115 0.2052098
-0.5354305 0.07258822 -0.39959726 -0.0706183 -0.20283423 0.09302322 -0.0569446 0.11678923
0.07783082 -0.1556462 -0.104307264 0.06158294 0.16819972 -0.26089442 -0.25782752 0.24090289
0.0024483406 0.01960127 0.31900445 0.15947585 0.13966413 0.11290274 0.5982787 -0.27005494
0.14313519 0.04562126 0.09387794 0.35898644 -0.1853043 -0.40617278 0.025879461 -0.1530747
-0.39280713 0.07867784 0.14912882 -0.37993193 -0.14076751 -0.037107132 0.017563209 -0.046432994

lstm.weight_hh_l0 f4 [256, 64]
00000000: 8413 8a3e cba9 6c3b cdc5 eabd 566f 283e
00000010: 480d ed3d 4691 963e 5a53 223c 23f1 a2be
00000020: 9daa ed3e c423 023e 2807 19bf 506e 92be
00000030: cd90 df3e a4b8 12bd e405 debd 105c 483d
00000040: 5cda 2a3d 95d8 933d 76f1 aa3e cf89 63be
00000050: 4c60 7b3e 307a 47be 2459 403e fef8 23be
00000060: 153f acbd bbdc a8bd c794 a83b 5878 a9be
00000070: 5624 563d 8f5f 793d 9f8a a53e baa4 efbc
00000080: 2d09 77bd 16f2 613d 3391 853e 4898 babe
00000090: ad49 48be 4fed 01be f64d cb3d bb85 fcbd
000000a0: 4ac4 4abd 43e5 8dbd 96bd e4bc 885a ba3e
000000b0: 5ae9 02be 4f8a d1bc 9d25 bfbd 420a 89be
000000c0: 3ad7 293d 3a60 b3bd c6f8 1e3f e77f 9abe
000000d0: 41aa 8abe d083 cdbe 8264 4dbe 7713 b63e
000000e0: c129 39be 7d56 b83d b167 5dbe 34d0 023c
000000f0: fec4 46be 76cd 91be 17df 7abd 38dc 3b3e
00000100: cdfb 9a3e c4ca 073d 77b3 b6bd bcfc 8fbe
00000110: 375b 94bd dada 903d a08b e4bd be69 ad3e
00000120: 9482 9c3e 1498 f6bd f175 cd3e 6841 c33d
00000130: c180 c63e d162 15be c521 1abd fe1a 763e
00000140: 16ab c8be cdba 193c e4ae 10bc 8b16 88bd
00000150: db06 9cbe 5b5a eabb d7e5 b2bd 6bc2 ae3b
00000160: ddd0 ccbd 62f0 40be 9497 a83e e793 c63e
00000170: 5908 0bbe 75ec 5b3e d31f 4b3e b2af 6dbd
00000180: 52d1 66be a0d7 f4bd c30b 133e 2204 b0be
00000190: bd57 47be 2619 1bbe c789 b3bd e5e3 1dbf
000001a0: c9ef bdba 535c 0fbd d2e3 5c3d 6186 20bd
000001b0: 2300 473d 71cc 673d 4aea 46be 3ca2 14be
000001c0: d6eb 2bbd 6887 07bc 43f9 a9bd 78dc 11be
000001d0: a3f4 5f3e 58a7 d7bc f752 cc3e 07d2 a3be
000001e0: a083 63bd 2d43 4f3e 9fdf 3b3d d239 013d
000001f0: c1d9 0bbe 596e 963e 33d8 37bd a041 de3d
00000200: 1b6d ea3e 5d21 173d 1b9c ca3d ba97 93bd
00000210: bb12 b5be b30f bc3e 760c 81be c9ec 9d3d
00000220: 24b1 cebe 2469 0d3e ca77 2a3f a623 9fbe
00000230: 4e47 c53e 5eab 00bc e288 42be a6f8 893e
00000240: d65d 93be b662 893b e7cb 26bd 71f6 7abd
00000250: 1661 703e 805e 8a3e 3f4f cd3e 2de3 893e
00000260: db8a 3e3d f681 c7be 1f09 cebe 908e 3dbe
00000270: 18c3 cebd f282 28be 12db 1e3e f413 8b3e
00000280: da7f a43d 26b9 83be 6c7b 26be 999d 1dbe
00000290: da43 b03b f574 60be 5c79 c13d df32 ddbe
000002a0: 470b 1d3d 0356 b3bd ebdd a6be a922 683d
000002b0: 8e17 12bf 65ee 4bbe d43f 3d3e 7c9b e43d
000002c0: 40d7 88be 1b56 cabd c330 c43c 414b 8cbd
000002d0: a3fa d6bd 92f0 2cbe c1de b53d a047 753e
000002e0: ddae 38bd 4604 77be b96b 963d f575 f83d
000002f0: ee40 32be 6a05 ca3e 59c2 0b3d 4b48 2a3e
00000300: da83 c6bd 63b6 453e bb38 c0be dad0 0dbe
00000310: 5908 a8bd 92af fa3d b687 4dbd 064e 913e
00000320: fe02 083d b16b be3c 84a1 0ebe 82a3 103e
00000330: 197a 8ebd 5b73 853c 4227 9c3e 5de5 093e
00000340: 4bf8 57be c6e5 9cbe 7800 1ebe 88d2 bd3d
00000350: 31e4 dd3d 00f1 0abc 57b2 833e 2b5c 933d
00000360: 3d9a 1e3e fe89 453e db1c 54bd e887 9dbd
00000370: 9b37 233e dcfb ab3e 5cc5 69be ac8b 43bd
00000380: a00d 9f3e d804 b6bd 2032 b0bd 42d8 4d3d
00000390: 10fd 373e 9d6c 3b3e fe42 133e ad78 aebe
000003a0: 47af 8b3e 4b9c 93ba db4e 43be 0a02 b13e
000003b0: 0563 4dbe 0f9f b3be 37fc 693e 8221 a53d
000003c0: f80e 36be 4f28 a93d 1d69 813d 91e0 ec3d
000003d0: 5945 8bbd 8227 4e3e cd3d 1cbf 9357 8cbe
000003e0: e76f 283d 74f6 f2be a7de f83b ba13 0dbd
000003f0: 1f32 7b3e fc08 5d3d abee 6abe 9d13 9c3e
0.26968014 0.0036111947 -0.11463509 0.16448721 0.11574799 0.2940771 0.009907568 -0.31824598
0.4641923 0.12708956 -0.59776545 -0.28599787 0.43665162 -0.03582062 -0.10840967 0.048915923
0.04171215 0.07219044 0.33387345 -0.22220539 0.24548453 -0.19480205 0.18784004 -0.16012952
-0.084104694 -0.08245226 0.0051446888 -0.33099627 0.052280746 0.060882147 0.32332322 -0.029253352
-0.060311485 0.05516251 0.2608734 -0.36444306 -0.19559355 -0.12688182 0.09926979 -0.123301946
-0.049503602 -0.06928494 -0.027922433 0.36397195 -0.12784329 -0.025578646 -0.09333346 -0.2676564
0.04146502 -0.08758588 0.6209835 -0.30175707 -0.27083018 -0.40139627 -0.20057872 0.35561725
-0.18082334 0.09000871 -0.21621586 0.00798421 -0.19411084 -0.28477067 -0.06124791 0.18345726
0.30270234 0.033152357 -0.08920949 -0.2812251 -0.0724396 0.070729926 -0.11159444 0.33869737
0.30568373 -0.12040725 0.40129045 0.095339596 0.38770106 -0.14588477 -0.03762986 0.24033734
-0.39193028 0.009382916 -0.00883076 -0.06644925 -0.3047398 -0.0071518845 -0.08735245 0.005333235
-0.10000775 -0.18841699 0.32928145 0.38784716 -0.13577403 0.2147692 0.19836359 -0.058028884
-0.22540787 -0.1195519 0.14359955 -0.34378153 -0.19467063 -0.15146312 -0.08766513 -0.61675864
-0.0014491017 -0.035000157 0.053928204 -0.039190654 0.048584115 0.056591455 -0.19425312 -0.14515013
-0.041972958 -0.008272029 -0.08299496 -0.14244258 0.21870665 -0.026324913 0.39907047 -0.31996176
-0.05554545 0.2024047 0.04586756 0.031549282 -0.13657285 0.29381064 -0.044883918 0.10852361
0.45786366 0.036897052 0.09893056 -0.07206674 -0.35365853 0.36730728 -0.2520482 0.07711179
-0.40369523 0.13809639 0.66589034 -0.31081885 0.38530964 -0.007853357 -0.18997529 0.26947516
-0.2878253 0.0041926755 -0.0407218 -0.06127018 0.23474535 0.27025223 0.40099522 0.26931134
0.04651914 -0.3896634 -0.40241334 -0.18511415 -0.10095805 -0.16456202 0.15513256 0.2716366
0.08032198 -0.25727195 -0.16258019 -0.1539215 0.0053791823 -0.21919616 0.094469756 -0.43202874
0.038340833 -0.0875664 -0.32591185 0.05667368 -0.5706719 -0.19915159 0.1848138 0.11162469
-0.26726723 -0.098797046 0.023949033 -0.06850291 -0.10497024 -0.16888645 0.088803776 0.23953104
-0.045088638 -0.24122724 0.07344765 0.121318735 -0.17407581 0.39457256 0.03412089 0.1662914
-0.096931174 0.19307856 -0.37543282 -0.13849202 -0.08204717 0.12240519 -0.050178252 0.2837984
0.03320598 0.02324471 -0.13928801 0.14124873 -0.06956882 0.016290357 0.304987 0.13466401
-0.2109081 -0.30644053 -0.15429866 0.09268671 0.1083454 -0.00848031 0.25722 0.07195314
0.15488525 0.19290921 -0.05178533 -0.07691938 0.1593918 0.3359059 -0.22829193 -0.047740623
0.31065083 -0.088876426 -0.086033106 0.050255068 0.1796763 0.18303151 0.14381024 -0.34076443
0.27282164 -0.0011261789 -0.1907305 0.34571868 -0.20057304 -0.3508229 0.22850119 0.08063032
-0.17779148 0.082596414 0.06318877 0.1156627 -0.068003364 0.20132259 -0.610318 -0.27410564
0.041122343 -0.47453654 0.0075949016 -0.03444264 0.24530838 0.053963646 -0.22942607 0.30483714

lstm.bias_ih_l0 f4 [256]
00000000: c38d fdbc 2331 a8bd 73c7 2b3c a6c2 47be
00000010: 9dce 95be 3763 2fbe 3623 cc3c deaf 913d
00000020: 2b6d 55be 21e2 82bd 1c99 95bd 97ea 35be
00000030: 0b10 58bd 02da 03be 7883 69bc 2599 5e3d
00000040: a5b7 2f3d 02b2 e9bd 1704 723e 1f76 dabd
00000050: adaf d73b e40b 73be 6d99 41be f120 26be
00000060: fa18 66be 221d fbbd 9c04 00bf 7c61 6ebe
00000070: 722e 2fbe 255f 20be 27dd 0f3d a39f 51be
00000080: 3f38 8a3c fbb5 ddbb a943 02be cb26 5ebe
00000090: eb0a 40be 71a4 80be b581 c6bd 41c1 00be
000000a0: 5389 b7bd ffba c5bd cbdb 54be bcb1 82bd
000000b0: 041e 3fbe 4ae8 0ebe d078 b4be e600 1d3d
000000c0: 7fd8 223e 803f e5bd e530 b73d 9758 eb3c
000000d0: 2d4d a83d 012d 823d 0645 46ba e207 86be
000000e0: b107 f6bd 4ec1 eebc 7f0a 17be 12f1 07bd
000000f0: f9a1 7c3d 0670 0cbe c511 78be 9c81 8c3d
00000100: ccb5 763d 9c92 223e ef59 87bd e313 70be
00000110: c440 a4bc bede d9bd 91e6 1fbe ba89 f03c
00000120: 42f6 91bd 1e34 173d cb83 b93d 35a9 003c
00000130: 4b5d 593e 29bf 3dbd f00d 11be 10aa 503e
00000140: 78c1 99bc 6b04 22be e6ae 613e 693d 8c3c
00000150: 44eb 853b 9417 b7bd 910a 833e f615 20bd
00000160: 798c b93d 4036 1e3d 111a 6fbd b962 6f3e
00000170: 369c 223e 0b73 3dbb 2d36 7a3e 31cb cc3c
00000180: 5dbf 223d 9c67 2d3e 434d 553e ed6c 303e
00000190: 9fb1 a3bd d3d9 a3bc 087a 2f3e 534d 1ebd
000001a0: cafc c93d f47d 133e 23e4 823c 2ca0 0ebd
000001b0: a6c8 e8bc 474b 143d 9305 77bd 4ad0 ce3b
000001c0: b4e0 f6bc 2c0d 073e 64a4 273e 9686 603e
000001d0: 8a5a 033e 4570 953e 5907 5d3e a3c5 303d
000001e0: 3d49 0f3e e374 103e b670 bbbd b39e 283d
000001f0: 5ba7 afbc 6b0b be3d 63a4 1b3e b9d5 4f3b
00000200: c086 b53d ad6b fbbc 69b3 93bc c4f6 ca3d
00000210: 7dc0 b4bd 4764 f83d 477a 23be 35b8 293e
00000220: 9236 683d 10c2 0dbd 9014 41be 2857 e53d
00000230: b68a 073e 42c2 b43c c351 503d 9ca0 1a3d
00000240: 449d 10be 8845 963d ea1a e73c 4f85 d1bd
00000250: fc2f 47bd 305b 12be 5979 98bd 60da 47bd
00000260: 820d d63d 7174 f3bc e11d ad3d 073b f6bd
00000270: 3e96 f1bd 0037 a23d 54d0 4b3e 24ae 11be
00000280: 0f7e 4dbd 9ddf c3bd 3590 ca3d f81a 63be
00000290: 26d2 fbbd e647 cabd d426 173d c8d2 33be
000002a0: 99e1 76bd 44b8 bb3d 3409 cabc a30c 85be
000002b0: 639c d83c 53f1 9abd 11b5 9f3c 5a70 4ebd
000002c0: 3119 b6bc 09cc 0a3e 8376 863c f273 bd3d
000002d0: 9ab6 84bd bd8f 0dbe 65e5 dd3d 8b1e 7cbe
000002e0: 6d83 d23d 565c a83d 4bcf 41be 5072 b93d
000002f0: 9dc9 0a3d 3440 0bbe 40b4 8dbd c57a 62bd
00000300: e04b 00bb 7cb8 ab3d 72e7 7d3c 5922 2abe
00000310: 502f 873d ec5b b03b 0685 123d 9492 983d
00000320: b3d2 0bbe bb03 bbbd 1d7a 3e3e e021 083c
00000330: cda2 c13d b7f5 b53d 877c 81bd 9627 2b3d
00000340: a0b5 91bd fb66 81bd 37c5 0b3e 9990 00be
00000350: f078 cbbc 81fc f43d f476 1e3d d6c5 213e
00000360: a30d 3d3e 7385 673d b332 17be d90c 2dbd
00000370: 70a9 6f3d a09b 19bd 3edc 8abd abea 643d
00000380: ea17 43bd 5003 073e 4a1f b73d 006b 023e
00000390: 2743 89bd ed04 473d e1a8 87bd 926b 80bd
000003a0: 6a19 243d 0a83 b6bc 369f e13c a0e3 14be
000003b0: 84ca 79bd d952 cc3c 328a 21be dc6d 87bd
000003c0: 55fb 853e 1cca 8ebd 1fd2 99bc 4cce 3f3d
000003d0: d3ed d83d cbef 453d a073 fbbc c614 f7bd
000003e0: 0738 ce3d 00ce c53c bfde 573d e1d5 bc3b
000003f0: dd18 23be 773a 2f3d 129f 323e 63aa 413d
-0.030951386 -0.08212497 0.010484564 -0.19507846 -0.29259196 -0.17127691 0.024919134 0.07113622
-0.20842426 -0.06390787 -0.07304594 -0.1776527 -0.052749675 -0.12876132 -0.014252536 0.05434527
0.042899746 -0.114109054 0.23634373 -0.10667061 0.0065822215 -0.23735005 -0.18906184 -0.16223504
-0.22470465 -0.12261416 -0.50007033 -0.23279375 -0.17107561 -0.15661295 0.035123017 -0.20471053
0.016872523 -0.0067660785 -0.12721123 -0.21694486 -0.18754165 -0.2512546 -0.096927084 -0.1257372
-0.089617394 -0.09654807 -0.2078697 -0.063815564 -0.18663794 -0.13955799 -0.35248423 0.038330935
0.15902899 -0.11193752 0.08944873 0.028728766 0.08217845 0.0635624 -0.0007563386 -0.2617789
-0.12013186 -0.02914491 -0.14750098 -0.033188887 0.061677907 -0.13714609 -0.24225529 0.068606585
0.06023197 0.1587624 -0.0660895 -0.23445086 -0.020050414 -0.10638188 -0.15615298 0.029362548
-0.07127048 0.036914937 0.09058341 0.007852842 0.21226995 -0.046324883 -0.14165473 0.20377374
-0.01876901 -0.15821998 0.22039375 0.017119126 0.0040868837 -0.08940044 0.25594 -0.039083444
0.09059996 0.038625956 -0.05837447 0.23377503 0.15879902 -0.0028907682 0.24434729 0.024999233
0.03973328 0.16934055 0.20830254 0.17229052 -0.07992863 -0.020001328 0.17136395 -0.03864796
0.09862669 0.14403516 0.015977925 -0.03482072 -0.02841599 0.036204603 -0.06030805 0.006311451
-0.030136444 0.13188618 0.16371304 0.2192634 0.12827507 0.29187217 0.21584834 0.04315723
0.13992782 0.14107089 -0.09152357 0.041166972 -0.021442106 0.092795216 0.15199427 0.0031713082
0.08863592 -0.030690992 -0.018029885 0.09910348 -0.08825777 0.121285014 -0.15964614 0.16574176
0.056692667 -0.0346089 -0.188555 0.11198264 0.13236508 0.022065286 0.050859224 0.037750825
-0.14122492 0.07337481 0.028211076 -0.10230505 -0.048629746 -0.14292598 -0.0744502 -0.048792243
0.10451795 -0.02971861 0.084529646 -0.12022977 -0.117962345 0.07920647 0.1990369 -0.14226586
-0.050169047 -0.09564135 0.098907866 -0.22178257 -0.12295942 -0.09876995 0.036902264 -0.17560875
-0.06027374 0.09166005 -0.024662592 -0.25986204 0.026441758 -0.0756556 0.019495519 -0.050400116
-0.02222881 0.13554396 0.016413933 0.092506304 -0.06480141 -0.13824363 0.10834769 -0.24621026
0.10278974 0.08220737 -0.18926732 0.090550065 0.03388368 -0.1359871 -0.069191456 -0.055292863
-0.0019576475 0.08384797 0.015497075 -0.16614665 0.06600821 0.0053820517 0.035771392 0.074498326
-0.13654594 -0.09131571 0.1860127 0.008308858 0.0945488 0.08884757 -0.0632258 0.0417858
-0.0711472 -0.0631847 0.1364945 -0.1255516 -0.02483794 0.11962224 0.03868766 0.15798125
0.18462233 0.05652375 -0.14765434 -0.04224858 0.058511198 -0.03750193 -0.06780289 0.05588786
-0.047630228 0.13184857 0.08941515 0.1273613 -0.067022614 0.048588682 -0.06624008 -0.062705174
0.0400633 -0.022279281 0.027541738 -0.14539957 -0.06098415 0.024941849 -0.15775374 -0.06612751
0.26168314 -0.06972143 -0.018776951 0.0468276 0.10592236 0.048324388 -0.030694783 -0.12064509
0.1006928 0.02414608 0.05270266 0.005762801 -0.15927453 0.042780366 0.17443493 0.047281634

lstm.bias_hh_l0 f4 [256]
00000000: f55e ebbd 564e eabc ffc1 c5bd b057 70be
00000010: 8f3c 6abe d120 853c c74a 7bbb cba6 9bbd
00000020: 0bfd 99bd 5faf 4cbd cf14 d3bd 3e19 7cbe
00000030: 179e 0ebe aca6 cd3c 85d5 95bc 26bd 263e
00000040: cef6 cc3c 5b8e 4dbe eab9 c73d 1483 9e3d
00000050: 6a92 b5bd c9e5 72bd c08a 94be c696 403d
00000060: 40e9 2abe 35b1 02bd cbc1 9fbe de5a 82be
00000070: 3d61 14be c076 223d 2382 953d 50e7 05be
00000080: fb86 c0bd ebf9 583d da1e b5bd ee23 45bc
00000090: ba42 99b9 775c c2be 45e9 a8bb 2764 b9bd
000000a0: 1ff7 0ebe 1474 dcbd 92e5 14bc 8b41 82bd
000000b0: ed40 8abe 7da0 22bc f03f 10be 0f97 7e3d
000000c0: b2b5 e63d 8691 42be e8c6 593d e89e f0bd
000000d0: f5c3 89bd 8950 853b 5c09 323c 4f1b 26bd
000000e0: b309 e2bd 6770 c63d c039 83be 5210 003d
000000f0: 9bc9 23bc 8a56 c8bd 5138 2ebe 154b ff3c
00000100: 6347 4a3d c5c7 adbc 3b27 afbd 7335 03be
00000110: 4f36 1ebd d798 97bd 85dc 10be fead d93d
00000120: e578 663d a912 2f3d 4927 083e 64c1 aabb
00000130: 9a84 053e 3699 9a3d ac57 3a3d f969 8f3d
00000140: 99e2 d8bc 3c97 ddbd c54d 773e 67bc 51be
00000150: eb6b 343e 4653 04be 59ca 933e a62e 163e
00000160: aaca c43b ed7c 1c3e 606a cfbd 1dc5 693e
00000170: 36bb 783e 8c4c 7d3d b81b 353e b022 083e
00000180: f1c0 acbc 7d86 af3d cce4 4f3e b30e 163e
00000190: 09ee e23d 6d77 a73d 60a6 303e 7434 a1bc
000001a0: 9269 b2bc 3b5b 793d 03d6 7d3d 1cd5 e2bd
000001b0: 2fe0 933d 5604 4c3e c5c7 2abe f4b0 da3d
000001c0: eb4d eabc a411 d33d 155c fb3d 1cbb 5a3e
000001d0: 236e 5b3e 23cb a33e cbc7 633d 0f29 e93d
000001e0: 8cc5 b13d d37c e8bc 7ce3 04be 4507 09bc
000001f0: 8a81 e93d 80e8 8d3d c3b2 31bd c181 b8bd
00000200: 7988 143b 4039 76bd 18b5 923c b59f 5abd
00000210: da3f ebbd b7bf 40bc 90c6 933c f905 233e
00000220: 30a2 b2bd 6591 45be d7c8 353d 7481 bfbd
00000230: 657d e03d ea2b 953d b94b cebd 7ad9 513d
00000240: 9dd1 26be eb71 ce3d 78a7 233e c1a4 73be
00000250: e1d8 80bd 4c15 ecbd 82ad ab3d e119 36be
00000260: 0c15 e33d 3cc2 f93d 465b 09bd 2ad7 33bd
00000270: a107 12be 1c84 f73d 7338 1e3e 7974 a1bd
00000280: 3bd9 90bd fcfa ffbd 2cf3 103e 039a 1bbe
00000290: de36 3bbe fed8 9a3d ed9e f53d 0257 39be
000002a0: 0315 afbd fb9a fb3c ceef bb3d b1eb e5bd
000002b0: ce22 083e d412 21be 673c babd 4eb1 f5bd
000002c0: 08f7 6fbd c949 e83d a239 dc3d 4f5d a53d
000002d0: e437 803d fc4d 11be 01b3 a5bc c954 81bd
000002e0: 51f1 363d a017 503e 6e82 c3bd 5df2 8fbd
000002f0: 4ec9 243d 4a83 033d 7a11 a5bd 2919 083e
00000300: e95c 963d 62c7 63bd 1b6c dbbd 1b32 3fbe
00000310: 3252 83bd 174a 65bc 79b9 403e 6791 413e
00000320: 0992 c33c bc94 7b3b c08d 5c3d 2ff0 03bd
00000330: 9bfb 833d 5500 dc3d 2db9 e53d 72e0 d33d
00000340: 087e ca3c c1fe cbbd 90ee bd3d 24f1 b9bd
00000350: 9dd0 4e3d 72ab 02be 406b b1bd 3d40 133d
00000360: 0a02 623e 0f9f b53d 2ec3 1abe 3bb3 2a3e
00000370: 1506 e23c f2a3 e5bc 70e9 d83d 9a35 c1bd
00000380: 6b19 b63c 67f5 413e 97b2 d73d 546d 023e
00000390: 54f1 9a3d 70dc 153e 2be6 8ebc e968 84bc
000003a0: fd43 d0ba efb1 173e 0f90 8bbb a027 72bd
000003b0: cf5a d23c 7da8 113d 8524 08be 9104 3cbd
000003c0: 9c57 e03d ff34 02be 6770 04bd a591 51bd
000003d0: 9c3f 523d 1212 d33d 2aad 2cbd 57d3 62bb
000003e0: 36c4 4c3d ef11 f63d d4e2 aebd 6c42 2d3e
000003f0: 0c6e 703d b1b4 82bb c685 143e 0bf8 a43d
-0.11492721 -0.028601807 -0.096561424 -0.2347095 -0.22874664 0.016251 -0.0038344131 -0.076001726
-0.07518967 -0.049971934 -0.10306703 -0.24619004 -0.13927494 0.02510389 -0.01829029 0.16283092
0.02502003 -0.20073836 0.09752257 0.07739845 -0.08865817 -0.05930117 -0.29012108 0.04701879
-0.1669054 -0.03190728 -0.3120254 -0.2545995 -0.14490218 0.03966403 0.07300212 -0.1307652
-0.094007455 0.052972715 -0.08843775 -0.012032492 -0.0002923215 -0.3796117 -0.005154761 -0.09052306
-0.13961457 -0.10764328 -0.009087937 -0.063601576 -0.2700266 -0.009925959 -0.1408689 0.06215578
0.112651244 -0.19000825 0.053168207 -0.11749059 -0.06726829 0.0040684384 0.010866489 -0.040553387
-0.11037006 0.09689408 -0.25629997 0.031265564 -0.009996797 -0.09782131 -0.1701367 0.031163732
0.049384486 -0.021213422 -0.085524045 -0.12813358 -0.03862601 -0.07402199 -0.14146622 0.106288895
0.056267638 0.042742405 0.13296236 -0.0052110422 0.13038865 0.07548754 0.045493767 0.070026346
-0.026475238 -0.10819861 0.2415076 -0.20482026 0.17619292 -0.12922391 0.28865317 0.14666232
0.0060056048 0.1528203 -0.10127711 0.22829099 0.24290165 0.06184058 0.17686355 0.13294482
-0.021088095 0.085705735 0.20302123 0.14654045 0.11080558 0.081770755 0.17250967 -0.019678332
-0.021778855 0.06087802 0.061971676 -0.11075804 0.07220494 0.19923529 -0.16677769 0.106782824
-0.028601607 0.10306099 0.12273423 0.21360439 0.21428733 0.3199092 0.05561046 0.113847844
0.08680257 -0.028379833 -0.12977403 -0.00836355 0.11401661 0.069291115 -0.04338337 -0.090091236
0.0022664352 -0.06011319 0.017908618 -0.053374965 -0.11486788 -0.011764458 0.018039018 0.15920247
-0.08722341 -0.19293745 0.04438099 -0.09350863 0.10961417 0.072837666 -0.10073037 0.051232792
-0.16290899 0.10080322 0.15981853 -0.23793317 -0.06291366 -0.115274996 0.08382703 -0.1778331
0.11087999 0.121952504 -0.03353431 -0.04390637 -0.14260723 0.12085745 0.15451221 -0.078835435
-0.070726834 -0.12499043 0.14155263 -0.1519547 -0.18282649 0.07560919 0.11993203 -0.18099597
-0.085489295 0.030713549 0.091765985 -0.11226595 0.13294527 -0.15729839 -0.09093552 -0.11996709
-0.058585197 0.113421984 0.1075318 0.08074438 0.0626066 -0.14189905 -0.020226957 -0.063149996
0.04466373 0.20321512 -0.09546362 -0.07028649 0.04023104 0.03210763 -0.08059974 0.13290848
0.0734194 -0.05561007 -0.10713979 -0.18671457 -0.06412162 -0.013994715 0.18820752 0.18903123
0.023873346 0.0038388213 0.05384612 -0.03221148 0.06444474 0.10742251 0.1121696 0.10345544
0.0247183 -0.099607 0.09274018 -0.09079197 0.050491918 -0.12760714 -0.086630344 0.035949934
0.2207109 0.08868229 -0.15113518 0.16669933 0.02759079 -0.028032277 0.105914 -0.09434052
0.022228917 0.1894127 0.1053211 0.12737018 0.07565561 0.14634871 -0.017443737 -0.016163306
-0.0015889403 0.1481397 -0.0042591165 -0.05911982 0.025678067 0.035561074 -0.13295181 -0.045902792
0.1095421 -0.12715529 -0.032333758 -0.051164288 0.051330194 0.10306181 -0.04215733 -0.0034610832
0.04999181 0.12015139 -0.08539358 0.16919869 0.0586987 -0.0039888253 0.14504156 0.08055123

lstm.weight_ih_l1 f4 [256, 64]
00000000: 6dde e13d 5b69 1d3e 240e b8bd a3bd f23c
00000010: edca 713b c00c 3ebe 5554 c03e 9c6c 213c
00000020: 63cb 493e 9e2b 103e 7df0 7fbe 213c cfbd
00000030: 28c2 a8bc 519b 333e 6f24 cfbe ac64 90bd
00000040: a8fb 14bd 3d9d 0d3d 7d19 5d3e 3dc8 6dbe
00000050: 9b81 51be 8ebf 08bf dd97 c3be 3d14 34be
00000060: 9121 31be 2205 5bbe 765f 18bc 1d37 45be
00000070: 9897 1ebe fde9 f13d d2a1 863e 072b bbbe
00000080: 3aa8 3dbe 134b e53d f3b6 8cbc 0dd7 d4bc
00000090: e971 43bd c603 e43d 5c73 54bc 3908 00be
000000a0: a343 34be 4947 c43e 38f3 79bd c6d7 87bd
000000b0: 8778 5b3e 51f4 70be f7ff 393d 52b9 9fbd
000000c0: 6cc0 e13d 5c80 0fbe 4b52 e63d 74f9 cfbd
000000d0: 05ce 753e c0f1 a6be c89b 68be 58ad eabe
000000e0: 872b 073e 3477 f13e a5b5 6fbe f5be 46be
000000f0: 71a4 ebbd 6d94 953d f7d4 97be 18bc 7c3e
00000100: ca4d 7ebd 1637 c93c e9ee c3bd 9c42 5fbe
00000110: 1cf5 d13c 7356 9dbe c187 05bf 1dc2 da3c
00000120: e778 84bd 629a 953d aaa8 7a3d aa8f 2c3c
00000130: bf1a d5be 6548 b63e ba42 ed3d 2aa6 883c
00000140: 59c1 753e 3b6e d1be 63b0 793d d35c 613e
00000150: 06b6 36bc 4384 bdbd bfea 0c3e cd1a c33d
00000160: 7ce1 9b3e 9b35 ec3e cc6e 54be 28b4 0fbe
00000170: 7b7e 013e 6c9f 8e3c 044c 9abe 1dfb 063e
00000180: da96 d13c e990 d23e 87bf 66bd 8f96 edbc
00000190: 3866 863c 2982 de3d 74fd 08be c626 22bd
000001a0: 5b97 8a3d 8d57 9bbd dfb6 5cbe 257c c3be
000001b0: f808 a73e 670b 613e df18 41be 2a58 803e
000001c0: 2244 3a3e 08cd dbbd 83d5 aabd e47a d3bd
000001d0: 49bd 5ebd 0944 993c b923 24bd 9fab 6a3e
000001e0: 644d 81be fd7a 36be f6d0 ffbd 01cb 79be
000001f0: dbda c6bd 930b a03e 0e62 da3d 4860 42be
00000200: f7d3 50be 6b5d 983e 5315 d0be 76e5 fcbc
00000210: 0b20 103e ada3 c3bd a594 b2bd 2142 763c
00000220: d2fd c9bc 99e8 ffbd 012e 0ebe 04c1 863e
00000230: a873 45be a88d 933c 7994 703d a4b6 12be
00000240: 0be0 afbd 502b 0fbe f48f 8cbd f8da 22bb
00000250: d2bc 8bbe 2972 36bd d399 273e 0cd8 0d3e
00000260: 7fc9 9d3e bb22 b83e a677 32bd d5db 0fbe
00000270: 0778 88be 9118 f93c e183 23be eda3 8cbd
00000280: bff6 a3bc 30b8 cdbc 334f 49bd eba9 8e3d
00000290: b7ef f5bd 9c8f 0b3e 7dea 11bc 0e5c 49bc
000002a0: cd66 a4bd d309 1bbd 7a86 6ebe 68c0 8bbe
000002b0: 84ab b93e 225e 1ebe e1e1 0dbe b2b3 0b3d
000002c0: e41c d4bd 4588 c2bd c8fc 5b3c 653d 3d3e
000002d0: d66c cabc 801e f43d ab8b 15be 3fd9 bb3b
000002e0: 893d 573e 34a6 34be 801b 92bd 16f8 1ebe
000002f0: 39dd 123d 0ee4 e53d 7157 77be b11c 32be
00000300: 4d24 413e 5d48 0a3e c3dd c13e 546e 3dbd
00000310: 1961 32bc 2d82 a93d 5fdf cd3d b0e9 253e
00000320: 615c 053e c05d 00be ea42 91bd b9f8 e9be
00000330: 558d 2d3d efb6 bd3c 9c71 86be a44a dbbc
00000340: a489 833e 8273 113e 5927 8cbc 6762 fcbd
00000350: 94ed 8bbc 60e9 22be 2a7b 99bd 7550 d1be
00000360: d6b2 153e 6a48 e43c 5f70 5ebd 5377 53be
00000370: f8f6 0b3d 2750 c23d 52ad db3d abd5 15bf
00000380: 8f5a eb3d f4f4 d73d 26cc b3bb 31f5 1b3d
00000390: da72 aebe 0829 daba 7f25 cabe 05b9 393d
000003a0: 31c2 42bd 00af 7cbd 870a a23c 51aa 3a3e
000003b0: a77e d93b a734 79be 0d03 7a3d e0df 533c
000003c0: b187 993e b597 563d 0b85 83bd e200 16bd
000003d0: 1e9a e4bd 8e7f 1d3e 60df c53b 1dee 5abd
000003e0: ede6 7e3e 27a7 943e a74b d63d 5bcf 87bd
000003f0: c90c 8bbd 3f4f 3e3e d6c6 87bc 452c 03bd
0.110287525 0.15372221 -0.08987072 0.029631441 0.0036894635 -0.18559551 0.3756434 0.009852555
0.19706492 0.14079139 -0.24994083 -0.101188906 -0.020600393 0.17539717 -0.40457484 -0.07050452
-0.03637281 0.034573782 0.21591754 -0.23220916 -0.20459597 -0.5341729 -0.382018 -0.17585845
-0.17297961 -0.21388677 -0.009300103 -0.19259305 -0.15487516 0.11812208 0.26295334 -0.36556265
-0.18521205 0.1119596 -0.01717708 -0.02598145 -0.047716055 0.11133532 -0.012966957 -0.12503137
-0.17603926 0.38335636 -0.061022967 -0.066329524 0.21432696 -0.235307 0.045410123 -0.07799019
0.1102303 -0.14013809 0.11246165 -0.10155001 0.24004371 -0.32606316 -0.22715676 -0.45835376
0.13200198 0.47161257 -0.23409136 -0.19408782 -0.11505974 0.073037006 -0.29654667 0.24681127
-0.062085904 0.0245624 -0.09567053 -0.21802753 0.025629573 -0.30730018 -0.5216027 0.026703889
-0.06468373 0.07304837 0.061196007 0.010532299 -0.41621968 0.35602108 0.11584993 0.016680796
0.23999538 -0.40904412 0.06095923 0.22008066 -0.011151796 -0.092537425 0.13761424 0.09526596
0.30445468 0.46134648 -0.2074539 -0.14033568 0.12645905 0.017410003 -0.3013612 0.1318173
0.025584627 0.41126183 -0.056335 -0.029002456 0.016406164 0.1086467 -0.13377935 -0.03958776
0.0676715 -0.07585058 -0.21554135 -0.38180652 0.3262403 0.21977006 -0.18857144 0.25067264
0.18190053 -0.10732466 -0.083415054 -0.10326174 -0.054379735 0.0187092 -0.04007313 0.22917031
-0.25254357 -0.17820354 -0.12491028 -0.24393846 -0.09709712 0.3125883 0.10663234 -0.18982041
-0.20393358 0.29758772 -0.4064127 -0.030871134 0.14074723 -0.09552703 -0.08719758 0.015030415
-0.024657164 -0.12495536 -0.13884737 0.26319134 -0.192824 0.018011883 0.058735345 -0.14327484
-0.08587655 -0.13981366 -0.068633944 -0.0024849754 -0.27292496 -0.044542465 0.16367273 0.13851947
0.30817792 0.35963997 -0.043571137 -0.14048703 -0.26654074 0.030407222 -0.15968277 -0.06867204
-0.020015119 -0.025112242 -0.049147796 0.06966003 -0.120086126 0.13629001 -0.008906004 -0.012290014
-0.0802742 -0.037851166 -0.23293486 -0.27295232 0.3626367 -0.15465596 -0.13855697 0.034106918
-0.10357073 -0.094986476 0.013426967 0.18480451 -0.0247101 0.1191988 -0.1460406 0.005732685
0.21019568 -0.17641526 -0.071341515 -0.15524325 0.035855506 0.112251386 -0.2415445 -0.17393757
0.18861504 0.13504167 0.37864503 -0.046247795 -0.010887408 0.08276782 0.1005237 0.16202426
0.13023521 -0.12535763 -0.07092841 -0.45697573 0.042371113 0.023158519 -0.26258552 -0.02676899
0.2569095 0.14204219 -0.017108606 -0.12323456 -0.01708106 -0.15909338 -0.07494195 -0.40881696
0.14619002 0.027866561 -0.054306384 -0.20650987 0.034171075 0.09487944 0.107264176 -0.58529156
0.11491882 0.10544768 -0.005486983 0.03807563 -0.34072 -0.0016644308 -0.39481732 0.045342464
-0.047548477 -0.06169033 0.01978041 0.18229033 0.0066374126 -0.24336492 0.061038066 0.012931794
0.29986337 0.052390773 -0.0642186 -0.036621936 -0.11162208 0.1538069 0.0060385913 -0.05344974
0.24892779 0.29033777 0.10463648 -0.06631347 -0.06789548 0.18584917 -0.016574305 -0.03202464

lstm.weight_hh_l1 f4 [256, 64]
00000000: ba34 423c 13ed aa3d 0dc2 203e 47ab 903c
00000010: 9931 05be c6cf 11bd da8d 53bd 2f59 0cbd
00000020: 4040 163d 9017 e3bc 2d54 eabd 7ee3 f93c
00000030: a13a 483d 6e2b 393d 8221 43be 57eb f83d
00000040: 1681 42be df8b 303d 4c04 823e 0e24 f23c
00000050: 8ba3 0dbe bf4d cdbc 6543 63be a28b 11be
00000060: 89e7 ecbc 3156 1f3d abdf 0e3e 3503 313e
00000070: 2bc3 033e b6ee 0fbe daa1 c53d a6b7 063d
00000080: 8c8d e4bd 9b55 a7be 3e85 40be 5d85 463d
00000090: a720 9bbd 9774 083c ca02 753d 2964 c8bd
000000a0: c4d7 2fbe cf08 21be d1a2 16be 954e d33d
000000b0: f49e 38be da10 453d a610 16be 48a2 d0bd
000000c0: 5046 173e 8c82 a8be bfc7 13be 19f1 733d
000000d0: c1aa 603d 3c09 833d cbd3 463d a136 683e
000000e0: 7bb0 23be e3ed 8c3d 1c5e 723d 2db2 9d3a
000000f0: 8cf2 813b aa59 453c 2521 d8bd 91e8 6a3d
00000100: 9df2 573e 601d 71bd 30be 573e d3b0 cebd
00000110: 86ac 11be b4f9 8bbe cacf 3abd 2baf 473e
00000120: 5eb2 b4bd 4d0a 903e 5c66 ce3c 96b9 dbb9
00000130: d40e 053d 9fde 6c3e fced 5abe 08df a9bd
00000140: 0f0a 973c 510b 403e 18a7 3d3c faaa 6abe
00000150: d2b7 f53e d915 e93d 7c69 903e e8d6 c9be
00000160: 7147 55be ac08 43bc 9205 23be 34f1 a7bc
00000170: c48d 66bd eef4 613d 2758 f83d 8acb 34bd
00000180: 6fbe bebd d535 dfbd 152a 03bd e119 d1bd
00000190: 467b 5fbe 664c 783e 4850 8cbc 924f 1dbe
000001a0: 037e 393e 94c6 95bd 6140 983d 2325 ccbd
000001b0: 00a7 a2bb 944b 853b 14ef 263d 89a5 333e
000001c0: 7bae 8e3e f1da d9bd dfc8 383e a9c6 22bd
000001d0: 08bf 363c 4364 703e 4691 523d 723e af3d
000001e0: 9439 bfbb 080a 3fbe b49e c83d 1fa5 dabd
000001f0: be61 883c 920a 06be 21e0 693e c4c4 e4bd
00000200: 869a aa3d a0fa 133e 3c26 0a3e 6728 9abe
00000210: 2e83 3a3e d0bf 153e 672f 1f3d 108a 453e
00000220: 865b e9bd 8f25 ba3d 89c2 993b 2f85 1d3d
00000230: 27c7 343e 7580 4e3e b0fb 5ebe 015f e83d
00000240: f94e 283d ae5f fc3d 11e3 05be 9cad 68be
00000250: ed9f 043f 7424 493e b7f5 723d f1a4 9fbe
00000260: bd00 81be 7ebe ad3d 3306 98be ee5d 363e
00000270: 639b 86bd 7c85 5d3d b7a7 8b3e 8066 6c3e
00000280: 8dcc eb3c 49ad 69bc 406d 87bd c5b9 13bc
00000290: 8c48 84bd 5c11 c83d d24e a2bd b1a9 9c3c
000002a0: 194e 443e f334 82bc 4b30 94be a760 2fbe
000002b0: 190d 203c c4c0 18be 856f 943d eb4c 123e
000002c0: b3c8 0ebd 46d6 be3b 3c05 9d3d ca89 a63d
000002d0: 8db9 883d 4697 663e 8a56 24bd a54a 6f3d
000002e0: b3f1 2fbd ecc8 ac3d 805a 0abe e7e5 a4be
000002f0: 9df6 bfbc ad50 c9be 43d7 333d 6b17 acbd
00000300: 3106 68be c7c9 94bd 3068 e03d ea2b a1bc
00000310: 95ee 0c3e 7999 683e ee89 2dbd 9c54 82be
00000320: bd40 5b3e 855b 15be 4183 b9bd 7c41 b03e
00000330: 6f52 ab3d 8857 873e e60b 08bf efb3 d83e
00000340: 995b 66be 34ae da3c f86d 763d e4fd 2c3e
00000350: 25bf acbe 0b2e 543e 9e56 a3be 724b b6be
00000360: 42dc 01be 7981 5c3b 5ec4 933d a497 763d
00000370: f058 36be 7397 f4bd f134 1c3e d0b4 cdbd
00000380: b359 9bbd b110 adbd fde0 e7bc a14a 5c3d
00000390: 5492 fc3d 9faf 7a3c d954 03bc 0e46 1e3e
000003a0: 919d b1bd 655b 42be 0668 803e bb9d 793e
000003b0: c719 96be 6886 f03d ea78 2dbe 164d 833e
000003c0: d67b bb3d 5636 05be fa72 59be 5ad0 4b3d
000003d0: 2e2a e1bd e00e 40bd 4fa7 3c3d 618a 083c
000003e0: 4e53 893d 323c acbd 257f a23e ac8c 3b3d
000003f0: 2c81 c83d 1008 c63e 4ac1 0fbc 031a 92be
0.011853391 0.083459996 0.15699024 0.017659796 -0.13007201 -0.03559854 -0.051648952 -0.03426474
0.036682367 -0.027721196 -0.114418365 0.030503985 0.048884038 0.045207433 -0.19055751 0.121542625
-0.18994555 0.04310214 0.25393903 0.029558208 -0.13831918 -0.025061486 -0.22193678 -0.14213422
-0.028918998 0.038900558 0.1395251 0.1728638 0.1286742 -0.14055905 0.09650011 0.032889985
-0.111598104 -0.326825 -0.18800828 0.04846703 -0.07574587 0.008328578 0.059817113 -0.09784729
-0.17172152 -0.15726016 -0.14710547 0.10317723 -0.18029386 0.048111774 -0.14654788 -0.10187203
0.14772916 -0.329121 -0.14431666 0.0595561 0.054850344 0.06398246 0.048541825 0.2267709
-0.1598529 0.06881311 0.05917178 0.001203125 0.0039656814 0.012045303 -0.10553197 0.0573507
0.21088643 -0.058865905 0.21068645 -0.1009232 -0.14225969 -0.27338946 -0.04560832 0.19500415
-0.08823083 0.2813286 0.025195293 -0.00041909207 0.032484844 0.23131798 -0.21379846 -0.08294493
0.018437413 0.18754317 0.011575483 -0.22916785 0.47991806 0.1138112 0.28205478 -0.39421773
-0.20828034 -0.011903923 -0.15920094 -0.020500757 -0.056287542 0.055165224 0.12126189 -0.044139422
-0.09313666 -0.108989395 -0.032022554 -0.10210014 -0.21824369 0.24247894 -0.017128125 -0.15362385
0.18114476 -0.073132664 0.07434154 -0.09968021 -0.0049637556 0.0040678475 0.040755346 0.17543615
0.27867493 -0.10637463 0.18045376 -0.03974024 0.011153944 0.23475747 0.051408075 0.085568324
-0.0058357213 -0.1865617 0.09795895 -0.106760256 0.01664817 -0.1308997 0.22839405 -0.111703426
0.08330254 0.14451075 0.13491148 -0.3010895 0.18214104 0.14623952 0.038863566 0.19290948
-0.1139441 0.09089195 0.00469238 0.038457092 0.17654096 0.2016619 -0.21775699 0.113462456
0.04109094 0.12322937 -0.130749 -0.22722477 0.5180653 0.19642812 0.059316363 -0.31180528
-0.25195876 0.08483599 -0.2969223 0.17809269 -0.065726064 0.05408238 0.27276394 0.23085976
0.02878406 -0.014262506 -0.06612635 -0.009016459 -0.0645915 0.09768936 -0.0792519 0.019123884
0.19170417 -0.015894389 -0.28943095 -0.17126714 0.009768748 -0.14917284 0.07247833 0.14287154
-0.03485937 0.005823883 0.07667014 0.0813175 0.06676016 0.22518644 -0.040121593 0.058420796
-0.04295511 0.0843676 -0.13511086 -0.32206652 -0.023433024 -0.39319363 0.04390646 -0.08402904
-0.22658612 -0.072650485 0.10957372 -0.01967426 0.13762887 0.22714795 -0.042367868 -0.25455177
0.21411414 -0.14585693 -0.09058238 0.3442496 0.08365332 0.2643397 -0.53143156 0.42324778
-0.22495879 0.026694395 0.060163468 0.16893727 -0.33739582 0.20720689 -0.3190202 -0.35604435
-0.12681678 0.0033646508 0.072151884 0.06020321 -0.17807364 -0.11942949 0.1525457 -0.10044253
-0.07585468 -0.08450449 -0.028305525 0.05378211 0.123325974 0.01530066 -0.008015835 0.15456411
-0.086726315 -0.18980177 0.25079364 0.24376576 -0.29316542 0.11744386 -0.16940656 0.2564475
0.09154479 -0.13009009 -0.21235266 0.049759246 -0.10994373 -0.046889186 0.046057995 0.008333773
0.06705342 -0.08409919 0.3173763 0.045788452 0.097902626 0.38678026 -0.008774111 -0.2853547

lstm.bias_ih_l1 f4 [256]
00000000: d5fb 26be 5e3f 4ebe 7bc6 c8bd 6b1a 993c
00000010: aee4 74be d13b 1dbe 5232 a13e dc10 5fbe
00000020: 3fb0 3dbe eec4 83be a33c 053f a572 79bc
00000030: c7ff f63d 490f 58ba 1882 5b3d b217 87bd
00000040: 1f53 5cbd a2fd 343d b7ba a4be 830a 723d
00000050: 2ff9 b23d 05c1 dbbe db07 f5bd 4923 40bd
00000060: 3983 77be 73b4 d6bb e6f1 a4bd 21e2 18be
00000070: 1370 67be 3ba4 4a3e c2da 99be 27c0 e6bd
00000080: 66e9 a1bd 580b ae3e f29a 33bb cc10 10be
00000090: ccf0 7ebe 7826 d9be 8782 2cbc c1d8 f43d
000000a0: 6b7a 81be 3406 273e b44a c63c 9673 223d
000000b0: a5ce febd f13d e6bd 61b2 40be e62b 07be
000000c0: a4da 75be 733d c63e e342 2dbd a083 27be
000000d0: 91cc bfbe 8f7e 1ebd 436b 3ebe 7d72 b2bd
000000e0: eaa3 c1be 77f2 7abd 4c35 8bbe 2af3 a1be
000000f0: 1304 adbe 51e9 c9bd f50d 2c3d 5cda 003e
00000100: 19bf 953d 4f6f 8fbd 97b5 dbbd 8d5a 723e
00000110: 887f 2ebc e7de d03d df96 50be ceb2 88be
00000120: cc79 63bd 48c8 aebc f480 67be f83b 1abd
00000130: 43f5 9b3e d89e d03d 36e5 303e 2716 21bd
00000140: f548 42bd 5612 c43e 2069 293d e6ff 683e
00000150: 33b8 b3bd f25a e1bd 6887 603b 0f3d b5be
00000160: d33b 24be 5130 263b 5d1c 283e 3833 10bd
00000170: ffbd 1bbe 18ea a1be 032f 3c3d 717c 28be
00000180: bc03 1cbe d3b9 8cbe 3685 9dbd 4098 18bd
00000190: 1742 bcbd 4e76 023e 20ce 15be 63e2 1bbe
000001a0: 0943 73be 8ae8 72be 3501 903e 6645 d33d
000001b0: ff0e 293d 5331 8a3d a27c 93bd 24c8 bcbd
000001c0: ef0b 35be 91a8 63be cd91 86bd 55b8 86be
000001d0: dc84 4dbe a6eb 07be f305 22be 310a 23bc
000001e0: 4a84 0bbe 28b4 e9bd 350a 39bd e89b f63d
000001f0: 379d 93be f457 82bc e419 37bd 7997 86be
00000200: bd75 31bd 18bd 63bd 167f 4b3e 0e17 c93c
00000210: bf47 e2bd 4fd6 9c3d 3d94 14bd 5b66 07be
00000220: 1758 d13d d9d9 2ebe d877 f9bb b237 6a3d
00000230: e2c5 803d b53c d53d 9a8e 04be 63dd 0a3e
00000240: c7ca e33d 3abe ffbd 67b7 033c 4081 8c3c
00000250: 4809 7abc d8fc ce3d 6128 913c 5c1b e2bd
00000260: 4354 d53d 0f35 1ebe 362c 73ba de8f 74bd
00000270: cca7 33be b3af b23c 63c3 db3d 8004 2ebd
00000280: 4c3d 17be da25 c3bc ae97 c8bc a190 10be
00000290: cfbd 413e 2687 d83b f33d f03c c388 86bd
000002a0: 255a 49be 5966 9e3d 713f 273e fdc1 463d
000002b0: f4ac e5bd 7116 4f3e e880 ddbd 829d ae3c
000002c0: 4d17 0dbd 6c26 a539 f537 bc3d 4344 0cbe
000002d0: 7959 13be 7208 93bd 3854 553d 4842 92bd
000002e0: 42be 3bbd 0bd9 c9bd 4fe0 b53d 0c2a d13d
000002f0: 5a2b 38bd 2fa6 c73d c77c a7bd 2170 c5bd
00000300: 2334 bfbd a475 8fbd ba3c 1bbd 3fd6 8abc
00000310: 603b 30be c7f2 87bd 08a3 b83e 0bb9 d0bd
00000320: 4f00 2fbc 43bf 4cbe 3013 413f def3 b6bd
00000330: 8e26 0c3e a3d8 c6bd 04f4 1b3e 05d8 93bb
00000340: 1f6c 50bd 31a7 223e 3284 48bd 57d5 ebbd
00000350: 5e16 8d3e 1cbc 51be f039 803d 54a1 0a3e
00000360: 885a 78be 1d1f babd a517 c4bd 6c85 f8bd
00000370: 6e68 bf3c 2118 3e3e 3b4b afbe ad32 873d
00000380: 109c 0a3d ff7d 293e 88b7 993d 4673 be3c
00000390: f8eb 95be 07e9 eabd ab9f 033e 0b34 ef3d
000003a0: 512d 78be 4235 b73d 8107 303e 5e71 6e3e
000003b0: 01b6 883d dbd2 96be eef9 d7bd 9423 0e3d
000003c0: 18c5 b3bd 5557 2e3e 9d33 a93d d1f7 13be
000003d0: a45b 89be 46d6 3ebe 9df7 8cbc b4ef febd
000003e0: 790f c6be 3bd8 26be a346 d1be 242b e1bd
000003f0: d6ce a3be 2cd1 23bd d721 473e e9f5 303e
-0.16307004 -0.2014136 -0.09803482 0.018689355 -0.2391536 -0.1535485 0.31483704 -0.21783775
-0.18524264 -0.25736183 0.5204565 -0.015225087 0.120605044 -0.0008242024 0.053590864 -0.065963164
-0.053790208 0.044187196 -0.32173702 0.059092056 0.08738934 -0.429207 -0.11964389 -0.04690865
-0.24171151 -0.006552273 -0.08053951 -0.14930011 -0.22601347 0.19789211 -0.3004971 -0.11267119
-0.07905845 0.3399303 -0.0027405587 -0.14068907 -0.24896544 -0.42412162 -0.010529167 0.11955405
-0.2528871 0.1631096 0.024205543 0.039661013 -0.12441758 -0.11242283 -0.18818046 -0.1320034
-0.24009186 0.38718757 -0.042300116 -0.16358805 -0.3746076 -0.038694914 -0.18595605 -0.08713243
-0.3782037 -0.06126639 -0.271891 -0.31630832 -0.3379217 -0.09858955 0.042005498 0.12583297
0.073118396 -0.07003652 -0.10727995 0.23667355 -0.010650523 0.10198765 -0.20370053 -0.26698917
-0.055536076 -0.021335736 -0.22607785 -0.037654847 0.30460557 0.10186547 0.17274937 -0.039327767
-0.04743286 0.3829524 0.04136002 0.22753868 -0.087753676 -0.110036746 0.0034260396 -0.35398147
-0.16038446 0.0025358389 0.1641707 -0.035205096 -0.15209197 -0.31623912 0.04594327 -0.1645372
-0.152358 -0.27485523 -0.076914236 -0.037254572 -0.09192293 0.12740442 -0.14629412 -0.15223078
-0.2375604 -0.23721519 0.2812592 0.10315971 0.041274067 0.06747689 -0.07201506 -0.09217861
-0.17680334 -0.22232272 -0.06570778 -0.2631251 -0.20070213 -0.13273486 -0.15822582 -0.00995116
-0.13624683 -0.11411315 -0.04517575 0.120414555 -0.28830883 -0.01591108 -0.044702426 -0.2628744
-0.043325175 -0.055600256 0.19872698 0.024547126 -0.11048841 0.076580636 -0.036274184 -0.1322264
0.1022188 -0.1707529 -0.0076131634 0.05718202 0.06287743 0.104119696 -0.12945023 0.13561015
0.11122661 -0.12487455 0.008039332 0.017151475 -0.015261002 0.1010682 0.01771945 -0.11040375
0.10416462 -0.15449928 -0.00092763023 -0.059707515 -0.17544478 0.021812296 0.107306264 -0.04248476
-0.14769477 -0.02382176 -0.024486389 -0.14117672 0.18920062 0.006607908 0.029326415 -0.06569054
-0.19663294 0.07734365 0.16332795 0.048524845 -0.11214629 0.20223404 -0.108156025 0.02131534
-0.03444605 0.0003149988 0.091903605 -0.13697915 -0.143896 -0.07179345 0.05208227 -0.071415484
-0.04583574 -0.09855851 0.08880674 0.10213098 -0.04496322 0.09748494 -0.08178096 -0.096405275
-0.09336116 -0.0700486 -0.03789971 -0.016947864 -0.1721015 -0.06638103 0.36061883 -0.10191544
-0.010681226 -0.19994836 0.754199 -0.08933233 0.13686582 -0.09709289 0.15229803 -0.0045118355
-0.050884362 0.15884091 -0.048954196 -0.11515301 0.27556127 -0.20481914 0.06261051 0.13538104
-0.24253285 -0.09087966 -0.09574822 -0.12134823 0.023365226 0.18563892 -0.34237084 0.066014625
0.03384024 0.1655197 0.07505709 0.023248326 -0.29281592 -0.11470228 0.12853877 0.11679848
-0.24236037 0.08945705 0.17190363 0.23285434 0.066753395 -0.29457745 -0.10545717 0.0347019
-0.08777827 0.17025502 0.082617976 -0.14450003 -0.2682773 -0.18636426 -0.017207915 -0.124480635
-0.3868368 -0.16293423 -0.40874204 -0.109945565 -0.3199374 -0.039994404 0.19446503 0.17281307

lstm.bias_hh_l1 f4 [256]
00000000: 03d8 16be 922f 3abe 5287 5dbe 0107 043e
00000010: 96fe 20be d0bf 67bc 01ba d33e c841 51be
00000020: 0d8c 63bd f5d4 42be b21b 033f 2afb 153d
00000030: f02c 21bc ad4f 3fbe eafc 663d efdb 58be
00000040: 27fe bf3c 6185 78bd 493f e3bd 2248 fc3d
00000050: 0b76 c93c b04e 9abe c966 603d 0e2c 9e3d
00000060: f84f 42be 17e0 1dbe b20f 403d 6176 87be
00000070: 2287 0abe 9945 1a3e b3e7 2fbe 2d48 98bd
00000080: 42bf 8abd c9d5 fe3d bb00 40bd cdc7 083d
00000090: 5a91 f8bd a20a d5be 0337 a73d 40ca 363e
000000a0: eeb4 07be 44ca 2b3e 0206 9ebd 1640 8a3d
000000b0: c507 e7bd 6081 b23b 9ece 27bc 7c8e a2bd
000000c0: 77c6 85bd 7712 523e 6a0e 9b3d 81f0 85be
000000d0: c8de 39be 4068 4abe bf03 8cbd c4ea c8bd
000000e0: 927a 44be 4faf 77bd adfe 61be 23fa 91be
000000f0: 92ff 8cbe 8341 28bd 8c8f 813d d52c 4c3e
00000100: 9d88 86bd 4c2e 0ebe 77c3 32bd 1688 f53d
00000110: c54c 823c eff1 a0bb ab28 13be 1362 84be
00000120: 6422 b1bd 152a f33d 1ce5 acbe 1d0d fd3a
00000130: 93b7 9b3e 1c7e 0d3e 1964 d0bc d114 e6bd
00000140: 5cef 063d c2d5 873e bfe2 67bd 8a7d 0f3e
00000150: 1a36 f7bd 6a0c 74be 1e2f ccbd 3386 d9be
00000160: b08b 6bbe 7dd0 31bd 7dee 5a3e f3b3 4ebe
00000170: d57b 03be a124 30be 9a5c e3bd 0e67 ea3c
00000180: f99d 42bd c9e1 85be 9dae 72bd c566 ed3d
00000190: ff20 41bd 2b87 103e 821c 9abd 8211 a5bd
000001a0: cd27 94be abfe 2bbe fd2c 0f3e f6ec 033e
000001b0: efe7 70bc 7640 193e db43 94be ceb3 2bbd
000001c0: feaf 23be 586a 85be 9b61 8abd 71fd 94be
000001d0: 1214 5bbe bb31 c03d 4245 4ebe 93e2 bcbd
000001e0: 1e69 86be 560f 15be 6c66 57be 9f04 493d
000001f0: 2e65 95be b45c 9a3b 02df 71bd fd98 3fbe
00000200: e837 13be 4ec9 9b3d 022a 01bd 1e65 613e
00000210: f046 b0bd fd56 b63d 2ea0 f2bd 4219 d5bd
00000220: e4ee 773d 7118 f4bd fbd9 02be cba1 1b3e
00000230: c930 e3bd 409f 873d 6f2e 01be 1674 983d
00000240: 32ee 03be b3e4 893c 1622 11bd c962 ff3d
00000250: ef2f 433e ec9f 2c3e 8d89 00be 11d4 0b3d
00000260: 8ea0 0c3e 79fc a8bd c345 9e3d 031a e73d
00000270: 0111 2abe 1c4a 813c c88c 7c3d 85fd 70bc
00000280: a336 c9bc 5b54 4fbd 9ccf 40be 05bf c0bd
00000290: 7c15 413e 78cf 773d 20e9 973c 3571 edbd
000002a0: d22c 52bd 60bc c23d 1e80 b5ba 8c88 843d
000002b0: 7a45 d6bd bb53 543e 0413 a13c 6f95 a43d
000002c0: 5f13 3d3e 23a6 a43c 4484 003e 73b0 97bd
000002d0: 8178 6a3c e66d bbbd 4a46 1e3e 1381 013e
000002e0: e50c 0d3e 5009 efbc 1e6c c13d d821 d3bc
000002f0: 8cef e9bd 67ba f73d 9ae9 633c 59a3 f1bd
00000300: b0d7 63be 3219 b0bc 2fb2 bebc 9d20 f73b
00000310: bf90 8b3c c46d c83d 0892 ea3e b29c 18be
00000320: 7910 5a3b ec43 38bd deb3 503f 3c3d d83c
00000330: 6dda 883e 5730 8dbd 8421 173d 9505 cfbd
00000340: 5de2 bcbd ad07 743d 63c3 64bd d826 4dbd
00000350: 813c 653e aa68 abbe fa4c bebd 5c47 d83c
00000360: 6bcc 5ebe a276 9ebd c6f9 53be d0a7 cdbd
00000370: 6d28 37be 72b6 643e 7483 43be 71a6 a6bc
00000380: 4ed1 88bc 3bd3 173e ac29 a83d e913 e73a
00000390: aa5a 76be f4ab bdbd 8fdd 2e3e dc2e 483e
000003a0: 74f6 2abe d850 363e 1101 383e fe77 093e
000003b0: 6e1f 0c3d 095b 0dbe 937a 843c 9da0 033d
000003c0: fc1f 67bd 15b5 5c3e 431c 463e 46d0 1bbe
000003d0: b804 50be aac9 f6bd 80be dabd 4b45 d6bd
000003e0: 05a5 bebe b3b7 35be eb7b 8bbe 2b76 08be
000003f0: 9706 7bbe 3887 45be 9940 4e3e e47e 173e
-0.1473084 -0.18182209 -0.21633652 0.12893297 -0.15722117 -0.014144853 0.41352847 -0.2043525
-0.055553485 -0.19026549 0.51214135 0.03661648 -0.009837374 -0.18682738 0.05639354 -0.21177648
0.023436619 -0.060674075 -0.11096055 0.12318446 0.02459242 -0.3013816 0.054785524 0.077232465
-0.18975818 -0.15417515 0.04688997 -0.26457503 -0.13528112 0.15065612 -0.1717823 -0.074356414
-0.06774761 0.1244312 -0.046875697 0.03339367 -0.121370986 -0.41609675 0.081647895 0.1785059
-0.13252613 0.16776377 -0.0771599 0.06750505 -0.11280779 0.0054475516 -0.0102421325 -0.07937333
-0.06531995 0.20514856 0.07571109 -0.26160052 -0.1815139 -0.1976633 -0.06836652 -0.09810403
-0.19187382 -0.06046992 -0.22069807 -0.28511152 -0.27538735 -0.0410781 0.063262075 0.19938977
-0.06569026 -0.13884848 -0.04364344 0.11988847 0.015905747 -0.004911653 -0.14370982 -0.25856075
-0.086491376 0.11873261 -0.33768547 0.0019306276 0.30413494 0.13817638 -0.025438355 -0.11234439
0.032943115 0.26530272 -0.056612726 0.14012733 -0.12070866 -0.2383286 -0.099699244 -0.42485198
-0.23002505 -0.04341172 0.21380039 -0.20185833 -0.12840207 -0.17201473 -0.11101647 0.028613593
-0.047513936 -0.26148823 -0.059248555 0.11591867 -0.04715061 0.14114062 -0.07524969 -0.0805998
-0.28936616 -0.16796367 0.13982005 0.12883362 -0.014703735 0.14965996 -0.2895802 -0.041919522
-0.15985104 -0.26057696 -0.06756898 -0.2909961 -0.21394375 0.09384485 -0.20143607 -0.09222903
-0.26252073 -0.14556631 -0.21035165 0.049076673 -0.29178756 0.004710758 -0.059050567 -0.18710704
-0.14376795 0.07606755 -0.031534202 0.2201123 -0.0860728 0.089033104 -0.11846958 -0.10405208
0.06053056 -0.11918724 -0.12778465 0.15198438 -0.110932894 0.066221714 -0.1261537 0.07444017
-0.12883833 0.016832685 -0.035432898 0.12470014 0.19061254 0.1685788 -0.12552471 0.03413779
0.13733122 -0.0825128 0.0772815 0.11284258 -0.16608049 0.015782408 0.061657697 -0.014708881
-0.024562186 -0.050617557 -0.18829197 -0.09411434 0.18855852 0.060500592 0.01854378 -0.11593858
-0.051312275 0.09508586 -0.0013847386 0.06471357 -0.1046247 0.20735066 0.019662388 0.08036315
0.1846442 0.020098751 0.12550455 -0.07406702 0.014310957 -0.09151821 0.154565 0.12646894
0.1377445 -0.029179245 0.0944445 -0.025772974 -0.11422643 0.120961 0.013910675 -0.11798734
-0.22250247 -0.021496389 -0.023278324 0.0075417296 0.017036794 0.09786561 0.45814538 -0.14903525
0.0033273979 -0.04498665 0.81524456 0.026396386 0.26729146 -0.06893986 0.036897197 -0.101084866
-0.09222863 0.059577633 -0.055850398 -0.050085872 0.22386362 -0.3347829 -0.09292026 0.026401214
-0.21757667 -0.07737471 -0.2070075 -0.10041773 -0.17886515 0.22335222 -0.19093114 -0.020343037
-0.016701367 0.14826672 0.08211073 0.0017629835 -0.24058023 -0.09261313 0.17076705 0.19549125
-0.16695577 0.17804277 0.17969157 0.1342468 0.03420966 -0.13804258 0.01617173 0.032135595
-0.056426987 0.21553452 0.19346718 -0.15216169 -0.203143 -0.12050183 -0.10680866 -0.10462435
-0.37235275 -0.17745857 -0.2724298 -0.13326328 -0.24514233 -0.19289863 0.2014183 0.14794499
