Models/Precipitation_Models/aqaba_precipitation_model.pth (torch, 224095 bytes, 11 tensors)

lstm.weight_ih_l0 f4 [256, 11]
0.21740745 0.3341005 -0.2283901 -0.1910265 -0.34604278 -0.082401425 -0.3783471 -0.118609466
-0.4106263 -0.28083196 -0.19934723 0.04655358 -0.1071161 -0.108878955 0.09861035 -0.5360574
-0.17221813 -0.23610526 -0.29789412 -0.13225532 0.34028974 -0.021808088 -0.13875006 0.39084455
-0.24471925 -0.026848566 0.031972088 0.15465409 0.035835035 -0.11540712 -0.20995109 -0.006719702
-0.18533157 -0.13758288 -0.30911222 0.103812546 -0.07019609 -0.22471541 0.27903953 0.045877
-0.14619744 0.4528072 -0.123644225 0.05916065 -0.2938027 -0.0071234195 -0.36827388 -0.4423549
-0.049636133 0.15556823 0.2382417 0.15918045 0.036892552 0.13607225 0.006586915 0.18096082
-0.06606126 -0.11745092 0.5524364 0.10402199 -0.33918062 -0.37957376 0.00014414071 0.04953055
-0.033742193 0.029180722 -0.15183505 -0.14231844 -0.03184538 -0.33444813 0.0814528 0.1244016
0.03972364 -0.35146093 -0.042028986 -0.044927176 0.18729319 0.108585216 -0.07803131 0.311943
0.55826235 0.06388267 0.13923687 0.21725287 0.14432454 -0.7266591 0.16760638 -0.021042373
0.33808905 -0.13705027 0.319451 0.030477552 -0.2981891 0.35706383 -0.38136166 0.3667873
0.13680959 -0.18323019 0.02256857 0.07117264 -0.16057886 0.109251425 -0.27505454 0.098052315
0.1967207 -0.18118018 -0.33703938 -0.23005477 0.043486357 -0.034978148 -0.007830807 -0.037780125
-0.029677965 0.22160377 0.033199977 0.11093006 -0.5629496 -0.085990965 -0.47645617 -0.015991071
-0.27668414 -0.3797664 0.12544246 -0.039436676 -0.49623936 -0.2054812 0.06998829 0.08399251
-0.13521446 -0.3467631 0.04143101 -0.35992795 0.03177512 0.20729767 -0.1949715 -0.1331474
-0.09429355 -0.022010857 0.014376935 -0.30451503 -0.5451398 0.269469 -0.23356684 0.086619526
0.24900888 0.0802912 -0.016052557 -0.25859255 0.0032542257 -0.3494577 0.20164056 -0.020454692
-0.09875594 -0.3420746 -0.07398344 -0.40707067 0.21035157 -0.20450577 -0.21495895 0.05041043
0.07774597 -0.0033283676 -0.051173206 0.07288146 0.07747425 -0.12801138 -0.29919523 0.03959835
0.2698366 0.19835046 -0.07370578 0.07592 -0.32352212 0.16780396 0.15306354 0.072649546
-0.15217291 -0.20247121 -0.05580876 -0.0030810172 -0.117069885 0.05790888 0.351502 -0.06753078
-0.2766423 0.21703328 0.087261915 -0.35820895 -0.11789508 -0.30210212 -0.044689164 -0.16923618
0.21289524 -0.31332284 -0.03420294 0.09567996 -0.066631064 -0.17707299 0.039674364 0.17426328
-0.24265617 0.048429284 -0.13608783 -0.44918746 -0.16725661 0.05073801 0.13680595 0.20931306
-0.18362138 0.23721315 0.06167856 -0.04442587 0.08430137 0.12360192 0.13658673 -0.10328
-0.14846896 -0.22153683 -0.20470183 0.39818144 -0.23771548 -0.28064454 0.11630277 0.43197727
-0.029865682 -0.11370302 -0.23335795 -0.3974085 0.10940554 -0.2629015 0.21280633 0.069199
-0.059210118 0.12903222 0.323518 0.3024925 -0.08870112 -0.24822986 -0.032527126 -0.10341053
-0.29550484 0.23370767 -0.29402325 0.27754593 -0.39786732 0.23404382 -0.027634216 0.27975786
-0.011119045 -0.108783305 0.17726138 0.060782578 -0.15451494 0.25744164 0.17525454 -0.1269262
00000000: 0fa0 5e3e 390f ab3e 18df 69be 739c 43be
00000010: 852c b1be 14c2 a8bd b6b6 c1be 85e9 f2bd
00000020: 9c3d d2be 35c9 8fbe ae21 4cbe f7ae 3e3d
00000030: b05f dbbd eefb debd 39f4 c93d 0f3b 09bf
00000040: f359 30be 94c5 71be 9485 98be f06d 07be
00000050: 753a ae3e e0a6 b2bc 7f14 0ebe c71c c83e
00000060: af97 7abe 86f1 dbbc 2af5 023d a45d 1e3e
00000070: c2c7 123d 915a ecbd 6bfd 56be f230 dcbb
00000080: 8fc7 3dbe 87e2 0cbe f543 9ebe ac9b d43d
00000090: f8c2 8fbd cc1b 66be 45de 8e3e 85e9 3b3d
000000a0: c8b4 15be 58d6 e73e 2f39 fdbd 7052 723d
000000b0: 4f6d 96be 936b e9bb 658e bcbe 577c e2be
000000c0: 424f 4bbd 474d 1f3e a2f5 733e 3300 233e
000000d0: a51c 173d 8656 0b3e 0cd7 d73b cb4d 393e
000000e0: 204b 87bd 1c8a f0bd 796c 0d3f 7b09 d53d
000000f0: 15a9 adbe 7e57 c2be 7a24 1739 8ce0 4a3d
00000100: 4135 0abd 690c ef3c a67a 1bbe edbb 11be
00000110: 4d70 02bd c93c abbe bad0 a63d 44c6 fe3d
00000120: 41b5 223d b0f2 b3be 9626 2cbd 8f05 38bd
00000130: c9c9 3f3e ed61 de3d e1ce 9fbd feb6 9f3e
00000140: 48ea 0e3f ebd4 823d 1c94 0e3e 8977 5e3e
00000150: d0c9 133e 5506 3abf 02a1 2b3e 0e61 acbc
00000160: 021a ad3e e856 0cbe 158f a33e 0fac f93c
00000170: 3eac 98be 12d1 b63e d641 c3be 8ccb bb3e
00000180: d017 0c3e b2a0 3bbe b9e1 b83c f6c2 913d
00000190: c96e 24be 36bf df3d f3d3 8cbe a7cf c83d
000001a0: 2771 493e 4c87 39be 6d90 acbe 7a93 6bbe
000001b0: c01e 323d 3f45 0fbd c94c 00bc 55bf 1abd
000001c0: 341f f3bc 19ec 623e b3fc 073d 4d2f e33d
000001d0: 771d 10bf 081c b0bd 10f2 f3be b5ff 82bc
000001e0: 8ba9 8dbe be70 c2be fd73 003e 5a88 21bd
000001f0: 1613 febe aa69 52be 0556 8f3d 4404 ac3d
00000200: a975 0abe ef8a b1be 90b3 293d 7a48 b8be
00000210: a126 023d d745 543e 9ca6 47be cb57 08be
00000220: fa1c c1bd 1d50 b4bc 3c8d 6b3c 65e9 9bbe
00000230: 488e 0bbf d7f7 893e 252c 6fbe 9465 b13d
00000240: 2ffc 7e3e b66f a43d a780 83bc 3e66 84be
00000250: d944 553b 1fec b2be dd7a 4e3e 9990 a7bc
00000260: 8e40 cabd 6724 afbe a184 97bd 916b d0be
00000270: 6766 573e f669 51be 331e 5cbe 2b7b 4e3d
00000280: 4739 9f3d be20 5abb ff9a 51bd e042 953d
00000290: d2aa 9e3d 6a15 03be 1e30 99be e131 223d
000002a0: 0628 8a3e 621c 4b3e 0ef3 96bd f27b 9b3d
000002b0: b1a4 a5be cdd4 2b3e b0bc 1c3e 49c9 943d
000002c0: 37d3 1bbe 9d54 4fbe ba97 64bd e4ea 49bb
000002d0: 56c2 efbd dd31 6d3d 12f8 b33e 944d 8abd
000002e0: 0fa4 8dbe f93d 5e3e 60b6 b23d 2a67 b7be
000002f0: fa72 f1bd 21ad 9abe fc0b 37bd 404c 2dbe
00000300: 3601 5a3e da6b a0be 6218 0cbd dbf3 c33d
00000310: de75 88bd 9f52 35be 9681 223d 1372 323e
00000320: dc7a 78be c95d 463d 9c5a 0bbe e6fb e5be
00000330: 5145 2bbe a9d2 4f3d dc16 0c3e 2a56 563e
00000340: 3e07 3cbe 01e8 723e a8a2 7c3d e7f7 35bd
00000350: 32a6 ac3d 0123 fd3d 64dd 0b3e 7784 d3bd
00000360: 3f08 18be 8dda 62be 5b9d 51be 70de cb3e
00000370: b06b 73be a4b0 8fbe 2630 ee3d 202c dd3e
00000380: e0a8 f4bc 21dd e8bd 63f5 6ebe 2079 cbbe
00000390: 0310 e03d 079b 86be e7e9 593e 35b8 8d3d
000003a0: 4f86 72bd 0621 043e 27a4 a53e 4ce0 9a3e
000003b0: efa8 b5bd f82f 7ebe 2a3b 05bd e6c8 d3bd
000003c0: 694c 97be 1051 6f3e 378a 96be 801a 8e3e
000003d0: 44b5 cbbe 2fa9 6f3e 2761 e2bc 6c3c 8f3e
000003e0: a82c 36bc c8c9 debd 0284 353e 27f7 783d
000003f0: 2a39 1ebe 64cf 833e ed75 333e f1f8 01be

lstm.weight_hh_l0 f4 [256, 64]
-0.013278453 0.24476242 -0.18722698 -0.23926781 -0.048626237 -0.2955045 -0.04634135 -0.008916439
-0.17915347 -0.013732275 -0.059066296 -0.067798555 -0.26622897 0.43667877 -0.18535484 0.26781785
-0.253043 -0.10410786 -0.47107556 0.049964316 0.07123607 0.28582466 0.18488008 0.28137052
0.25194594 -0.31267118 -0.07424942 -0.31972793 -0.08543352 0.31048933 0.4042999 -0.15049013
-0.1463365 -0.10321999 -0.0149960155 0.2024846 -0.22924197 -0.026139662 -0.23106278 -0.15382388
0.018487096 0.10254567 0.03163736 0.020754423 -0.08108425 0.06899655 -0.20717345 0.12331962
-0.084613256 0.13411292 -0.22118068 0.30506054 0.03147606 0.060582776 -0.46539944 0.014218647
0.18157633 -0.3029405 0.26168835 0.31424588 0.26746994 -0.062943414 0.13374896 -0.06733427
0.17479244 -0.09083795 0.035412747 -0.091858886 0.067733236 -0.044837266 0.074080594 -0.07023577
-0.25580657 -0.2200801 0.16244392 0.035196237 0.07719976 0.24920644 0.23557633 0.3225491
0.0020385685 -0.11508842 -0.24940617 -0.068762645 0.18513219 -0.17773286 0.17761901 -0.013967896
0.24480797 -0.24576773 0.12001861 0.20617288 0.042445082 0.024802102 0.21439616 -0.51565546
0.21663938 0.1958684 0.25868896 0.11506581 -0.2555406 -0.23535493 0.041926228 -0.100864604
0.053670593 0.20766859 -0.051275928 -0.18716413 -0.1828856 0.31231916 0.05512343 0.077195376
-0.26103646 -0.016454203 -0.14926004 0.12563948 0.07342668 0.19177677 -0.39391974 -0.1256321
-0.10962569 -0.2952974 -0.15073451 -0.23653398 0.10739748 -0.2364103 0.5591119 -0.17360258
-0.24998608 -0.07625697 -0.15487047 0.1242847 -0.060928952 0.0582325 -0.017127601 0.2085156
0.04858744 0.11136385 -0.13747574 -0.30002564 0.22511223 -0.08517907 -0.07719909 0.1361393
-0.21366055 -0.13429993 -0.11642786 0.12155874 -0.08468282 0.1779578 -0.048653763 -0.2786638
-0.030726 0.058153227 0.063821636 0.09299042 0.16117063 0.17774628 -0.030155689 0.39336386
0.0067947856 -0.08612713 -0.08283025 -0.26684767 0.06599295 0.007349824 -0.048264395 0.11510049
-0.39627838 -0.2059621 0.12523867 0.16246076 0.079479754 -0.10293873 -0.12893146 -0.09159819
0.030969871 0.046057627 -0.0889563 0.07018917 -0.26711664 0.19280031 0.1846443 0.31455258
-0.4668501 0.17788278 0.15600246 0.12620187 0.025750168 0.23061775 -0.2973343 0.003954899
-0.09612848 0.10079602 0.14856946 -0.07296692 0.0428244 -0.1386908 -0.08212156 -0.07193938
0.34354743 -0.2573623 0.49311787 0.022607174 -0.4547521 0.13151096 0.18780348 0.036675125
0.03534973 -0.12597917 0.2083177 0.14529802 0.5533943 -0.094211765 -0.14219452 0.03544301
0.16230562 0.06373564 0.0967901 0.094654925 -0.17319928 -0.4010942 -0.06535769 -0.017664831
-0.12365943 0.15875532 0.15144868 -0.13479319 0.034295704 -0.2609582 0.00439556 0.08572026
-0.03264049 -0.024464728 -0.15667011 -0.27311534 -0.08544796 0.062480524 -0.07748546 -0.19311321
0.0139118945 0.20218211 -0.09173118 0.038084455 0.027355546 -0.20789157 -0.17755604 0.026910348
0.0919874 0.14793502 -0.31784335 0.5999657 -0.2679284 -0.17682678 0.16609141 0.1966064
00000000: de8d 59bc 00a3 7a3e 6eb8 3fbe 9f02 75be
00000010: 4e2c 47bd 5e4c 97be 6dd0 3dbd 4116 12bc
00000020: 0274 37be 56fd 60bc 80ef 71bd f8d9 8abd
00000030: 2a4f 88be 5c94 df3e a9cd 3dbe 6c1f 893e
00000040: da8e 81be 8036 d5bd d130 f1be 62a7 4c3d
00000050: 37e4 913d 9c57 923e 3451 3d3e cc0f 903e
00000060: 0fff 803e 7016 a0be 1410 98bd 61b3 a3be
00000070: c5f7 aebd 75f8 9e3e 6600 cf3e 161a 1abe
00000080: 3cd9 15be 0165 d3bd d9b1 75bc 1f58 4f3e
00000090: 68be 6abe d822 d6bc b99b 6cbe 0284 1dbe
000000a0: 4072 973c 7703 d23d 2d96 013d 2e05 aa3c
000000b0: 800f a6bd 104e 8d3d 4725 54be ff8e fc3d
000000c0: b749 adbd e654 093e 307d 62be e530 9c3e
000000d0: 0bed 003d a525 783d d648 eebe 54f5 683c
000000e0: 25ef 393e 041b 9bbe 04fc 853e d6e4 a03e
000000f0: d2f1 883e 7ae8 80bd 7df5 083e 8de6 89bd
00000100: cafc 323e 3f09 babd f50c 113d 8320 bcbd
00000110: b9b7 8a3d 48a7 37bd 91b7 973d c5d7 8fbd
00000120: 14f9 82be ae5c 61be b357 263e ee29 103d
00000130: e81a 9e3d f92f 7f3e ec3a 713e 2825 a53e
00000140: 8199 053b 7ab3 ebbd 5564 7fbe 6ed3 8cbd
00000150: 4b93 3d3e 9aff 35be c2e1 353e 9ad9 64bc
00000160: f1ae 7a3e 89aa 7bbe 51cc f53d fc1e 533e
00000170: e5da 2d3d c72d cb3c ab8a 5b3e ff01 04bf
00000180: b7d6 5d3e ba91 483e e172 843e a0a7 eb3d
00000190: 38d6 82be e200 71be d6ba 2b3d 1a92 cebd
000001a0: b2d5 5b3d 13a7 543e b506 52bd f4a7 3fbe
000001b0: 5d46 3bbe 4ce8 9f3e 1bc9 613d 9c18 9e3d
000001c0: 92a6 85be f7ca 86bc a0d7 18be a3a7 003e
000001d0: ba60 963d 2161 443e d9af c9be b4a5 00be
000001e0: 6f83 e0bd 3931 97be 265a 1abe f735 72be
000001f0: 36f3 db3d 8b15 72be f521 0f3f e0c4 31be
00000200: 5afc 7fbe 9d2c 9cbd 5d96 1ebe fa88 fe3d
00000210: a390 79bd 3485 6e3d 2f4f 8cbc 1d85 553e
00000220: a003 473d bb12 e43d 71c6 0cbe f69c 99be
00000230: d283 663e 5d72 aebd 8e1a 9ebd 1a68 0b3e
00000240: d5c9 5abe ec85 09be bb71 eebd caf3 f83d
00000250: 306e adbd 923a 363e 2b49 47bd 06ad 8ebe
00000260: 18b5 fbbc 1432 6e3d ebb4 823d c371 be3d
00000270: ea09 253e 1f03 363e 1009 f7bc fd66 c93e
00000280: cba6 de3b 6c63 b0bd e8a2 a9bd 42a0 88be
00000290: 5027 873d cbd6 f03b e3b0 45bd ceb9 eb3d
000002a0: 00e5 cabe bbe7 52be 913e 003e 1d5c 263e
000002b0: 48c6 a23d 8ad1 d2bd 9c06 04be d597 bbbd
000002c0: 87b4 fd3c eca6 3c3d b82e b6bd 57bf 8f3d
000002d0: 83c3 88be 726d 453e 6513 3d3e 090d a13e
000002e0: fa06 efbe e726 363e 1cbf 1f3e 103b 013e
000002f0: 04f2 d23c 0f27 6c3e 343c 98be 1998 813b
00000300: 02df c4bd 256e ce3d 9822 183e ae6f 95bd
00000310: a368 2f3d f604 0ebe 592f a8bd f454 93bd
00000320: 73e5 af3e fec4 83be f279 fc3e ae32 b93c
00000330: 44d5 e8be cfaa 063e 8e4f 403e a838 163d
00000340: e1ca 103d af00 01be 3c51 553e 01c9 143e
00000350: 40ab 0d3f 19f2 c0bd 719b 11be b12c 113d
00000360: 7233 263e d587 823d e339 c63d 71da c13d
00000370: 275b 31be 385c cdbe 41da 85bd d6b5 90bc
00000380: 2841 fdbd c190 223e 5d15 1b3e 3a07 0abe
00000390: a779 0c3d 509c 85be a108 903b 1b8e af3d
000003a0: 09b2 05bd 416a c8bc 216e 20be c6d5 8bbe
000003b0: 57ff aebd 94eb 7f3d b2b0 9ebd 78bf 45be
000003c0: b7ee 633c d408 4f3e 8fdd bbbd 72fe 1b3d
000003d0: bd18 e03c 87e1 54be 40d1 35be 1773 dc3c
000003e0: e463 bc3d 477c 173e 5dbc a2be 5a97 193f
000003f0: e92d 89be 1412 35be de13 2a3e 3053 493e

lstm.bias_ih_l0 f4 [256]
-0.12985358 0.22789262 -0.2707327 0.0117710475 0.13352406 -0.01633713 0.03022498 -0.07514211
-0.06469836 0.0949096 -0.03671455 -0.17912626 -0.01613864 -0.11971898 0.1009965 0.34003365
0.13525994 -0.018276416 0.06637632 -0.05959959 0.012775013 0.19243161 0.08947319 0.22728379
-0.20021603 0.00017337862 0.06706707 0.15744752 0.101006664 -0.09316439 0.049361907 0.111732356
0.10610561 0.08958032 0.13316749 -0.07423768 -0.08704195 -0.034197167 0.11442502 -0.14766122
-0.075732246 -0.035560504 0.013752801 0.19169931 -0.30388522 -0.06870982 -0.1416274 0.21121824
-0.034804948 -0.17583519 -0.15564127 -0.0360321 -0.103783265 0.19979772 -0.19032222 -0.032069016
-0.016880175 -0.11524479 0.07629861 -0.15632617 -0.18480997 0.018533614 -0.03218477 -0.05168899
0.0128274085 0.11938049 -0.17138629 0.1468653 0.18826857 -0.009558495 0.15254194 -0.061971154
0.00020279923 0.22486043 0.10962405 -0.1771624 0.020672882 0.071716316 -0.1465018 0.24674836
0.028680569 -0.012967314 0.0009148183 0.15229082 0.026098285 0.19438867 -0.11095219 0.12553312
0.24535334 0.2227888 0.13634136 0.12583306 -0.0067905844 0.36225373 -0.07518564 -0.0032729402
0.14667608 0.21920522 0.2163893 0.098471224 -0.0844775 -0.18990618 0.21022286 0.015004532
-0.013077913 0.10855129 -0.09506153 0.18302357 -0.057021167 -0.010901531 0.18766944 -0.019031487
0.16844915 -0.029400475 0.014720583 0.06822561 0.11109492 0.16369893 -0.1462008 0.17742652
0.103658974 0.26488537 -0.0253279 0.121041074 0.005096861 -0.13334905 0.07589079 0.0019303106
0.22077931 0.12792856 -0.033786666 -0.14247718 -0.080941 -0.1523593 -0.033464387 -0.031473145
-0.010429946 -0.1538924 -0.17019905 -0.020916248 -0.15870889 -0.004151719 0.05302414 0.16223319
-0.19499029 -0.02272074 -0.028306618 -0.14210835 0.044544056 0.1250524 -0.017407376 -0.07817906
0.05016949 -0.06422259 0.14436184 -0.11279571 -0.06392251 0.008696118 -0.097280815 -0.11214368
-0.13946375 0.160562 -0.21494171 0.177166 -0.06762873 0.07759988 0.048677363 -0.15687798
-0.022564396 0.072960354 -0.06056471 -0.14157319 -0.119414255 0.16222975 0.116613515 -0.15511777
-0.10447146 0.01775809 -0.14443158 -0.03034276 0.11348951 0.12068662 -0.13294822 -0.165469
0.19031806 -0.09055129 -0.033152454 0.066918425 0.18822552 -0.04211904 0.10166552 -0.047539912
0.037514012 0.14954826 -0.039977595 0.09967798 -0.038024776 0.07479283 -0.052006047 0.10612937
-0.016975008 0.09074041 -0.021601055 -0.39428902 0.05385746 -0.18584757 0.091433056 0.04695752
0.035691436 -0.056953955 0.0014283997 0.053979475 0.16766024 0.23493563 0.20769091 0.31117377
-0.020824723 0.25166118 0.12437641 -0.076800525 0.14649859 -0.035247717 -0.03802785 0.18767428
0.09353448 0.17075613 0.22485404 0.19112472 0.07186131 -0.08370854 0.21473056 -0.1897336
-0.105606325 0.0036111127 -0.022001136 -0.061028395 -0.15579218 0.0057536806 -0.18703474 -0.025258059
-0.110115826 -0.06042945 -0.043205455 0.009517231 0.13908358 -0.10746052 -0.16148655 0.09780641
0.044101577 0.15181501 -0.0070936605 0.16377795 -0.0054180524 -0.13072486 -0.024578435 -0.006844619
00000000: 56f8 04be af5c 693e 7a9d 8abe 5adb 403c
00000010: 88ba 083e 72d5 85bc 619a f73c 1be4 99bd
00000020: 9380 84bd f75f c23d ff61 16bd e06c 37be
00000030: 2e35 84bc 392f f5bd 41d7 ce3d e418 ae3e
00000040: 9581 0a3e 6cb8 95bc 4ff0 873d b31e 74bd
00000050: 4a4e 513c cb0c 453e b83d b73d 15bd 683e
00000060: 6e05 4dbe f8cc 3539 765a 893d ec39 213e
00000070: 95dc ce3d f9cc bebd b62f 4a3d efd3 e43d
00000080: e64d d93d e375 b73d 0f5d 083e ed09 98bd
00000090: 0d43 b2bd 5412 0cbd aa57 ea3d 8134 17be
000000a0: 8219 9bbd e4a7 11bd 6e53 613c d34c 443e
000000b0: d896 9bbe bcb7 8cbd c606 11be 9849 583e
000000c0: a28f 0ebd 240e 34be 6d60 1fbe 6596 13bd
000000d0: 528c d4bd c697 4c3e d4e3 42be cd5a 03bd
000000e0: 4b48 8abc 7605 ecbd 7242 9c3d f813 20be
000000f0: d33e 3dbe ced3 973c 2dd4 03bd d6b7 53bd
00000100: 0d2a 523c c27d f43d e37f 2fbe db63 163e
00000110: 7ac9 403e 3c9b 1cbc f433 1c3e 77d5 7dbd
00000120: 81a6 5439 d041 663e 9382 e03d 0f6a 35be
00000130: 2d5a a93c 01e0 923d 9104 16be 9aab 7c3e
00000140: 83f3 ea3c db74 54bc 6bd0 6f3a 20f2 1b3e
00000150: 12cc d53c d30d 473e e73a e3bd c18b 003e
00000160: e83d 7b3e bf22 643e 129d 0b3e 62da 003e
00000170: 8d83 debb 5279 b93e eefa 99bd d37e 56bb
00000180: 4132 163e 5577 603e 2895 5d3e 48ab c93d
00000190: 8a02 adbd c476 42be a944 573e 92d5 753c
000001a0: be44 56bc 2450 de3d 9faf c2bd 886a 3b3e
000001b0: 078f 69bd 569c 32bc 6b2c 403e ece7 9bbc
000001c0: ef7d 2c3e 44d9 f0bc 9a2e 713c deb9 8b3d
000001d0: bc85 e33d b1a0 273e aab5 15be 4caf 353e
000001e0: 284b d43d 0e9f 873e 757c cfbc 62e4 f73d
000001f0: 9203 a73b a78c 08be a16c 9b3d 7a02 fd3a
00000200: f913 623e b4ff 023e e363 0abd 8ae5 11be
00000210: 65c4 a5bd 1404 1cbe f411 09bd fce9 00bd
00000220: 5de2 2abc f895 1dbe a948 2ebe 8d58 abbc
00000230: 9584 22be 250b 88bb d72f 593d 7520 263e
00000240: 89ab 47be d820 babc 48e3 e7bc da84 11be
00000250: d473 363d bd0d 003e ea99 8ebc 581c a0bd
00000260: 867e 4d3d 2287 83bd 97d3 133e 7001 e7bd
00000270: cee9 82bd 2a7a 0e3c 2a3b c7bd 96ab e5bd
00000280: 96cf 0ebe 5d6a 243e ae19 5cbe 016b 353e
00000290: ee80 8abd b0ec 9e3d ea61 473d 9fa4 20be
000002a0: f8d8 b8bc 3d6c 953d b412 78bd 90f8 10be
000002b0: 768f f4bd 8e1f 263e 11d3 ee3d 31d7 1ebe
000002c0: 22f5 d5bd 6a79 913c dfe5 13be 6191 f8bc
000002d0: 306d e83d 8c2a f73d 9423 08be b570 29be
000002e0: bde2 423e f472 b9bd deca 07bd 870c 893d
000002f0: 31be 403e 0485 2cbd 0336 d03d 36b9 42bd
00000300: 4ba8 193d 2e23 193e 8cbf 23bd f823 cc3d
00000310: debf 1bbd fc2c 993d 4b04 55bd 5b5a d93d
00000320: 2c0f 8bbc 1cd6 b93d b2f4 b0bc 40e0 c9be
00000330: a499 5c3d d34e 3ebe 4141 bb3d 8756 403d
00000340: 2f31 123d 8d48 69bd 2439 bb3a 9519 5d3d
00000350: 20af 2b3e f792 703e edac 543e 2b52 9f3e
00000360: 9c98 aabc bcd9 803e 0fb9 fe3d 9849 9dbd
00000370: ba03 163e e95f 10bd 17c3 1bbd b02d 403e
00000380: 018f bf3d b2da 2e3e 2340 663e 33b6 433e
00000390: 062c 933d 626f abbd 54e2 5b3e 8649 42be
000003a0: 2148 d8bd 6ba8 6c3b ba3b b4bc e9f8 79bd
000003b0: fc87 1fbe 5f89 bc3b 0986 3fbe fde9 cebc
000003c0: 6884 e1bd df84 77bd 34f8 30bd 29ee 1b3c
000003d0: ed6b 0e3e 4314 dcbd bb5c 25be ba4e c83d
000003e0: dba3 343d 6575 1b3e f071 e8bb 68b5 273e
000003f0: eb89 b1bb bddc 05be b758 c9bc d348 e0bb

lstm.bias_hh_l0 f4 [256]
0.1081838 0.18561482 -0.18885057 0.1798801 0.09216662 -0.101896085 -0.08351571 0.016138697
0.008363073 -0.035473768 -0.07978517 -0.32577142 -0.055161282 0.00048628406 0.01867013 0.33181137
0.022988027 -0.057092752 0.14328505 0.042338487 -0.12995054 0.051875375 0.15323855 0.22127609
-0.067114525 -0.023789816 -0.015149117 -0.04739826 0.040595084 0.022664964 -0.070244975 0.11782398
0.23668249 0.16057181 0.13019063 -0.071482904 -0.011131796 -0.070788264 0.05339262 -0.04151237
-0.09231565 0.10116825 -0.068326615 0.16258045 -0.26364747 -0.088409215 -0.010357935 0.07447629
-0.24441321 -0.10337748 0.07384522 -0.07099724 -0.07650775 0.12808837 -0.25914952 -0.15009789
0.01611147 -0.03762498 0.0050389185 -0.15069361 -0.15121467 0.011486981 -0.0638796 0.06931654
0.12846549 0.18231294 -0.0126496665 0.021742156 0.103309646 -0.05378626 0.13028051 -0.034396436
0.1418593 0.30619726 0.074005604 -0.056988608 0.11678817 -0.16236845 -0.07762756 0.40437055
0.13089843 0.05861698 0.09962225 0.37980834 0.0072572585 0.08175102 -0.10895465 0.09717135
0.053380866 0.13120931 0.052628715 0.07848453 -0.03822713 0.3593768 -0.024624472 0.049992558
0.2768015 0.1233484 0.18388008 0.091211095 -0.111896455 -0.12762561 0.20129894 -0.07734135
-0.008037155 0.09416581 0.047497932 -0.024566498 -0.03062575 -0.12445831 0.025502827 0.071861066
-0.017282797 0.12094649 -0.07340901 0.035312627 0.06529673 0.17575663 0.066893764 0.17449833
0.17660119 0.16561756 -0.09041238 0.099289194 0.18565328 -0.01837325 -0.037365578 -0.13373078
0.1271037 0.018463211 -0.12195579 0.000800753 -0.020968648 -0.14680557 -0.02595174 -0.040315337
-0.13730593 -0.089279234 -0.17605439 -0.06212879 -0.13796733 -0.026718449 0.08579741 0.20276241
-0.049515385 0.046208378 0.12618157 -0.042864986 0.15478411 0.03366273 0.09526913 0.122499794
0.10681978 -0.19715564 0.13586585 0.06342867 -0.16120015 0.07158256 0.09889808 -0.07792601
0.023099842 0.2190749 -0.008728994 0.12742545 -0.226772 -0.045879453 -0.016457029 -0.07126995
0.12196811 -0.083647706 -0.13820824 -0.04685114 0.050202426 0.02879317 0.14945754 -0.02924098
-0.02508418 0.13424648 -0.097719386 -0.041040592 0.19971833 0.01976366 -0.049994454 -0.0930109
0.102643445 0.04824537 -0.1483197 -0.06089424 0.055189066 -0.013163382 0.10892123 -0.0028983431
0.10732562 0.08748522 -0.11496934 0.14041837 -0.11432325 0.14694563 -0.13815331 0.032049622
-0.13732712 0.17161766 0.00681807 -0.38039958 0.058941722 -0.12289902 0.026733069 -0.07742847
-0.016624155 0.07192201 -0.0053890264 -0.013704856 0.0033320636 0.12534457 0.21021515 0.1845723
0.037634484 0.1351659 0.05796857 -0.04836308 0.1975732 0.03152138 -0.036656924 0.1317558
0.014773365 0.052309733 0.031236643 0.21844943 -0.11990788 0.06214577 0.1907351 -0.2546153
-0.14532869 -0.10570798 -0.10242081 -0.027422126 0.07724932 0.02424131 -0.037468985 -0.09424452
0.08271077 0.089330494 0.047101364 0.09239078 0.005724054 -0.08556879 0.053222373 -0.05439842
0.15971906 0.08035788 0.10701503 0.23354349 -0.107475765 0.037579898 -0.14852068 -0.034436446
00000000: 788f dd3d d011 3e3e 0b62 41be 7d32 383e
00000010: dac1 bc3d e5ae d0bd 490a abbd 4d35 843c
00000020: 4505 093c f14c 11bd 6866 a3bd 83cb a6be
00000030: ccf0 61bd f1f3 fe39 1af2 983c 2ee3 a93e
00000040: 6351 bc3c 17da 69bd 51b9 123e 1f6b 2d3d
00000050: c111 05be 467b 543d 91ea 1c3e 3396 623e
00000060: 5773 89bd dce2 c2bc 0134 78bc ae24 42bd
00000070: 0847 263d e0ab b93c 99dc 8fbd b34d f13d
00000080: e55c 723e f06c 243e b150 053e a165 92bd
00000090: 2362 36bc 70f9 90bd 38b2 5a3d e008 2abd
000000a0: fd0f bdbd 4d31 cf3d d3ee 8bbd 7d7b 263e
000000b0: cdfc 86be e40f b5bd 54b4 29bc 0687 983d
000000c0: 7547 7abe 92b7 d3bd 2a3c 973d 0067 91bd
000000d0: 18b0 9cbd 9929 033e 3faf 84be 43b3 19be
000000e0: 34fc 833c a71c 1abd 831d a53b 6d4f 1abe
000000f0: 05d8 1abe e433 3c3c 4fd3 82bd d5f5 8d3d
00000100: 758c 033e 3eb0 3a3e 8c40 4fbc 9b1c b23c
00000110: 0294 d33d fb4e 5cbd 4168 053e 47e3 0cbd
00000120: 9043 113e e3c5 9c3e 4090 973d e36c 69bd
00000130: a32e ef3d ea43 26be 33fb 9ebd a809 cf3e
00000140: 3d0a 063e 5c18 703d c006 cc3d 3d76 c23e
00000150: 4cce ed3b 146d a73d 9e23 dfbd c601 c73d
00000160: e5a5 5a3d bc5b 063e 3591 573d 7fbc a03d
00000170: 0d94 1cbd 3c00 b83e 43b9 c9bc ffc4 4c3d
00000180: edb8 8d3e 169e fc3d 0f4b 3c3e e2cc ba3d
00000190: f829 e5bd 4ab0 02be 4f21 4e3e 2465 9ebd
000001a0: 45ae 03bc 01da c03d 318d 423d ae3f c9bc
000001b0: dae2 fabc 00e4 febd 4eeb d03c e52b 933d
000001c0: a794 8dbc cbb2 f73d 7757 96bd f9a3 103d
000001d0: 4bba 853d 8cf9 333e 99ff 883d b1af 323e
000001e0: f1d6 343e a697 293e 202a b9bd 2258 cb3d
000001f0: e51b 3e3e 7f83 96bc a60c 19bd b9f0 08be
00000200: 7927 023e 2940 973c f5c3 f9bd a0e9 513a
00000210: 71c6 abbc 3354 16be be98 d4bc b221 25bd
00000220: ed99 0cbe 08d8 b6bd 9a47 34be c27a 7ebd
00000230: 4f47 0dbe a6e0 dabc 8db6 af3d f3a0 4f3e
00000240: a5d0 4abd ff44 3d3d be35 013e 3293 2fbd
00000250: ba7f 1e3e eee1 093d 761c c33d 2ce1 fa3d
00000260: 54c4 da3d 2be3 49be 6b20 0b3e e4e6 813d
00000270: a711 25be e199 923d 148b ca3d ac97 9fbd
00000280: e13b bd3c 2c55 603e 0e04 0fbc d17b 023e
00000290: eb36 68be 18ec 3bbd e4d0 86bc fbf5 91bd
000002a0: 6bca f93d 7d4f abbd 7686 0dbe fbe6 3fbd
000002b0: 0fa1 4d3d a7df eb3c 660b 193e c88a efbc
000002c0: 577d cdbc e977 093e 1a21 c8bd 2e1a 28bd
000002d0: f682 4c3e 66e7 a13c fcc6 4cbd 807c bebd
000002e0: ba36 d23d f09c 453d 1fe1 17be 3d6c 79bd
000002f0: ee0d 623d 3aab 57bc 1812 df3d 21f2 3dbb
00000300: 89cd db3d 732b b33d 0c75 ebbd d5c9 0f3e
00000310: 4f22 eabd ea78 163e 1078 0dbe 7746 033d
00000320: 7b9f 0cbe 8abc 2f3e 1e6a df3b bcc3 c2be
00000330: e06c 713d 7bb2 fbbd 4fff da3c d192 9ebd
00000340: 612f 88bc d94b 933d 6e96 b0bb 558a 60bc
00000350: c05e 5a3b 545a 003e a442 573e 8500 3d3e
00000360: 9e26 1a3d ee68 0a3e 7470 6d3d 5d18 46bd
00000370: a150 4a3e 901c 013d 9225 16bd feea 063e
00000380: fc0b 723c bb42 563d fde3 ff3c 35b1 5f3e
00000390: 4392 f5bd 908c 7e3d 1050 433e f05c 82be
000003a0: 0bd1 14be 6d7d d8bd 00c2 d1bd 5ea4 e0bc
000003b0: e434 9e3d b695 c63c 1479 19bd 4503 c1bd
000003c0: 4464 a93d e8f2 b63d 5ced 403d 6137 bd3d
000003d0: d890 bb3b b13e afbd b4ff 593d e1d0 5ebd
000003e0: 658d 233e ac92 a43d b22a db3d 0626 6f3e
000003f0: 411c dcbd 61ed 193d ce15 18be 3b0d 0dbd

lstm.weight_ih_l1 f4 [256, 64]
-0.018655444 0.21670379 -0.17540891 0.03938101 -0.14493613 -0.06828119 -0.21172214 -0.17807408
-0.04048479 0.09608303 -0.19297805 0.027046155 0.0046750526 0.086952195 0.3435959 -0.054852184
-0.039372373 0.17323019 -0.14108835 0.042873878 -0.11731287 -0.066531315 -0.17456324 -0.02294306
0.22949158 -0.48399624 0.3349902 0.16751333 -0.026968988 0.068332165 0.011546652 0.15510432
0.052860387 0.18372788 -0.08144172 -0.19578004 -0.25633767 0.13067012 0.08147386 -0.10468818
0.20291616 0.36133868 -0.18624938 0.21624605 -0.33574805 -0.15902975 -0.027129164 -0.077618375
-0.11168288 -0.16384283 0.056126636 -0.020458473 0.3782907 0.14552669 -0.06732718 0.24159381
0.11031285 0.34845042 0.057318315 0.030769413 0.47974557 -0.024306575 0.1004742 0.21493225
0.07006932 0.15684435 -0.23453505 -0.052317988 -0.23490027 0.00033213737 -0.24666299 -0.2031098
0.20447598 0.1502366 -0.20264143 0.12587631 -0.23087522 0.22370161 0.13719036 0.23400415
-0.34201977 -0.12931427 -0.021661684 -0.03397793 -0.04398963 0.10766621 -0.11461397 -0.0063247248
0.36640656 -0.5066539 0.2841591 -0.17563199 -0.4233313 0.030428644 0.16818656 0.08910523
-0.04590599 0.028356278 0.0638436 -0.0051865904 -0.22928129 0.21576437 0.155261 -0.17235649
0.28717193 0.34909332 -0.0017875136 0.027487423 -0.044116054 0.26915866 -0.2205834 -0.21888979
-0.15988971 -0.04326293 -0.0031430935 -0.12405551 0.2836895 0.043657437 -0.09504316 0.2871112
0.11997692 0.0370886 0.07740637 0.0763193 0.4851764 0.07667493 0.037403353 0.09215505
0.06014273 0.34361434 0.19792579 -0.21309799 0.04926951 -0.08086334 -0.3012241 -0.062218703
-0.0022828986 -0.008595764 -0.29857212 0.0028378158 0.10586475 -0.011649297 0.47126508 0.016225075
-0.29504752 0.20991156 0.012751085 0.09917275 -0.010295007 -0.06503494 -0.20358823 0.1064658
-0.18117249 -0.24141178 0.1762443 -0.18080553 0.2738086 0.076167285 -0.012645 -0.032052204
-0.12037324 0.10957689 -0.22566147 -0.06806778 -0.2113304 0.32272664 0.29586712 0.025384933
0.2950787 0.22031127 -0.2897452 0.2049341 -0.019354971 0.20279995 -0.15876815 -0.07169787
-0.13831507 -0.29782397 0.06215498 0.008556232 0.44256926 0.06965068 0.0022060964 0.16526039
0.24712667 0.19533932 -0.23011303 -0.20793502 0.26712775 -0.29691604 -0.02855498 0.28188935
0.14222902 0.4019912 0.079502985 -0.08239124 -0.17245871 0.027759854 -0.24590401 0.24466586
0.29812837 0.14941789 -0.3091164 -0.01624326 0.19038835 -0.029511515 0.14843343 0.34901553
-0.23297764 0.15232779 -0.08386338 0.0354648 0.06902543 -0.012133284 -0.15722278 0.17234074
-0.066497214 -0.28789058 -0.111857794 0.12880687 -0.06470677 0.22850938 0.016142728 -0.109196484
-0.10290897 0.23917948 -0.19546136 0.43829763 -0.19827531 0.06108323 0.19425488 -0.08469698
0.30189165 0.39821583 -0.27571735 0.10214892 -0.17161132 0.1058863 -0.11152488 -0.09131284
-0.26844528 -0.06355209 0.006321063 -0.15316175 0.4819578 0.04513823 -0.30241942 0.32880002
0.32688332 0.09989622 -0.06291471 -0.086193055 0.34619537 -0.14058422 0.08942456 0.30393738
00000000: 4dd3 98bc 99e7 5d3e 659e 33be fb4d 213d
00000010: 236a 14be 02d7 8bbd b0cd 58be 0d59 36be
00000020: 61d3 25bd 2ec7 c43d 0a9c 45be e68f dd3c
00000030: 2f31 993b fe13 b23d cdeb af3e afac 60bd
00000040: ed44 21bd 4163 313e 7779 10be 859c 2f3d
00000050: bb41 f0bd 9241 88bd b5c0 32be 16f3 bbbc
00000060: d7ff 6a3e 5bce f7be d683 ab3e 9d88 2b3e
00000070: 11ee dcbc bcf1 8b3d 2b2e 3d3c abd3 1e3e
00000080: 2284 583d 2923 3c3e ebca a6bd 907a 48be
00000090: b13e 83be 63ce 053e c4db a63d c266 d6bd
000000a0: 41c9 4f3e 6201 b93e 28b8 3ebe 9b6f 5d3e
000000b0: 2be7 abbe b2d8 22be fb3d debc 62f6 9ebd
000000c0: feb9 e4bd 6ac6 27be 0be5 653d 8798 a7bc
000000d0: 52af c13e f304 153e d5e2 89bd 5e64 773e
000000e0: b4eb e13d 1868 b23e 9cc6 6a3d 2310 fc3c
000000f0: 36a1 f53e 951e c7bc 6bc5 cd3d 3317 5c3e
00000100: 8180 8f3d ce9b 203e f529 70be 634b 56bd
00000110: b289 70be b922 ae39 3995 7cbe 04fc 4fbe
00000120: 2762 513e a0d7 193e 3c81 4fbe b8e5 003e
00000130: 8e6a 6cbe 0912 653e a17b 0c3e c99e 6f3e
00000140: 371d afbe f66a 04be d873 b1bc 712c 0bbd
00000150: 782e 34bd 1a80 dc3d bbba eabd a33f cfbb
00000160: a499 bb3e 12b4 01bf 4d7d 913e dfd8 33be
00000170: e1be d8be 7e45 f93c 1939 2c3e ce7c b63d
00000180: eb07 3cbd 6d4b e83c 6fc0 823d 46f4 a9bb
00000190: b7c8 6abe 56f1 5c3e bdfc 1e3e 387e 30be
000001a0: 3308 933e 5cbc b23e 014b eaba 4e2d e13c
000001b0: 09b3 34bd 2acf 893e 9de0 61be a524 60be
000001c0: 21ba 23be 7834 31bd 5cfc 4dbb d110 febd
000001d0: c03f 913e 24d2 323d fda5 c2bd 3d00 933e
000001e0: 76b6 f53d 37ea 173d 3b87 9e3d 4b4d 9c3d
000001f0: 0b69 f83e bf07 9d3d 4234 193d c9bb bc3d
00000200: 3958 763d 38ee af3e 0fad 4a3e 5c36 5abe
00000210: d3ce 493d ae9b a5bd 0c3a 9abe 0ad9 7ebd
00000220: af9c 15bb 3fd5 0cbc 72de 98be a6fa 393b
00000230: 9ecf d83d b1dc 3ebc a849 f13e 73ea 843c
00000240: 7810 97be 0ef3 563e ede9 503c 151b cb3d
00000250: 64ac 28bc 0a31 85bd 6f79 50be be0a da3d
00000260: 4885 39be a634 77be 6379 343e 1625 39be
00000270: a430 8c3e 98fd 9b3d f92c 4fbc 2c49 03bd
00000280: 3f86 f6bd d969 e03d cd13 67be 1f67 8bbd
00000290: ff66 58be 6d3c a53e e57b 973e 10f4 cf3c
000002a0: 8e14 973e 4799 613e 7c59 94be 3fda 513e
000002b0: 518e 9ebc caaa 4f3e 1e94 22be 55d6 92bd
000002c0: 77a2 0dbe 627c 98be 3896 7e3d 702f 0c3c
000002d0: 7098 e23e 04a5 8e3d 2894 103b 053a 293e
000002e0: c60e 7d3e 0807 483e c0a2 6bbe ebec 54be
000002f0: f8c4 883e 6105 98be 22ec e9bc cd53 903e
00000300: 7ca4 113e cad1 cd3e 76d2 a23d bdbc a8bd
00000310: 0499 30be a268 e33c 43ce 7bbe b089 7a3e
00000320: 48a4 983e 0101 193e 8144 9ebe 9610 85bc
00000330: 2af5 423e 22c2 f1bc effe 173e 2ab2 b23e
00000340: b191 6ebe d1fb 1b3e 90c0 abbd 8a43 113d
00000350: 345d 8d3d aeca 46bc 02ff 20be 177a 303e
00000360: b12f 88bd 6566 93be b315 e5bd f3e5 033e
00000370: fc84 84bd 5dfe 693e c13d 843c 68a2 dfbd
00000380: f0c1 d2bd 77eb 743e 0627 48be 8c68 e03e
00000390: af08 4bbe 6932 7a3d c0ea 463e 9c75 adbd
000003a0: 8b91 9a3e f2e2 cb3e d32a 8dbe 7433 d13d
000003b0: e1ba 2fbe ebda d83d 2867 e4bd 3a02 bbbd
000003c0: a971 89be 9927 82bd eb20 cf3b 6fd6 1cbe
000003d0: 2cc3 f63e dde2 383d b8d6 9abe 7a58 a83e
000003e0: 405d a73e 6496 cc3d 6dd9 80bd fc85 b0bd
000003f0: 8540 b13e 4ff5 0fbe 3924 b73d ae9d 9b3e

lstm.weight_hh_l1 f4 [256, 64]
-0.09053692 -0.04696164 -0.07511411 0.13239798 -0.09651918 0.078123085 -0.09675495 0.3734723
-0.031779192 -0.12899643 0.03111521 0.09318091 0.0009298398 -0.034160588 0.02654042 -0.21981847
-0.16447614 0.14769056 -0.04191882 0.03417522 -0.11311987 0.054368235 -0.29345152 0.17827165
0.20059294 -0.14506036 0.08683649 0.17711647 -0.170961 -0.18558304 0.116847776 0.14740089
0.051902995 0.15979081 0.09725336 -0.11640677 -0.055108264 0.021196285 0.1148603 0.23195422
-0.014484943 0.011791389 -0.10456661 -0.1930989 -0.1354782 -0.08449211 0.22480844 0.10677842
0.20235099 -0.17597178 0.031571675 0.02568116 -0.1487625 -0.11699048 -0.18257178 0.084602706
-0.09596131 0.11364432 0.17175648 -0.16427469 0.09460305 -0.07381866 -0.13350509 -0.28802773
-0.105840065 -0.057344127 -0.21831441 -0.016380578 0.031843983 -0.016616812 -0.14114735 -0.34295598
0.038203143 -0.08342408 -0.065887034 0.018528778 0.041225046 0.074185014 0.1418993 0.03730648
0.074503206 0.024873096 -0.17757262 0.1623116 -0.09584256 0.00597309 -0.2394687 -0.03340308
-0.004942828 -0.20956965 -0.021946862 -0.059986234 -0.18245836 -0.13105534 0.059966184 0.1875217
0.12488531 0.10729125 0.0796406 0.052916724 -0.008123616 0.01863183 0.14027448 0.1090793
0.07418641 -0.13918208 -0.1444268 -0.07913462 -0.20485727 0.017793441 0.034741696 0.19970126
-0.078948185 -0.13809639 -0.10697012 0.0742418 -0.10456654 0.001129046 -0.069400504 0.020372577
-0.035317633 0.069979385 0.08481264 0.017349059 0.20473194 -0.13053869 -0.08678957 -0.01155356
0.08534475 -0.05107546 -0.08240267 0.17750885 -0.04128966 0.036207404 -0.063583225 0.12921013
0.12631406 -0.11981977 0.2165793 -0.06971933 0.10415287 0.18119666 0.21661966 -0.05143562
-0.11616917 0.19055241 -0.09519977 0.17587626 -0.19772649 0.12658972 -0.08115111 0.083165996
0.19174942 -0.13102779 -0.042387117 0.122757144 -0.12527002 -0.031084605 0.0036079613 0.1237796
-0.13682893 -0.05305443 0.108358786 -0.11960443 -0.18896124 0.029618463 -0.10465098 0.083861426
0.16049282 0.21004796 0.081524216 -0.03542096 -0.037044678 -0.18846117 -0.029663848 0.033835713
0.04196523 -0.18206012 -0.030238425 0.16743486 -0.09361471 -0.06458884 0.017092656 0.05325737
-0.032289106 -0.026322465 0.08246617 -0.042000152 -0.1261027 -0.1606183 -0.10543605 -0.04176706
0.035513874 0.01647153 0.012443026 -0.014452855 0.08432712 -0.014404941 -0.08094716 -0.29357806
0.15293674 0.045314077 0.043733276 -0.12709206 -0.084187694 -0.13749911 0.014662463 0.050658036
-0.120744914 -0.0886036 -0.012420792 0.101008706 -0.021010809 0.10952327 -0.06522113 0.0728275
0.0019509993 -0.18561819 -0.016322002 -0.077510275 0.04308785 0.034488272 0.14599256 -0.01830968
-0.083267234 -0.12114261 -0.1378462 -0.19653207 0.19496462 0.07898842 -0.020787077 0.15865424
0.027876996 -0.3648626 -0.11062523 0.15781356 0.14398071 0.067285895 0.0431508 -0.04073258
-0.041003387 -0.1312865 0.11154083 0.13202657 0.16375875 0.02427142 -0.1615652 0.02712037
-0.060421005 0.0062905415 0.0984919 -0.21443912 -0.049303073 0.05864783 0.20533472 0.0861852
00000000: 6c6b b9bd d95a 40bd 6dd5 99bd 5693 073e
00000010: d9ab c5bd fffe 9f3d 7627 c6bd c337 bf3e
00000020: e62a 02bd a417 04be 53e5 fe3c a2d5 be3d
00000030: 7ec0 733a f9eb 0bbd 4b6b d93c 1818 61be
00000040: 6f6c 28be 323c 173e 12b3 2bbd 51fb 0b3d
00000050: 64ab e7bd 3ab1 5e3d 473f 96be d88c 363e
00000060: 3c68 4d3e b48a 14be 54d7 b13d 055e 353e
00000070: 6610 2fbe 7b09 3ebe e34d ef3d 42f0 163e
00000080: 3c98 543d 34a0 233e c52c c73d ac66 eebd
00000090: 34b9 61bd d5a3 ad3c e13b eb3d 6885 6d3e
000000a0: 4152 6dbc ac30 413c 0527 d6bd b8bb 45be
000000b0: ccba 0abe 330a adbd 2f34 663e a5ae da3d
000000c0: 1935 4f3e f231 34be 4d51 013d 4c61 d23c
000000d0: 3255 18be b498 efbd 19f4 3abe 2f44 ad3d
000000e0: 5d87 c4bd 5abe e83d eee0 2f3e a037 28be
000000f0: 3ebf c13d 3d2e 97bd 8fb5 08be 5f78 93be
00000100: adc2 d8bd ade1 6abd d08d 5fbe 9030 86bc
00000110: d66e 023d fb1f 88bc ee88 10be ed97 afbe
00000120: e67a 1c3d 3eda aabd c8ef 86bd aac9 973c
00000130: 98db 283d 50ee 973d 0d4e 113e aece 183d
00000140: 2395 983d aac2 cb3c 99d5 35be 0335 263e
00000150: 1b49 c4bd e9b9 c33b 4837 75be abd1 08bd
00000160: 72f7 a1bb 6d99 56be e8c9 b3bc 20b4 75bd
00000170: 5dd6 3abe 5f33 06be 1a9f 753d b005 403e
00000180: dfc3 ff3d 84bb db3d 9c1a a33d 35bf 583d
00000190: ea18 05bc c8a1 983c 1da4 0f3e f864 df3d
000001a0: 0bef 973d bf85 0ebe 9ee4 13be 5511 a2bd
000001b0: 1bc6 51be 8dc3 913c 4f4d 0e3d 7d7e 4c3e
000001c0: 96af a1bd 2469 0dbe 2613 dbbd 160c 983d
000001d0: fb26 d6bd 7ffc 933a da21 8ebd 64e4 a63c
000001e0: 39a9 10bd 5a51 8f3d 40b2 ad3d 9d1f 8e3c
000001f0: 40a5 513e efab 05be bbbe b1bd 254b 3dbc
00000200: 3ac9 ae3d 8034 51bd bbc2 a8bd e1c4 353e
00000210: 591f 29bd 374e 143d ec37 82bd a94f 043e
00000220: 7958 013e 1164 f5bd f7c6 5d3e 02c9 8ebd
00000230: 1a4e d53d 9e8b 393e 8bd1 5d3e 28ae 52bd
00000240: 1aea edbd 2c20 433e 19f8 c2bd e818 343e
00000250: d078 4abe bca0 013e 8e32 a6bd ef52 aa3d
00000260: f659 443e 262c 06be 1d9e 2dbd 1968 fb3d
00000270: c946 00be 24a5 febc 8c73 6c3b 2980 fd3d
00000280: e21c 0cbe 9a4f 59bd 36eb dd3d 2bf3 f4bd
00000290: 0e7f 41be 6ba2 f23c 4153 d6bd 8abf ab3d
000002a0: 3b58 243e d016 573e 2bf6 a63d 9215 11bd
000002b0: 29bc 17bd f7fb 40be 9901 f3bc 5197 0a3d
000002c0: bce3 2b3d f86d 3abe 93b6 f7bc 0b74 2b3e
000002d0: 12b9 bfbd 2747 84bd e605 8c3c 6624 5a3d
000002e0: 9541 04bd 36a2 d7bc 06e4 a83d 5a08 2cbd
000002f0: 1121 01be 2079 24be dbee d7bd f013 2bbd
00000300: ff76 113d 4def 863c d5dd 4b3c abcb 6cbc
00000310: b2b3 ac3d b402 6cbc a0c7 a5bd dd4f 96be
00000320: 739b 1c3e 419b 393d aa21 333d 6c24 02be
00000330: 996a acbd 91cc 0cbe d43a 703c cd7e 4f3d
00000340: 1c49 f7bd ce75 b5bd 9480 4bbc a7dd ce3d
00000350: dc1e acbc bc4d e03d a892 85bd 9626 953d
00000360: acb8 ff3a b212 3ebe b8b5 85bc b5bd 9ebd
00000370: e37c 303d 9343 0d3d 137f 153e 2ffe 95bc
00000380: 0388 aabd 9e19 f8bd 8e27 0dbe b43f 49be
00000390: cea4 473e aec4 a13d a949 aabc 4276 223e
000003a0: 4c5e e43c 45cf babe 7b8f e2bd e199 213e
000003b0: ae6f 133e 30cd 893d e5be 303d 35d7 26bd
000003c0: 2bf3 27bd f86f 06be 856f e43d f931 073e
000003d0: 60b0 273e dbd4 c63c 5971 25be 8a2b de3c
000003e0: 047c 77bd e320 ce3b 1fb6 c93d ee95 5bbe
000003f0: 05f2 49bd b538 703d 4443 523e de81 b03d

lstm.bias_ih_l1 f4 [256]
0.05356004 -0.08721322 -0.11279006 -0.088740714 -0.2731578 0.05383897 0.018066779 -0.13421021
0.0179508 0.031721253 -0.31144667 -0.11953853 -0.11576969 0.00080520526 -0.14118467 0.073829
-0.0057194307 0.115858346 0.30914623 -0.044436492 -0.16497697 -0.060659613 0.44994745 0.079461984
-0.030082634 0.081097946 -0.13249248 -0.14861456 -0.12092432 0.3711468 -0.17698708 0.030458884
-0.10859422 -0.116411366 -0.03011564 0.11281425 0.0018727004 -0.05928517 -0.05320029 -0.19243963
-0.13286532 0.17767553 0.030581752 0.11055588 0.22979788 -0.06692713 -0.007284053 0.35383385
-0.16743767 -0.16630174 0.015482178 0.4553115 0.011946694 -0.10501219 0.11180267 -0.12588246
0.010402412 -0.052497327 -0.24320114 -0.08639852 0.2716202 -0.022085901 -0.047835987 -0.063772894
-0.128063 -0.031854026 -0.13754658 -0.02843053 0.01317198 -0.09622839 0.030392785 0.069347456
0.08303733 0.13231361 -0.21268457 -0.27291796 -0.21071236 0.10879689 0.20043246 -0.14534579
0.16073458 -0.09490442 -0.24106519 0.03709396 -0.07976615 -0.18122843 -0.20153378 0.07058445
-0.012747841 -0.115077585 -0.04752985 -0.15146115 -0.14331459 -0.21017444 0.036112145 -0.07565188
-0.20917544 -0.20240098 0.02882363 0.07394824 0.0041991943 -0.0325868 -0.011310992 0.17934719
0.061224703 0.015760932 -0.06520109 -0.06381547 -0.25483114 0.021174073 -0.24662629 -0.186876
0.13801476 0.12453028 0.20954934 0.53162766 0.17216942 -0.08777998 -0.038035855 -0.06856525
-0.016185794 -0.08289333 -0.045280986 -0.12143372 -0.11960611 -0.11611348 -0.064534724 -0.0016061236
0.032440417 0.14223617 0.08403636 -0.104809195 -0.06363267 -0.15482837 0.21273504 0.02565797
-0.067156665 0.039488774 -0.12796907 -0.16048536 -0.12394544 -0.09374617 0.06297757 0.094743654
0.11461378 -0.26560575 0.05473278 -0.17625728 0.10485076 -0.055244666 0.058023274 -0.13009183
-0.25595117 0.25574097 -0.045046464 -0.08546161 0.073786914 -0.03505069 -0.11750591 -0.16070041
-0.08083998 -0.11578596 -0.20661926 0.16676451 0.122141704 -0.09200485 -0.03639547 -0.0648617
-0.14491352 -0.11206982 0.055652507 0.01919153 0.07695833 0.05633337 -0.12271525 -0.10556864
0.029253688 0.1760883 0.05227305 -0.21546018 0.022190657 0.01999596 0.12982626 -0.17176293
0.18870558 -0.14122187 -0.06128797 0.2086461 -0.019226115 0.19580252 0.19740249 0.076330155
0.0050727474 -0.06719182 -0.26085368 -0.17778575 -0.04065768 -0.057590477 -0.17381465 -0.13051262
-0.04219194 0.061317556 -0.17734978 -0.049766086 -0.2798974 0.021811154 0.08508093 0.18095613
-0.046324793 -0.19481911 0.30376384 -0.06975792 -0.051220763 -0.07755264 0.10770968 -0.14882727
-0.3374393 -0.1421779 -0.1343382 -0.12555242 -0.23647816 0.31327716 -0.2197562 -0.20439543
-0.17971598 -0.24955383 -0.21633719 -0.22993281 -0.0774018 -0.20386146 -0.13513106 -0.11896582
-0.18643387 -0.03024101 -0.24179298 0.031966195 0.49122512 -0.013598276 -0.20008051 0.28499103
-0.13731284 -0.099788405 0.11683168 -0.17761242 -0.096915334 -0.1643867 -0.11948921 -0.21908587
-0.078864165 -0.12691271 -0.14967495 -0.20237534 0.34151193 -0.15948279 0.12817627 -0.014948473
00000000: c661 5b3d d89c b2bd 7afe e6bd b1bd b5bd
00000010: 57db 8bbe 4086 5c3d c800 943c 676e 09be
00000020: 8e0d 933c 25ee 013d f075 9fbe 9ed0 f4bd
00000030: a918 edbd 6914 533a b792 10be a933 973d
00000040: 106a bbbb 2447 ed3d 6a48 9e3e 0a03 36bd
00000050: b9ef 28be 3776 78bd 835f e63e f7bc a23d
00000060: db6f f6bc ae16 a63d 1cac 07be 6a2e 18be
00000070: 2ba7 f7bd f406 be3e 1a3c 35be e984 f93c
00000080: a566 debd 1569 eebd 13b5 f6bc 280b e73d
00000090: 6675 f53a 02d5 72bd 8ce8 59bd e50e 45be
000000a0: d90d 08be 93f0 353e 9586 fa3c 1f6b e23d
000000b0: 2350 6b3e 1711 89bd 11af eebb b629 b53e
000000c0: c874 2bbe 014b 2abe f6a8 7d3c 971e e93e
000000d0: 11bc 433c a210 d7bd ccf8 e43d 55e7 00be
000000e0: e16e 2a3c 7007 57bd b809 79be b5f1 b0bd
000000f0: ce11 8b3e 7eed b4bc abef 43bd 5d9b 82bd
00000100: f222 03be 5e79 02bd 03d9 0cbe 25e7 e8bc
00000110: 4acf 573c 6413 c5bd 4afa f83c 0a06 8e3d
00000120: 7a0f aa3d 387d 073e fcc9 59be e7bb 8bbe
00000130: fbc4 57be e7d0 de3d 2b3e 4d3e 87d5 14be
00000140: 9b97 243e 405d c2bd cbd9 76be d6ef 173d
00000150: 6f5c a3bd f293 39be df5e 4ebe 958e 903d
00000160: 52dc 50bc ccad ebbd a9ae 42bd a218 1bbe
00000170: 0fc1 12be f837 57be 54ea 133d 5fef 9abd
00000180: 1632 56be 3442 4fbe 891f ec3c 2d72 973d
00000190: 6599 893b bd79 05bd bd51 39bc caa6 373e
000001a0: c1c6 7a3d 121d 813c 2688 85bd afb1 82bd
000001b0: 3a79 82be 4075 ad3c 9a8b 7cbe 6c5c 3fbe
000001c0: be53 0d3e bb09 ff3d 1a94 563e c018 083f
000001d0: 2e4d 303e fdc5 b3bd 7ccb 1bbd f06b 8cbd
000001e0: 1298 84bc fac3 a9bd 8e78 39bd 3eb2 f8bd
000001f0: 0cf4 f4bd e7cc edbd c82a 84bd 9184 d2ba
00000200: 3ee0 043d 5ca6 113e 411b ac3d 34a6 d6bd
00000210: d851 82bd 548b 1ebe 37d7 593e aa30 d23c
00000220: 6f89 89bd fbbe 213d 530a 03be 4656 24be
00000230: 1bd7 fdbd fefd bfbd 62fa 803d f608 c23d
00000240: a1ba ea3d 7afd 87be 7b2f 603d ca7c 34be
00000250: ffbb d63d 3b48 62bd d0a9 6d3d cb36 05be
00000260: 080c 83be 7bf0 823e a482 38bd 7f06 afbd
00000270: 981d 973d 5091 0fbd f0a6 f0bd a68e 24be
00000280: 6e8f a5bd 3021 edbd 0094 53be 51c4 2a3e
00000290: 6e25 fa3d 0a6d bcbd 6b13 15bd 36d6 84bd
000002a0: 3664 14be dd84 e5bd e2f3 633d 8e37 9d3c
000002b0: 549c 9d3d d2bd 663d 2252 fbbd 5f34 d8bd
000002c0: 6ea5 ef3c 7e50 343e 441c 563d 98a1 5cbe
000002d0: 2ec9 b53c 91ce a33c 2df1 043e 9fe2 2fbe
000002e0: 093c 413e 779c 10be 1809 7bbd 53a7 553e
000002f0: 1680 9dbc 7580 483e e123 4a3e fc52 9c3d
00000300: 4a39 a63b dd9b 89bd 9d8e 85be 780d 36be
00000310: ab88 26bd fee3 6bbd 78fc 31be 1aa5 05be
00000320: 75d1 2cbd 1e28 7b3d 2e9b 35be 86d7 4bbd
00000330: b64e 8fbe 4ead b23c e93e ae3d 904c 393e
00000340: 11bf 3dbd a97e 47be ef86 9b3e 3edd 8ebd
00000350: ddcc 51bd ebd3 9ebd e596 dc3d 2d66 18be
00000360: d8c4 acbe 1597 11be f48f 09be d090 00be
00000370: 5527 72be dd65 a03e c507 61be 094d 51be
00000380: 7707 38be 0a8b 7fbe 7f87 5dbe 8273 6bbe
00000390: d684 9ebd 0fc1 50be cc5f 0abe 5aa4 f3bd
000003a0: 85e8 3ebe ffbb f7bc 9498 77be fcee 023d
000003b0: dc81 fb3e 4ecb 5ebc e8e1 4cbe 58ea 913e
000003c0: bd9b 0cbe dd5d ccbd 7345 ef3d 08e0 35be
000003d0: 8c7b c6bd fd54 28be c2b6 f4bd 0c58 60be
000003e0: 8983 a1bd 68f5 01be 6444 19be 7b3b 4fbe
000003f0: a7da ae3e 754f 23be a440 033e 71ea 74bc

lstm.bias_hh_l1 f4 [256]
-0.07789881 -0.033577498 -0.014318944 -0.26232874 -0.10309742 -0.07214068 0.1598387 -0.17501451
0.012797039 -0.013614427 -0.14724045 -0.0635755 -0.21686976 -0.034103055 -0.28834534 0.22480744
0.06445522 0.025583012 0.22943807 0.009724473 -0.15425523 -0.14005715 0.3988293 0.16534738
-0.07991089 0.059053075 -0.08686105 0.04984143 -0.20179264 0.3758086 -0.09155935 -0.15285487
0.0037672254 -0.14982887 0.009831447 0.11593712 -0.17349412 -0.018533168 -0.12240196 -0.20936091
-0.1094676 -0.0189101 0.043647125 -0.038019 0.4510675 0.070924796 -0.07804685 0.36955047
-0.22149298 -0.0608177 -0.11188287 0.4520117 0.013886409 0.037302952 0.22964177 -0.036704622
-0.100651905 -0.07204866 -0.06838757 -0.14179567 0.303375 -0.037838995 -0.008205426 -0.04698119
-0.1655344 -0.07300519 -0.117526874 -0.13421243 0.10457866 -0.024089636 0.2604673 0.03554407
-0.13705923 0.006025592 -0.06444208 -0.18862058 -0.08838763 -0.063638516 0.27819476 -0.32155165
0.2256672 -0.090748355 -0.18796858 -0.09890837 0.055845436 -0.13348249 -0.049230754 -0.024833886
-0.10891502 0.1300531 -0.09741917 -0.108413465 -0.039946873 -0.24454468 -0.14137638 0.12502797
-0.062550195 -0.102853075 -0.026799357 0.099833384 0.021089157 -0.018566437 -0.1250072 0.11499957
0.10194217 0.1381093 -0.1788503 -0.049182057 -0.31535062 0.059933938 -0.16027018 -0.028302163
0.13892592 0.00031883657 0.013887953 0.38079518 0.14147834 -0.019724576 0.06505045 -0.082307085
0.117438324 -0.0021459525 -0.058396015 -0.015502483 -0.0026628769 -0.14974314 0.13565567 0.020177975
0.0010567114 0.10062292 0.05101809 -0.16461483 -0.022596093 -0.20960154 0.13735554 -0.07849091
-0.15977748 0.11345863 -0.12262835 -0.11032219 -0.17044872 -0.09656952 0.22468284 0.029555172
0.041256562 -0.051766068 0.07963906 -0.1519055 -0.032469273 -0.13771959 0.09671925 -0.20311017
-0.14981045 0.19923729 -0.12693162 -0.054955415 0.057092994 -0.000934351 -0.16135159 -0.20475513
-0.114917144 0.0077866726 -0.11374708 0.16169159 0.008244617 -0.051086415 -0.07667593 -0.174591
-0.13715857 -0.027627483 0.04306844 -0.027352424 0.12315852 0.16944014 -0.18486361 -0.13033584
-0.2011156 0.13130647 0.091390215 -0.25357625 0.18102555 0.104949035 0.1487379 -0.004405727
0.073609665 -0.18604812 -0.15439032 0.19354689 -0.044493522 0.051378768 0.11319419 0.1475113
-0.18909806 -0.09960007 -0.13415922 -0.11066468 -0.16402371 -0.24682914 -0.22166683 -0.012143798
-0.18036714 0.072298296 -0.18944457 -0.18852326 -0.1621117 -0.09287442 0.05066738 0.07187628
-0.05341569 -0.043593265 0.19630924 -0.18715316 -0.22126652 -0.10177893 0.25873476 -0.15669648
-0.32440302 -0.14824933 0.022343347 -0.06839345 -0.043496426 0.24752954 -0.13564725 -0.020438623
-0.0029856241 -0.32848126 -0.06749205 -0.061875865 -0.13765812 -0.23351024 -0.13848516 -0.16564989
0.0048021767 -0.051924113 -0.16930048 0.09334231 0.2536653 -0.17813966 -0.25151017 0.4077035
-0.08761721 -0.0807246 0.1156474 -0.10058591 0.05348105 0.030992426 -0.16266404 -0.16041888
-0.09364406 -0.09963546 -0.036632046 -0.21569212 0.31423506 -0.24757014 0.014289379 -0.10671022
00000000: 6989 9fbd 8f88 09bd 019a 6abc f44f 86be
00000010: bd24 d3bd 7ebe 93bd c2ac 233e 0137 33be
00000020: acaa 513c 0c0f 5fbc 33c6 16be df33 82bd
00000030: 1b13 5ebe a5af 0bbd 00a2 93be ec33 663e
00000040: 1901 843d 7793 d13c d0f1 6a3e 6553 1f3c
00000050: 15f5 1dbe 246b 0fbe 5b33 cc3e d350 293e
00000060: 52a8 a3bd a3e1 713d 35e4 b1bd 8726 4c3d
00000070: bba2 4ebe fc69 c03e 7883 bbbd fd85 1cbe
00000080: 8ee3 763b bd6c 19be 1414 213c 7170 ed3d
00000090: 71a8 31be dfd2 97bc e1ad fabd b562 56be
000000a0: 8d30 e0bd 5be9 9abc 54c7 323d d0b9 1bbd
000000b0: 52f2 e63e 0541 913d 07d7 9fbd b835 bd3e
000000c0: 0ecf 62be fb1b 79bd d922 e5bd 146e e73e
000000d0: d283 633c fbca 183d 3627 6b3e 9657 16bd
000000e0: 9622 cebd 3f8e 93bd c80e 8cbd e232 11be
000000f0: f853 9b3e 10fd 1abd 0d70 06bc 596f 40bd
00000100: da81 29be bf83 95bd eeb1 f0bd fc6e 09be
00000110: 562d d63d a157 c5bc f85b 853e a996 113d
00000120: 4159 0cbe 5472 c53b 36fa 83bd c125 41be
00000130: 9304 b5bd e954 82bd 8b6f 8e3e 6ba2 a4be
00000140: 4d15 673e 46da b9bd d67a 40be 7990 cabd
00000150: 2fbe 643d a2af 08be 30a6 49bd 6f70 cbbc
00000160: d70e dfbd a42c 053e b483 c7bd e107 debd
00000170: 559f 23bd ec69 7abe f8c4 10be 5507 003e
00000180: 511a 80bd a2a4 d2bd 538a dbbc 7275 cc3d
00000190: 2bc3 ac3c a418 98bc e301 00be e584 eb3d
000001a0: 0ec7 d03d 866c 0d3e 8824 37be 2073 49bd
000001b0: a375 a1be 4a7d 753d de1d 24be f0d9 e7bc
000001c0: 9942 0e3e 8529 a739 4c8a 633c 96f7 c23e
000001d0: b3df 103e 6f95 a1bc 2c39 853d 9e90 a8bd
000001e0: 8183 f03d 1ca3 0cbb a930 6fbd 20fe 7dbc
000001f0: a983 2ebb 4456 19be 52e9 0a3e 484c a53c
00000200: 5a81 8a3a 6413 ce3d 58f8 503d ca90 28be
00000210: 711b b9bc c9a1 56be eea6 0c3e d8bf a0bd
00000220: b59c 23be 005d e83d 9324 fbbd 9af0 e1bd
00000230: 1c8a 2ebe 3ec6 c5bd 4213 663e b01d f23c
00000240: a4fc 283d a808 54bd ce19 a33d 1e8d 1bbe
00000250: 80fe 04bd 5d06 0dbe be14 c63d 1dfc 4fbe
00000260: e967 19be dc04 4c3e 5dfa 01be ee18 61bd
00000270: 58da 693d 3cef 74ba 5a39 25be 54ab 51be
00000280: ae59 ebbd 5827 ff3b 3bf4 e8bd 7b92 253e
00000290: 6e14 073c fd3f 51bd 4508 9dbd fcc7 32be
000002a0: 4c73 0cbe 0853 e2bc 8868 303d 3112 e0bc
000002b0: 893a fc3d b781 2d3e e34c 3dbe c276 05be
000002c0: 3ff1 4dbe 3475 063e cb2a bb3d bfd4 81be
000002d0: c35e 393e 85ef d63d c04e 183e eb5d 90bb
000002e0: aac0 963d 6683 3ebe 7f18 1ebe 2831 463e
000002f0: d73e 36bd 8b72 523d 5bd2 e73d 340d 173e
00000300: eca2 41be 1ffb cbbd 0961 09be 2aa4 e2bd
00000310: d5f5 27be c7c0 7cbe a1fc 62be c8f6 46bc
00000320: 2ab2 38be 2111 943d c2fd 41be 3e0c 41be
00000330: 9c00 26be f234 bebd 9988 4f3d df33 933d
00000340: 69ca 5abd da8e 32bd 4a05 493e 14a5 3fbe
00000350: b193 62be 7971 d0bd e278 843e 0b75 20be
00000360: 2718 a6be acce 17be 6509 b73c dd11 8cbd
00000370: 4f29 32bd 6278 7d3e 1de7 0abe e66e a7bc
00000380: 76aa 43bb b22e a8be 4639 8abd 8c71 7dbd
00000390: 40f6 0cbe 4f1d 6fbe 0ecf 0dbe 20a0 29be
000003a0: 945b 9d3b 61ae 54bd 1b5d 2dbe 412a bf3d
000003b0: 6be0 813e 3e6a 36be f1c5 80be 83be d03e
000003c0: a770 b3bd f052 a5bd 8bd8 ec3d fcff cdbd
000003d0: f20e 5b3d d4e3 fd3c 6791 26be d944 24be
000003e0: 75c8 bfbd ad0d ccbd 7c0b 16bd 65de 5cbe
000003f0: 6be3 a03e 0783 7dbe 001e 6a3c e38a dabd
