Models/Precipitation_Models/ghor_precipitation_model.pth (torch, 223653 bytes, 11 tensors)

lstm.weight_ih_l0 f4 [256, 11]
000000 a4 cb 12 be 74 c7 83 3d 95 86 9f bd 40 ee 04 3c
       -0.14335495 0.06434527 -0.07789341 0.008113444
000010 ce b1 0d bf 1f 55 98 be bc 7c 4a be f7 e6 26 3e
       -0.55349433 -0.29752442 -0.19774145 0.16299044
000020 78 e4 bd bc 29 6f 36 3e 54 59 ee bc bb 72 e0 bd
       -0.023180231 0.17815842 -0.02909533 -0.10959383
000030 4a 02 c4 bc 41 82 74 be 2a 47 11 3f b9 05 3f 3d
       -0.023926873 -0.23877813 0.5674921 0.046636317
000040 e4 d9 76 3d c4 a1 a3 3e b7 40 44 be a8 38 96 be
       0.06026639 0.31959355 -0.19165312 -0.293401
000050 3a c8 17 3d c7 5a ec 3d 22 d7 1d 3e 96 c6 56 3c
       0.037056185 0.11540752 0.15414098 0.01310887
000060 24 b6 cc 3d 7e d4 2d 3e 3a b6 8c 3e b9 0a 9d bb
       0.09995678 0.1697559 0.27482778 -0.004792538
000070 b5 43 7f 3e fa fe f1 bd 18 55 18 3c 5b a5 ce bd
       0.24928172 -0.11816211 0.009297632 -0.10090133
000080 51 55 b8 bd 29 9b 06 be 31 20 c1 3e d1 82 a6 be
       -0.09000648 -0.13145126 0.37719873 -0.3252168
000090 eb 8f a7 bb 90 7c 59 bc 73 9f 21 be da e1 1a be
       -0.005113592 -0.013274327 -0.15783481 -0.15125218
0000a0 4b 81 f9 be a6 e8 41 3e c1 f0 c1 bb fd 45 9c bd
       -0.48731455 0.18936405 -0.0059185927 -0.07630537
0000b0 05 63 a5 bd 20 50 ae 3d 5f 38 6a 3e 12 8b 01 bc
       -0.08075527 0.085113764 0.22873066 -0.007906692
0000c0 2c fe ee bd 08 5f 53 be e7 8f 79 be c1 2b 72 3c
       -0.11669573 -0.2064172 -0.243713 0.01478094
0000d0 ac 0c a6 be eb 86 94 3e ac a8 06 bd 9e 00 03 3f
       -0.32431543 0.29009184 -0.0328757 0.51172817
0000e0 05 11 d7 bb 07 50 21 3d 7e f5 5f be af 0d 0c 3d
       -0.006563308 0.03938296 -0.21870992 0.034192737
0000f0 4b 17 ff bd 73 c5 a7 3d 03 02 8f 3d a7 03 6a be
       -0.12455615 0.08191957 0.069828056 -0.22852956
000100 86 d6 8d 3d c5 de bf be a0 77 95 3e 31 59 e9 3e
       0.06925683 -0.37474647 0.2919283 0.4557586
000110 7b 00 8e 3c 84 8c 36 be 89 ac a1 bd 6d 77 e0 be
       0.017334213 -0.1782704 -0.078942366 -0.43841115
000120 d9 26 fb be 00 a3 98 be db 1c c7 be a0 23 1d be
       -0.49053076 -0.2981186 -0.38889202 -0.15345621
000130 67 2e b3 bb ff 40 34 3e c6 55 57 3d df 36 9b 3e
       -0.005468178 0.17602919 0.052572034 0.303153
000140 cf 48 7f 3e 3a 74 fc be f0 c0 2f 3e 8f cb 0c 3e
       0.24930118 -0.49307424 0.17163444 0.13749526
000150 df 4a a5 3d dc 8f a8 bd ea bf e1 bd 27 11 b0 3d
       0.08070921 -0.08230564 -0.11022933 0.085970215
000160 1e 13 c1 bd f2 f0 1e 3e 03 11 8c be e8 4c 16 3e
       -0.094274744 0.15521601 -0.2735673 0.14677775
000170 0d 58 1d 3d ba dd 25 bf bc 95 49 be 50 b8 5e be
       0.03841405 -0.6479145 -0.19686025 -0.21749997
000180 f6 a6 60 be 93 dc 28 3e f6 a5 bf bc b9 05 c4 bb
       -0.2193869 0.16490392 -0.023394566 -0.0059821275
000190 be 99 c4 bd 52 17 28 3e 95 a9 85 3e cc a6 a3 3e
       -0.095996365 0.16415146 0.26105943 0.31963193
0001a0 7d b9 f3 3d 57 35 80 3c 6c 0d 4a bc 8d fe 57 be
       0.119006135 0.015650434 -0.012332302 -0.21093197
0001b0 33 2b 3a be 17 5d 6f bd f4 17 a4 3e a2 d2 6a be
       -0.18180542 -0.058438387 0.32049525 -0.22931913
0001c0 5c 0d 01 3f 53 70 bd bd 79 88 33 be 96 4f bc 3e
       0.5041101 -0.0924994 -0.17532529 0.3677947
0001d0 57 14 63 be d4 82 63 be 5f b0 ee bd 7e 4b b9 3c
       -0.22175728 -0.22217876 -0.11654734 0.022619005
0001e0 fd 54 8d 3c ea d9 9a bd 39 32 9b bd 97 b0 8b be
       0.01725244 -0.07561095 -0.075779386 -0.27283165
0001f0 33 e8 3d 3c b1 db d3 bd c5 ab c8 3d 5d 1c 20 3e
       0.011591005 -0.10344637 0.097983874 0.1563582
000200 df 6c aa 3d e8 89 17 3a f4 4b ca bd 26 1c 3a be
       0.08321547 0.00057807425 -0.09877768 -0.181748
000210 a4 0b 6e bd 0d 59 24 bd f9 95 78 3d 36 e5 ef bd
       -0.05811657 -0.040123988 0.0606899 -0.117136404
000220 20 6c 92 3e ca 48 a9 be 48 1b 13 bc 82 0d 09 3e
       0.28598118 -0.33063346 -0.008978672 0.13384059
000230 1e 01 72 3e fc 22 a3 3e 37 af b7 be d9 92 17 be
       0.23633239 0.31862628 -0.35875866 -0.14802112
000240 17 62 93 bc 44 f9 68 3e e3 00 3e 3e 2e 22 87 be
       -0.017991109 0.22751337 0.18555026 -0.26393265
000250 c7 3d bd 3e 5f df 96 be 8d 05 a3 3c c4 80 2c 3e
       0.36961195 -0.29467294 0.019900108 0.16845995
000260 9c 8b 05 be a4 83 a4 3e b8 e3 dd 3e cd 19 81 bd
       -0.13041538 0.32131684 0.43337798 -0.06303749
000270 ae ff e4 3e 79 c3 01 3e ae 28 a6 be 8e 8c 24 bd
       0.44726318 0.12672223 -0.3245291 -0.040173106
000280 89 e0 41 3d 1c e4 86 be 3c cf 5e 3e ce fa 80 3d
       0.047333274 -0.2634591 0.21758741 0.06297837
000290 0b 12 1d bc 5f 87 26 3e 76 f0 50 3e a4 0c 89 3d
       -0.009586821 0.16262577 0.20404229 0.06691864
0002a0 60 76 1e be f8 b2 fd be 0d 2f 0a bf 10 f6 75 be
       -0.15474844 -0.49550605 -0.53978044 -0.24019647
0002b0 0c 54 9c bd 55 7d 26 bc 83 e6 7f bd a8 3d 74 be
       -0.07633218 -0.010161717 -0.062475692 -0.23851645
0002c0 22 50 c8 3e 86 86 9f 3e 3c 1c ef 3c cd ef 07 3c
       0.39123636 0.3115732 0.029188268 0.008296919
0002d0 d4 66 15 3e 72 0d e3 be 0c 8d 39 be 9c 4a 4e be
       0.14590007 -0.44346195 -0.18120211 -0.20145649
0002e0 61 fa 79 bd 3b da 52 be d5 ee d8 3c 07 e8 dd be
       -0.061029796 -0.20591061 0.026481071 -0.43341085
0002f0 01 2d 31 bf c0 45 7b 3e 5c 42 a0 3e cc a5 c6 3d
       -0.69209296 0.24538326 0.31300628 0.09699592
000300 0d 38 00 3e cd 4a 70 bd f7 29 b6 3d 34 35 a3 3e
       0.12521382 -0.058665086 0.08894723 0.31876528
000310 f4 31 3b 3e e0 ee 1d 3e e7 47 d7 3e 77 c1 f0 3e
       0.18280774 0.15423155 0.42047045 0.47022602
000320 1a cc a1 3e b9 96 65 bb 97 1b a4 be 7c 3e 5a 3e
       0.3160103 -0.0035032465 -0.320523 0.21312898
000330 25 cd fa 3e cf ec e6 be 6a 35 09 be 17 64 8d be
       0.48984638 -0.45102546 -0.13399282 -0.27615425
000340 7f 97 60 be de df 3e 3e 95 ca 11 3f 8f e3 c0 be
       -0.21932791 0.18640086 0.5694974 -0.37673613
000350 d4 c9 4f 3e 90 1c 64 3c 28 ba ad be 0d 02 3a bd
       0.20291835 0.013922825 -0.33931088 -0.045412112
000360 41 55 46 3e 36 c7 8b 3e 39 1a cb 3e cc 43 17 bd
       0.1936846 0.27300423 0.39668444 -0.03692989
000370 5e f1 fa 3d d8 e5 3a 3e 38 09 34 3d 18 f4 ac be
       0.122530684 0.18251741 0.043954104 -0.3377998
000380 25 3c a3 bd 6e c0 11 be ab d7 53 be 6e bf 86 3c
       -0.07970456 -0.14233562 -0.2068774 0.016448703
000390 65 f0 7b be 3d 6a 49 be fb 9a ca be 13 99 5c 3e
       -0.24603422 -0.19669433 -0.39571366 0.21542768
0003a0 60 1e fb 3d bf fe 03 3e 77 74 86 be d7 5e f7 3d
       0.12261653 0.12890147 -0.2626073 0.12078636
0003b0 9c 00 e6 3c d2 aa c4 bd 77 78 b1 bd 2d fc 1e bc
       0.028076462 -0.09602894 -0.08665555 -0.009703678
0003c0 9f a5 a1 be be 9f 9f be 1e 38 00 3f 60 c7 83 3e
       -0.3157167 -0.3117656 0.5008563 0.2573805
0003d0 b1 4d 2e bd d5 a3 86 be 58 a9 32 be 3c c8 99 3e
       -0.04255456 -0.2629687 -0.17447412 0.3003558
0003e0 e2 73 96 3e c8 19 2c be a1 07 af be 4d b0 1e 3e
       0.29385287 -0.1680671 -0.34185508 0.15496941
0003f0 b7 06 81 3b 8c 6b 7f 3e 83 8b 9e 3e 6f ea 00 bc
       0.003937568 0.2494337 0.30965814 -0.007868393

lstm.weight_hh_l0 f4 [256, 64]
000000 03 7e 92 3d 01 02 07 be 4f d6 0b 3d c0 0b 9a 3d
       0.07152941 -0.13184358 0.034139927 0.075217724
000010 7a 90 17 be 57 16 81 be a5 ea 50 3e 9b 8e cd 3d
       -0.14801207 -0.25212356 0.2040201 0.100369655
000020 38 60 6d bd 75 26 a6 3e 34 13 22 3e 61 45 81 bd
       -0.05795309 0.32451215 0.15827638 -0.06312061
000030 a9 ea 87 be b8 f0 9d bb 49 50 95 3e fd fc 21 be
       -0.2654622 -0.0048199557 0.29162815 -0.15819164
000040 f5 a5 39 be 2d 51 8f 3e b3 e9 56 3d f2 4f 3c be
       -0.18129714 0.2799162 0.052468967 -0.18389872
000050 6a e2 aa 3e f1 12 94 be 59 56 84 3e e8 2e 41 3e
       0.33375865 -0.289207 0.25847128 0.1886555
000060 01 f4 b7 3d 9f a6 e7 bd 28 d5 2f 3e 70 c2 99 3e
       0.08982087 -0.11311077 0.17171156 0.30031157
000070 d8 36 ab bb 77 e0 e3 3d 52 f6 b9 3d 64 95 c0 3e
       -0.0052250437 0.11126798 0.09080185 0.37613976
000080 8d 55 aa 3d ae 0f 9d bd f0 08 b8 3e 7b 63 d4 bd
       0.08317099 -0.07669006 0.3594432 -0.10370537
000090 52 0a e6 bc f3 80 6e 3e 4f 26 0b be ab 78 09 be
       -0.028081093 0.23291378 -0.13588832 -0.13424937
0000a0 10 32 ea 3d d9 63 1e 3d 0a 90 0a 3c 67 07 e0 3d
       0.1143533 0.03866944 0.008457193 0.10938912
0000b0 2f 66 5a bd 2f b7 ee bc a4 c6 8e 3e ad cc 8f be
       -0.053320106 -0.029140083 0.27885926 -0.28085843
0000c0 d1 06 8a bc 5b 20 f5 3d 2b 68 f1 3e 8f 23 7d 3e
       -0.016848953 0.11969062 0.47149786 0.24720596
0000d0 6e 36 02 be 5b 16 d6 3d 7c 8b 08 3f 65 3c a6 3b
       -0.12716076 0.10453483 0.53337836 0.0050731176
0000e0 10 6a 50 be e6 47 7c 3e ca ea 48 3e 06 23 08 3e
       -0.2035296 0.24636802 0.19620815 0.1329461
0000f0 b6 49 3a bd d5 32 b5 3e e2 70 1c 3d 6e 3b 7a 3e
       -0.045480452 0.35390344 0.03819359 0.24436733
000100 f1 6a d8 3d 20 17 88 3d fb 98 cd 3e 63 22 dd bc
       0.105672725 0.06645036 0.40155777 -0.026993936
000110 28 8f 1e be ed f7 00 3e 1b c7 bc 3d ab b5 b0 be
       -0.15484297 0.12594576 0.09217664 -0.34513602
000120 47 36 b8 bd d8 81 93 bd 5e b3 24 be 41 5e 3e be
       -0.089947276 -0.072025 -0.16084048 -0.18590643
000130 bf bd 3f bc d9 be 2e be 1a 0d 7f 3e f8 0f 3d be
       -0.011702954 -0.1706499 0.24907342 -0.18463123
000140 88 7a 20 3e c1 ca 8e 3e e7 7b 8e 3e 6f d7 9b 3c
       0.15671742 0.27889064 0.27828905 0.019023625
000150 ab 74 8b 3e 3b 2f 0b bf bc af 6c 3e 02 7b 11 3e
       0.27237448 -0.5436894 0.23113912 0.1420708
000160 23 d6 43 3e 8d d1 eb bd 07 67 c7 3d 42 3e 9a 3c
       0.19124655 -0.11514578 0.09736448 0.018828515
000170 2f ae 61 bd 18 9d 94 be c1 a0 7c 3e a6 d1 45 be
       -0.055097755 -0.29026103 0.24670698 -0.19318256
000180 0d f5 58 3e 4a 22 68 3e 9c 3d fd bd 47 73 5b 3c
       0.2118723 0.2266933 -0.12365267 0.0133941835
000190 6b 18 ad 3d 96 f5 52 3e 89 04 5d 3c a9 88 7d 3d
       0.08451923 0.20601496 0.013489851 0.061897907
0001a0 72 3b 47 bd b1 76 9e be 96 72 22 be 0b a0 8e 3e
       -0.048640676 -0.3094993 -0.15864024 0.27856478
0001b0 06 2e f2 bd 35 df 9f 3e 85 75 2b 3d 5d 15 29 3e
       -0.118251845 0.3122498 0.041860122 0.16512056
0001c0 0e 24 ff 3c d1 71 84 be de 49 84 bd 55 d4 0e 3d
       0.031145122 -0.25868085 -0.064594015 0.034870464
0001d0 c9 e9 39 be 85 65 87 be 20 fc 16 3e 56 59 ae 3e
       -0.18155588 -0.2644464 0.14744616 0.34052533
0001e0 b9 ba 34 3d 72 4b a9 bd 7b 49 ab 3d 9a 65 23 bd
       0.044123385 -0.08266343 0.08363625 -0.039891817
0001f0 3e d5 05 bc ef 3f 79 3e 7b ad e3 3d 67 80 74 be
       -0.008168517 0.24340795 0.11117073 -0.23877107
000200 c5 0d 2c 3e 45 f6 dd 3e ad 84 cd bd 21 11 cd 3e
       0.16802128 0.4335195 -0.100350715 0.4005213
000210 ff 2c 04 3e ca c2 56 3d d8 11 c1 be 2d 5a af 3c
       0.1290779 0.05243186 -0.37708926 0.021405304
000220 e2 59 d4 3d 3f ce fd bc 76 8f 02 3e 54 cc 12 bd
       0.10368706 -0.030982135 0.12750039 -0.035839394
000230 47 1d 8d be e3 87 a0 3e 26 a1 9f 3e 93 a7 d5 3e
       -0.275614 0.31353673 0.31177634 0.4172941
000240 2f 25 83 3d 74 0e 5c be 66 7e 31 bf 90 d2 44 3e
       0.064035766 -0.21489888 -0.69333494 0.19220948
000250 30 27 7a 3e 85 2e a6 be 76 0e 2e 3e 44 12 3d bc
       0.24429011 -0.32457367 0.16997704 -0.011539999
000260 a3 68 7f be 36 c4 07 be 55 7d d5 be cb 86 37 be
       -0.2494226 -0.13258442 -0.41697183 -0.17922513
000270 4b fa 18 be 50 7f 93 be 19 95 f1 bd a5 48 c3 3d
       -0.14939229 -0.2880807 -0.11796016 0.0953534
000280 8e 3b 7c be 1e a3 e5 bd 35 ce 33 3e a3 9d a9 3d
       -0.24632093 -0.11212753 0.1755913 0.0828202
000290 e5 b4 ac 3e 3e c3 c7 3d da b7 90 3e f4 eb d1 3e
       0.33731762 0.09754036 0.28265268 0.4100033
0002a0 23 13 e6 3d 84 c2 9c 3e ff 5e 69 be 57 df cd 3e
       0.11234119 0.30617154 -0.22790144 0.40209457
0002b0 f5 8b 30 be 59 0d 28 3d f7 49 d5 3d 05 e4 72 bb
       -0.1724089 0.041028354 0.10414498 -0.003706218
0002c0 ad 5a 16 be ea 85 e0 bc 39 66 96 bd 41 83 49 be
       -0.14683028 -0.027407605 -0.07343716 -0.19678976
0002d0 16 47 8b be 7d 28 38 3e 6c c1 f6 bd db 34 3d be
       -0.27202672 0.17984195 -0.12048611 -0.18477194
0002e0 d4 94 aa 3d d5 7d 87 bd 33 2c 06 be 7b c6 45 be
       0.08329168 -0.066157974 -0.13102798 -0.19313996
0002f0 8c 98 94 3d cc 78 22 be 1c 74 eb bc f3 c0 65 3e
       0.072556585 -0.15866393 -0.028741889 0.22436886
000300 a9 c0 6f 3e ee 7f b2 3e 07 86 11 3e 13 25 41 3d
       0.23413338 0.34863228 0.14211284 0.047154497
000310 23 5a 55 be 53 f3 96 3e 02 15 45 be f0 b2 ce 3d
       -0.20835166 0.29482517 -0.19246295 0.10092723
000320 1b 39 f6 bd f9 e6 3f 3e f5 c2 d7 bd 23 b8 25 be
       -0.12022611 0.18740453 -0.10535232 -0.16183524
000330 8d e7 92 be c9 6a ef bd 09 2a c9 bd 80 6d ab bb
       -0.28692284 -0.116902895 -0.09822471 -0.0052315593
000340 fa fd 5f be b7 19 9f 3e 72 0c 42 3e 6e 20 61 3c
       -0.21874228 0.31074306 0.1895006 0.013740642
000350 0f ab fe 3d 5d 70 2e 3e 84 d2 f9 be 3f ef 02 3d
       0.124349706 0.1703505 -0.48793423 0.031966444
000360 e7 b4 e1 3d 9a 85 03 3f ea 98 f5 bd 0d 4c 97 bd
       0.110208325 0.51375735 -0.11992057 -0.073875524
000370 6d 23 a3 bc 0f 25 5e bc ec 9f 97 bd bd 1f 81 be
       -0.019914353 -0.01355864 -0.074035496 -0.25219527
000380 0d a2 c1 be 27 8d 2f be 69 e3 1d be d8 e2 fc bd
       -0.37818947 -0.17143689 -0.15418781 -0.123479545
000390 7c 93 4e 3b 55 78 98 3d ad 3f d6 3e 00 9d de bd
       0.0031521013 0.074448265 0.41845456 -0.10869789
0003a0 55 da ee 3c 11 73 48 3e 46 31 55 bd ea 8e cc 3a
       0.029156843 0.19575144 -0.052048944 0.0015606557
0003b0 46 c4 9a bd 57 15 c0 bd c5 70 22 3d 48 9a ae 3e
       -0.075569674 -0.0937907 0.039658327 0.34102082
0003c0 b4 dc 3c be a1 5a e4 3c 11 68 4a be 91 7b 88 be
       -0.18443567 0.027875246 -0.1976626 -0.26656774
0003d0 4c 5a 12 3e cb 68 7e 3e 38 7b bf 3d ae 4e db 3d
       0.14292258 0.24844663 0.09349674 0.10708366
0003e0 9e 7a f9 3c 19 9d 8d 3e b9 2a aa be d2 73 3f 3e
       0.030453976 0.27658918 -0.3323572 0.18696526
0003f0 d7 04 20 bc 9a 2a 4b be 26 4b ed 3d bd a5 0d 3e
       -0.009766779 -0.1984047 0.11586599 0.13832755

lstm.bias_ih_l0 f4 [256]
000000 cc e6 0f be 8f 86 a2 3d ab 5d 61 3e a7 e5 fa bd
       -0.14052886 0.07935821 0.22008388 -0.12250834
000010 23 0d 28 bd ac 0d 58 be 94 79 ff 3d 3e df 80 bd
       -0.041028153 -0.21098965 0.12474361 -0.0629258
000020 c1 0a 97 3d 93 a7 4e 3e 08 ff 2e be 02 08 6b bc
       0.07375098 0.20181112 -0.17089474 -0.014345171
000030 9c 34 0b be 4c 19 0e bc b9 c0 ac bd 33 b4 68 be
       -0.13594288 -0.008673023 -0.084351964 -0.2272499
000040 e8 07 23 be b1 5c 76 3e a4 85 85 bd 8e f2 5f be
       -0.15920985 0.24058796 -0.065196306 -0.21869871
000050 22 63 c9 bd 40 ab 16 be 2b da 4b 3b 28 67 df bd
       -0.09833361 -0.14713764 0.003110538 -0.10908347
000060 e2 d7 9d 3c 8b 29 fd 3d 93 47 70 be 00 0e 34 3e
       0.01926798 0.12361439 -0.23464803 0.17583466
000070 05 e4 82 bd c9 55 5d 3d 73 c0 94 3c 72 3a 01 be
       -0.063911475 0.05403689 0.018158173 -0.12619951
000080 e8 d9 35 3e ba 2d ed bd c8 a8 1c bc 94 d6 14 be
       0.17758906 -0.11580987 -0.009561725 -0.1453498
000090 e8 c3 37 bd ef 4c 44 bd 1f 98 71 be a0 3a 87 bd
       -0.044864565 -0.047924932 -0.23593186 -0.06602979
0000a0 50 9f 33 3b 5d 86 e8 bd 8c bd d5 3d 54 b1 5b be
       0.002740819 -0.11353753 0.10436544 -0.21454364
0000b0 5b 4d 89 3d 7d fc b0 3d 26 08 d7 bd 2b ae ea bd
       0.067042075 0.08641908 -0.10499601 -0.11459001
0000c0 2e 1a 85 3e b9 96 c9 3d 87 95 0a bd 4d 0c 90 be
       0.25996536 0.09843201 -0.033834007 -0.28134385
0000d0 50 9d 86 bd 68 38 1f bd e8 4f 5e 3d b2 c0 38 be
       -0.06572974 -0.038872153 0.054275423 -0.18042257
0000e0 1a 19 d1 bd 13 4d a7 bd 21 7c 56 3d bf 59 50 bd
       -0.10209866 -0.081689976 0.052364472 -0.05086684
0000f0 4c 63 db bd d8 ed ac 3d 50 af d6 3c 09 87 1b be
       -0.10712299 0.084438026 0.026206642 -0.1518823
000100 a3 cd fb 3d 3f 55 40 3e 53 91 62 3e 53 94 7a 3e
       0.122950815 0.18782519 0.2212575 0.24470644
000110 2e 6b 48 3d 43 10 10 be 08 aa 46 bc 37 07 62 bd
       0.04893034 -0.14068703 -0.0121255 -0.05518266
000120 54 81 19 3e 72 b6 64 be 0b 01 5d bd 19 14 27 bd
       0.14990741 -0.22335222 -0.053956073 -0.04079065
000130 b7 81 ae bd 2b bc 18 3e e8 48 96 3c 12 ac 30 3d
       -0.08520835 0.1491553 0.018345311 0.04313285
000140 82 97 2b bd 89 3e 00 bd 0d 77 ed bb 93 6b 1f 3d
       -0.041892536 -0.03130964 -0.007246858 0.03892095
000150 13 77 ed bd c4 8a d5 3d c2 d3 80 3e 57 de a5 3e
       -0.11594977 0.10426858 0.25161558 0.32396194
000160 a3 c1 8a 3d ab 10 07 3e 74 9d 15 3d 6e 5f 74 3e
       0.067752145 0.13189952 0.036527112 0.23864529
000170 b1 ec 84 3e c1 b7 9d 3d 86 1c a8 3b 38 fa 67 3d
       0.2596183 0.07701064 0.0051303534 0.05663511
000180 9b e4 67 3e b4 9f 06 3d 86 74 1a bc e3 bc 31 3e
       0.226458 0.03286715 -0.009427195 0.17357211
000190 ac 87 1f 3c 53 c3 d1 3d 44 b4 24 3e c1 3c 2b 3d
       0.009736937 0.10242333 0.16084391 0.041805986
0001a0 4a e1 94 3e fb 7b 69 3e fe 46 f7 3d 0a 7a 76 bc
       0.29078132 0.22801201 0.120740876 -0.015043745
0001b0 30 60 57 3e c7 93 79 3e d3 59 56 bd 5e 9d d6 3d
       0.21032786 0.24372779 -0.052331757 0.10479234
0001c0 9c 34 46 3d 3a 95 89 3e f1 e8 fb 3d 51 dc 0b 3e
       0.048390016 0.26871663 0.123002894 0.13658263
0001d0 f9 b8 a5 3d 95 15 4b bb 98 df 41 3d 21 16 5c 3e
       0.08091921 -0.0030988206 0.047332376 0.21492817
0001e0 8d 76 a6 bd dc 06 40 bd e6 a9 ce bd 75 1b a1 3d
       -0.081280805 -0.04688154 -0.10090999 0.07866565
0001f0 cf 4e 76 3e 23 9d 15 be 02 cd 11 be 91 6a b0 bd
       0.240535 -0.14610724 -0.1423836 -0.08614076
000200 e9 ef ce 3d 45 6b 07 3d 2d 6d 76 3d 47 ec 5b 3d
       0.10104353 0.033061285 0.060162712 0.05369213
000210 3e af c9 3d 22 81 ba bd 84 d1 32 be 73 c6 1b 3b
       0.09847878 -0.091066614 -0.17462736 0.0023769408
000220 d9 d6 d3 bd 3c db 48 3d 1d f3 33 3d 2c 91 d0 bd
       -0.10343713 0.049037203 0.043933023 -0.10183939
000230 7e 4c 06 3e 89 41 fe bd 8d 42 07 3e 9a 45 2f 3e
       0.13115117 -0.124148436 0.13208981 0.17116395
000240 11 d0 05 be cc 30 ff 3d be eb 31 3b 69 3b 05 3d
       -0.13067652 0.12460479 0.002714857 0.03252736
000250 20 20 84 3c d5 30 15 be 9b 28 bb ba 1f 0f ea bd
       0.0161286 -0.14569409 -0.0014279069 -0.11428665
000260 05 a8 13 3d 6a 05 df 3c 10 1d 27 3e c3 47 9f bd
       0.036048908 0.027224261 0.1631968 -0.07777359
000270 3c f1 8e 3d 36 4e 99 bd f1 fc 5a bd a2 ab 8f 3d
       0.069796056 -0.07485621 -0.05346388 0.07015158
000280 1f 32 fb 3d dd 8c 04 be fd f3 f5 bc a7 b8 e7 3d
       0.12265419 -0.1294436 -0.03002357 0.113145165
000290 0c 38 34 3c 3f ad 1a bd 91 61 19 be a5 ec 3c 3e
       0.010999691 -0.037762877 -0.14978625 0.18449648
0002a0 f5 b6 a8 3d 07 2b 1d 3e 5e e7 e7 bd 8a 4c 99 bd
       0.08238021 0.15348445 -0.11323427 -0.07485302
0002b0 1d 71 a2 bd 6c 5d ee 3b 75 52 43 3e ee 9e 0e 3e
       -0.07931731 0.0072743203 0.19074424 0.13927814
0002c0 0e 56 80 3d 84 bb 2e be da 54 92 3d 17 88 ba 3d
       0.06266414 -0.17063719 0.071450904 0.09107988
0002d0 36 1d 12 3b 5d 48 77 3e c9 dc eb bb d3 5f cb bd
       0.0022295243 0.24148698 -0.0071979505 -0.099303864
0002e0 6a e4 d6 3c b8 a7 b7 bd 06 59 4d bd d8 21 1b 3e
       0.026231963 -0.08967537 -0.050133727 0.15149629
0002f0 f7 55 ef bd 6e ae 71 3e b4 14 18 3e 34 eb 27 3d
       -0.11686318 0.23601696 0.14851648 0.04099579
000300 96 3e 1e 3e f0 6b 7d bd b8 1e 76 3e ff d0 78 bd
       0.15453562 -0.061870515 0.24035156 -0.06074619
000310 65 69 c7 3d 28 31 ab 3c 85 f8 3d bd a6 8c 9e 3d
       0.09736899 0.020897463 -0.046379585 0.0774167
000320 8d b0 0b 3e a3 9d 93 3c 11 3d 31 3e 5e 2e 7a bd
       0.13641568 0.018019503 0.17308451 -0.061079375
000330 db f3 a1 3d a5 61 9b 3e 54 1d 2c bb 51 82 86 3d
       0.0790784 0.30347934 -0.0026262598 0.06567825
000340 9f 5d 62 bd 7f b7 81 3e 73 7d b0 3d bf 22 48 3d
       -0.055265065 0.2533531 0.086176775 0.04886126
000350 7a 08 ae bd df 17 c2 3d dd bc 3b 3e 9c 55 70 bd
       -0.084977105 0.09477209 0.18333764 -0.058675393
000360 41 cf af bd b7 21 f3 3c 67 e2 5e bd 24 f9 13 3e
       -0.085844524 0.029679162 -0.054415133 0.14450508
000370 ed bb 94 bb ed 80 b2 3c f5 cb 26 be 3b 68 0a 3d
       -0.004539004 0.021789992 -0.16288741 0.03379081
000380 85 9b 07 3e 94 16 58 3d c7 4d 68 ba 49 65 16 3d
       0.1324292 0.052755907 -0.00088616874 0.036717687
000390 ea ad 0c be 52 36 3c bd 3d 4c cc 3d c5 78 05 3b
       -0.13738218 -0.04595024 0.09975479 0.0020366174
0003a0 6a eb 6c 3d 77 c6 8b 3d ab 41 ba bd 62 87 15 be
       0.057841696 0.068249635 -0.090945564 -0.14602426
0003b0 c5 c6 41 3e c3 1a 8f 3d de 34 eb bd 95 59 3c bd
       0.18923481 0.06987526 -0.11484693 -0.04598387
0003c0 9c c8 47 3e 62 61 e2 bc ec 37 61 bc 4b 1f a1 bd
       0.1951012 -0.027634326 -0.013746243 -0.07867297
0003d0 35 9d 88 3d 67 4c 95 bd a5 55 4c 3e 3e a0 2c bd
       0.0667061 -0.07289963 0.19954546 -0.042145006
0003e0 ae 3a 12 bd cd 42 ea 3d f6 83 d0 3c fa 03 c3 bb
       -0.035700493 0.114385225 0.025453549 -0.005951402
0003f0 3d 87 15 bc 2e e7 8c bc e1 e8 c8 3d b7 98 67 3d
       -0.009126482 -0.017200079 0.09810043 0.056542125

lstm.bias_hh_l0 f4 [256]
000000 c8 6e 09 be 25 29 3f 3b 8c 7c 86 3e b6 00 29 be
       -0.13421166 0.002916881 0.26266897 -0.16504177
000010 12 ad 51 3d 02 3f 57 3c 8d 49 e5 3d 0a d6 93 3d
       0.051190443 0.013137581 0.11195669 0.07218559
000020 bd 90 ae 3d 10 5f 14 3e 56 0b a6 bd 5c b5 23 bd
       0.085237004 0.14489388 -0.08107631 -0.03996788
000030 3c 84 b0 bd 1c 9d ab ba 90 02 23 be fc 44 07 be
       -0.08618972 -0.0013093087 -0.15918946 -0.13209909
000040 42 4d 37 be 18 57 5c 3e 32 fe 0e be 2f a8 ca bd
       -0.17900565 0.21517599 -0.13964155 -0.0989536
000050 de 8a 86 bd b8 c8 d6 bd 16 9d c8 bd db 65 6c bc
       -0.065694556 -0.10487503 -0.09795587 -0.014428581
000060 5c 0f 85 bd a2 af 57 3e 08 af 75 be 2b 66 ee 3d
       -0.0649707 0.21063092 -0.2399255 0.11640581
000070 74 cc 8e bc 9d c2 02 3e af a4 04 be 1b f0 33 be
       -0.017431475 0.12769552 -0.12953447 -0.17572062
000080 3e d3 b5 bc 9f 8a 72 be de 16 d4 bd 4d ec 81 bd
       -0.022195455 -0.23685692 -0.10355924 -0.06343899
000090 9c a9 4f bd 64 83 50 bb 03 7e 0c be bd bf b8 bd
       -0.05069886 -0.0031816596 -0.13719945 -0.09020946
0000a0 15 80 8e bd 0e 8b bf bc 82 aa 9d bd 10 7a 17 be
       -0.069580235 -0.023381736 -0.076985374 -0.14792657
0000b0 0c 16 f6 ba 90 ba 0b be 87 26 f5 bd 94 61 b1 bd
       -0.0018774881 -0.13645387 -0.11970239 -0.0866119
0000c0 bf 1a 96 3e 1c 90 83 3d 0c f1 6b 3c 3b 0a 9f be
       0.2931728 0.06423971 0.014400732 -0.31062493
0000d0 92 71 92 be 57 30 2e be fa a6 a4 3d 18 7d d9 bd
       -0.28602272 -0.17010628 0.08039661 -0.10619563
0000e0 f1 52 2a be 6b 01 c2 bd 16 0b 91 bd 20 91 6f b9
       -0.16633202 -0.09472927 -0.070821926 -0.0002284688
0000f0 b0 ff 8e be 79 69 dd 3d e6 db 9e bc 07 78 68 bd
       -0.2792945 0.10811133 -0.019391965 -0.056755092
000100 50 b4 a4 3c 41 a8 81 3e f7 08 1f 3e 26 4c 2e 3e
       0.020105511 0.2532368 0.15530764 0.17021236
000110 4e 29 32 3e 74 f1 90 bc f3 08 ea bc c9 63 41 be
       0.17398569 -0.017693259 -0.02856872 -0.18885721
000120 f0 9b 27 3e f7 c9 38 be 66 b9 78 3d eb 09 1d bd
       0.16368079 -0.18045793 0.060723685 -0.038339537
000130 d1 8d 6b 3d db aa c2 3d f8 e3 d2 bd 6f ce 97 3d
       0.057508294 0.09505244 -0.10297388 0.07412421
000140 b7 74 e8 3c f8 96 db 3d 0b 6a 25 bd f0 ce ae 3d
       0.028375966 0.107221544 -0.040384334 0.08535564
000150 1a c8 b8 bb 43 05 11 3e f3 0f 89 3d c4 13 92 3e
       -0.0056390883 0.14162163 0.06692495 0.28530705
000160 73 04 0b be 62 0f d9 3d 26 45 f0 bd bf fa 60 3e
       -0.13575916 0.10598637 -0.11731939 0.21970652
000170 dc cc d5 3d 9d 87 28 3e e8 e1 ab 3c 19 2b 0d 3d
       0.104394644 0.16457982 0.020981744 0.03446493
000180 c3 60 80 3e 6e 05 42 3e 97 47 48 bd 18 0a 35 3e
       0.25073823 0.18947384 -0.0488964 0.17679632
000190 58 b8 7f 3c 9c 4b 5f 3d cb 3e 33 3e 72 7e 14 bc
       0.015607916 0.054515466 0.17504422 -0.00906335
0001a0 a9 64 be 3e c1 89 f4 3c 94 ae b1 3d b2 82 ae 3d
       0.37186173 0.029850842 0.08675876 0.08521022
0001b0 1a 7b 57 3e 67 2d 89 3e 88 79 26 bd 96 ae 63 3e
       0.21043053 0.26792452 -0.040643245 0.22234568
0001c0 d3 5c 23 3e bb 3b ee 3d be 82 42 3d 31 fc 91 3d
       0.15953378 0.116324864 0.047487967 0.0712818
0001d0 48 37 f0 3d 9c 86 df 3d d2 ca 75 3e b4 af 2e 3e
       0.11729294 0.109143466 0.24003151 0.17059213
0001e0 a4 70 b3 3c c7 ef fc 3b 96 7b 9f 3d a3 fe e2 3c
       0.021904297 0.0077190134 0.07787244 0.02770931
0001f0 ba 70 71 3e 94 bf 72 be 5f a7 91 3d e1 80 a2 bd
       0.23578158 -0.23705894 0.07112002 -0.07934738
000200 44 61 a4 3d 5b 2b aa bd b1 7a 59 3e 65 48 8f 3d
       0.080263644 -0.08309051 0.2123821 0.0699623
000210 74 83 12 be 35 37 bd bd 75 d1 5f be 4d 96 04 be
       -0.14307958 -0.092390455 -0.21857245 -0.1294796
000220 76 3e 1b be 3c 74 7b bd aa ff af bd 88 b7 48 be
       -0.15160546 -0.061390147 -0.08593686 -0.19601262
000230 d6 1b 7e 3d 74 83 fc bd 28 c8 8a 3d b8 e6 d3 3d
       0.062038265 -0.1232976 0.06776458 0.103467405
000240 f9 c8 e5 bd da f1 14 bd cc ba 2c be e0 b3 0a be
       -0.11219973 -0.03636346 -0.16868132 -0.1354518
000250 a6 99 3a 3c cd 7d 85 3d 79 99 17 be d6 28 ec bd
       0.011389172 0.06518135 -0.14804639 -0.11531226
000260 09 d5 3b 3e 91 b2 5d bd 88 ba c8 3d a8 38 1c 3d
       0.18342985 -0.054125372 0.09801203 0.03813997
000270 2b 99 17 be 80 83 25 be 21 28 8e 3c f9 99 16 be
       -0.14804523 -0.16163445 0.01735312 -0.14707173
000280 42 84 7c 3c 5d df dc bd 0c ad f3 bd 1f 59 88 3d
       0.015412392 -0.10784791 -0.118982404 0.066576235
000290 b8 0a 55 3d 9e db 0e 3e cb e4 2d be 7d 27 3a 3e
       0.052012175 0.13950965 -0.16981809 0.18179126
0002a0 3d 38 4a 3e 54 49 e5 3c b7 47 77 bc 22 f8 0e 3e
       0.19748016 0.027989067 -0.015092782 0.13961843
0002b0 da cf 1b be 21 c5 08 bd f1 bd 19 3e 4f 16 9b 3d
       -0.15216008 -0.03339112 0.15013863 0.075726144
0002c0 6a ee b5 3d 09 ff 1e be 9d 93 13 3d 8a fb 5b 3d
       0.088833645 -0.15526976 0.036029447 0.053706683
0002d0 aa 60 8f bd fe e5 54 3d 75 73 96 bd 4e 93 35 be
       -0.07000859 0.05197715 -0.073462404 -0.17731974
0002e0 10 31 dc 3d 43 d6 9e bd b5 b8 a8 bd bd c1 64 3d
       0.107515454 -0.07755711 -0.08238355 0.055848826
0002f0 74 dd c8 bd 5c 1c 24 3d 6b 45 69 3d 58 f7 57 3e
       -0.09807864 0.040066108 0.056950968 0.21090448
000300 b1 c3 02 3e 9f 5a c0 bd 9b f5 8d 3e e8 51 e4 bc
       0.12769963 -0.093922846 0.27726445 -0.027871087
000310 e1 12 04 3d 7b c1 93 bc 31 36 64 bd 76 af 87 bd
       0.032244567 -0.018036595 -0.055715743 -0.066252634
000320 3f f6 e1 3c 32 63 79 3e b7 02 18 3e fb 13 89 3d
       0.02758324 0.24354246 0.14844786 0.06693264
000330 ea 18 0c 3e e9 27 a3 3e 71 83 48 bc a0 5c 8d 3c
       0.13681379 0.31866387 -0.012238369 0.017256081
000340 87 7b 97 bd 70 be 30 3e 89 45 0c 3e 65 00 99 bd
       -0.07396608 0.17260146 0.136984 -0.074707784
000350 1a ca 0b 3d e2 91 ef bd 6c b7 08 3e 8a d0 b8 bd
       0.034128286 -0.11697747 0.1335122 -0.09024151
000360 ce 35 93 bc b7 00 9a bc 12 b2 d0 3d 99 b2 2d 3e
       -0.017969992 -0.018799169 0.10190214 0.16962661
000370 41 5e 1c bd c8 d1 04 3e 1f c8 18 bd 27 c0 fc bc
       -0.038175825 0.1297065 -0.037300225 -0.030853344
000380 94 ed 1f 3e 79 72 e2 bd d5 9c 98 3d e6 3c a3 bd
       0.15617973 -0.1105699 0.07451788 -0.079706
000390 7a dd 0a be 89 3c db bd 3e 67 2b bd 4b 55 e3 bd
       -0.13561049 -0.107049055 -0.041846506 -0.11100253
0003a0 2c 37 0f bd 33 02 15 bd 65 9f 5e be a2 0b f6 3c
       -0.034964725 -0.03637905 -0.21740492 0.030034844
0003b0 73 73 e4 3d 48 0f 24 3d 77 66 1a be 5f ac 86 3d
       0.11154833 0.040053636 -0.1507815 0.06575846
0003c0 e4 61 a2 3e bf d4 2b 3e 9b d2 6d 3d 07 89 53 bd
       0.3171531 0.16780375 0.058062177 -0.05164435
0003d0 94 fa 33 be aa 23 55 3d 01 7e 0b 3e 14 27 03 3e
       -0.17576057 0.052035965 0.13622285 0.12807876
0003e0 fd 8f 22 be 7a dc 35 3d 16 d8 af bc 48 17 1d 3e
       -0.1587524 0.044399716 -0.021465342 0.15340912
0003f0 3f 2d 29 be 95 14 65 bd b6 97 65 3c 46 1b 20 3c
       -0.16521166 -0.05592783 0.0140132215 0.0097721275

lstm.weight_ih_l1 f4 [256, 64]
000000 dd 34 aa 3d 72 1c c0 3e 99 bf 60 3e cf c1 db be
       0.08310864 0.37521702 0.21948089 -0.42921302
000010 6f af c1 be d6 63 5e be 9c 5c fa 3d 51 a2 b8 be
       -0.37829158 -0.21717772 0.12224695 -0.36061338
000020 69 63 81 bd 0a 1b 4c 3f ce 5e d4 3e 76 3b 87 bd
       -0.06317789 0.7972876 0.4147858 -0.06603138
000030 68 8d 00 3e a0 4e b8 bd 12 e2 34 3e 9e 6d 0e 3e
       0.12553942 -0.089993715 0.17664364 0.13909003
000040 ed a8 3b be 2f 84 73 3e 70 01 f9 be bc e4 94 be
       -0.18326159 0.23780893 -0.4863391 -0.2908076
000050 af 5d c3 3e 25 c5 e0 3d 86 ab 46 3e 6a 4c ff 3e
       0.38157412 0.10975102 0.19401368 0.49862987
000060 50 c8 01 be df 01 bc 3e 1a b0 21 3e 99 3b bc be
       -0.1267407 0.36720178 0.15789834 -0.3676422
000070 71 fc f0 bc e5 65 09 be 16 bc 34 3e ed f9 b2 bc
       -0.029417248 -0.13417776 0.17649874 -0.02184769
000080 0a eb f8 3d 07 88 8e 3e 3a 66 04 3e 7d 72 15 3d
       0.12154205 0.27838156 0.12929621 0.036486138
000090 f9 44 4a 3d 5f 69 6f 3e 2d 87 9b be 50 05 5d be
       0.049382184 0.2338004 -0.30376568 -0.21584058
0000a0 4a d1 eb 3e dc 12 a3 3e b1 71 fc bc d1 24 31 3e
       0.46058112 0.31850326 -0.030815931 0.172992
0000b0 9b e4 3b 3e a4 96 6e be ed 12 8c 3e 17 2b 01 3e
       0.18348925 -0.23299652 0.2735819 0.12614094
0000c0 a6 f5 6d 3e 40 25 57 3e 06 7e 2b 3f eb 05 cd 3d
       0.23238239 0.21010303 0.6698917 0.100108944
0000d0 a8 53 3b be 8b fd 97 be fc b6 32 3d 24 86 3b be
       -0.18293631 -0.29685625 0.04363154 -0.1831289
0000e0 83 df a1 bc 54 eb e8 3d a7 15 3e 3e d6 87 96 3d
       -0.019759899 0.1137301 0.18562947 0.073501274
0000f0 31 4c 9d be a2 76 d3 be 97 47 24 bc de a9 6d 3e
       -0.30722192 -0.41301447 -0.010026834 0.2320933
000100 72 13 fb 3d 89 81 c5 bd b6 f9 17 be db ba 0a be
       0.12259568 -0.096438475 -0.14841351 -0.13547842
000110 5b 33 95 be 10 99 05 ba 4e 0c f8 be 2b 73 3e be
       -0.29140744 -0.00050963555 -0.48446888 -0.1859862
000120 36 52 e6 bb c5 06 5d 3e 48 56 5d be f2 19 d1 be
       -0.0070288433 0.21584614 -0.21614945 -0.40840107
000130 36 f6 07 3e 0e 36 de be 74 36 2c be 8a 40 ba 3d
       0.13277516 -0.43400615 -0.16817647 0.09094341
000140 e2 da 4a 3e 88 82 2e 3e 0a d2 0c be 3a e4 81 3e
       0.1981006 0.17041981 -0.13751999 0.25369436
000150 44 27 3f be d8 59 f5 3c 2b 36 a8 be 79 48 c1 bd
       -0.18667322 0.029950067 -0.32853827 -0.09437651
000160 5d 3b 21 3e e8 35 7b 3d c0 cf 3f 3e 0d e9 ff 3e
       0.15745302 0.061330706 0.18731594 0.4998249
000170 61 00 65 3e 69 36 29 bc b9 18 66 be 7e 08 84 3e
       0.22363426 -0.010327914 -0.22470368 0.2578773
000180 3a 7f a6 3e c7 bd 1e 3d 08 8f 46 be 61 e8 41 be
       0.3251894 0.038755205 -0.193905 -0.18936302
000190 44 21 16 3d 1a 48 c2 3d a2 d7 15 3c d7 69 ce 3d
       0.03665282 0.094864085 0.009145649 0.10078781
0001a0 a8 50 9e 3e c3 90 7f 3e 57 0b 27 be 56 01 66 3e
       0.3092091 0.24957566 -0.1631292 0.22461447
0001b0 3d 44 02 3e e8 35 88 3e c5 fb f2 bc cd 2f 34 3e
       0.12721343 0.26603627 -0.029661069 0.1759636
0001c0 5a e8 8d 3e 9f f9 21 be 1c 23 35 be 7a 49 90 bb
       0.27716333 -0.15817879 -0.17689174 -0.0044032903
0001d0 5c 79 61 be 8c 2d 7e 3e c9 07 b1 be 47 10 06 3e
       -0.22018951 0.24822062 -0.34576252 0.13092147
0001e0 3a a6 98 bd bf 7b b6 bd 1b 72 da bd d3 3c a3 3d
       -0.0745358 -0.089103214 -0.10666295 0.07970586
0001f0 00 65 92 bd 79 88 6a be 6b 24 81 3e 65 13 1f bc
       -0.071481705 -0.22903623 0.25223097 -0.009709214
000200 93 d7 e9 3d 7a 4d af be d3 0b 88 3e 8e f3 91 3c
       0.11418071 -0.34238797 0.2657152 0.017816331
000210 40 4b 02 3d 34 61 08 be 92 2a 65 3e e6 32 0f 3e
       0.031810045 -0.1331833 0.2237952 0.1398426
000220 f0 3f 9d 3c 3f b1 e0 3b af 5e 38 bc 83 14 41 be
       0.019195527 0.006857067 -0.011253043 -0.18855481
000230 2d 34 3f 3d f1 41 6b bd f0 b2 f1 bd ba f4 26 be
       0.046680618 -0.057435934 -0.11801708 -0.16304293
000240 c5 3f 01 be 41 d5 6b bd e7 d8 f3 bd d8 99 62 bd
       -0.12621982 -0.05757642 -0.11906605 -0.055322498
000250 13 90 b2 3e e7 45 80 3d 14 0e 2d be b8 8c 57 3b
       0.34875545 0.06263333 -0.16899902 0.0032890271
000260 77 cc b8 bd 52 61 73 be 51 3c 0a bc 9a 8a b4 3c
       -0.090233736 -0.23767594 -0.008437232 0.022038747
000270 0c 4f 72 bd 3c 96 77 be 87 41 9a bd 84 60 7c be
       -0.059157416 -0.24178404 -0.075320296 -0.24646193
000280 b1 a5 66 3e 96 b6 f5 bd c6 80 ea bd 29 0b 4c 3e
       0.22524144 -0.11997716 -0.11450343 0.19926132
000290 30 ea 76 be 1f 69 c4 3d 8e b2 69 be 35 c8 33 3c
       -0.24112773 0.09590363 -0.2282202 0.010973026
0002a0 94 68 02 bc 64 f4 a3 3e 00 a8 3d 3e 4b fb 0e 3e
       -0.007959504 0.32022393 0.18521118 0.13963048
0002b0 b2 7c 10 be 3a 62 be bc fb af 3c be da 15 74 3e
       -0.14110067 -0.023240197 -0.18426506 0.2383646
0002c0 34 02 5e 3e e3 7b ad be 19 1c e2 bd 78 f3 18 3e
       0.21680528 -0.3388358 -0.110405155 0.14936626
0002d0 99 7d 5f be 0c b6 09 be 2f c1 71 bc ec b8 89 3d
       -0.21825255 -0.13448352 -0.014755531 0.06724724
0002e0 91 d0 e2 3c b2 c0 2e bc 1d a6 06 3e d4 da 9c 3b
       0.027687343 -0.010666059 0.13149305 0.0047868285
0002f0 00 c9 81 be cd a7 94 3e 75 05 7c 3e 82 5c 93 be
       -0.25348663 0.29034272 0.24611457 -0.28781515
000300 e2 33 6a 3e 98 87 06 bc 26 24 31 3e 35 ef 10 3e
       0.22871354 -0.008211039 0.17298946 0.1415375
000310 f2 5d 1e 3e 70 6f 17 3d 5d 1b 17 be 6e d1 8b 3d
       0.15465525 0.03697151 -0.14756532 0.06827055
000320 47 e5 eb bd 3d f4 ce 3d a6 3c 88 be 44 2b a8 be
       -0.115183406 0.101051785 -0.2660877 -0.3284551
000330 b9 03 93 3c b5 fc a5 bd 79 3a 2b be 3e bc 15 3e
       0.017946111 -0.08104841 -0.16721524 0.1462259
000340 be 7f c4 bb 26 84 56 bd 42 03 3a be ff 99 be bd
       -0.0059966734 -0.05237212 -0.18165305 -0.09306716
000350 67 48 45 bd 20 d5 c8 3d 4a e6 30 bd 2a e9 34 3e
       -0.04816475 0.09806275 -0.04318837 0.1766707
000360 fe 5a 30 3e f2 65 7c bd ab 55 18 3e f7 af a4 bd
       0.17222211 -0.06162066 0.1487643 -0.08041375
000370 90 d0 61 3c 41 22 fe 3d 0e a0 38 be 20 1c 15 be
       0.013782635 0.12408877 -0.18029806 -0.1456151
000380 a1 08 22 3e 91 f5 a8 bc fc 96 50 be 7d cc aa bd
       0.15823604 -0.020624908 -0.20370096 -0.08339784
000390 f3 68 28 bd 1e ff 35 be 37 50 46 bd 9b 92 21 3e
       -0.041115712 -0.177731 -0.048416343 0.15778582
0003a0 1b 4b 16 3d 8f 18 56 be 58 ae 4d be 21 b4 dc bb
       0.03669272 -0.20907806 -0.20086038 -0.00673534
0003b0 db 29 5c be 61 71 74 bd 02 d6 5d be c1 34 f2 bd
       -0.21500342 -0.05967844 -0.21663669 -0.11826468
0003c0 aa 81 33 3e 76 f9 52 be b6 c1 3c be fc af 95 be
       0.17529932 -0.20602974 -0.1843327 -0.29235828
0003d0 2a d8 92 bd 49 49 75 3c 7b 23 56 be 9a f6 ef 3b
       -0.07170136 0.014971086 -0.20911972 0.0073230984
0003e0 bb 94 6f bd db b2 03 be f3 62 8a be 5c 11 3c 3e
       -0.05849145 -0.12861197 -0.27028617 0.18365997
0003f0 10 2d 5e bd a9 bc 0e 3e 3d 6b b6 3d b9 a6 ee bd
       -0.054242194 0.13939156 0.08907173 -0.116528936

lstm.weight_hh_l1 f4 [256, 64]
000000 b3 81 91 bd 46 ea 40 bd 3d 3c f8 3d 09 15 2c be
       -0.07104816 -0.04709842 0.121208645 -0.168049
000010 f3 bd b7 bd fb 8c 0a bd 1e eb 1d 3e 44 6f 3d bc
       -0.08971777 -0.033825856 0.15421721 -0.011562172
000020 dc 0c 6b be b6 4a 6a 3e 88 94 85 3d 80 0e a0 bd
       -0.22954124 0.22880062 0.06522471 -0.07815266
000030 11 69 57 be ce 2d a3 3b 55 06 2b be 4d eb 8c bd
       -0.21036173 0.0049798256 -0.16701634 -0.068808176
000040 db 9b a4 be 3d 37 53 bd 92 fb bd 3d f1 25 a1 be
       -0.32150158 -0.05156635 0.09276499 -0.3147426
000050 ac 5f 74 bd 93 28 2a 3d 2b 32 66 bd f1 2f 9e bd
       -0.059661552 0.0415426 -0.056200188 -0.07723988
000060 9d 6e 3b bc ce e4 b5 bd 57 0d 87 bd 4a ec 13 3e
       -0.0114399465 -0.08881532 -0.06594341 0.14445606
000070 91 2d a3 3b 67 b1 66 3d ba 3b 69 3d a8 6d b4 3e
       0.004979797 0.056321528 0.056941725 0.3523991
000080 0d 2c f5 3d 41 d6 02 3e b0 94 8c 3e a4 c1 95 3e
       0.11971293 0.12777044 0.2745719 0.292493
000090 9e 04 d0 3c 6a 78 a2 3d af 84 6c 3e 72 ff 48 bc
       0.025392827 0.079331234 0.2309749 -0.012267934
0000a0 f5 18 83 bd 9b ca 06 3f 21 a6 91 be 73 3b 0a bd
       -0.064012446 0.526529 -0.2844706 -0.0337481
0000b0 e3 e6 8a 3c 80 80 59 bd 64 34 85 bd f5 e9 1d be
       0.016955798 -0.053101063 -0.06504133 -0.15421279
0000c0 d7 58 91 3e 03 fb 04 3e 6b 99 98 3d 42 19 32 3e
       0.28388092 0.12986378 0.07451137 0.17392448
0000d0 c1 b8 54 3d 99 62 32 3e 9c 78 6f 3e 2f 4a 89 bd
       0.051934008 0.17420425 0.23385853 -0.067036025
0000e0 8f 30 e0 3e 7a 2d ad 3e f7 da aa bd fc 35 04 3e
       0.43787047 0.33823758 -0.083425455 0.12911218
0000f0 a2 5a b5 3c b2 2b 36 bd bc 38 01 3e 05 1f 86 ba
       0.022137944 -0.044475265 0.12619299 -0.0010232633
000100 98 7a 1c 3e b6 22 3e bd 84 76 2a 3e 97 32 8a bd
       0.15281141 -0.04641982 0.16646773 -0.067479305
000110 20 2b b4 be 94 05 5d be af e8 10 be ac 86 3c 3d
       -0.35189152 -0.21584159 -0.14151262 0.04602687
000120 81 e1 58 3e b6 e6 8f 3d 61 21 73 be 99 60 4b 3e
       0.21179773 0.070264265 -0.23743202 0.19861068
000130 54 30 ae bc 4c 7f cb 3d cc 63 bc be 1f 08 36 be
       -0.021263279 0.09936389 -0.3679489 -0.17776535
000140 5b 5d 65 3c 54 b4 0f be 70 95 78 3e 40 55 2f 3e
       0.013999308 -0.14033633 0.24275756 0.17122364
000150 b3 5d 79 be 2e 58 80 be 97 76 bf be 51 c7 7e be
       -0.2435215 -0.25067276 -0.37395164 -0.2488072
000160 a5 fa 2b be f1 10 b7 3d 0f 1a 23 3d 24 9e 8a 3d
       -0.16794832 0.08938778 0.039819773 0.06768444
000170 47 64 74 be e4 39 23 bd 0f 2a 9d 3e 1e 93 ce 3d
       -0.23866378 -0.03985013 0.3069615 0.10086654
000180 34 65 1c be 05 3a 27 3e 6a e4 a1 be 4b 00 ac bd
       -0.15272981 0.16330726 -0.3161958 -0.083984934
000190 19 3d a1 3d 80 a3 02 3e 22 b4 ac be 15 d1 33 be
       0.078729816 0.12757683 -0.3373118 -0.17560227
0001a0 dd dc d1 bc c0 3f 82 bd 19 c7 af 3e 8e 69 48 3d
       -0.025618011 -0.063598156 0.34331587 0.04892879
0001b0 dd f5 92 bd e2 a8 e4 3d 68 be 5e be 9e 93 fa 3d
       -0.07175801 0.11165024 -0.21752322 0.12235187
0001c0 1d 75 f8 bd 86 21 5e be 0d 9a 90 3d 7c e2 cb 3d
       -0.121317126 -0.21692476 0.07060633 0.09955308
0001d0 a2 96 94 be b5 93 43 3d 4a b8 f4 3d 82 f9 9d 3e
       -0.29021174 0.047748286 0.11949213 0.30854422
0001e0 d3 37 25 3d 41 51 08 3e a8 58 88 3d 95 35 79 3e
       0.04033644 0.13312246 0.06657535 0.24336846
0001f0 3e a1 94 bd d9 eb 7d 3c 37 98 bb be ed ba 4e be
       -0.07257317 0.015498125 -0.36639568 -0.20188494
000200 4c 89 98 3e a5 4f 14 3e 31 c4 09 3c 77 df 6d be
       0.2979225 0.14483507 0.008408592 -0.23229776
000210 d9 1b df bd a2 9e 21 be bd 24 5d be d9 96 ca bd
       -0.108939834 -0.1578317 -0.21596046 -0.09892053
000220 ef 14 8f bd 2f 96 80 3d 4c f5 eb bc 97 20 0a 3d
       -0.06986415 0.06278645 -0.02880349 0.033722486
000230 ff e8 90 3d ee 6b 55 3d de cb 27 3d c5 69 51 bd
       0.070756905 0.052104883 0.040965907 -0.05112626
000240 a1 4c 21 3d 95 9c e2 be b9 44 3b 3e d8 6c 5b bd
       0.03937972 -0.44260088 0.18287934 -0.0535706
000250 7c 79 8b be 8d 27 e3 bd da b2 4f be 07 92 9a 3d
       -0.27241123 -0.11091528 -0.2028307 0.07547384
000260 73 48 66 be bd f4 41 be 35 c8 f8 bc 92 31 92 3e
       -0.22488575 -0.18941016 -0.030368904 0.28553444
000270 7f dd 06 3d 4b 71 29 be 19 ad 0e 3e 7b f8 e7 bd
       0.03292608 -0.16547124 0.13933219 -0.11326691
000280 bb b4 a9 be 50 59 dc 3e e7 98 02 be 44 a0 36 3d
       -0.331457 0.4303689 -0.1275364 0.044586435
000290 ce 3d 88 3e 3b df b2 3d 38 e3 fe bd 3e a2 9c 3c
       0.26609653 0.08733984 -0.12445682 0.019120332
0002a0 70 6f ac 3d 3a 4b be bd 41 34 87 3e 8c 5c ce 3d
       0.084196925 -0.09291692 0.26407054 0.10076246
0002b0 57 80 db 3d cb 1b 0f bd be 39 24 3e 3a 70 1f 3e
       0.10717838 -0.034938615 0.16037652 0.15570155
0002c0 75 f0 ad bd d9 02 0b ba a3 f4 bd 3d 4e 7f 8c 3d
       -0.08493129 -0.00053028535 0.092751764 0.06860219
0002d0 bb 17 08 3e 6e 0d 0c 3d f8 45 4c 3d ad ce 26 3e
       0.13290302 0.034192495 0.049871415 0.16289778
0002e0 42 b7 16 be dd 01 56 3e 19 ea c0 bd bf 0d e2 bd
       -0.14718345 0.20899148 -0.094196506 -0.11037778
0002f0 4c 2d 1d be b2 c3 66 3e 28 54 5e be a9 26 d7 bd
       -0.1534931 0.2253559 -0.2171179 -0.10505421
000300 40 d5 8d 3e bd 9d 4a 3e 4a c4 de 3c 3e f6 0b 3d
       0.2770176 0.19786735 0.027193207 0.03417038
000310 19 5c 6b bd 15 7d 07 be 96 19 df be 07 7c 5e bc
       -0.057460878 -0.13231309 -0.43574208 -0.013579375
000320 23 d1 63 3e 20 1f 92 bd d0 90 94 bc af a5 84 bc
       0.22247748 -0.07134843 -0.018135458 -0.016192285
000330 c1 0b 26 3d a8 ec 02 3e 71 e0 21 bb 21 48 00 be
       0.040538553 0.1278559 -0.0024700428 -0.12527515
000340 49 cb 9c be b3 e0 0d 3e 82 a6 17 bd 30 ae c1 3d
       -0.30623844 0.13855247 -0.03702403 0.09457052
000350 2a 33 47 be 72 dc 9a 3c d2 35 45 3d e5 d9 b9 bd
       -0.19453111 0.018903945 0.04814703 -0.09074763
000360 3b 13 af be 5a 2d 9e bc 80 54 40 be 08 fe c6 bd
       -0.3419436 -0.019308735 -0.18782234 -0.09716421
000370 7a e9 da bd 7a 50 88 be c3 83 6d bd 27 47 89 bd
       -0.10689063 -0.266239 -0.057986986 -0.06703024
000380 b9 b6 31 be c7 f7 40 bd df b3 03 be 99 b3 4b 3d
       -0.1735486 -0.0471113 -0.12861584 0.049731825
000390 1b ff bc bd 76 64 d6 bd c9 1d bf bd 57 48 0c bb
       -0.09228345 -0.1046838 -0.09331853 -0.0021405423
0003a0 34 dc 04 be 08 99 27 be 55 13 6f 3d 74 18 87 3e
       -0.12974626 -0.1636697 0.058368046 0.26385844
0003b0 c2 5d 64 3d 55 ed 20 3b 71 d3 29 3c 59 92 d2 bd
       0.055753477 0.0024555523 0.010365353 -0.1028182
0003c0 68 0e 01 bd c9 52 b4 be 76 8f 14 bd e6 50 fc 3d
       -0.03150788 -0.3521941 -0.036269628 0.12320118
0003d0 65 ba 4a 3e d7 d5 86 bd 26 06 a5 3d a0 8c 7f be
       0.19797666 -0.065837555 0.08057813 -0.24955988
0003e0 c5 13 2c be fc 35 aa bd 52 e4 a8 3d 43 fd ca 3b
       -0.16804416 -0.08311078 0.08246674 0.006194742
0003f0 de fd 48 3e 66 f6 0d be ac b8 11 3d f1 bd 3e 3d
       0.19628093 -0.13863525 0.035576507 0.04656786

lstm.bias_ih_l1 f4 [256]
000000 67 5d 9f 3e 54 c4 8c 3e bd 86 98 bd 0a 53 3e bd
       0.31125948 0.27493536 -0.07447574 -0.04646591
000010 f1 ac c0 bd b9 81 48 bd ae 50 56 3f 43 56 82 bc
       -0.09407986 -0.04895184 0.8371686 -0.015910273
000020 68 4c 54 bc c4 ed 65 be 39 e2 11 3d 97 90 1e be
       -0.01295767 -0.22453982 0.035616133 -0.15484844
000030 47 0b 03 be 70 b0 84 be 94 90 b6 3d 11 03 6c be
       -0.1279727 -0.2591586 0.08914295 -0.23048045
000040 65 0c 21 3f c3 cd 6a bb a2 c4 33 be 5e 0f 82 bd
       0.6290954 -0.003582821 -0.17555478 -0.06350587
000050 9b b6 ec bd 92 c9 e8 3d cf 3b 71 be 02 7e 87 bd
       -0.11558267 0.113665715 -0.23557971 -0.06615831
000060 49 72 43 3f c9 66 47 be 58 9c ff 3e 57 06 07 be
       0.7634626 -0.19472803 0.49923968 -0.13186012
000070 b4 85 2b be bd 8a 54 3f 7c 21 fd 3c d1 73 68 bc
       -0.16750222 0.830242 0.030899756 -0.014187769
000080 4e 05 60 bd d2 c1 19 bd 70 92 53 3c e6 4b 7a be
       -0.05469256 -0.037538357 0.012913331 -0.24443015
000090 7c 91 c3 bd e3 03 55 be dd 90 53 3d 88 a4 3e be
       -0.09549233 -0.20802264 0.051651824 -0.18617451
0000a0 81 d7 05 be b6 eb 46 be b4 d5 c7 bd ca dc 8e 3e
       -0.1307049 -0.19425854 -0.097575575 0.27902824
0000b0 0a 76 6b bd 30 1e 82 be 02 58 81 be 02 fb dd bd
       -0.057485618 -0.25413656 -0.25262457 -0.108388916
0000c0 82 71 a6 bd 1c e8 f4 bc 21 aa a9 bd 53 d9 b9 3e
       -0.08127119 -0.029895835 -0.08284403 0.36298618
0000d0 88 2b eb bd 04 2e 3b be 1f ea bb be 8e 02 0d bd
       -0.11482912 -0.18279272 -0.36702058 -0.034426264
0000e0 97 3f 24 bc e7 a6 4c be 6d 09 a9 3c ef 7b 40 bc
       -0.010024927 -0.19985543 0.020634377 -0.011748298
0000f0 f6 48 6e be 0e c7 f2 bd 7a 4c fd 3d 40 7c 67 be
       -0.2327002 -0.11854373 0.12368102 -0.22605991
000100 04 ff 44 be 59 55 85 be 8e 58 80 3e 1f dd 3b bd
       -0.19237906 -0.26041678 0.25067562 -0.045865174
000110 b1 72 2c 3d 55 77 27 3e 4e 7e 9d be a3 d4 a9 bd
       0.042101566 0.16354115 -0.30760425 -0.0829251
000120 96 52 29 3e 47 4c eb bd 8a 79 76 3d 6f 25 b1 3d
       0.1653541 -0.11489158 0.060174502 0.08649718
000130 d1 80 99 bd dd 37 45 3d 99 0c 30 bd 09 24 fa 3b
       -0.07495273 0.04814898 -0.042980764 0.0076336903
000140 04 2d 99 bd c2 43 8c 3b 68 4a 0e 3e 0a 84 f2 3d
       -0.07479289 0.0042805383 0.13895571 0.11841591
000150 95 7c 4e be b0 54 14 be dc f7 3a 3e cb f6 a0 3c
       -0.20164712 -0.1448543 0.18258613 0.01964893
000160 64 6c dd be 35 f6 35 be bb e9 da bd 9f 96 1d be
       -0.43246758 -0.17769702 -0.10689112 -0.15389489
000170 78 af f8 3c b7 b9 b3 be a4 8c b4 3d 93 47 50 be
       0.030357108 -0.35102627 0.088158876 -0.20339803
000180 0d 39 53 be b9 bb f5 3c a1 1d ee 3d d3 02 f6 3c
       -0.20627232 0.02999674 0.11626745 0.030030644
000190 b9 0f 3e 3e 23 93 ef 3d 02 2a 74 3e 8d f3 95 bd
       0.18560685 0.11697986 0.2384415 -0.07321844
0001a0 33 1f ad 3d ad 59 01 be d5 72 1a 3e a4 a0 8b be
       0.084532164 -0.12631865 0.15082867 -0.27270997
0001b0 78 0b 02 3d c9 45 da 3d 84 ec f6 bd 63 2e 75 bd
       0.03174922 0.10657842 -0.120568305 -0.05985869
0001c0 46 68 9f 3c 65 ec c8 3d 48 50 44 3c 9b 3d d9 bd
       0.019458901 0.09810714 0.011982031 -0.106074534
0001d0 56 06 53 38 fb f9 ff bd 98 0b 12 3d 8d 76 48 be
       5.031222e-05 -0.12498852 0.035655588 -0.19576474
0001e0 1c 9a 3e 3c a8 e0 13 3e 0d 0f 8d bc 29 c3 60 3c
       0.011633422 0.14441168 -0.01721909 0.013718405
0001f0 d3 93 55 bd 1a 92 21 bd a3 9b 14 3e 3b db 0d 3e
       -0.05214293 -0.039445974 0.14512496 0.13853161
000200 62 9a b0 bd 27 7b 25 be 1b a0 2b 3e 6a 57 07 be
       -0.08623196 -0.1616026 0.16760294 -0.1321694
000210 44 02 fb bd 6e 30 6c be fa 89 d3 bb d2 de 49 bd
       -0.122562915 -0.2306535 -0.006455657 -0.049284764
000220 b0 ba 82 3d 18 6f 31 3e 38 b4 64 be 9a 72 99 3b
       0.06383264 0.17327535 -0.22334373 0.004682851
000230 9a 5f 39 be 86 f0 c5 bc e2 71 5b bd 6f 0b 23 be
       -0.18102875 -0.024162542 -0.053575404 -0.1592233
000240 cd d8 a1 bc 63 38 46 be 82 66 5d 3e bd fd b2 bd
       -0.019756699 -0.19357447 0.21621135 -0.08739803
000250 05 db 9a 3d 7e 74 1c 3d ea a4 50 be 72 18 19 be
       0.07561306 0.038197033 -0.2037541 -0.14950731
000260 20 a5 43 bd 69 db b8 bb 9a 54 f4 3d 01 51 21 bc
       -0.047764897 -0.00564139 0.11930199 -0.009845973
000270 b8 3b 81 be 45 a3 ed 3d fa 33 14 3d 4c e7 1d 3d
       -0.25240874 0.11603407 0.03618238 0.03855066
000280 ea 17 51 be 26 1c 8a 3d 4c de 34 bb eb 5e 0e 3e
       -0.20419279 0.0674365 -0.002759832 0.13903396
000290 a2 67 5d 3e 45 b3 1c 3b 49 7b 2e be a1 0b 96 bd
       0.21621564 0.0023910564 -0.17039217 -0.07326437
0002a0 84 c5 1d 3c 84 12 2a bd 75 99 e8 3d 45 75 ed bc
       0.009629611 -0.041521564 0.113573946 -0.028986583
0002b0 58 21 8b 3d 0b f0 9a 3d ad 3e 1d be eb 7c ba 3d
       0.06793469 0.07565316 -0.1535594 0.091058575
0002c0 7b 90 82 3b 14 19 45 3d 23 24 1e 3e 36 3c 44 3d
       0.0039845086 0.04811962 0.15443473 0.047908984
0002d0 51 79 93 3b 1f b0 d9 bd b3 8f a3 bc 28 fb d9 3d
       0.004500546 -0.106292956 -0.019965982 0.106436074
0002e0 71 63 bf bd 22 b0 00 3e b6 31 b2 bd f7 c0 1c 3e
       -0.09345139 0.1256719 -0.08700888 0.15307985
0002f0 d1 12 1d 3c b4 cc 83 3d de 2d 90 bb ea 96 f7 bd
       0.009587006 0.064355284 -0.004399999 -0.120893314
000300 c2 1a de 3e 1f 2a 99 3e 47 95 a8 be 99 e8 74 be
       0.4337979 0.29914948 -0.3292639 -0.23916854
000310 09 3a 86 3b bf 77 0c 3e 90 1e 4f 3f a4 3c be 3d
       0.004096274 0.13717555 0.8090601 0.0928891
000320 db 44 67 3e 47 96 eb bd 17 8b c6 bd 67 44 6b be
       0.2258486 -0.115032725 -0.09694498 -0.22975312
000330 3e e2 2d be 30 b1 fa bc a8 6c 62 3d 9a b5 86 be
       -0.16980836 -0.030602068 0.055279404 -0.26310426
000340 c0 4f 0b 3f 44 18 63 be a7 99 9d be 19 db 98 bd
       0.54418564 -0.22177225 -0.3078129 -0.074636646
000350 a2 42 a6 3d d9 e4 c9 3d 5b 41 ad bd b8 bf 97 3d
       0.08118178 0.09858102 -0.08459731 0.07409614
000360 7a 41 0d 3f 79 9d 09 be b7 d8 b6 3e 96 14 2b be
       0.55178034 -0.13438977 0.35712215 -0.16707072
000370 c3 1a 99 be ed 47 1d 3f 69 8c 80 be 36 2a 33 be
       -0.2990323 0.61437875 -0.25107124 -0.17496571
000380 d4 82 72 be c9 e9 00 be 83 32 13 bd 74 09 cf bc
       -0.2368272 -0.12589182 -0.035936844 -0.025273062
000390 84 e4 04 3c ee bd 43 bd 5d f2 5b 3d 66 ce 7b be
       0.008111123 -0.047788553 0.053697933 -0.24590454
0003a0 20 7d 0f be 36 02 49 3b 4f 03 0e be 16 db 8f 3e
       -0.14012575 0.0030671484 -0.1386845 0.28096837
0003b0 7b e6 0d 3a ac 4d 3e bd d8 12 15 be a3 76 2c be
       0.00054130674 -0.046460792 -0.1455797 -0.16842131
0003c0 10 50 d0 bd fc 95 10 3c 56 2c ef bc 5d dc ff 3e
       -0.10171521 0.008824822 -0.029195946 0.4997281
0003d0 f1 f8 9c bd 76 52 03 bd d5 04 21 be 6c bc 17 3e
       -0.07664669 -0.032061063 -0.157245 0.14817971
0003e0 2e 46 1f 3e 58 f1 75 be b0 1d 19 bd f7 41 19 be
       0.15554115 -0.24017847 -0.037381828 -0.1496657
0003f0 c0 cd a5 be 2f 96 03 be 43 57 2f be 5e 16 54 be
       -0.32383537 -0.12850259 -0.17123131 -0.20711657
