Models/Precipitation_Models/ghor_precipitation_model.pth (torch, 224084 bytes, 11 tensors)

lstm.weight_ih_l0 f4 [256, 11]
00000000: 9d5e b83d a471 0cbb aaa2 6cbd c4ee 97be
00000010: 7f43 85be 1325 23be 2feb 093e 49d6 2abe
00000020: cfad 06bf f0f3 693e 0dc0 17be 4a89 7e3c
00000030: b21b 1dbe e8de 0a3f 3926 99bd 2af4 c0bb
00000040: 39fb 7bbe 6c74 9cbd c355 0b3d c21d 453d
00000050: 4b88 e4bd 4891 c6bd b3cb 343e 3a6b 2c3d
00000060: 2dba 12bc 2367 0e3d 180e ecbd b982 95be
00000070: ed16 09bf 7fe8 45be ba89 973c 348e 37bf
00000080: 6dd3 153d ff77 9abe 567b 25be b055 f73d
00000090: eb70 3f3d 9875 6dbb 2455 61be 860f b5be
000000a0: ca21 fc3c 4d19 96be 4634 1e3e 0a21 7a3d
000000b0: 0d8b 9d3e 8869 753e a52d 31ba 9bc7 4ebe
000000c0: 231a 8dbe c002 7fbe 723f ccbc d953 d73d
000000d0: 8d11 c5be 6f81 55be 0e29 34bd b3de 8abd
000000e0: 6317 a33d 697d 473e 48f8 f0bd 406f 683d
000000f0: 3bec a63d 92da ff3e deb9 073e 2350 afbe
00000100: cd07 7e3d 1d5d 823d 43a4 6c3e cc01 8d3e
00000110: 27e2 abbe 332b 853e 6519 35be 8aab ee3e
00000120: 31fb 48bf 3e99 c5bd 9f53 25be 0d27 9b3d
00000130: d2f2 073e cdb1 763e a2b4 273d b2a2 02bd
00000140: db72 96bc 7c13 293e a0d3 72be 4e83 4d3c
00000150: 85b5 0a3e 3182 943e 2e5f 283e ead9 193d
00000160: bf97 b03e 8e8a 7a3e 2ea0 fcbd 749a e83d
00000170: c264 8b3e d1e9 9fbe 3e34 5fbe 1387 4b3e
00000180: 6ae8 8c3d deae 1cbe 69b2 a6be e105 093f
00000190: 3d60 ac3e 696d b63d aa87 68be 211f 74bd
000001a0: 7489 783e ccee 80be 11fb 8abd 1e77 46bd
000001b0: ab7e 53be 697e 00be 3c37 28bd 7ce2 3f3e
000001c0: dee4 c73d db99 00be d265 a33c 3c32 7b3e
000001d0: b7b1 bd3d fcf2 b53e adde 6f3d b429 81be
000001e0: 4cd4 87be 74fd c53e 19bc 473e fa65 073e
000001f0: 22ec 0cbe 21d3 16bd 2a42 d73c e224 33be
00000200: cd66 3d3d d646 6b3d 0e0b 653d 0b39 4bbc
00000210: c0fb 6ebe 01b3 debe 9f88 0c3e 4a5c e4bd
00000220: b468 41be 1ed8 063f 6c9e cd3e 6ec6 373c
00000230: 86fb 97bd d55d 4ebe d035 1d3d 0a64 8c3d
00000240: 9e1c 823e de84 a53c 4ea6 333e 2602 03be
00000250: 2379 a1be ddfd 433d b6e8 a53e e3de cdbd
00000260: 8cba 9abe e569 69be 982c 883d 389d 583e
00000270: e5ab 3a3d 1b33 7f3e 15ff 053e 8ca0 193e
00000280: 18ec b23e 0442 103e 0ce6 9ebe af60 b0bd
00000290: 2fbf 6b3e a206 e23e 514d b23e e3ea bdbe
000002a0: 8e68 2c3e 853f ba3d 8bf4 99be 04d6 f63d
000002b0: 7811 083b 10b9 e7be b554 0b3e 493e 223d
000002c0: d953 893e f056 853e 5660 883e eed2 4b3e
000002d0: aa2a 4bbc 986f a3bc cc05 003d 44e5 533e
000002e0: ddcc a23e 7002 f3be 84cd 1cbe 2671 27be
000002f0: 8eff a93c d02f 7cbe dd8f c5be 2fde 133e
00000300: f83e 253e 0930 cfbe 9d22 ec3d 28f5 08be
00000310: 28a1 d3bd a607 55be 4ef4 013e 64aa ecbd
00000320: 5ec1 4ebe ecdb 54be fb22 4fbb 3142 9c3d
00000330: 466b 07be 6c21 a6be 4286 a73e 57e8 323d
00000340: 8370 30bd d396 02bb 8592 a23d f3ed 61be
00000350: d932 f33d 35e9 833e 6c1c 0bbe 6a54 8abe
00000360: 505e eb3e 7881 02bf f904 d83e ffdf 8abe
00000370: 6484 863e 603d 8a3e 4e25 2d3d 72aa 95be
00000380: aa1b f2bd 2d96 c43c 2102 3fbf da16 12be
00000390: 30c4 b53d 4b9b bfbd bc81 1cbe 3c3d cb3e
000003a0: 998b 933e 7467 31be 59fd a63d 7fed 91bd
000003b0: b0e5 25bf 6437 7dbd 8c77 3abe 89cf aa3e
000003c0: bb4b 8b3d 521e 87be 0a6d 6b3e 5cc6 a83e
000003d0: b877 48be 5d8a 37be a5b1 2b3e 73be 30bf
000003e0: 9b2f f3be e849 6ebe 9d6f 7ebe f5c1 6b3e
000003f0: bdff 39be 6f3b 6c3d d4ad 183f 5a26 dcbe
0.09002421 -0.002143004 -0.057772316 -0.2967435 -0.26028058 -0.15932111 0.13468622 -0.16683306
-0.5260896 0.22846961 -0.14819355 0.015535662 -0.15342596 0.5424638 -0.074779935 -0.0058884816
-0.24607553 -0.07639393 0.034017336 0.048124082 -0.11158808 -0.09695679 0.1765583 0.042094447
-0.008955521 0.034766328 -0.11526126 -0.29201296 -0.53550607 -0.19326971 0.01849829 -0.7170136
0.036578584 -0.30169675 -0.1616033 0.120768905 0.046738546 -0.0036233421 -0.22005135 -0.35363406
0.03077783 -0.29316178 0.15449628 0.061066665 0.3077015 0.23966038 -0.0006758816 -0.20193331
-0.27559003 -0.24903393 -0.024932597 0.105140395 -0.38489953 -0.20850156 -0.043984465 -0.06780758
0.07963445 0.19481434 -0.11766106 0.05674672 0.08150526 0.49971443 0.13254496 -0.34240827
0.06201916 0.06365416 0.23109536 0.27540433 -0.33570978 0.2600952 -0.17685468 0.4661525
-0.7850829 -0.09648369 -0.1614518 0.07575808 0.13276222 0.24091263 0.04094375 -0.03189344
-0.018365314 0.16511339 -0.23713541 0.0125435125 0.13545807 0.29005578 0.16442558 0.037561335
0.34490773 0.24466917 -0.12335239 0.113575846 0.2722531 -0.31233075 -0.21797273 0.19875745
0.06880267 -0.15301082 -0.3255799 0.53524595 0.33667174 0.08907587 -0.22708002 -0.0596
0.24271184 -0.25182188 -0.06786168 -0.048453443 -0.20653789 -0.12548222 -0.0410683 0.1873874
0.0976045 -0.12558691 0.019946013 0.24530882 0.09262412 0.35536945 0.05856197 -0.2522713
-0.26529157 0.38669932 0.19505347 0.13222495 -0.13761953 -0.036822442 0.026276667 -0.17494538
0.046240617 0.0574406 0.055918746 -0.012403737 -0.23338223 -0.43495944 0.13723992 -0.11150415
-0.18887597 0.5267352 0.4015993 0.011216743 -0.07421021 -0.20152982 0.038381398 0.068550184
0.25412458 0.020204958 0.17543909 -0.12793788 -0.31537732 0.047849525 0.32404107 -0.10052278
-0.3022045 -0.22794302 0.066491306 0.21153724 0.045574088 0.24921839 0.13085587 0.1500265
0.3494575 0.14087683 -0.31034887 -0.08612191 0.2302215 0.44145685 0.34824613 -0.37093267
0.1683676 0.09094147 -0.30069384 0.12052539 0.0020762365 -0.4525838 0.13606532 0.03961018
0.26821783 0.2604289 0.26635998 0.19904682 -0.012400309 -0.019950673 0.03125553 0.20692927
0.31796923 -0.47462797 -0.15312773 -0.16351756 0.02075174 -0.24627614 -0.3858632 0.14440225
0.16137302 -0.40466335 0.115300395 -0.1337477 -0.103334725 -0.20803699 0.12690851 -0.11555937
-0.20190951 -0.20787019 -0.0031606543 0.076298125 -0.13224515 -0.32447374 0.32719618 0.043678608
-0.04307605 -0.0019926324 0.07938103 -0.22063427 0.11874933 0.2576386 -0.13585061 -0.27017528
0.45970392 -0.50978804 0.42191294 -0.2712402 0.2627288 0.2699995 0.042271905 -0.29231602
-0.11821683 0.02399739 -0.74612623 -0.1426653 0.088753104 -0.09355792 -0.15283865 0.39695156
0.28817442 -0.1732462 0.08153791 -0.07125377 -0.648036 -0.061820403 -0.18209666 0.33361462
0.06801554 -0.2639032 0.22990814 0.32963836 -0.19576919 -0.17923875 0.16766985 -0.690406
-0.47497258 -0.2327038 -0.24847265 0.23023207 -0.18163963 0.057673868 0.5964024 -0.4299801

lstm.weight_hh_l0 f4 [256, 64]
00000000: f175 edbd fa54 3b3e 9673 903e 9b98 85bd
00000010: 9c72 ba3e 1e58 e33c 628a bfbe fa26 013f
00000020: 5129 9a3e dd31 f4bd e81c 12be 5e1d 783d
00000030: c1bd 963c 6514 9cbe ec77 57bd 31d8 613e
00000040: 430b bd3e 8d36 023e e599 0fbe d67e 80bd
00000050: 73c5 333e be97 87bd 1c9e 53be 9af2 84bd
00000060: 6cc6 b1bd 8bba 813e d784 38be a8b3 1a3d
00000070: 45a8 aabe 9954 a83d 9945 e33e 7fb6 3abe
00000080: 63ab c43c 7252 9cbc 1aaf 853d 9edd a43d
00000090: ff1d d2bd 3c42 ecbd 1342 75bd 3a27 fdbd
000000a0: 8c7e 25be 04c6 b03d e1d9 3cbe cae8 18be
000000b0: 10d9 063e ef99 e9bd dc1a 883e 4e7e c53d
000000c0: aca1 9f3d 4b5d 943b bdd2 cc3d 5687 c53d
000000d0: f9e8 eabd 9b1d 88be e247 1a3e 9006 00bd
000000e0: 4872 7c3e b199 763d da14 e33b bd6a 193e
000000f0: 3fab 4bbe 3842 d2bc 5638 37be 4767 1bbe
00000100: dd8e 223e 5953 ed3c 7d6a 593e d5c5 163e
00000110: d7d2 b93d b946 75bd 1a36 a13d 8ccc 9d3e
00000120: 6c55 9d3d f863 c83e 5f62 063e 81f7 c43e
00000130: aeeb 963d 8d61 bebc bc4a d23d 3374 483b
00000140: 9951 153c 7d64 823e c225 0bbe a092 7c3e
00000150: 9600 013d 633e b93c cae4 cbbd 3a3e 79bd
00000160: 3999 5d3e 670e 3cbe 4964 e6be 6ad9 433c
00000170: b08f b5be fe6c 793e 7388 863e 11ba bf3d
00000180: 7b13 5abe c0d3 203e acbc 283e d67a 94bc
00000190: b2b2 663e c490 88bd a39d 0c3e e70e cd3e
000001a0: 4d1b a93e df31 d93d 9983 a7be 3489 c63b
000001b0: 988c febd bf21 073f b07c 5ebf 1b7d fa3c
000001c0: 37cc d3be 1185 8ebe 12e9 f93d 1a5d 03be
000001d0: 440d 02be afc5 7abd 85b6 7e3e def9 8b3e
000001e0: 294a 113d 48ea a53e ada3 08bd 30cc 8cbe
000001f0: f0c5 bebe 4e32 f63d f9bd 8cbd 34f4 7d3d
00000200: 3124 debd 6e63 bebd 5200 0b3c 19b5 25be
00000210: e28f 02be 99be 21be 4a34 563d 2f83 32be
00000220: dd0e 9dbe 6b3d 513e 65e4 7c3e d8f8 633e
00000230: de09 c1bd ad03 013e 62a0 4ebe 57a2 26be
00000240: 0458 4dbe 517d 293e 9a10 793d b678 fdbc
00000250: 41a0 bc3e 7d07 b3be f9ce 47be cf86 143e
00000260: 7730 94be f2ba 9d3e 52ae bd3d 621f 2b3e
00000270: a830 46bd 5702 03be 77f8 383e 789a c5bc
00000280: 88e0 a83c d8f8 c4be fd67 92bd f201 203e
00000290: 6a78 a7bb 3b15 adbe becb e63e 0824 f13e
000002a0: eb57 1f3d 9cb0 39bd 11dd 9a3e 135e 093c
000002b0: 71aa b0bd e81a a73d d369 d6bd bf44 3fbe
000002c0: 140d 3abb b16c 363e 852f b83d 3a15 15bd
000002d0: 7991 193e f8c4 983c ca89 0a3e 13f7 b1bd
000002e0: 8957 c6bd 717b ff3d b43f cb3d 3a59 863e
000002f0: 506c 233e 9220 e43d df5f afbe 4ffb fb3e
00000300: 52fc 323e 96a5 2ebe a8b0 edbd 6695 8abe
00000310: b943 a8bd 1528 563e f1df cbbd d79e fbbd
00000320: 4e3e 123f 9a20 79be b8ee 50be 3187 3dbd
00000330: 5f30 2abe 7744 5abe 2bbf a0be be5d 133f
00000340: 51d4 db3d d206 0bbe 254c 85bd 2eb7 05bf
00000350: cc63 af3e c66d 34be 77a5 a6bd 46d4 67be
00000360: 0ea8 b3be 5bd4 9c3e 4298 ddb9 2be4 953e
00000370: 710e 84bd 7b30 b93d 8cc1 43be cc36 95bd
00000380: a525 b83e e262 31be aa4b 61bd 3d95 6e3e
00000390: 3d1f 05bf 9d7b 2d3e 0795 b33e 4e60 a0be
000003a0: a3a8 aabe 860c 393e de00 58be afd3 25be
000003b0: 4bff c4bd 4cb5 a6be 0c1b 563e 4f45 083f
000003c0: 4e63 b23e 2d41 993e 25f3 c43c b73e c5be
000003d0: b4fa 53bd 15d0 003e 946b cd3e af89 a23c
000003e0: 5116 7d3e ce36 a2bd af29 853e b3bd f93d
000003f0: a038 2fbe 733f 9cbe fa88 1dbe ae4a a2bd
-0.11594761 0.18294135 0.28213185 -0.06523248 0.36415565 0.027751978 -0.37410265 0.504501
0.30109647 -0.11923573 -0.1426884 0.06057488 0.018401029 -0.3048431 -0.0526046 0.22055127
0.36922655 0.12716122 -0.1402355 -0.06274192 0.1755579 -0.066207394 -0.20665783 -0.06491585
-0.08680424 0.25337633 -0.18019424 0.03776899 -0.33331504 0.08219261 0.44389036 -0.18233679
0.024007505 -0.019082282 0.065275386 0.080500826 -0.102596276 -0.11536071 -0.059877466 -0.123609975
-0.16161555 0.086315185 -0.18442489 -0.14932552 0.1316874 -0.11406314 0.26582992 0.09643231
0.07794508 0.004527723 0.10001133 0.09644954 -0.11470217 -0.26585087 0.15066484 -0.03125626
0.2465297 0.060205165 0.006929976 0.14982124 -0.19889544 -0.025666341 -0.17892584 -0.15176116
0.1587481 0.028970407 0.21232028 0.14723904 0.09073418 -0.0598819 0.07871647 0.3082012
0.076823086 0.3913877 0.13123463 0.3847008 0.07369171 -0.023239875 0.10268161 0.0030586838
0.009113693 0.2546729 -0.13588622 0.24665308 0.0314947 0.022612756 -0.099557474 -0.06085036
0.21640481 -0.18364869 -0.44998387 0.011953691 -0.35461187 0.24357983 0.26275977 0.09361661
-0.21296494 0.15705776 0.16478223 -0.018124979 0.22529104 -0.06668237 0.13732009 0.40050432
0.3302864 0.10605215 -0.3271759 0.0060588364 -0.1242916 0.5278587 -0.8690901 0.030577233
-0.4136674 -0.27835897 0.12202658 -0.12828484 -0.12700373 -0.061223682 0.24874313 0.2733907
0.035471115 0.32405305 -0.03335922 -0.27499533 -0.3726039 0.120213136 -0.06872172 0.06200047
-0.10846747 -0.092963085 0.008483963 -0.16182365 -0.127502 -0.15795363 0.05229596 -0.17432855
-0.30675402 0.20433585 0.246965 0.22262895 -0.0942571 0.12599058 -0.20178369 -0.16272865
-0.20053107 0.1655171 0.060806848 -0.030941349 0.36841014 -0.3496665 -0.19512548 0.1450455
-0.28943226 0.3080669 0.092617646 0.1671119 -0.048386246 -0.12793861 0.18063532 -0.024121508
0.020614877 -0.38471103 -0.071487404 0.15625742 -0.00511079 -0.3380526 0.45077318 0.47097802
0.038902204 -0.045334443 0.30246785 0.008384245 -0.08626259 0.08159429 -0.10469403 -0.18678568
-0.0028389143 0.178149 0.08993439 -0.036397196 0.149969 0.01864861 0.13529125 -0.08689704
-0.09684665 0.124747165 0.0992426 0.2623995 0.15959287 0.11139025 -0.3425283 0.4921517
0.17479065 -0.17055354 -0.1160596 -0.27067107 -0.08216042 0.20913728 -0.09954823 -0.12286156
0.5712632 -0.24328843 -0.20403564 -0.046271507 -0.16620015 -0.2131518 -0.3139585 0.57564914
0.107338555 -0.1357682 -0.06508664 -0.52232635 0.34255826 -0.1762 -0.08137029 -0.2263957
-0.35089153 0.30630764 -0.00042265846 0.2927564 -0.06448067 0.0904245 -0.19116801 -0.07285842
0.3596622 -0.17322877 -0.0550038 0.23299117 -0.5200079 0.16941686 0.35074636 -0.31323475
-0.33331785 0.18071184 -0.21094081 -0.16194032 -0.09619006 -0.32560194 0.20908755 0.53230757
0.34841388 0.29932538 0.024041722 -0.3852441 -0.05175276 0.12579377 0.40121138 0.019841043
0.24715544 -0.079206094 0.26008365 0.121943854 -0.17111444 -0.30517158 -0.15384284 -0.079244

lstm.bias_ih_l0 f4 [256]
00000000: 4c31 91bd e24d e2bd db48 9b3b bffa 713e
00000010: f966 c3bd a4cd 133e d9a3 cfbd 4196 a4bd
00000020: 3735 efbd e425 fc3d 1d15 c6bd 807a 98bd
00000030: ea60 19be d7e9 3c3d 70c9 1c3e a41f e3bd
00000040: 9293 80be 7f07 85bd 8c58 013e a318 923c
00000050: 40f4 58be d949 6dbd f73b 68be 28c2 cf3b
00000060: 236c 1cbd ca4d d5bd 19fa 2a3e 9d24 25be
00000070: 1cc3 81be 7f2f f2bc e849 4bbe b2b3 46bc
00000080: db5a c3ba 7a70 6bbe 2bde babb d1c2 0bbd
00000090: cf66 0f3e d3d2 1fbe 07f2 94bd d7fc 243d
000000a0: 74d3 53be 9190 babd 8e48 20be f300 7abe
000000b0: 433c 28be 9a4d 783d 36c5 8d3e 6781 0bbb
000000c0: c2da babd 2d8c 14bd ef7f ccbb e11e e6bd
000000d0: 95b0 58bc a801 a8be d412 b0be f231 b73d
000000e0: 5235 4cbe 89bf 4bbe efc6 32bd d740 1cbe
000000f0: 2f6a bbbc 9861 6cbd e4a6 20be 3df7 a53d
00000100: df94 52bd 978a c5bc a7e2 823d 17eb 6e3d
00000110: e5aa b53d e66c a4bd 9961 443e c36a 39bc
00000120: 837f 143e 54db 3fbc 52ad 863d 6e63 3d3e
00000130: 83c8 a53d d1a9 06be bec5 933d ab55 df3d
00000140: 6c5f 66be b5e2 cdbd 9c39 f53d 077e a83d
00000150: 49c9 9c3d 85ad 64be 6e7b b63d 1ffc 96bb
00000160: faaf c0bc 7992 783c 14bb b93e 90dc 063e
00000170: 9dba a3bc 20bb ab3d 6da1 883d 9136 e7bd
00000180: 0ec0 883e fbb4 eebc a105 5c3d 48ea b73d
00000190: 130f 663d b4ff b4bd d555 76bd 1643 9d3d
000001a0: 1fc2 803e aa65 06bd 1a74 443e af1f 7e3d
000001b0: c377 c43d 9760 1c3e e8d6 0a3e 6157 133e
000001c0: 64b9 7cbc 54ce 653e ca61 9abd fd7f 8cbd
000001d0: 707f d83c f393 d53d 6172 ab3c de3b 303e
000001e0: 5b98 973c 4889 a23c ac56 f13d 8888 1e3d
000001f0: 685b f93b 0c61 0b3e 8a52 173e 06db 693d
00000200: 89c0 973d 5528 0b3d 2df7 dcbd 3fee 0cbe
00000210: fa52 f3bd 75ee f93d e99b 78bd 7e24 073e
00000220: 762a 7c3e e3da 1fbe 9a1c be3d 708f a53d
00000230: 15fc c8bd 6805 333e 383a a1bd d40c f53d
00000240: 0f2b f23a da7e bb3d ee0b 55be cd94 e8bd
00000250: 8f8e 32bd a636 b93d 0997 d63d 9b76 ddbd
00000260: 1d24 b8bd f74f db3d 9b1a 0ebe 8040 993b
00000270: 7e4a 143e 426e a3bb 3f6b e1bd 2ddf b4bd
00000280: 0646 50bd 5ff0 f7bd f2c4 26bd dfd5 71bc
00000290: a358 743d df1e 63bd fa21 15be 0487 02bc
000002a0: 948a 383e 1997 31be 84de 013e d47c 333d
000002b0: 9b96 2fbd e561 3f3e 6b56 6abd 8973 9abd
000002c0: baca febd cd12 f83d 663c d7bd 8940 ffbd
000002d0: c630 65bd 482d 8ebd 58aa 8dbc 7f42 6c3d
000002e0: b868 d43d 9d93 bdbb 95ff 31bb b88a d23d
000002f0: 3ef7 0fbe 0f69 c53d dd30 8d3d 920d 623d
00000300: 3146 f5bc 3566 8ebd fb75 293e 1643 ba3e
00000310: 8489 01be e068 a53e c455 a83d efbb d3bd
00000320: 8eea 96bd d16a 933d f185 31bd d07b 17bd
00000330: e750 b33b c1fa 0f3d fcbb 203e a08c d2bc
00000340: 32c3 94be 6142 ea3d cd10 283e 7997 163e
00000350: 4bf3 b0bd 2064 89bd 2dbb af3d 1ace 053e
00000360: 4e58 b3bd b352 c3bd 4532 453e b640 633b
00000370: cd45 7cbd 422a 37bd 08fb e2bd 9835 893d
00000380: 5abc 7b3e 9d6f 8c3d 5f48 fabd 5113 14be
00000390: 6390 bbbc 8d17 413d 59f9 e9bd 7324 e03d
000003a0: 9e44 e63d c076 6f3d 5a47 303d 28dd 32bd
000003b0: f5aa 10be 65a1 913d 5ea9 123e 5bb4 52bc
000003c0: b567 f5bd ba7a 933e f99a 03be d43d debd
000003d0: dd4d e53d 88d0 c1bd 02ca 95bd 3d58 05be
000003e0: 3641 87bc 4043 a63e f6bd b33d 11da f53d
000003f0: 2d77 ee3d e324 fd3d 8c25 013e 7657 bcbd
-0.07089481 -0.11050011 0.0047389097 0.23630808 -0.09541125 0.14433914 -0.10138673 -0.08036471
-0.11680072 0.123119146 -0.09671996 -0.0744524 -0.14978376 0.046121445 0.15311217 -0.11090019
-0.25112587 -0.064955704 0.12631434 0.017834013 -0.21186924 -0.057931755 -0.22679125 0.006340284
-0.038189065 -0.10415228 0.16696967 -0.16127248 -0.2534417 -0.029563664 -0.19852412 -0.012127804
-0.0014904396 -0.22992125 -0.005702754 -0.03412134 0.14004062 -0.15607767 -0.072727256 0.04028019
-0.20686132 -0.09109605 -0.15652677 -0.24414425 -0.16429238 0.06062088 0.27689523 -0.0021286847
-0.09123756 -0.036266495 -0.006240837 -0.112363584 -0.013225694 -0.32813764 -0.34389365 0.08945073
-0.19942215 -0.19897284 -0.04364675 -0.1525911 -0.02287778 -0.05771026 -0.15688664 0.081037976
-0.051411506 -0.024113936 0.06390887 0.058329668 0.08870486 -0.08028583 0.19177856 -0.011316958
0.14501767 -0.011710007 0.06576027 0.1849496 0.08094885 -0.13150717 0.07215451 0.10905012
-0.22497338 -0.100530066 0.11973879 0.08227163 0.076555796 -0.22331817 0.08910261 -0.004607692
-0.023521412 0.015171641 0.36275542 0.13170075 -0.019986445 0.08385301 0.066714145 -0.112897046
0.26709026 -0.029139033 0.053716306 0.089802325 0.05616672 -0.08837834 -0.06014045 0.07678811
0.25148103 -0.0328118 0.19184914 0.062041935 0.09593155 0.15271221 0.13558543 0.14388801
-0.01542506 0.22441989 -0.07538183 -0.06860349 0.026427954 0.1042861 0.020928564 0.17210338
0.018505266 0.019840851 0.117841095 0.038704425 0.0076097734 0.13611239 0.1477758 0.057093643
0.0740977 0.03397401 -0.107893325 -0.13762759 -0.11881061 0.12203685 -0.060695563 0.13197514
0.24625573 -0.15610842 0.09282799 0.08083999 -0.09813706 0.17482531 -0.078724325 0.119653374
0.0018475967 0.091550544 -0.20805332 -0.113565065 -0.043592986 0.090436265 0.104780264 -0.10813638
-0.08991263 0.107086115 -0.13877337 0.0046768785 0.14481542 -0.004987509 -0.11006784 -0.0883163
-0.05084803 -0.12106394 -0.040715165 -0.0147604635 0.059654843 -0.055449363 -0.14563742 -0.007966761
0.18021613 -0.17342795 0.12682539 0.043820217 -0.042868238 0.18689688 -0.05721132 -0.07541568
-0.12441011 0.12112961 -0.10509567 -0.12463481 -0.055954717 -0.069422305 -0.01729314 0.057680603
0.10371536 -0.005785419 -0.0027160395 0.10280365 -0.14059159 0.09639179 0.068940856 0.055188723
-0.029940696 -0.06953088 0.16548912 0.36379308 -0.12650114 0.32306576 0.082194835 -0.1033858
-0.073689565 0.07198108 -0.043340627 -0.03698331 0.005472291 0.035151247 0.1569671 -0.02570182
-0.29055172 0.11438442 0.16412659 0.1470622 -0.086401545 -0.067085505 0.08580623 0.13066903
-0.08757077 -0.09537258 0.19257458 0.0034676022 -0.061590005 -0.044718035 -0.11083037 0.06699675
0.24583569 0.06857226 -0.12220835 -0.14460494 -0.022895997 0.0471416 -0.114245124 0.10944452
0.112435564 0.05846286 0.043036796 -0.043667942 -0.14127715 0.07110862 0.14322421 -0.012860383
-0.11982671 0.2880457 -0.12852086 -0.108516365 0.11196492 -0.09463602 -0.073139206 -0.13021941
-0.016510587 0.32473183 0.087764665 0.120044835 0.11643825 0.12360551 0.12611979 -0.09196369

lstm.bias_hh_l0 f4 [256]
00000000: 6551 913d be2c 61be 5fea 1e3c 3f3a 4f3e
00000010: 7422 94bc 788a a8bc dae9 8d3d abe8 69be
00000020: 20c2 2abe 3da1 95bb b984 b2bd 0bf7 b2bd
00000030: 5f92 a1bd 1b4b 2abd 009d acbc 6faa 4ebb
00000040: bdf9 53be 3b23 86bd 9011 a93d 872d 5f3c
00000050: 2be1 b4bd faaa abbd b90d 85bd 2838 163d
00000060: d0ac ffbd b928 5bbd 7ff2 093e 0802 adbe
00000070: 59bb b5bd 7f02 9cbd bd75 68be 1cd5 94bc
00000080: 4af8 5d3e 810d 33be 21b9 6cbe 99ed 4bbe
00000090: e99a 193e b67a 83be c338 1cbd 30d1 473e
000000a0: b3c1 56bd 953b 4b3d 33cc 43be 0388 68be
000000b0: 838b 0ebe 6638 91bd 9614 013e a6a2 fe3c
000000c0: 5f4d 773d 5271 39bc f611 9ebd 156a 77be
000000d0: 645e 0b3e 68b4 e3bd 0f49 c5be cf5a f3bd
000000e0: c8f2 19bc 81f7 debd b941 1c3d 45c7 23be
000000f0: 7b99 d93d 2c47 10be d0e0 8bbe fb69 1c3b
00000100: fd91 f13d ba07 943c 9988 073e db77 653b
00000110: f44e d63d 6e0b b83d 6b41 823e b1f8 db3d
00000120: 969a bd3d 740a d4bd 1c4a 0abe 7d87 973e
00000130: 6087 573e 647c f1bd b777 c4bd fed4 aa3d
00000140: 0d3f 69bd d64f 883d 5da1 4a3e 9bc6 333e
00000150: 4ecf 20bd 6420 84bd ffee 6e3d 5a2c 8b3d
00000160: 647d 36bd 1bb3 0e3b 82f5 3a3e 6a0a 2c3d
00000170: ddcd ba3d f50b 403d 9e67 bf3d 31f4 edbd
00000180: 215c 6e3e 7320 6abb bc79 a83c 66d4 063e
00000190: 677e 863d e7e5 61be 99ab 69bd a149 ab3d
000001a0: de94 483e cefb 05be 5801 1b3e 3005 0f3d
000001b0: 287b 2f3e 8b35 613e 6a57 ff3d 96b3 2b3e
000001c0: cbde 7fbd 047b 553e 537c 413d 9c5e 6abd
000001d0: 409b a73c 8f66 093e 15b6 a6bd a17a d93d
000001e0: b949 8c3d 8f26 1c3e 5e36 323e 9c37 bbbd
000001f0: beab a13d e46d 163c d77c 043e 243d 8a3e
00000200: 3b28 ab3d e474 d0bd aea4 3cbe 3b80 f7bb
00000210: 76f8 d3bd 1318 113e 8fff ec3d c8af ffbb
00000220: 2acb 7d3d 128d 4cbd 8f9f 1a3c 01e6 b33d
00000230: 76e6 06be db80 233d 5426 853d 96af ad3d
00000240: 8483 2b3c 84f4 96bd 2b7d adbc 2c89 d1bd
00000250: 5a5d 8b3d cccc 8dbd c12f 1c3d 20e4 f9bd
00000260: 8d8f d5bd ab75 8abd 89d7 c7bc 3bc5 47bc
00000270: 0f76 b63d 63d0 503d 89cc a7bd cff4 69bd
00000280: a81b 843c 16ab 1dbd 4637 0e3e f181 ee3c
00000290: 98f8 bfbd 5f0c 3bbe 83d3 29be 4416 38be
000002a0: d185 453e 9ff7 85bd e698 e53d 018a 363d
000002b0: beef cbbc 4d8a 653d 4d8c d03c 0333 71bc
000002c0: 8a01 13bc ef3a f9bc 618c ccbc 5ebd 05be
000002d0: d7b8 94bb d774 133d 7ded 083d f48d 683d
000002e0: 2e46 8cbd 2a9e 56bd d1c8 0f3d 5129 05bc
000002f0: 8de3 0bbc bc5c 9abd de83 c03a c49c 2dbc
00000300: 308d 1abe 3a9d aebd 9bf5 a53e f843 733e
00000310: 555d 9a3c 1e4a 553e 9aff 433d 3342 32bd
00000320: e9e6 a0bd 2b8b d83d 57a5 403c 49ad b8bd
00000330: 38c2 023e 5f34 383e 6196 a93d 57da 9b3d
00000340: dc9e 64be 2ba9 f23d b4c0 b63e 946d 9fbc
00000350: ecd8 8fbd 4511 b7bd 957d 4e3d e7d9 633e
00000360: 88eb f6bb 665e 8d3c f49b 0abc b1c0 ef39
00000370: 43de a3bd debd c23d c5d9 4abd 48d6 193a
00000380: d132 143e ef8f aabd 746f 9cbd 5973 13be
00000390: 542f 28bd 35bb 24be 6fcb 10be 240d 7c3e
000003a0: 550d 383e e291 523d cfdd f43d eee2 ad3d
000003b0: a02b bcbd 8dad e83d 774b 833e 8325 193d
000003c0: 8152 8abd d024 ce3d 4738 15bd a88d 78be
000003d0: 7b4a b6bd f795 febd ee51 913c 91cb ad3d
000003e0: a1bc d33d 4eeb 633e c7f1 00bd ccca e83c
000003f0: c626 a73d ce80 263e 08fd 1b3d 2979 873c
0.07095603 -0.21989724 0.009699433 0.20237063 -0.018082835 -0.02057384 0.06929369 -0.22842662
-0.16675615 -0.0045663402 -0.08716721 -0.08738526 -0.07889246 -0.041575532 -0.021070957 -0.0031534692
-0.20700736 -0.065496884 0.08255303 0.013621694 -0.0883201 -0.083822206 -0.06496758 0.03667465
-0.12484133 -0.053505633 0.13471411 -0.33790612 -0.08873624 -0.076176636 -0.22701164 -0.018168025
0.21676746 -0.1748562 -0.23117496 -0.19914855 0.150005 -0.2567956 -0.03814007 0.19513392
-0.05243082 0.04961737 -0.19120865 -0.22708134 -0.13920407 -0.07090835 0.12605509 0.031083416
0.06037652 -0.011318522 -0.077182695 -0.24161561 0.13610226 -0.11118394 -0.38532302 -0.11882555
-0.0093962625 -0.108870514 0.038148616 -0.15993984 0.10624977 -0.1408965 -0.27319956 0.002386688
0.11795423 0.01807009 0.13235702 0.0035014066 0.10464278 0.08986555 0.25440535 0.107407935
0.092580006 -0.10353556 -0.13504833 0.29595557 0.21047735 -0.11791304 -0.09593146 0.08341406
-0.056944896 0.066558525 0.19788118 0.1755623 -0.0392602 -0.064514905 0.058333393 0.06795569
-0.044553176 0.0021774236 0.18257716 0.04200212 0.091212966 0.046886403 0.09345935 -0.116188414
0.23277332 -0.0035724908 0.02056586 0.13166961 0.06567078 -0.22060357 -0.057048414 0.08363653
0.19588038 -0.13084337 0.15137231 0.034917057 0.17136824 0.21993081 0.12467845 0.16767725
-0.06246833 0.20847708 0.047237705 -0.057219133 0.020459771 0.13418029 -0.08140198 0.10619093
0.06849999 0.15249084 0.17403552 -0.09141466 0.07894085 0.009181473 0.12938248 0.26999772
0.08357283 -0.10178545 -0.18422195 -0.007553128 -0.103501245 0.1416934 0.115721814 -0.007802937
0.06196133 -0.049939223 0.009437456 0.08784104 -0.13173851 0.039917808 0.06501451 0.08480756
0.0104683675 -0.073708564 -0.021177849 -0.102312416 0.06804915 -0.069238275 0.03813148 -0.122017145
-0.10427771 -0.06760725 -0.024394767 -0.0121930195 0.08909237 0.050979983 -0.08193309 -0.057118233
0.016126469 -0.03849324 0.13888273 0.029114695 -0.09373587 -0.18266438 -0.16584592 -0.17977244
0.19289328 -0.065413706 0.11210804 0.044565205 -0.024894591 0.056040097 0.025457526 -0.014721635
-0.008972535 -0.03042361 -0.024969282 -0.13060519 -0.004538636 0.0360001 0.03342961 0.056776002
-0.06849323 -0.05239693 0.035103623 -0.008127526 -0.008538139 -0.07537219 0.0014687737 -0.010596458
-0.15092921 -0.08526082 0.32413945 0.23756397 0.018843332 0.20829055 0.047851183 -0.043520164
-0.078565426 0.10573419 0.01175817 -0.090174265 0.12769401 0.17988728 0.082806356 0.076100044
-0.22326225 0.118486725 0.35693896 -0.01946143 -0.070237964 -0.08938841 0.050412733 0.22251092
-0.0075354017 0.017256927 -0.008460034 0.000457292 -0.080013774 0.095088705 -0.049524087 0.0005868417
0.1447251 -0.083282344 -0.076384455 -0.1439947 -0.04106076 -0.16087039 -0.14140104 0.24614388
0.17973836 0.051408656 0.11956369 0.08490549 -0.09188008 0.11361227 0.25643513 0.03738929
-0.067540176 0.10065615 -0.036430623 -0.24272788 -0.08900925 -0.12430947 0.017739262 0.08486093
0.103387125 0.2225773 -0.031480577 0.028417014 0.08161692 0.16260073 0.038083106 0.016537266

lstm.weight_ih_l1 f4 [256, 64]
00000000: 773b 433e d2cc b13c c9a1 06be cee9 22be
00000010: 4a8d 87be 2996 0fbc ad76 9d3e 68cd 0fbe
00000020: 67b2 1a3e 9f7d 69be 843d 5c3e 9fe6 be3e
00000030: ce4d 52be 3ee9 36be d401 cebd cdf1 923e
00000040: bc9d 0d3e ab5f 4cbe 8104 a6bd 2823 98bd
00000050: d031 34bc 27f6 7a3d d43c ee3d 0838 bbbd
00000060: df9d d93d b679 65bd 255b 0abe c68a f7bd
00000070: 0cf5 563e 3a1a 6a3d 49db 50be 8d04 3fbd
00000080: e5b5 61bc 0ad4 8dbe 24fe 66be 8570 9e3d
00000090: bc10 b0be 8bdf a0bd 7b06 a2bc 993c 97be
000000a0: 6d01 d43d 457d 3abe 8e2f 933e d70f bb3d
000000b0: 1017 81be 2ec9 bb3d 2d70 bfbe 3b26 c3be
000000c0: 2ed7 8d3d 5613 b53d d72a 083e 7f24 ecbd
000000d0: 75dc 92be 207c 51bd b25f 9a3e 4fd4 b4bd
000000e0: b497 213e b251 a1be efe7 573e 84c5 a4bd
000000f0: 5860 c7bd 4ebb 9abe bc22 373e 4338 023e
00000100: ccb0 95bc 0d83 3d3d b324 a03e 7e86 533e
00000110: 3784 f9bd 8a72 0dbe cfca acbe 81ae 093d
00000120: 9c48 963d 8ca3 01bc cb88 be3d ae4d a83c
00000130: c5c2 da3e fcc6 1cbe 20bf 21bc 428a 63bb
00000140: 2765 6a3e 3e3f 0c3d b0c6 45be 5d4d f2bc
00000150: 9d1a 863e a7c3 243e 3f66 22be 69c8 063f
00000160: be8d 953e 689e 0b3c bd82 05bd 3297 0abf
00000170: e97c 8bbe 4c00 0c3e 9a1a b8be 4d1f 1e3e
00000180: bcf3 903e d40c 76be de4c b33d 4681 af3d
00000190: c9e3 03be eb03 85be 5c06 75bd 506f cb3e
000001a0: a2da 973e f051 e63e c322 803e 8859 8f3d
000001b0: 7cdc 68bd 2977 6cbe 82a7 d0bb 2b0d 683e
000001c0: 7f41 c5bd fb53 293d b8be 753e 3f15 623d
000001d0: 32e4 b9bd 6f24 3cbd 58b8 4a3e bbe1 2dbe
000001e0: 0855 57bd f470 85be 6c9c 7cbe 77a4 46be
000001f0: d60d 583d 0a17 843e 9ebe 0bbe 948e f1be
00000200: fb55 783e 35ea 783e a81c f6bc 4011 223e
00000210: 8847 71be 7ca2 08be 5ef0 373e f87c bbbe
00000220: 35af 13bd 68ab 9ebc 9377 04be d345 973d
00000230: c07f 0c3c 6ea1 0e3e 8c0f d73c 4165 e4be
00000240: 5344 103b 1599 12bf fbba 79bc 3d6a ea3d
00000250: ae81 c8bd 9df5 0a3e 0a2c aebd 5198 e73d
00000260: 32cd 083e e969 a33d b57b 38be b4a7 50bd
00000270: bf8f 0b3e 879c 3ebe c688 6fbd d18c b6be
00000280: d7fd 0cbe be0a 8b3c 6fa2 92be d74f a03e
00000290: c67b 583e 35d5 f0bd 7e87 25be 4240 34bc
000002a0: eac3 883e 0043 6f3c 3c96 b03e fbc3 023e
000002b0: e782 d4be c197 d33d c691 1b3d 8bcb c1bd
000002c0: 6f63 7b3e 08b7 c93d 5684 5fbe b949 2a3e
000002d0: 3284 b1be ddc6 40be 1d3b 4f3e 20a9 503e
000002e0: 1645 c2bd cab3 603d 69dd 61bc 3f28 9fbd
000002f0: 972a 83be ae2c c3be c24a 323e 5f09 82be
00000300: 6c1c 213e db28 76be 28e1 873e f66a 8e3e
00000310: 5db5 883e 4c6d 22bd e5f4 823e 1546 073d
00000320: ec22 653e 1076 273e 70d3 833d 95c4 b73e
00000330: 3a86 85be e3bb b1be b550 39be ddaf 6c3e
00000340: 93ed 3abe 0c08 923e 7685 303e a989 ddbe
00000350: 4846 43be 2dae 873e fc65 8d3d 37bc ab3e
00000360: 3b0d a53d 38b6 95be 45f0 4fbe ceb1 723e
00000370: 044d 433e 5c22 003f 59af 923d ecdc 1cbe
00000380: 5399 71bd 69b6 87be 7902 5cbe 8024 0d3e
00000390: 2a0f 1abc e887 f3bd 140e 053e 923e 7dbe
000003a0: ab74 f23d 5b43 04bf 10a4 923e 0be6 98bd
000003b0: 94d7 c6be 6e84 04be 4f52 1fbe bbf3 2d3d
000003c0: 4b6f 0dbd be0b 5abe 79b6 ec3e ec17 643e
000003d0: 3c7a 2ebe f7e7 a03e c797 14be 6f67 ccbd
000003e0: 2bf2 38be a9e0 f4bd d15c f33e b834 593e
000003f0: a872 323e c060 763c bba1 61bd bd0b 1bbc
0.19065653 0.021704111 -0.13147654 -0.15909502 -0.26474983 -0.008763828 0.30754605 -0.140432
0.15107118 -0.22801827 0.21507841 0.37285325 -0.20537493 -0.17862412 -0.100589424 0.28700104
0.13829702 -0.1995837 -0.08106328 -0.074285805 -0.010998204 0.061269905 0.11632696 -0.091415465
0.10625815 -0.056024276 -0.13511331 -0.12087016 0.20991915 0.057153918 -0.2039615 -0.0466352
-0.013776277 -0.27700835 -0.22557884 0.07736305 -0.34387767 -0.078551374 -0.01977848 -0.2953842
0.103518344 -0.18211849 0.2874722 0.091338806 -0.25212908 0.09169231 -0.3739027 -0.38115105
0.06925808 0.08841579 0.13297592 -0.115303986 -0.2868382 -0.051143765 0.30151135 -0.08829557
0.15780526 -0.3150764 0.2108457 -0.080454856 -0.09735173 -0.30221027 0.17884344 0.12716775
-0.01827278 0.046267558 0.31278 0.20656773 -0.12183421 -0.13813224 -0.3374848 0.033613686
0.07338068 -0.007912528 0.09303435 0.020544853 0.42726722 -0.15310282 -0.009872228 -0.003471986
0.22890149 0.03424 -0.19314075 -0.029577905 0.2619218 0.1609026 -0.15859316 0.5264955
0.29209703 0.008521654 -0.032595385 -0.54136956 -0.27243736 0.13671988 -0.35957795 0.15441628
0.28310955 -0.24028331 0.08754896 0.08569579 -0.12879862 -0.25979552 -0.059820518 0.39733362
0.2965899 0.44984388 0.2502652 0.069994986 -0.056850895 -0.23092331 -0.0063676247 0.22661273
-0.09631633 0.041339856 0.23998535 0.055196043 -0.09076728 -0.045933183 0.19796884 -0.1698064
-0.052571326 -0.2606274 -0.24669045 -0.19398676 0.05274757 0.25798827 -0.13646933 -0.4717909
0.24251549 0.24308093 -0.030042961 0.15826893 -0.23562443 -0.13343233 0.17962787 -0.3661878
-0.036055762 -0.019368842 -0.12936239 0.07386365 0.00857538 0.13928768 0.02625253 -0.446085
0.002201338 -0.57264835 -0.0152423335 0.114460446 -0.097903594 0.13570257 -0.085044935 0.11308349
0.13359526 0.07979185 -0.1801594 -0.050941184 0.13629054 -0.18614398 -0.058480047 -0.3565431
-0.13768707 0.016972896 -0.28639552 0.31310913 0.21140966 -0.11759416 -0.16164967 -0.011001648
0.2671197 0.014603376 0.3448962 0.12770073 -0.4150612 0.10331679 0.037980817 -0.09462651
0.2454965 0.098493636 -0.21827826 0.16629685 -0.3467117 -0.1882586 0.20237394 0.20377016
-0.09485833 0.05485896 -0.013785698 -0.07771348 -0.2561843 -0.38120025 0.1741133 -0.25397775
0.15733498 -0.24039023 0.26538968 0.2781598 0.2670087 -0.039655015 0.25577465 0.03302582
0.22376603 0.16353631 0.06436813 0.35892168 -0.2607897 -0.3471366 -0.18097194 0.23113962
-0.1825469 0.28521764 0.17238411 -0.4326909 -0.19069779 0.26500073 0.069042176 0.33542034
0.08059164 -0.29240584 -0.203065 0.2370064 0.19072348 0.5005243 0.07162351 -0.1531865
-0.058984112 -0.26506355 -0.21485318 0.13783455 -0.009403029 -0.118911564 0.12993652 -0.247309
0.11838659 -0.51665276 0.28640795 -0.07465752 -0.38836348 -0.12941143 -0.15558742 0.042468768
-0.034529965 -0.21293542 0.46232966 0.2227475 -0.17038816 0.31426975 -0.14511023 -0.09980666
-0.1806113 -0.11956913 0.4753175 0.21211517 0.1742655 0.015037715 -0.05508588 -0.009463248

lstm.weight_hh_l1 f4 [256, 64]
00000000: 525d e9bd 46eb ea3d 7638 c6bc 4ae1 58be
00000010: e953 233d 7b38 d13d 0711 5cbe 4685 8839
00000020: 9f36 373e 09f7 4bbd 7717 85bd eba4 08be
00000030: 1754 4abe 5c0a 53be baee 0d3d 4532 e2bd
00000040: 5452 7ebb 700f 393c 4a63 193e c722 983c
00000050: 9842 633e fe01 97bd 1282 17be a928 41bd
00000060: c84c eebd 9236 f5bd dce2 363e fedf 7c3e
00000070: c6ea 843d 568f bbbc 5799 a13c dddc 06bd
00000080: c612 733e cced f93b 447e e53d 7893 8abd
00000090: d619 c03c ccad 25be 71cf b7bd c37a db3d
000000a0: fb19 80bd a744 ce3b 6270 25be 0fdb 4abe
000000b0: 5a32 dabc 1bd4 fe3d d2e8 a43d e6d0 1abe
000000c0: dac2 9d3d 453b 28be 1135 7bbd f152 7f3d
000000d0: 38ce ce3b 3cff 27be ad08 c03d 66a2 3f3e
000000e0: 2839 183e f7b6 963b 8a4b 643e a71b 313e
000000f0: 8e38 0dbd 48df 0e3e 899c 21be 73a3 dabd
00000100: 795e 4bbd d505 73be b673 c6be 0415 efbd
00000110: 7216 16be 06e2 d13d fc65 e9bd 24eb 91bc
00000120: 3686 0a3e 390b 463e 3206 bfbd d96d d63d
00000130: 19bd 23be 7d4f d9bd cb82 3f3e 1802 babe
00000140: a4d8 6f3e f5bf f1bc 735c 263e f0d7 473d
00000150: a47d 7f3e 5410 debd ce52 a2be c3d9 3e3e
00000160: ca1e 223d fd37 35be fccd 313e fe3f 043e
00000170: cb20 773d 6330 84bd 8442 a73e 8ad6 563e
00000180: cc60 213e a044 91be 3106 6f3e 5650 5ebe
00000190: 04eb b8bd e3d0 47bd 1c6a c53d 9371 213e
000001a0: 0464 c5be 367f 46be 512e c6bd cd3b 00bf
000001b0: 68d1 90be 2fe5 54be 542e 323c cf61 023f
000001c0: 2ff9 823e 6e8c 41be 8b66 ad3d 6bbc 8cbe
000001d0: 7947 1ebe 3803 913e 34d5 7c3e a0e8 503e
000001e0: 3d01 2e3d 4c68 ecbd abaa e43d b659 58bc
000001f0: e216 38be 6e28 1d3e a2a2 93be ea11 49be
00000200: 043c 373d 6f3e 0b3e dac7 db3d fa51 ba3c
00000210: 1b7d 8e3d ce74 66be 2084 dabd b554 3f3e
00000220: c2a7 9f3d b14a 95bc 2e75 863e 7e40 b9be
00000230: 5804 cebe 9269 23bb 02aa 1ebe 15ae 4a3d
00000240: 6ffe 4c3d 079a cfbd c503 9fbd 61d2 c23d
00000250: bb29 a53e 7def 6e3c ef0f e4bc 84e3 8d3c
00000260: 98c3 a7be cd34 28be e9a1 cb3d 17c1 283d
00000270: cdf8 0bbe 8192 1ebd 1f05 753d 2f5e db3d
00000280: 66f8 c6bd ff68 be3d 7ba5 8abd 7b34 72be
00000290: 9b45 9e3d 117c 163e 5c89 0dbe 92b6 923d
000002a0: 5516 e7bd 5f7c c23c 7e2e 01bd fd54 fabd
000002b0: 388e 4f3d 3df0 54be 5a3a 64be 4f1d 54bd
000002c0: 26c3 693c d6fb 90be ae41 b03b 4625 1cbe
000002d0: b296 34be 9ddb 2c3e 1a2e 103e b792 af3d
000002e0: 59f3 b63c 97fb 02be 4619 91bd 828b 0a3e
000002f0: 91c8 55bd 7c99 003d 9634 70bd 4395 0abd
00000300: 6ddf 303e a08f c4bc c238 cdbd 16ec f9bd
00000310: b338 4dbe bb78 af39 e895 5cb9 86f2 b73d
00000320: bea0 90be f828 ce3d 25e0 043e d4c9 a43c
00000330: 920f a73c 068d dbbd 8044 143c cfd9 cf3d
00000340: 8500 a13d 0c61 6b3e 9971 b33d 5ebb adbd
00000350: 3075 4bbe b3e2 053e cca6 f4bd f918 4dbe
00000360: 8fbf 633e 5410 063d fc83 743e d43a 3bba
00000370: 682f 583e 0dd2 a13d dc20 aabe 3d2e d63d
00000380: 533a c1bc 54ee 57be 903e 8bbd 5401 6d3b
00000390: 3cc0 c83d c209 93bd ef02 4dbe 5b83 fc3d
000003a0: fdfc 44bd 4473 efbd b834 53be 2ed1 803d
000003b0: c7ca 443d b586 dbbc f691 2a3d 3e90 20be
000003c0: cf80 e93d 22e8 d83d e377 1d3e 0a6d 41bd
000003d0: 6cc5 bfbd c298 ca3c 4df7 d33d 124d 78be
000003e0: dc74 48be 72c9 3bbe 7f9a 683e 3e8e c7bd
000003f0: 6af5 ecbc 9fb6 b8bc 9dad 283e 941a 18bd
-0.113947526 0.11470656 -0.024196845 -0.21179691 0.039874945 0.10215851 -0.2149087 0.00026039238
0.1789193 -0.049796138 -0.06498616 -0.13344161 -0.1975864 -0.2060942 0.034651496 -0.110447444
-0.0038806396 0.0112951845 0.14979282 0.01857127 0.22193372 -0.07373427 -0.14795712 -0.047157917
-0.116357386 -0.11973299 0.17859977 0.24694821 0.06490092 -0.022895496 0.019726438 -0.032925475
0.2373763 0.0076272245 0.11205724 -0.06766409 0.02344982 -0.1617958 -0.08975113 0.10716774
-0.062549554 0.006294805 -0.16156152 -0.19810127 -0.026635338 0.124428 0.080522195 -0.15118751
0.077031806 -0.1642886 -0.061329905 0.06233496 0.0063112043 -0.16405958 0.09376655 0.18714294
0.14865553 0.004599448 0.22294441 0.17295705 -0.034477763 0.13952363 -0.1578237 -0.10675707
-0.049650643 -0.23732693 -0.38760155 -0.1167393 -0.14657 0.10248189 -0.11396405 -0.01781232
0.1352776 0.19340219 -0.093273535 0.104701705 -0.15990104 -0.10610864 0.18702237 -0.36329722
0.23422486 -0.029510478 0.16246204 0.04878992 0.24950272 -0.10842958 -0.317038 0.18637757
0.039580144 -0.17697139 0.17363733 0.12915036 0.06033401 -0.064545415 0.32667935 0.20980278
0.15759581 -0.2837267 0.23342206 -0.21710333 -0.09029201 -0.048783194 0.096393794 0.15765981
-0.38552868 -0.19384465 -0.09676803 -0.5009125 -0.28284764 -0.20790552 0.010875303 0.50930494
0.25580737 -0.18901226 0.08466824 -0.27487502 -0.15456952 0.28322768 0.24690706 0.2040124
0.04248165 -0.115433306 0.11165365 -0.0132049825 -0.17977479 0.15347454 -0.28835016 -0.1963574
0.04473497 0.13598035 0.10731478 0.022744168 0.06957456 -0.22505495 -0.10669732 0.18684657
0.07795669 -0.018224092 0.26261276 -0.36182016 -0.4023769 -0.002493475 -0.1549454 0.049482424
0.050047334 -0.101368 -0.07764391 0.09512783 0.322584 0.014583466 -0.027839629 0.017320402
-0.32766414 -0.16426392 0.09942991 0.04119977 -0.13669129 -0.038713936 0.059819337 0.107113235
-0.09715347 0.0929737 -0.06769844 -0.23652832 0.0772812 0.14695765 -0.1382193 0.07163729
-0.11283556 0.023740945 -0.03153848 -0.122232415 0.05067274 -0.20794769 -0.22287884 -0.051785763
0.014267718 -0.28317136 0.0053789234 -0.15248594 -0.1763561 0.16880651 0.14080086 0.085729055
0.022332834 -0.12791286 -0.07084899 0.1352978 -0.05219323 0.031396374 -0.0586439 -0.033833753
0.1727273 -0.023994267 -0.10020591 -0.12203233 -0.2004116 0.00033468552 -0.0002103668 0.089818045
-0.28247637 0.10066408 0.1297613 0.02011577 0.020393167 -0.107202575 0.009049535 0.101489656
0.07861427 0.22986239 0.087619014 -0.08483003 -0.19868922 0.1307476 -0.119458765 -0.20029058
0.22241043 0.032730415 0.23878473 -0.000714225 0.21111834 0.07901392 -0.33228195 0.10458038
-0.023587381 -0.21087009 -0.06799042 0.0036164122 0.09802291 -0.071795955 -0.2002065 0.123297416
-0.04809283 -0.11691907 -0.2062558 0.06289898 0.048044946 -0.026797632 0.041643105 -0.15680024
0.114015214 0.10591151 0.15377764 -0.04722313 -0.09363827 0.024731044 0.10349903 -0.2424815
-0.19575828 -0.18338564 0.22715186 -0.097439274 -0.028925616 -0.022548018 0.16472478 -0.037134722

lstm.bias_ih_l1 f4 [256]
00000000: e91b 59be f790 26be 50a3 16be 750d 3a3e
00000010: c726 ecbd 591d 80be 7ee5 93be 5c5e cdbd
00000020: e795 773e 8c57 41be 57bc 4dbc 5911 e4bd
00000030: 1aad 0e3f f197 20be 2852 193d c0cb ffbd
00000040: 8573 e53d b579 263e 6a0c bebd 8cb8 e7bc
00000050: 57eb 483d 3c26 9ebd d69c 68be d842 5f3c
00000060: 07eb 0bbe fbe9 46bd 6deb 03be 6d0f 4bbe
00000070: 2175 58be f649 84bd b05e 8f3e 0a21 3a3d
00000080: 63b0 973c 8c2c 3a3c 7a90 4bbe 6bb9 0ebd
00000090: 74b3 0abd 739b bcbd fc2d 143e a7d2 a2bd
000000a0: 5659 be3c 6142 c8bd 1b89 a73e 608a 4bbd
000000b0: 7383 c0bd e058 aabe da19 1cbc 4c98 d33d
000000c0: 18ed c6bd 0341 babc 7f5e 01be 2181 bebd
000000d0: f70e 14be 5091 98be 0186 7abd 9a33 aa3e
000000e0: a5eb b7bd befb 92be 8336 023f 74d5 7b3e
000000f0: d20c c1bd 8b50 3cbe ea50 22be 47e1 56be
00000100: f120 733d 3fa6 97bd eaea 6a3e 3912 a03e
00000110: d488 0cbe 4232 71be b421 34be d274 64bc
00000120: 5c15 27be 6931 af3d a313 d83d 662b c23d
00000130: 262e bebe 36d1 703e c296 5bbe 5196 5a3d
00000140: 240b 993e edfd 85be e1c1 073e eb62 f5bc
00000150: beff ba3c 434d c53d 5ab8 d53d 72b6 123e
00000160: f0e5 7cbe 00c8 823e 51d2 9fbc dcbb b9bb
00000170: 9cda 8bbc 95ae a8bd e1a7 a43d f3b0 953e
00000180: 78b9 3c3e e2ba 303d 36f7 50be 62f2 2d3e
00000190: c10e d1bd e818 6d3d 47e6 d4bc 991e 453d
000001a0: 99ba 183e 535b 8f3e 4cba bebd 55e1 8a3d
000001b0: cd24 f23c 5c46 9abe 587d 25be 48e5 703e
000001c0: 2888 82bd b94b e83d 5f60 a83c 5cb8 eb3c
000001d0: 0d9f 1a3e f9e1 993d 6102 81bd e73d bebd
000001e0: 3e13 9b3e 7774 babd 22af debd d377 6bbe
000001f0: 45e0 f13d 6877 d2bc e154 123e cb5a 22bb
00000200: 34cf 87bd 06f7 9a3c 62ed a3bd 94d1 e4bd
00000210: 3ec2 abbd fa4f bbbd ab65 13be 9797 903d
00000220: 60b8 b5bd 1daf 0d3e 26ed 313d d9f6 943d
00000230: e6da e33d e4a7 a0bd 6812 f13d 51ef a1bd
00000240: 9232 0b3e 971b 673e e099 473e 6a1f f33d
00000250: db09 a1bd 2c0c 38bd db9e 31be 3d00 b63d
00000260: 95e7 89bd ec72 3bbd 5b02 d7bc 1f6d 5dbd
00000270: 9f88 a23c 8c62 9e3c d51f d83d 20b7 313e
00000280: dc6d be3a ce7e 12be f960 4d3d 21dc 22be
00000290: 7468 473e 7ba2 e53c 5bb0 babd 5bc0 a03d
000002a0: b0ec c9bd 8cfd 05be daf7 4a3e 524c 07be
000002b0: 3004 36be 437f d2b9 c8e9 973d 8d8a 18be
000002c0: 14ed a73d 8aca 08be 4a81 883d 3e08 c1bd
000002d0: 77b3 aebd 2d7b 053e 39f3 103e 2042 13be
000002e0: b170 b93d e54b d9bd 9a63 c1bd b445 c3bd
000002f0: f998 38be 393b 333e 0503 503e ebd0 133e
00000300: 98bb 58be 9cee 48bd 99bf e7bc 378a 36bd
00000310: 0a94 f1bd 7029 64be 8104 97bd 3490 6abe
00000320: 206a ce3d 7bdd 2abc 46e9 cebd a256 173c
00000330: fff1 0f3f c3ea ac3d 1688 e0bd 80c3 49be
00000340: 6475 d2bd a329 883d 5858 abbd 6dfa 0cbe
00000350: 9f34 0bbe c013 a8be 228d 8bbb 2191 213e
00000360: 3f13 2bbe 814d f2bd 5ff2 74bd f172 f7bd
00000370: 5c0b c9bd 5953 c63d 191f cb3e 7b2f 4d3c
00000380: aba4 63bd 2b6f 28be c460 e2bc 997c a7bd
00000390: 9572 4cbd 9373 cfbc 0de0 823e e4c9 88bd
000003a0: f756 88bd 667f 1ebb 3ecf 3c3e cb13 50be
000003b0: 52bf 1abe 2c25 88be bd6c bbbd 0bfa 843d
000003c0: f4f2 6fbd 253b ebbd f71d 0a3d 2ed0 bf3c
000003d0: b0fd e9bd 0503 1bbe ab7b 4cbe db54 503e
000003e0: 220e 99bd 8cfc 81be 6ca8 e53e 493f 253e
000003f0: 98e2 26be b586 86bd 4787 bcbd 6ad2 afbd
-0.21202053 -0.16266237 -0.14710736 0.18169196 -0.11530834 -0.2502239 -0.28886026 -0.10027763
0.24178277 -0.18881053 -0.012557111 -0.11136121 0.5573288 -0.15682961 0.037431866 -0.12490034
0.11203674 0.16257365 -0.092797115 -0.028286241 0.049052563 -0.077221364 -0.22716078 0.013626777
-0.13663875 -0.048562985 -0.12882777 -0.19830103 -0.21138431 -0.064594194 0.28001928 0.045441665
0.018516725 0.01136316 -0.19879332 -0.034844797 -0.033862546 -0.09209337 0.14470667 -0.07950335
0.023235958 -0.09778286 0.3272179 -0.04969251 -0.09400072 -0.3327093 -0.009527648 0.10331783
-0.09713191 -0.022736078 -0.12633704 -0.09301973 -0.14458834 -0.29798365 -0.061162952 0.33242494
-0.089804925 -0.2870769 0.5086443 0.24593145 -0.094262734 -0.183901 -0.15851179 -0.20984374
0.059357587 -0.07404756 0.22941175 0.31263903 -0.13724071 -0.23554328 -0.17590982 -0.013943868
-0.16316742 0.08554346 0.105506204 0.09480934 -0.37144583 0.23517308 -0.21444228 0.05336601
0.29891312 -0.26170292 0.13257553 -0.029954394 0.022827026 0.09633877 0.10435553 0.1432741
-0.24697089 0.25543213 -0.019509466 -0.0056681465 -0.017072015 -0.08236424 0.08039833 0.29236564
0.18430126 0.043146975 -0.20406803 0.16986993 -0.10207892 0.05788508 -0.025988711 0.048124883
0.14914931 0.27999362 -0.09312877 0.0678126 0.029558564 -0.30131805 -0.16161096 0.23524964
-0.06373626 0.11342568 0.020553766 0.028774433 0.15099736 0.07513804 -0.06299282 -0.09289151
0.30288118 -0.09104245 -0.10873248 -0.22994928 0.11810354 -0.025691703 0.14290191 -0.0024773355
-0.06631318 0.018916618 -0.080042616 -0.11172786 -0.08386658 -0.09146114 -0.14394252 0.070601635
-0.08873057 0.13836332 0.043439053 0.07273645 0.11125736 -0.078445226 0.11771089 -0.07906974
0.1359351 0.22569118 0.19492292 0.11871226 -0.07863208 -0.044933483 -0.17345755 0.08886764
-0.06733624 -0.045763895 -0.02624624 -0.054059144 0.019840537 0.0193341 0.105529465 0.17355013
0.001452859 -0.14306185 0.05014131 -0.15904285 0.1947344 0.028031578 -0.091156684 0.07849189
-0.09859598 -0.13085002 0.1982111 -0.13212708 -0.17775035 -0.0004014914 0.07417637 -0.14896603
0.08199516 -0.13358513 0.06665285 -0.094254 -0.08530324 0.13035269 0.14155282 -0.14380693
0.09054697 -0.10610179 -0.094428256 -0.09534779 -0.18027104 0.1750306 0.20313652 0.14435165
-0.21165311 -0.04905568 -0.028289603 -0.044565406 -0.11795814 -0.22281432 -0.07373906 -0.22906572
0.100788355 -0.010428782 -0.10103087 0.0092369635 0.5622863 0.08443215 -0.10963456 -0.19703484
-0.10276297 0.066485666 -0.083664596 -0.13767405 -0.13594292 -0.32827568 -0.0042587677 0.15778019
-0.1670656 -0.11831189 -0.059801456 -0.1208247 -0.0981662 0.09683866 0.39672163 0.012523527
-0.05557696 -0.16448657 -0.027634032 -0.08178062 -0.04991396 -0.025323665 0.25561562 -0.066791326
-0.06657212 -0.0024184822 0.18438432 -0.2032005 -0.15112045 -0.2659086 -0.091515996 0.064930044
-0.058581308 -0.1148589 0.033719983 0.023414697 -0.1142534 -0.1513787 -0.1996905 0.2034487
-0.07473399 -0.2538799 0.44855058 0.16137423 -0.16297376 -0.06568662 -0.092054896 -0.08585055

lstm.bias_hh_l1 f4 [256]
00000000: 6306 19be 9e79 a8bd 8815 cb3c 7775 8d3e
00000010: b95f efbd a66c 2cbe 3d6b 8bbe 5bb7 8cbe
00000020: f721 053d 2c97 73bd 0a38 163d 5480 1cbe
00000030: 2deb e43e cae6 37be 5759 0f3e 9d1a 24be
00000040: 1c32 9d3d 131a 223e cc30 d73d ba28 913d
00000050: c2e7 24be 41d8 86bd b399 a2bc 0b1c 8b3d
00000060: 5a81 9ebe 4046 a03c 750f 0abe 0876 c1bd
00000070: b023 f73c 0f90 1cbe 190c c13e 30ab 993b
00000080: 6266 91bd 81d1 88bc fc97 5bbe f92a 913c
00000090: 247d 3ebe af0f ed3c c75d 1a3c ba18 76be
000000a0: 0509 6d3e 2050 eabd 9f17 703e d786 99bd
000000b0: bd81 15be ad66 5abe 1d65 d1bd 0e66 0d3d
000000c0: 1f7e f0bd 0f9b dfbc 6953 43bd 5e46 a03b
000000d0: 843d bcbb ba10 46be 4ce2 6cbe a86e b73e
000000e0: 9272 c7bd 0c76 c3bd 97eb ea3e 3ceb e13d
000000f0: d1ce f6bd ed8e cebc 522e 03bd 98b4 57be
00000100: b2eb 7bbd 0d5b 38be dc57 3b3d 2b08 183e
00000110: a157 e9bc d068 46bd 1ee6 33be fc71 e7bd
00000120: 27f7 92bc 19c3 6fbd 1161 f9bc 7480 163c
00000130: fdbe 8ebe 3512 a53d 334d 27be 867a bdbd
00000140: a8c0 7a3e 5c90 74be 962b 733e 5e2c 823c
00000150: 57d5 413d 6ab8 d1bd d404 cc3d c863 46bd
00000160: 38e7 43be d8d0 243e 740a 17bd 06b1 0bba
00000170: 417b 2cbd 61b6 0abe 911a b2bd 9351 8c3e
00000180: 9041 f13c 27fe b63d dd6a debd 50b5 8ebc
00000190: 7f64 2abd 97bb 653d 0b9a 6dbe cd88 5cbd
000001a0: f532 943e 82fc 5a3e 9399 8dbe f3ef 163d
000001b0: 8951 19bd ff09 b9be 7d33 98bd 3142 283e
000001c0: ff11 f7bd de61 9fbc a799 c63d 116e 3e3e
000001d0: 227c 463d 3520 24bd eb1f 11be 9900 25be
000001e0: 4fe9 c03e 5270 46bd 8741 8fbd 8961 61be
000001f0: 0ebd 863d d2d8 803d 5f54 d03d 4034 1a3e
00000200: 8129 8bbd f562 a8bb 1763 1ebe 247e a0bd
00000210: 8ee0 d2bd 8dae d1bd 8fb0 bbbd 7a95 373d
00000220: bcde 093c f0b1 7c3b e385 123e 919e 933d
00000230: 28a0 143e 9516 d33d 936a e03d 7e98 303d
00000240: a67d 15bd 51a2 0f3d 62d0 203d 7f74 8f3c
00000250: 9031 c43d 8865 1c3e 16b6 55be b1fc bd3d
00000260: abd8 88bd 8fe1 1dbe 8dc1 9d3d 1c1c 8a3d
00000270: b086 3dbe 16a9 2d3c 2a91 07bc 9db2 df3d
00000280: 1518 303e 4c7f 963c d7af febc c50c 1ebe
00000290: acbc 183e 5c5c 16be bd30 10be d283 f03d
000002a0: e555 d3bd ac9a 8dbd 475c a03d 1cb6 7bbc
000002b0: c3dc 05bd d131 8b3c 149c de3d de36 a03d
000002c0: 7b66 d63d 33d1 2abe d1b5 3a3d f8f2 c6bd
000002d0: 0cba 97bc 0008 d33d 8a9d c23d 8bca b3bd
000002e0: 7cdd f23d 41b3 b43c 4d33 d9bc 2f15 623d
000002f0: c0c5 5bbe f559 493d 9c3f 173e f17a 883d
00000300: ca31 04be 59c4 b53d c60f 97bb 8f65 d33d
00000310: 41a6 16be ee78 c7be c6da 39be d7a2 0abe
00000320: 4f85 0a3e 26d6 bebd f60c 9cbd ebbd c0bd
00000330: 640e 083f 6e6d 6b3d 0f0b bf3c 77a0 2abe
00000340: 54d5 253d f376 503d 65de 26be ec3d 73bc
00000350: dcfc 17be 2ddd 25be c5ab 2fbe ba18 e13d
00000360: f256 dcbd 90a7 3cbe 64a1 81be e6a5 97bd
00000370: 6af1 e1bd a30f 7dbd 2209 8e3e 6cc7 90bd
00000380: 0eb2 85bc 3e9e a3bd e11b 92bd 548f 10be
00000390: cb0e 403c 3f0b 8abd 54c8 e83d a9d5 11be
000003a0: 778a 123d c23b bcbd 7790 8c3e a498 a4bd
000003b0: 71f9 a6bc 483c 86be cfe6 ffbc dce8 3a3c
000003c0: ed40 8cbe 9284 9c3d 86c7 03be 35a0 10bd
000003d0: 85dc c2bd 60fc 0dbe 12df 7cbe ac79 d33e
000003e0: fce6 9d3c 9809 3dbe 2298 fb3e df3a f03d
000003f0: 4827 35be e3bc 85bd 4c0d f6bd 7796 f3bd
-0.14943843 -0.08226322 0.02479054 0.2762868 -0.116881795 -0.16838321 -0.27230254 -0.2748364
0.032503095 -0.05947034 0.036674537 -0.15283328 0.44710675 -0.17959133 0.13998924 -0.16025777
0.07675573 0.15830259 0.10507354 0.07087846 -0.16104034 -0.06584216 -0.01984868 0.06792458
-0.30958062 0.019564748 -0.13482459 -0.09446341 0.030168384 -0.15289329 0.37704542 0.0046895966
-0.07099606 -0.016701462 -0.21444696 0.017720686 -0.18602425 0.028938143 0.009421772 -0.2403287
0.23147972 -0.11441064 0.2344651 -0.07496422 -0.14600272 -0.2132823 -0.10224364 0.034521155
-0.11742806 -0.027295617 -0.047686968 0.004891201 -0.005744638 -0.19342318 -0.231332 0.35826612
-0.097386494 -0.09544 0.45882866 0.110311955 -0.12051166 -0.025214637 -0.032026596 -0.21064985
-0.061504073 -0.18003483 0.045738086 0.14846866 -0.028484168 -0.0484398 -0.17568251 -0.11301038
-0.017940117 -0.05853567 -0.030441793 0.009185899 -0.27880087 0.08060113 -0.16338043 -0.09251885
0.24487555 -0.23883194 0.23747095 0.015890297 0.047322597 -0.10240252 0.099618584 -0.048435003
-0.19131172 0.16095293 -0.036875203 -0.0005328808 -0.04210973 -0.13546135 -0.086964734 0.27405986
0.029450208 0.089351945 -0.10860226 -0.01742044 -0.041599747 0.056087103 -0.23203294 -0.0538414
0.28945127 0.21385387 -0.2765623 0.036849927 -0.037431274 -0.3614044 -0.074316956 0.164315
-0.12063979 -0.019455846 0.096972756 0.18596675 0.048458226 -0.040069778 -0.14172332 -0.16113509
0.37678 -0.04844696 -0.0699492 -0.22009863 0.06579028 0.06291355 0.101723425 0.15058994
-0.067950256 -0.0051387497 -0.15467487 -0.078365594 -0.10296737 -0.10238371 -0.09164535 0.044820286
0.00841492 0.0038558207 0.14308886 0.072079785 0.1451422 0.103070416 0.109578274 0.043114178
-0.03649678 0.035066906 0.03926123 0.017511604 0.09579766 0.15273106 -0.20870242 0.09276713
-0.06681951 -0.15418075 0.077029325 0.06743643 -0.1850841 0.010599395 -0.008274356 0.1092274
0.17196687 0.018371247 -0.031089706 -0.15434559 0.14915723 -0.1468367 -0.14081092 0.11743893
-0.103191175 -0.06914267 0.078301005 -0.0153632425 -0.032681238 0.016991528 0.10869613 0.07822965
0.10468765 -0.16681366 0.04558355 -0.09714311 -0.018521331 0.1030426 0.095027044 -0.087788664
0.11858651 0.022058131 -0.02651372 0.055195983 -0.21462154 0.049158055 0.14770359 0.06664074
-0.12909618 0.08875341 -0.0046100346 0.10322105 -0.14711858 -0.3895945 -0.18149862 -0.13538681
0.13527416 -0.09318189 -0.076196596 -0.09411224 0.5314696 0.057477407 0.023320703 -0.16662775
0.04048665 0.05089469 -0.16295774 -0.014846306 -0.14842552 -0.16197653 -0.17155369 0.10991044
-0.10758771 -0.18423295 -0.25318444 -0.074046895 -0.11032374 -0.06178249 0.27741343 -0.07069287
-0.016320255 -0.07989167 -0.07134224 -0.14117175 0.011722277 -0.06740426 0.113663346 -0.14241661
0.03577658 -0.091910854 0.27453968 -0.080369264 -0.020382615 -0.26217866 -0.031237988 0.011408057
-0.27393284 0.07642473 -0.12869081 -0.035309035 -0.09514717 -0.13865805 -0.2469447 0.41303766
0.019275181 -0.18460691 0.49139506 0.11729979 -0.17690766 -0.06530168 -0.12014255 -0.11893933
