Models/Precipitation_Models/irbid_precipitation_model.pth (torch, 224095 bytes, 11 tensors)

lstm.weight_ih_l0 f4 [256, 11]
000000 6a 92 70 3e 5a 9f 8f bc 5b 4a 20 bd 0c 2a a9 bb
       0.23493353 -0.01753204 -0.03913341 -0.005162483
000010 72 ac ea bd e8 d7 88 3e ad 75 bf be 45 c1 0b bd
       -0.114586726 0.26727223 -0.37394467 -0.034119863
000020 f7 92 09 3e c9 af ba be 36 a1 34 3e a5 75 99 3e
       0.13434969 -0.36462238 0.17639622 0.29972568
000030 b4 df bb bd 0d b0 25 3f eb 3b 1f 3e bb 03 c5 3d
       -0.09173527 0.6472176 0.155502 0.09619852
000040 01 89 9c 3e ea d9 32 3e 06 4c 89 3e ff 24 5c be
       0.30573276 0.1746594 0.26815814 -0.21498488
000050 54 94 bd 3d 7b 0c 00 3c 74 05 cb bb 1b c8 1e be
       0.09256807 0.007815476 -0.0061957184 -0.15506022
000060 e2 13 e9 bd b0 95 5b bb bf 06 d9 bd d0 9f 8c 3e
       -0.113807455 -0.0033505969 -0.1059699 0.27465677
000070 27 2a 68 3e ac f3 99 3e 4c 3b a6 bd 12 7f f4 3d
       0.2267233 0.3006872 -0.08116779 0.11938299
000080 c4 a9 06 be 48 9a 08 3d a0 0c 28 3e 33 3f c3 3c
       -0.13150698 0.03335026 0.16411066 0.023833847
000090 bd fa c5 bd fd f5 f4 bd 00 a9 e5 be 00 66 7f bd
       -0.09666965 -0.11960981 -0.448555 -0.062353134
0000a0 3a 4a 0b be f9 45 c5 bc 8b cf 82 3e e8 19 b6 bb
       -0.13602534 -0.024081217 0.25548968 -0.0055572875
0000b0 03 ba 6b be a6 19 92 bc 60 d9 0e be 63 0b 3b 3c
       -0.23020177 -0.017834496 -0.1395011 0.011416289
0000c0 14 a3 89 3d 0e 3e 17 3e a3 7b c2 bd 1b 30 e3 3e
       0.06720558 0.14769766 -0.09496238 0.4437264
0000d0 1a 34 b4 3d cb 5a 48 be f1 0b 2d 3d ec 0d 10 3c
       0.08799 -0.19565885 0.042247716 0.008792382
0000e0 a9 b3 39 3e a8 d1 c9 bc 23 ed 7b be 7a ef 12 bc
       0.18134941 -0.024636105 -0.24602179 -0.0089682285
0000f0 b5 62 26 3d f8 25 22 3f b9 30 cb be 55 3d 53 be
       0.040621478 0.63339186 -0.3968561 -0.20628865
000100 f5 c9 d4 3d 55 1b 99 3d d5 be e3 3e fc 16 57 3e
       0.10390083 0.07475916 0.4448153 0.21004862
000110 85 e6 9b 3d c6 c1 27 be b5 56 57 3e ec 1e 70 bd
       0.076123275 -0.16382512 0.2102917 -0.05862324
000120 52 28 9c bd 4d 09 7a be fa cb d9 3e f9 b7 b7 3d
       -0.07624878 -0.2441761 0.42538434 0.08970637
000130 97 de db bd 40 56 21 3c 82 34 d0 3d d5 2c 1a bd
       -0.10735815 0.009847224 0.10166265 -0.03764041
000140 bb de c0 be 55 27 19 be ce d0 9f bc 99 ba db 3e
       -0.3766993 -0.1495641 -0.019508746 0.429158
000150 50 e0 5f 3d f6 91 5e 3d 64 a6 c9 3d 4f f1 25 bd
       0.05465728 0.054338418 0.098461896 -0.040513333
000160 21 cc 7d 3e 91 82 8e 3e 0f 6e 5f 3d ba 54 0f 3e
       0.247849 0.2783399 0.05454832 0.13997164
000170 09 fc 87 3e 0f 81 6a 3d f2 fc 38 be c2 86 8b 3d
       0.26559475 0.057251986 -0.18065241 0.068128124
000180 2a 21 75 bd a9 56 8e 38 b8 c2 c8 bd a8 9c d2 bb
       -0.05984608 6.787229e-05 -0.09802765 -0.0064273663
000190 c6 6d 3c be 8f 55 0f 3d fb 38 12 3e de 60 1b 3d
       -0.1840125 0.034993704 0.14279549 0.037934177
0001a0 e9 2c a3 3e b1 6a 02 3f 4c fa 9e 3e a2 8c e1 3d
       0.318702 0.5094405 0.31050336 0.11013152
0001b0 de 08 5a be f0 83 75 3e ae a8 37 3e ee ad 9a 3e
       -0.21292445 0.23976111 0.1793544 0.30210823
0001c0 27 3a 5e 3e c7 f8 96 be b9 02 c1 3d 29 50 f9 3d
       0.21701871 -0.29486677 0.094243474 0.121734925
0001d0 bf 2f a8 be 52 ec d8 3c 89 79 e4 3d 4f e2 e4 bd
       -0.32848927 0.026479874 0.111559935 -0.111759774
0001e0 a0 94 b2 bd 8f 2a b6 be a9 90 94 be 74 38 4a bd
       -0.08719754 -0.35579345 -0.29016617 -0.049370244
0001f0 36 bf 91 3d f8 d3 5a 3d 48 33 01 3e 73 4a 08 3e
       0.07116549 0.053424805 0.12617218 0.1330965
000200 13 5a 00 bd ee 6b 2e bd 7b 42 b0 bd 2f fb 88 3d
       -0.0313359 -0.0425834 -0.0860643 0.066885345
000210 90 00 26 3e 17 67 89 3d 68 67 f4 bd 0f 74 6c be
       0.16211152 0.06709116 -0.11933786 -0.23091148
000220 55 84 ac 3e 4b c6 ca be 75 cf 40 3e 16 0c ac bd
       0.3369471 -0.3960441 0.18829139 -0.08400743
000230 d2 ac 11 be fd 76 59 3e 9f 44 f8 bd 2b 98 88 3d
       -0.14226082 0.21236797 -0.121224634 0.06669649
000240 df 96 a4 3d 3b 17 43 bb ea 70 50 bd f2 3f 59 bd
       0.08036589 -0.0029768485 -0.050888933 -0.0530395
000250 17 e5 92 3e f5 b4 32 be 9d 35 bd 3c d5 e6 a7 bd
       0.28690407 -0.17451842 0.023096854 -0.081983246
000260 60 02 6e 3e 4a 2e 62 bd 6f ed 70 3e 6c 40 84 3e
       0.23243093 -0.055219926 0.23528074 0.258304
000270 8b 07 08 bd 1e 9d b2 be fd d8 3c 3e 62 ef 9d be
       -0.03321032 -0.34885496 0.1844215 -0.30846697
000280 02 8e 13 be 06 c0 a9 be c1 94 b2 bd fd 72 58 3e
       -0.1440964 -0.33154315 -0.08719779 0.21137615
000290 8a 54 51 be 87 c2 87 be f4 2e bf 3c 3c 82 16 bd
       -0.20442405 -0.265156 0.023337819 -0.036745295
0002a0 66 f7 e5 3d 06 56 b5 be 02 3d 82 3e a8 80 e1 be
       0.11228828 -0.35417193 0.2543717 -0.4404347
0002b0 54 1b 51 be c8 f2 50 bd b0 81 a4 3e 48 c5 b9 3d
       -0.20420581 -0.051012784 0.32130194 0.090708315
0002c0 fc 25 af be 55 fb 0f be 4c b8 f5 3c 56 83 35 be
       -0.34208667 -0.1406072 0.029995106 -0.17725882
0002d0 11 2b 12 3f c2 08 0c be eb fe cb 3d b2 20 2f be
       0.57096964 -0.13675216 0.09960731 -0.17102316
0002e0 e2 63 38 be a6 a2 14 3e 16 74 f0 bd 77 fc d1 3d
       -0.18006852 0.1451517 -0.11740892 0.10253232
0002f0 3f a6 67 3e af 8b 64 be ae a3 62 be f1 2d 0a bd
       0.22622012 -0.2231891 -0.22132751 -0.03373522
000300 44 a5 37 bd 47 a3 4c 3e f2 75 48 be b8 4b 19 3e
       -0.044835344 0.1998416 -0.19576243 0.1497029
000310 47 42 28 bd 8e e8 49 3e 88 16 93 3b 92 df 15 3d
       -0.041078832 0.19717619 0.00448877 0.036590166
000320 f1 ae 4a bc ab 32 69 be 17 23 19 3e f7 a8 49 3f
       -0.012370811 -0.22773235 0.14954792 0.78773445
000330 83 8f 11 be dc 4c 24 bd a2 52 fb 3c d8 0d a3 3c
       -0.14214902 -0.04011236 0.03067905 0.019904062
000340 93 e1 65 be d4 82 33 3d ef e8 1f 3e c4 ba 17 3e
       -0.22449331 0.04382594 0.15616201 0.14817339
000350 8b 68 30 3e 51 59 52 be 9e e5 41 3e b8 b3 7f 3e
       0.1722738 -0.20541884 0.18935248 0.24970901
000360 3c dd 82 bd 64 50 0c bd 49 dd 41 3e 3b 9f d5 be
       -0.06389853 -0.034256354 0.1893207 -0.41723046
000370 26 d4 87 be f8 ca a3 be b3 b2 19 3e a1 c0 94 3c
       -0.26529044 -0.3199079 0.15009575 0.018158259
000380 16 d5 22 3e f2 6c 58 3e 9f 8c 9c 3e 51 75 40 3d
       0.15901598 0.2113531 0.30576035 0.04698688
000390 fa a9 39 be 6d 74 ab 3d c7 a9 1c 3e 9c 88 bb 3d
       -0.18131247 0.08371816 0.1529914 0.091569155
0003a0 35 1d 05 be bb ac 12 be 0c 26 01 3e c9 40 0e be
       -0.12999423 -0.14323704 0.1261217 -0.13891901
0003b0 b0 7a a3 3d 89 ac 77 bd bc 19 20 bd 23 f9 44 be
       0.07982385 -0.060467277 -0.039087042 -0.19235663
0003c0 51 96 ac bd ab 2f ad be 69 7c ae 3d b6 7a 1c 3e
       -0.08427108 -0.3382543 0.08519823 0.15281186
0003d0 59 59 a4 be 54 1d 43 be 31 73 f6 bd 9a 4e ac 3d
       -0.32099417 -0.19054157 -0.1203369 0.084134296
0003e0 82 f6 4d be f8 f5 d8 3d 34 43 81 3c 9c ce c8 be
       -0.20113567 0.1059379 0.015779115 -0.3922013
0003f0 d6 04 b8 bc ed 85 93 bd fb b8 21 3d 3e ef bd bc
       -0.022463243 -0.07203279 0.03948305 -0.023185369

lstm.weight_hh_l0 f4 [256, 64]
000000 84 bb 8a be 86 2e 61 3b 6a f7 4b 3d aa e5 2a 3e
       -0.27096188 0.0034360006 0.0497965 0.16689172
000010 36 13 bc 3d 40 11 d0 be fd 7f ea bd 62 bf 3e bd
       0.09183352 -0.4063816 -0.11450193 -0.046569236
000020 d4 ca 2f be fb 05 87 3e 8b af 31 be b6 22 24 3e
       -0.17167217 0.2637175 -0.1735212 0.16028866
000030 3b 3c 88 3e 7a 09 07 bf 2c fe ee bb 47 94 da bc
       0.26608452 -0.52748835 -0.0072934832 -0.026682032
000040 09 02 c9 3c 43 a2 62 3d fd 75 f9 3d 5c 1d 83 3e
       0.024537103 0.055330526 0.121807076 0.25608337
000050 eb e6 c4 bd 0a a7 12 3e dc ae 1c bd 61 c6 8c 3e
       -0.096143566 0.14321533 -0.038252696 0.274951
000060 44 6c c7 3e fc 82 d6 bd 93 29 02 bf 03 45 af bd
       0.38949788 -0.10474202 -0.5084469 -0.08558085
000070 8a 31 01 3d 15 fc 9f bd e9 eb 6c 3a 26 d0 4a be
       0.031541385 -0.07811753 0.0009037839 -0.19805965
000080 69 51 0c be 61 f8 9f 3d 19 ee 90 3d 33 6a 96 bc
       -0.1370293 0.078110464 0.070766635 -0.018361187
000090 ce 49 61 3d b7 d1 2e bf 27 93 60 be 37 dc b6 be
       0.055002026 -0.6828875 -0.21931134 -0.35714886
0000a0 8b 45 89 bd a7 e9 a7 3d 90 06 d4 3e d1 8e 92 be
       -0.067027174 0.081988625 0.41411257 -0.28624585
0000b0 9c 5f fa 3c 56 1d cd 3d ba fe 2f 3e 4f ee 5b bd
       0.030563168 0.10015361 0.17187014 -0.053694066
0000c0 1d 56 6a be cb af da bd be 51 6b 3d a2 02 1f be
       -0.22884412 -0.10678061 0.057451002 -0.15528348
0000d0 d5 34 12 be 2a 49 26 3e cd 85 82 bd 5b 86 c1 be
       -0.14277966 0.16238847 -0.06373177 -0.37797818
0000e0 8c 07 d4 bd c0 90 45 bd 58 21 cb 3d 92 84 2b 3e
       -0.10353002 -0.048233747 0.09918469 0.1674979
0000f0 1b 13 83 3d ae e5 b7 3c 08 bb a6 bc 8d 73 fe bc
       0.064001285 0.022448387 -0.020352855 -0.031060958
000100 3f 85 08 be b4 bb e6 3d 38 df cb bc 30 e8 b8 bc
       -0.1333208 0.1126627 -0.024886712 -0.022571653
000110 56 f7 86 be bb 0e 99 be 29 6d 02 3e d2 9b 30 3d
       -0.26360577 -0.2989405 0.12736954 0.04311735
000120 05 e2 d5 bd 8d 24 a9 be fc 63 3a bd 33 3f 8a be
       -0.104435004 -0.330357 -0.04550551 -0.27001342
000130 f9 79 5a be a1 48 47 3d c0 82 ee 3d b7 8c 00 be
       -0.21335591 0.04865325 0.11646032 -0.12553678
000140 b9 03 c4 3d 45 07 a2 be b6 8e 9f 3e 69 b9 c2 3d
       0.095710225 -0.3164617 0.31163567 0.095080204
000150 ae c9 f7 3c e2 27 32 3e 64 78 d1 3e 75 63 b8 3d
       0.030247536 0.17398027 0.40912163 0.09003345
000160 84 82 fc 3c 44 8a 46 3e 74 63 a8 3d 8f 83 46 bd
       0.030823953 0.19388682 0.08222094 -0.048465308
000170 91 5e 2c 3e 98 3c 63 be c0 7d a2 bb 4f 94 c5 3b
       0.16832949 -0.22191083 -0.004958838 0.0060296427
000180 fc 38 9d bd b4 fc c2 3e a4 f0 7b bc f2 ad db bd
       -0.076768845 0.38083422 -0.015377197 -0.10726537
000190 97 34 20 3e b8 5d 63 be 18 93 4c 3d 45 92 71 3e
       0.15645061 -0.2220372 0.049944967 0.23590954
0001a0 5f 18 48 be dc a0 a0 3e 82 b7 ba 3e a7 66 44 be
       -0.19540547 0.31372726 0.3646813 -0.19179784
0001b0 49 9e 1a be c9 13 ae 3e 5f 34 b1 bd 50 d8 18 bd
       -0.15099443 0.3399947 -0.08652567 -0.037315667
0001c0 1e 9a f0 bd 29 b9 dd bd 9c 9e dc 3d d6 99 f9 bd
       -0.117481455 -0.10826332 0.1077244 -0.12187545
0001d0 9f 08 08 3e 8b ed 5d 3e b3 38 87 3e 08 55 85 be
       0.13284539 0.21672647 0.26410446 -0.26041436
0001e0 6b b6 d7 bd 61 c0 00 bb 18 6f 85 be ac 29 21 bd
       -0.1053284 -0.0019645917 -0.2606132 -0.039346382
0001f0 c4 84 23 be ee 64 b6 3e 8f 22 32 3e 3f b4 7b be
       -0.15968615 0.35623878 0.17395996 -0.24580477
000200 06 6f 00 be dd 56 ba 3d 19 c9 6e be dd 7b 40 be
       -0.12542352 0.09098599 -0.233189 -0.1879725
000210 3e 7b 91 3e cf ff ae 3d e6 55 d4 be bc 17 f7 bd
       0.2841434 0.08544885 -0.41471785 -0.12065074
000220 8a d6 aa bd bf 03 05 3f 06 39 4e 3e 77 3a ef bd
       -0.08341701 0.5195884 0.2013894 -0.11681073
000230 1f 05 13 bd 41 a1 1d bc 95 b5 ca 3c 21 ea 8b bd
       -0.035893556 -0.009620965 0.024744788 -0.06831766
000240 80 72 21 3e e2 d9 c3 3e 7f c4 b1 3d d4 eb 1e be
       0.15766335 0.3825217 0.08680057 -0.15519649
000250 81 90 35 3e bc 72 a1 bd 18 c4 76 3e 37 7f d8 3d
       0.17730905 -0.07883212 0.24098241 0.10571139
000260 2b a6 05 3e b1 0c ce be 3c f9 3a 3e 2e d3 24 3d
       0.1305167 -0.40244058 0.18259138 0.04024046
000270 69 88 24 3b 4f 55 18 3e 63 3e 25 bd a5 c2 35 be
       0.002510572 0.14876293 -0.0403427 -0.17750032
000280 5a e1 fd 3d 77 4c 88 3d 9e da b1 be 7b b7 3b be
       0.12396498 0.066552095 -0.34737104 -0.18331711
000290 9b e7 ae bd c5 11 05 bd 1a d5 22 bd 7a b5 ca 3d
       -0.08540269 -0.03248765 -0.03975401 0.09897895
0002a0 97 c4 9f bd 18 46 72 bd 70 33 88 be 99 c7 a0 bb
       -0.078011684 -0.059148878 -0.26601744 -0.0049066064
0002b0 fa c7 bf 3c 23 64 7b 3d a0 49 28 be 03 90 29 be
       0.023410786 0.061374795 -0.16434336 -0.16558842
0002c0 1f d7 2a be 5a ca 03 3e e2 83 13 be 94 ad 06 3e
       -0.16683625 0.1287016 -0.14405778 0.13152152
0002d0 9b 01 4a bc 1a d5 c0 bb 47 6e 59 be 6b 19 a0 3d
       -0.012329484 -0.0058847787 -0.21233474 0.07817348
0002e0 c7 02 ff bc a4 57 92 bd ec cb 31 be 32 b8 d1 3d
       -0.031129254 -0.071456224 -0.17362946 0.102402106
0002f0 f8 a2 08 3b 57 65 bd 3c 19 16 0c ba 0a e8 ce bb
       0.002084909 0.023119612 -0.0005343869 -0.0063142823
000300 0c e5 92 3e 37 62 39 3e 49 0a af be 53 90 5a 3d
       0.28690374 0.18103872 -0.34187534 0.053360295
000310 a9 71 fe bd d2 56 93 bd 03 c0 c9 3d 4c 8f d0 3d
       -0.12424023 -0.07194294 0.098510765 0.10183582
000320 ec 4f df bc 39 7e a7 bd e9 c1 01 3e 8f 90 8d 3e
       -0.02725979 -0.08178372 0.12671627 0.27649352
000330 3f c4 8b 3e f6 de b2 3e 26 3e f1 bd f3 8a 11 3e
       0.2729816 0.3493573 -0.11779432 0.14213161
000340 c9 92 87 3e 85 30 97 be 68 97 8e be 29 d5 03 be
       0.26479176 -0.29529205 -0.2784989 -0.12874283
000350 71 7b c1 3b 46 8f 04 be 6f 08 79 be 60 fb 22 be
       0.005904608 -0.1294528 -0.24319623 -0.15916204
000360 e2 b6 ef bc 02 dd bf be ac cf 3c 3e 84 c0 62 3e
       -0.02926201 -0.37473303 0.18438596 0.22143751
000370 c3 38 91 be 1d 74 e1 3d e6 c9 80 be 5e 82 d6 3d
       -0.28363618 0.11008475 -0.25154036 0.10474084
000380 50 b7 30 be c0 d3 dd be 0c d0 c7 3e 4e 88 ae 3d
       -0.17257428 -0.43325615 0.39025915 0.08522092
000390 50 86 c1 3c 92 39 68 3e 96 5b 91 3e 04 f9 21 be
       0.023623616 0.22678211 0.28390187 -0.15817648
0003a0 ce b4 08 3e 48 85 f6 bd 48 ae 36 3d e3 12 8e 3d
       0.13350222 -0.1203714 0.0445998 0.06937196
0003b0 bc 5e 25 be 24 0c 6b 3d ae e9 7c 3c b5 48 8a 3d
       -0.1614942 0.057384625 0.015436573 0.06752149
0003c0 b8 60 cc 3d b5 bb 0b be f8 3a 33 3e 79 f3 dd 3d
       0.09979385 -0.13645823 0.17502964 0.10837454
0003d0 67 9d 38 be fb 70 22 be 59 c2 7e 3d 2c 2a 5e be
       -0.18028794 -0.15863411 0.062197063 -0.21695775
0003e0 bc a1 4f 3e ff 83 9f 3e e6 d1 c4 3e 00 b2 68 ba
       0.2027654 0.31155393 0.3844139 -0.0008876622
0003f0 d9 f4 d3 3d c7 b3 99 3d 82 46 e0 3d cf 29 70 be
       0.10349435 0.07504993 0.10950948 -0.23453449

lstm.bias_ih_l0 f4 [256]
000000 28 00 99 bb 97 2b cf 3b b3 94 94 3d 88 91 2f 3e
       -0.004669208 0.006322335 0.072549246 0.1714536
000010 a8 5b e7 bd c1 ed b9 3d 2b 63 ae bd 0b 90 5f be
       -0.11296779 0.09078551 -0.085150085 -0.21832292
000020 3e 01 02 3e db b4 ee 3d ff 9d 14 be 1f 87 28 3e
       0.12695786 0.11655589 -0.14513396 0.16457795
000030 d6 53 07 bc 58 c8 0f be 61 a5 80 3d 56 9b ea 3c
       -0.008259734 -0.14041269 0.062815435 0.028638523
000040 c7 bb 05 be a9 92 b1 bd 20 c4 4c 3c b6 07 08 be
       -0.13059913 -0.08670551 0.012497932 -0.13284191
000050 19 00 b0 bd 69 3b 96 3c 18 0b 83 3d 11 e4 aa bd
       -0.085937686 0.018338876 0.063986 -0.083442815
000060 33 ee 2a 3e 0a 40 cb bd d0 16 c6 3c 1f f4 46 bd
       0.16692428 -0.09924324 0.0241808 -0.048572656
000070 b1 16 04 be 0a 75 31 be 48 3b 1b 3e c7 47 1c 3d
       -0.12899281 -0.17329803 0.15159333 0.03815439
000080 10 6c 84 3d a2 5d dd 3c cc 2a a1 3c 6d 10 69 3c
       0.06465924 0.027022187 0.019673727 0.014225108
000090 4a f7 38 bd 6d cd 48 3d 92 1f 52 3d 0c 46 5e 3d
       -0.04515771 0.049024034 0.05129964 0.05426602
0000a0 ac da 7b bd 09 cb 88 bd ce d1 fc bb 37 a4 0a 3e
       -0.06148784 -0.06679351 -0.0077154404 0.13539205
0000b0 49 34 e6 bb 4e 63 79 3c 2d aa 8e bd 65 23 10 3d
       -0.007025276 0.01522143 -0.06966052 0.035190005
0000c0 aa b8 a6 bd c0 2b 06 bd c9 95 c2 3c 59 f0 27 be
       -0.081406906 -0.032756567 0.023753064 -0.16400279
0000d0 ae 56 26 be d4 cf b1 3d e7 22 f1 bc 2d e9 b7 3c
       -0.16244003 0.08682218 -0.029435588 0.022450054
0000e0 7c 3e 12 3e 05 44 0c bd b6 78 08 bb f8 8e ec 3d
       0.14281648 -0.034244556 -0.0020823902 0.115507066
0000f0 77 67 ec 3d d5 e9 98 3d f4 e9 38 3e 73 a3 d3 bd
       0.11543172 0.07466475 0.18057996 -0.1033391
000100 9a dc 88 3d 85 0e d0 bc 2f 18 dd 3d 6c 16 42 bd
       0.066827014 -0.025397548 0.10795628 -0.047384664
000110 6a a9 bd 3d a4 cf 8c 3d 1e 3a 9e bd c7 3e 55 bc
       0.09260829 0.06875542 -0.07725929 -0.013015456
000120 12 14 af 3d 40 45 90 bd d0 96 32 3d ba ca 14 3c
       0.0854875 -0.070444584 0.043600857 0.009081537
000130 3c 95 08 3e 92 dc 84 3d f5 99 5e 3e 05 c3 90 3d
       0.13338178 0.06487383 0.21738417 0.07068447
000140 7d c4 38 3d ae 76 92 3b 1c bc 6c 3e bf b7 e2 3c
       0.04510926 0.004469714 0.23118633 0.027675508
000150 9c b3 a0 3d fa eb a3 bb e9 b7 2c 3e d1 21 ac bb
       0.07846758 -0.005002496 0.16867031 -0.0052530547
000160 b0 42 8a 3e b7 63 55 3d f3 45 06 3e fd 33 ab bb
       0.27004004 0.05209705 0.13112621 -0.0052247033
000170 74 75 62 bd 29 7c 0f 3d ab dd 9f 3e 05 47 56 3c
       -0.055287793 0.035030518 0.31223807 0.013078456
000180 a8 c4 04 3e 5c e1 48 3e 91 ef 46 3d 3c bf 01 be
       0.12965643 0.19617218 0.048568312 -0.12670606
000190 1f a7 ec 3d 59 77 12 3d 39 8d 5a 3e 57 fd dc 3d
       0.11555313 0.03575835 0.21342935 0.10790508
0001a0 61 fa 04 bd 18 9b 0f 3d 5b db b5 3d 78 19 d0 3d
       -0.032465342 0.03506002 0.08879729 0.10161108
0001b0 84 d9 16 3d 62 3c 74 3e ab ad 1b 3e c8 3d 2a 3e
       0.036828533 0.23851159 0.15202968 0.1662513
0001c0 b4 26 a1 3d fa af b5 3d d5 89 64 3d 1f 2c 31 3d
       0.0786871 0.088714555 0.05579551 0.043254968
0001d0 a7 49 a4 bc 12 c6 06 3e 67 31 ef 3d a3 a5 9e bc
       -0.020054651 0.13161495 0.116793446 -0.019366091
0001e0 b5 78 96 3d 19 2f ca 3d 01 08 29 3d 91 1c 24 3d
       0.07347242 0.098722644 0.0412674 0.040066306
0001f0 fb 78 71 bb b2 c6 98 3d 90 d3 d9 3d bc cd 1b 3d
       -0.0036845792 0.07459773 0.106360555 0.038038
000200 b5 ba 4a 3d 84 6a 30 3d 95 43 0b 3d 91 49 12 be
       0.049494464 0.04307033 0.033999998 -0.14285876
000210 1c 08 9e 3d da de 36 bc 25 15 08 be 1c 1b 52 3d
       0.077163905 -0.01116153 -0.13289316 0.051295385
000220 24 91 cb 3d 66 29 80 3d 08 12 95 bd 0a 36 96 3d
       0.09939793 0.06257896 -0.0727883 0.07334526
000230 c3 8e b2 3d fa 1a ef 3c d0 ef 89 3d d3 76 25 3e
       0.08718636 0.029187668 0.06735194 0.16158609
000240 f0 7a 07 be 97 8e cb bc db d4 c5 bb b3 ac 28 3c
       -0.1323049 -0.024848266 -0.0060373372 0.010295081
000250 d9 66 1a be 23 e2 cf bd 3d 23 27 bd 3a 58 7b 3d
       -0.15078296 -0.10150554 -0.04080509 0.061363436
000260 45 e2 47 3d cc 0a 33 bd 10 c7 dc bb 16 d2 e5 3c
       0.04879977 -0.04371147 -0.0067375973 0.028054278
000270 41 94 b3 3c 4b 6c 81 3d c4 18 a4 bc cf ef b0 bd
       0.021921279 0.06319483 -0.02003134 -0.0863949
000280 1a 25 62 3d 22 8a f0 bd 9c 3b 40 3c 8f 8f 05 3e
       0.055211164 -0.11745097 0.011732962 0.13043045
000290 3c f7 c3 bd 0f 05 42 bc 9d 7a a2 bd e7 54 81 bd
       -0.095686406 -0.011842026 -0.07933543 -0.06315022
0002a0 c1 5e f8 3c 58 ab a3 3d cb c4 42 3d 20 be b9 bd
       0.03031862 0.079916656 0.047550958 -0.090694666
0002b0 5d d5 19 3e 20 cd ea bc 2e f4 f1 bc ba 65 9c bd
       0.15022798 -0.028662264 -0.02953538 -0.0763659
0002c0 41 4d db ba 06 fd 3a bb f0 b7 f3 bd dd e2 88 3d
       -0.0016731397 -0.0028532161 -0.11900318 0.06683896
0002d0 ca 06 5a bd 3a 88 6b 3d 37 7a 7b bd 8d 22 ea bd
       -0.05322913 0.057502963 -0.06139585 -0.11432371
0002e0 86 60 76 bd 9b 83 e7 3d 3a 29 6b 3d 4c 6e 34 bd
       -0.060150646 0.113043986 0.057412364 -0.0440505
0002f0 71 8a bf bc d9 99 3d bd f1 a7 a7 3c be 69 ef bb
       -0.023381444 -0.0462893 0.020465823 -0.0073063066
000300 4e 99 8f 3b 33 3e a2 bd 49 98 bb bd 11 5a 4a 3e
       0.004382289 -0.0792202 -0.091599055 0.1976092
000310 6f 8e 45 3e 50 be 1a 3e 5a 38 23 3d c0 cd 55 3d
       0.19292615 0.15111661 0.039848663 0.05219817
000320 48 b8 e6 3c 06 15 b1 3d 86 9e ab bd ec f0 cf bc
       0.028164044 0.08646588 -0.08379845 -0.025383435
000330 2b 49 e4 3a cf ab d3 bd 88 66 8b 3d 49 f9 07 3e
       0.0017416825 -0.10335504 0.06806666 0.13278688
000340 77 5b 29 3d 16 37 a0 3d b6 62 92 3e 7a 23 46 bd
       0.041346993 0.07823007 0.28590935 -0.048373677
000350 21 45 28 bd 4e e6 f3 bc 2c 10 42 3e b5 f9 40 be
       -0.04108155 -0.029772904 0.18951482 -0.18845256
000360 61 34 ce 3d b4 fb 9b 3c 3b 7c 9c 3c 94 39 0f bc
       0.10068584 0.01904092 0.019102206 -0.008741755
000370 79 61 04 be 2a 5c e7 bd 16 7f 15 3d ba 1d 42 3e
       -0.12927808 -0.11296876 0.03649815 0.18956652
000380 64 1f 4e bd 2b e9 6f 3e 27 6c 85 3e e1 91 bc 3d
       -0.050322905 0.2342879 0.26059076 0.09207512
000390 ca 97 e9 bb 54 1d ca 3d f2 f6 53 3b 7e 49 7d bd
       -0.0071286904 0.09868875 0.0032343236 -0.061837666
0003a0 07 a6 90 3d 29 7b 0a 3e 05 4c 89 3e fd ac c1 3d
       0.07062917 0.13523544 0.2681581 0.09456823
0003b0 fa f5 d9 3d b4 39 6b 3d 2c 3d a8 3d fe 7a 68 3d
       0.106426194 0.057428077 0.082147926 0.05675792
0003c0 aa 57 e6 3c 36 07 94 3d 08 cc b4 3d d1 04 83 3d
       0.028117973 0.07227938 0.088279784 0.06397403
0003d0 13 14 e7 bd e6 22 00 bd 0f 07 20 3d 66 9a c8 3d
       -0.11283126 -0.03128328 0.03906923 0.09795074
0003e0 cd c0 bf 3d 00 f7 26 be 73 90 a7 3d 8c 2c cf 3d
       0.09362946 -0.1630516 0.081818484 0.101159185
0003f0 6c b4 97 bd 90 40 44 3c e0 0a 93 3d 64 35 92 bb
       -0.074074596 0.0119782835 0.071798086 -0.004461931

lstm.bias_hh_l0 f4 [256]
000000 87 c3 47 3c e8 5d f9 bd 50 35 54 3d cf fa 16 3e
       0.012192613 -0.12176114 0.051808655 0.14744113
000010 36 85 ce bd df 75 42 bc fe 1e 91 3d 9b ff 94 bc
       -0.10084002 -0.011868923 0.070859894 -0.018188288
000020 06 56 1c 3e d8 1a 89 bd 01 ca 09 bc 0f 1c 29 3c
       0.1526719 -0.06694573 -0.008409978 0.010321631
000030 4f 94 37 be a1 c7 da bd 00 7f 07 3e e2 38 02 be
       -0.17927669 -0.106826074 0.1323204 -0.12717012
000040 af 79 46 be f5 fa 68 3c b8 4a a7 3d c5 32 4c be
       -0.19382356 0.014219989 0.08168548 -0.19941242
000050 88 2f e8 3d d3 7f 60 b9 9e 75 50 bd 10 55 37 be
       0.11337191 -0.00021409923 -0.05089342 -0.17903543
000060 28 21 00 3e f3 ba 1c 3d 74 c3 a8 bc 9b b7 11 be
       0.12512648 0.038264226 -0.020601012 -0.14230196
000070 d2 7d a3 be 32 8c 8a bd 5d 47 ed 3d b9 ac 64 3e
       -0.3193193 -0.067650214 0.11585877 0.22331513
000080 cc 0d d5 3d a2 af f7 3a fe 7e e4 bc e4 5d 81 3d
       0.10403022 0.0018896947 -0.027892586 0.06316736
000090 49 f7 32 bd e4 b2 27 3e 7a af 61 bd b9 a7 b6 bd
       -0.04369286 0.16376835 -0.055098988 -0.08918709
0000a0 25 09 33 bd da b8 f4 bc 6d 7c 2c 3e ea 74 87 3d
       -0.043709893 -0.0298733 0.1684434 0.066140965
0000b0 49 1b 15 bb 88 5d a3 bd 1e db 8d bd 31 49 0e 3d
       -0.002275186 -0.07976824 -0.06926559 0.03473777
0000c0 82 fe e0 bd 73 94 4c 3d 0e 02 89 bc 41 81 46 be
       -0.109860435 0.04994626 -0.016724613 -0.19385244
0000d0 b3 b2 53 be 11 07 59 3d 4b 5f 19 3d 8e 6c 9c 3c
       -0.20673637 0.052985255 0.037444394 0.019094732
0000e0 a2 31 57 bd bd d6 f5 bd 7b 62 11 3e 7a e2 14 3e
       -0.052537568 -0.12003849 0.14197724 0.14539519
0000f0 b2 3a eb 3d 69 12 7f 3d e0 e0 32 bc 10 fd 89 bd
       0.114858046 0.062273417 -0.010917872 -0.06737721
000100 f7 18 12 bd 43 b2 9d bc 18 57 fb 3d 98 a5 90 3d
       -0.03566834 -0.01925004 0.12272471 0.070628345
000110 49 b3 5a 3e c0 b3 43 3d 1f 8f 0e 3e 5a 15 21 3e
       0.21357454 0.047778845 0.13921784 0.15730801
000120 bb 25 cc 3d 6c ab 4d 3d bf d1 96 bd 6b df 45 bd
       0.09968134 0.05021231 -0.07364225 -0.04830877
000130 61 c1 76 3d 12 32 bd 3d 6b 36 96 3d 65 44 05 3e
       0.060243014 0.09238066 0.07334598 0.13014372
000140 6d 8d ba 3d f0 51 09 bd 5f 40 62 3e ad e3 2f 3d
       0.09109006 -0.033525407 0.22094868 0.042941738
000150 9b f0 3c 3d d5 44 5f 3e 12 52 f5 3d 29 07 5c 3c
       0.046127897 0.21803601 0.11978544 0.0134294415
000160 a0 cd 97 3e fd 85 ae 3d 25 29 c0 bb 6d ac 23 3e
       0.29649067 0.0852165 -0.00586428 0.15983744
000170 32 d4 01 be a4 cb 0c 3d 18 56 81 3e c9 9d db 3d
       -0.12678602 0.034373894 0.25260997 0.107234545
000180 2b 63 50 bd 94 d2 10 3e 65 e2 80 3d bb 5f e2 bd
       -0.050875824 0.14142829 0.06293181 -0.110534154
000190 a2 9f b8 3d ac 1b cb 3c ca 1e 8b 3e fd fb 5a 3d
       0.090148225 0.024793468 0.27171928 0.05346297
0001a0 11 90 be 3d 71 6a 7d 3e 69 4d d2 3b 3b bb 80 ba
       0.09304822 0.24747635 0.0064179194 -0.0009821424
0001b0 57 e8 42 3e 77 ba 00 3e 57 f3 22 3e 0b c9 32 3e
       0.19033943 0.1257113 0.1591314 0.17459504
0001c0 7e e6 0c 3e 6d c1 45 bd 61 92 87 3d f9 c1 d5 3d
       0.13759801 -0.04828017 0.066197164 0.10437388
0001d0 42 0e 05 be df 04 07 3e d5 b1 18 bd f1 43 bf 3d
       -0.1299372 0.13185452 -0.03727897 0.09339131
0001e0 0e 7e 49 3e ca 4d b9 3d da 85 a9 3d 04 74 16 3e
       0.19676992 0.0904804 0.08277483 0.14692694
0001f0 70 46 97 3d a4 29 9e bc 88 c8 de 3d dc 18 3d 3c
       0.07386482 -0.019306965 0.10878092 0.0115415715
000200 ef ff 6d 3d 6d b6 90 3d 7f af a5 bd 39 32 66 3c
       0.058105405 0.07066045 -0.08090114 0.01405006
000210 97 2f 50 3d 10 93 60 bd af ad 97 3d 35 b3 0c be
       0.050826635 -0.05482775 0.074061744 -0.13740237
000220 34 7f 81 3c c4 c8 56 bd d2 e9 91 3d 91 66 fd bc
       0.015807725 -0.05243756 0.07124676 -0.030932697
000230 11 4d 92 bd a2 c2 96 3d de f7 40 3d be 35 04 3e
       -0.071436055 0.07361342 0.047111385 0.12911126
000240 f4 c5 34 3d af ae 0d 3e 72 ed 03 be 67 23 dc ba
       0.044134095 0.13836168 -0.12883547 -0.0016795219
000250 f5 ec 7d 3d a6 36 5c bd 46 64 f2 bd ec 2c d7 3d
       0.061993558 -0.053763054 -0.11835532 0.10506615
000260 2a 1a 12 3c 66 2d a2 bd 67 5b b4 3d f5 e4 8c bb
       0.008917371 -0.07918815 0.08806496 -0.0042997547
000270 93 b5 28 bd 98 0e 8d 3d cd 88 bb bc c7 40 3e bd
       -0.041188788 0.06887549 -0.02289238 -0.046448495
000280 1c f3 60 bc d1 4a 38 bd 70 73 b9 bd ad 38 7b bd
       -0.013729837 -0.044993225 -0.09055221 -0.061333347
000290 8d 72 8d 3d 70 7a 3d be 7f fe 00 3b 63 47 fe bc
       0.069066145 -0.18503737 0.0019682941 -0.0310399
0002a0 a3 f7 17 3e 4f cd 55 bd dc 92 48 3e cd ba 45 bb
       0.1484056 -0.05219775 0.19587272 -0.0030171156
0002b0 7c d2 82 3d bb bd 17 be 4e e1 cb bd d5 0a 3f bd
       0.06387803 -0.1481847 -0.09955083 -0.04664119
0002c0 54 50 7d 3d a1 f8 9b bc ff dd 83 3d f3 5b fd bb
       0.061844185 -0.019039454 0.06438827 -0.0077319085
0002d0 13 ae c8 bd 1c fd 63 bd 67 58 01 bc 7c b3 c1 3d
       -0.09798827 -0.055661306 -0.007894612 0.09458062
0002e0 d2 c3 2a 3e d8 de 0b 3e 12 c5 08 3e 18 e4 44 3c
       0.16676262 0.13659227 0.13356426 0.012017272
0002f0 66 c1 d7 3d 29 7b ad bd 3f 61 2b bd 0f 5c b5 bc
       0.10534935 -0.084707566 -0.041840788 -0.022138624
000300 a3 e9 e1 3d c8 6d cd 3d 76 79 b8 3d 4a 91 6b 3e
       0.11030891 0.10030705 0.09007542 0.23004642
000310 41 9c d7 3d f2 04 96 3d 7f 92 2c 3e 32 db a4 3d
       0.1052785 0.07325162 0.16852759 0.08049621
000320 02 2b af 3d 3d 14 4e 3d f4 2b a4 bc 43 51 19 3d
       0.08553125 0.05031227 -0.02004049 0.037431013
000330 ee 63 24 3d 5f 9b de 3d 65 56 76 3d 08 97 73 3d
       0.040134363 0.108694784 0.060140986 0.059470206
000340 f0 55 02 3e a5 bb 01 3e fc 7d 83 3e 12 95 17 be
       0.12728095 0.12669237 0.25682056 -0.1480296
000350 19 fe 48 3b 5b 2f c6 3d 50 fb 0f 3e 39 45 91 bc
       0.0030669032 0.09677001 0.14060712 -0.017733203
000360 9f d4 da 3c 5c ea dc 3c af 94 88 3d 08 d9 8d bc
       0.026712714 0.02696722 0.06668984 -0.017315403
000370 e1 8e 62 bc d4 ad dc bd c0 b0 63 3e bc a2 17 3e
       -0.01382801 -0.107753426 0.22235394 0.14808172
000380 63 ff 85 bd d3 f0 00 3e a8 43 f5 3d 07 76 92 3a
       -0.06542852 0.12591867 0.11975795 0.0011174091
000390 ff 49 33 3d c5 b6 ba 3d 5d 7e fe 3d 6b 91 de bd
       0.04377174 0.09116892 0.12426446 -0.1086758
0003a0 26 ad 0f bc 37 d4 4e 3e e5 8f 6a 3e a6 fb 29 3e
       -0.008769309 0.20198141 0.22906454 0.16599903
0003b0 8a 89 01 bd 9a c7 ca 3d 2e 03 89 3e ab 94 f0 bc
       -0.031625308 0.09901352 0.26760238 -0.029367765
0003c0 90 43 d7 3c 6a af 69 bd 55 70 dc 3d a6 88 fe 3c
       0.026277333 -0.057052054 0.10763613 0.031071018
0003d0 7c ec 59 3c 1e dd 6f 3d 93 a3 eb 3d 59 19 c8 3c
       0.013301011 0.058560483 0.11505809 0.02442615
0003e0 06 ec 83 3d 00 41 fe bc 43 a6 8a 3e 57 cf d6 3d
       0.06441502 -0.031036854 0.27079973 0.10488766
0003f0 af d6 5e 3d a6 32 6e bd cb ea f1 3a 53 1b 38 3e
       0.054403957 -0.05815377 0.0018456815 0.17979173

lstm.weight_ih_l1 f4 [256, 64]
000000 ab 6c 36 3e 6a df 0a 3d 68 ee d2 3d f3 96 73 3b
       0.17814891 0.03390447 0.10299379 0.003716883
000010 81 2c c8 3e 09 42 87 be 01 94 ab be 23 1f 17 3c
       0.39096454 -0.26417568 -0.33511356 0.009223732
000020 96 b9 bf 3e a3 46 fd 3c 04 37 aa bc 32 aa 89 3e
       0.37446278 0.030917471 -0.020778187 0.2688766
000030 cf e1 45 bd c7 2a bb 3e aa 2a 85 3e fa 9f 4c be
       -0.04831105 0.36556074 0.26009113 -0.19982901
000040 11 d5 79 bd 34 c1 b4 3d e1 ad 6c be 85 fa 30 be
       -0.06099421 0.08825913 -0.23113205 -0.17283066
000050 73 21 88 3e 4c 78 be 3e 4f 60 0e be a7 84 16 3e
       0.2658802 0.37201154 -0.13903926 0.1469904
000060 c9 68 c9 bb 8e c8 78 be 5f d6 6d 3d 65 39 09 be
       -0.0061465246 -0.24295256 0.05806577 -0.134008
000070 7f 71 c6 be 95 43 ad 3c de 75 00 3d 8a a3 dd bd
       -0.38758466 0.02115039 0.031362407 -0.10822208
000080 ea a2 60 be 41 ac 06 be e9 7f 31 be 25 74 33 3e
       -0.21937147 -0.13151647 -0.1733395 0.17524774
000090 c9 7c 87 be 68 f8 7f 3e 26 a5 34 3c fb e6 69 3e
       -0.2646239 0.24997103 0.011025703 0.22842018
0000a0 01 87 2e 3e 5d 6a 52 3c 8e ff 00 be 49 ba 0f 3e
       0.17043687 0.012842742 -0.12597486 0.14035906
0000b0 00 b3 a5 3e 31 50 05 3e 01 3f a0 3e 96 a6 01 bd
       0.3236313 0.13018872 0.31298068 -0.03165301
0000c0 8c 50 4b 39 49 0a 5b 3e 5b 90 04 be f6 a7 60 3d
       0.00019389595 0.21390642 -0.12945692 0.05484768
0000d0 da 32 c7 3d 39 cf 68 be 53 e5 4e be 81 cd 02 3e
       0.09726496 -0.22735299 -0.20204668 0.12773706
0000e0 93 6d df be f7 36 a0 3e 6f 53 ae 3d 88 ec cf bd
       -0.43638286 0.31291935 0.085120074 -0.10152537
0000f0 01 4d 7e be d4 f7 6d bc 00 ff cc be b7 a8 a4 3e
       -0.24834062 -0.014524419 -0.400383 0.3215997
000100 0b 45 8d be b6 3f 3e 3e 1a a7 a0 3e de 64 32 3d
       -0.27591738 0.18578991 0.31377488 0.043553226
000110 4c f3 cc bd b7 39 fe 3e 92 cd 0a be 5c ae 18 3e
       -0.10007343 0.49653408 -0.13554981 0.14910263
000120 ac b4 97 bd 56 f7 0e be 80 0a c9 3e b0 da 29 bd
       -0.07407507 -0.13961539 0.39265823 -0.041468322
000130 88 51 8f 3e a2 d7 cd be 29 c5 a2 3e 19 a6 c7 3e
       0.2799189 -0.40203577 0.31791046 0.3899391
000140 a2 ba 37 be 7f c6 9e be 39 33 ec 3e 02 38 69 3e
       -0.17942289 -0.31010816 0.4613283 0.22775272
000150 96 9d 81 bd f5 14 40 3e 3f ba 6e be 75 ad 72 bd
       -0.06328885 0.18757994 -0.23313235 -0.059247453
000160 fb b1 10 bb 1b 71 ba 3e b3 0f 27 be 42 4c 5f 3e
       -0.002207874 0.36414418 -0.16314583 0.21806434
000170 01 3d 41 3e 97 d8 45 be b3 2e 43 bd 61 4a 08 3f
       0.18870927 -0.19320904 -0.047651958 0.53238493
000180 d4 4b b5 be ad 3c 9d 3d 39 d1 76 3d b1 f2 8c be
       -0.35409415 0.076775886 0.060258124 -0.2752891
000190 c6 62 f8 bd 6b 32 c3 3e c3 0b c6 bd ec 27 75 be
       -0.121282145 0.38124403 -0.09670212 -0.2394101
0001a0 91 ab b7 bd 7c b3 90 3d 15 89 3c 3e bd 1d b6 bd
       -0.089682706 0.07065484 0.18411668 -0.08892391
0001b0 e8 d0 48 bd 40 78 97 3e 37 80 ef 3d 1a 08 f2 3c
       -0.049027354 0.2958393 0.11694377 0.029544879
0001c0 75 26 14 3e 63 8f 73 3d 63 88 e5 b9 46 44 0c bd
       0.14467795 0.059462916 -0.000437799 -0.034244798
0001d0 1a b3 29 bd cd 29 80 be c1 60 b5 bc 68 e9 28 3e
       -0.04143057 -0.2503189 -0.022140862 0.16495287
0001e0 1a 65 e8 bc db 67 84 3b e3 b2 33 be d3 0e c4 bc
       -0.028368521 0.004040701 -0.17548709 -0.02393285
0001f0 99 1f 6b bd 17 16 5f 3e 1c 16 4d be c0 cb 99 3e
       -0.05740318 0.2178577 -0.20027965 0.3003826
000200 9b ad 57 be 51 f1 a8 bd 17 c0 23 3e 00 b4 ea bd
       -0.21062319 -0.082491525 0.15991245 -0.114601135
000210 bf e3 be bd aa 87 a7 bc ed 76 c8 bd be 88 06 3e
       -0.09320783 -0.020450432 -0.09788308 0.131381
000220 c2 22 b0 3d da bc d4 bd c9 94 6e bb b7 36 8d 3d
       0.086003795 -0.10387583 -0.00364046 0.06895202
000230 18 66 83 3e 13 ab 1e 3c 97 1c 75 3e 47 43 98 be
       0.2566383 0.009684342 0.23936687 -0.2973883
000240 58 9c 84 3d 28 62 44 3e 6b 8e 8b 3e 16 50 30 be
       0.06475133 0.19178069 0.27257094 -0.1721805
000250 bf 63 d2 bc 87 c0 78 be 08 a8 87 3e ee ed 60 bd
       -0.025682328 -0.24292193 0.26495385 -0.054914407
000260 11 82 d0 3e 35 8a 18 3e 79 31 31 be 08 a1 ec 3c
       0.40724233 0.14896472 -0.17304029 0.02888538
000270 ba 09 c2 bd e0 6c 1e bd 4d db af 3d 40 d4 12 be
       -0.094745114 -0.03867805 0.0858675 -0.1433878
000280 5c e6 c0 bd a4 1e bd bd 40 b8 b8 3d 92 5f a3 3c
       -0.094189376 -0.0923436 0.09019518 0.019943032
000290 2e d0 8b bd 92 3e 8b 3d bc 8a b7 bc 30 aa 44 bd
       -0.068268165 0.06799044 -0.02240502 -0.048013866
0002a0 b2 5b 1f 3e 9e 2e 0e 3d f2 bc c4 bd 63 ed eb bc
       0.15562323 0.034712426 -0.09606351 -0.028799718
0002b0 fb a4 d5 bd bc 91 81 3d e2 7a b0 bc 0d a1 40 be
       -0.10431858 0.06326625 -0.02154297 -0.18811436
0002c0 b3 26 11 3e 1f d6 42 be 13 f2 8d 3e d9 b0 a9 3c
       0.14174919 -0.19026993 0.2772375 0.02071421
0002d0 7d a7 73 3e a0 2a 32 be a7 30 9a be 1b 1a f0 3d
       0.2379436 -0.17399073 -0.30115244 0.11723729
0002e0 79 d0 6b bd 1c 22 7c 3e fa a9 0d be af 9b 01 bf
       -0.057571862 0.24622387 -0.13834372 -0.5062818
0002f0 b3 13 29 bd 37 11 0d 3e bd 4c 1f 3d 31 11 77 be
       -0.041278552 0.13776098 0.038891543 -0.24127652
000300 25 de dd 3b a6 94 58 3e e7 7c 59 3d da b0 81 bc
       0.0067708665 0.21150455 0.05309763 -0.0158314
000310 c1 2a cc 3d 8e 59 01 3e 3d 9c 97 be 9d 53 1b 3e
       0.09969092 0.12631819 -0.29611388 0.15168615
000320 f0 de d3 bd b0 cf a6 3e 43 1e 01 be bb 09 c0 bc
       -0.10345256 0.32580328 -0.126092 -0.02344214
000330 86 aa 7d be e2 34 fb 3e d7 e1 e1 bd 1d ee af 3d
       -0.24772081 0.49063784 -0.11029404 0.085903384
000340 60 7a ee 3d fa a3 68 3d 3a b8 9d be da c4 3a 3d
       0.11644435 0.056797005 -0.30804616 0.04559789
000350 48 da 19 be a0 b7 86 bd b0 c0 2f be c0 dc d4 3d
       -0.15024674 -0.065779924 -0.17163348 0.10393667
000360 f7 da 1a 3e 9d 54 47 be 96 ce 83 3e 8f 3b a2 3c
       0.15122591 -0.19465871 0.2574355 0.01980379
000370 7f 27 50 be b9 58 76 3d 0a 9d 46 be a2 64 21 be
       -0.20327567 0.060143206 -0.19395843 -0.15761045
000380 f8 a1 76 3d a7 81 9a be d8 18 4e 3e 5c e9 26 be
       0.06021306 -0.30177042 0.20126665 -0.16299957
000390 51 c9 3f be f0 c2 85 3e 48 52 bd 3e 4d 24 cd bd
       -0.1872914 0.26125288 0.36976838 -0.100166894
0003a0 19 ef 26 3e b0 f7 10 3e 1b 28 2e 3e 2c 46 89 bd
       0.16302146 0.14156985 0.17007487 -0.06702837
0003b0 27 95 01 3e 8d 30 83 bd db 3d 81 3c c6 cd a6 bd
       0.12654553 -0.06405745 0.015776565 -0.08144717
0003c0 f6 18 82 be 09 ca 96 3e cd 74 5c be d4 72 bb 3c
       -0.2540967 0.29451016 -0.21528931 0.022881903
0003d0 56 5b 3b be b6 a7 af bc 47 85 e8 3c 0a 28 34 3e
       -0.1829656 -0.021442275 0.028383864 0.17593399
0003e0 e7 c8 04 3e 5f 3e 92 bc 8e 35 bb 3e dd 2f 7e bd
       0.12967263 -0.017852006 0.36564296 -0.062057365
0003f0 02 1b ab 3c 5e 1c 50 be bc 67 ff bd 23 58 c1 3d
       0.020886902 -0.20323321 -0.12470958 0.09440639

lstm.weight_hh_l1 f4 [256, 64]
000000 08 47 90 3a 76 76 dc 3e 3b 6d 2b 3e f0 77 36 3d
       0.0011007497 0.4305913 0.16740887 0.044547975
000010 52 00 cf 3d be be 05 bd a7 30 53 3e b0 19 47 3e
       0.10107483 -0.03265261 0.20624028 0.19443393
000020 2c 82 8f bd 01 6f 25 bd 61 85 91 be fe 8b b1 be
       -0.0700725 -0.040389065 -0.28422073 -0.34677118
000030 09 29 70 be bd 5f 6f 3e 83 00 dc be 35 5e b6 3c
       -0.23453154 0.23376365 -0.4296914 0.022261718
000040 4e 49 3f 3e c0 21 46 be 02 b3 8a 3d 78 cf b0 bd
       0.18680307 -0.19348812 0.06772424 -0.086333215
000050 73 c2 d3 be c9 3a 56 3e 8d 34 7f be cc 5b 8c 3e
       -0.4135929 0.20920862 -0.2492239 0.27413785
000060 43 db 3a 3d 36 01 f8 3d 86 ec c0 ba 65 4b 9e 3e
       0.04561926 0.12109606 -0.0014718927 0.30916896
000070 27 4e 1e 3b 5a 24 a4 be d2 5b ed 3d 1a 62 23 be
       0.002415547 -0.32058984 0.11589779 -0.15955392
000080 86 b2 ba 3e ef a7 1c 3d 7c f1 c4 3c 4c 3a 59 3e
       0.36464328 0.03824609 0.02404093 0.21213645
000090 b1 9f a3 3c a1 e7 82 bd 7b 3d da bd 9c 0a 79 3c
       0.019973608 -0.06391836 -0.10656258 0.015200283
0000a0 ef 32 19 3e 4e 9c 72 3e 60 db 49 bd 1d f4 c5 bd
       0.14960836 0.23692438 -0.049281478 -0.096657015
0000b0 73 75 c8 bd 2a 8a 4e be ca 5c 6a be 49 96 5c be
       -0.09788027 -0.20169893 -0.22886959 -0.21541704
0000c0 f1 65 2e be a5 4d a5 bd d6 30 b6 bb 64 01 83 3e
       -0.17031075 -0.0807145 -0.005560021 0.25586998
0000d0 4b 61 37 3f 7e b9 32 be 51 64 85 be 7e 51 eb 3d
       0.7163283 -0.17453572 -0.26053098 0.11490153
0000e0 14 99 56 be 48 aa 19 be b4 00 24 3e fd 9b 5a be
       -0.20956832 -0.15006363 0.16015893 -0.21348567
0000f0 da 48 b4 3c 1f e5 13 bb 70 ef 5c bd 10 ad 6c 3e
       0.022007395 -0.0022566987 -0.053939283 0.23112893
000100 ed 83 2c be d1 a5 31 be 4a 02 f2 3d ce fc 5f 3e
       -0.168472 -0.1734841 0.11816843 0.21873781
000110 14 ce 5b 3e df b8 b2 3e 06 fe 5b be a3 4d 99 3d
       0.21465331 0.3490667 -0.21483621 0.07485511
000120 84 c5 9e bd 70 21 d0 bd 0b b5 38 3d 39 2c 88 3e
       -0.07752517 -0.10162628 0.04509453 0.2659624
000130 91 8b 42 3d 00 86 5e 3e 45 d5 11 3e 5d b1 f5 bd
       0.047496382 0.21730804 0.14241512 -0.1199672
000140 64 ca d5 3d 03 54 9f 3e b7 ff 8b 3e 2b 87 84 bc
       0.104389936 0.31118783 0.27343532 -0.016177734
000150 a8 ee 81 3d 0d 9a 4a 3e 26 9c ea 3d f4 25 8c be
       0.06344348 0.19785328 0.11455564 -0.27372706
000160 2f ee b7 3c e8 cb cd be 7f 72 15 3e eb e7 08 3e
       0.022452442 -0.4019463 0.14594458 0.1336972
000170 d0 4d e3 bd 65 00 78 bd 2e e0 f7 be 7f 54 80 bd
       -0.11098826 -0.06054725 -0.48413223 -0.06266116
000180 d6 ef 53 be 1e 13 8d be e2 4a a6 3d 4d 66 a5 3c
       -0.20696959 -0.27553648 0.081197515 0.020190382
000190 e2 4c 25 be ac 39 10 3d c5 4b 11 be 3b 1d 1c be
       -0.1614261 0.03521125 -0.1418906 -0.15245526
0001a0 9d 67 0e be a9 e1 10 3e 60 ab 30 bd 57 a9 01 be
       -0.13906713 0.14148583 -0.043132186 -0.12662254
0001b0 57 6e 82 be 14 a1 fc bd 29 cf 14 bd 01 b1 ab bd
       -0.25474808 -0.12335411 -0.036330376 -0.0838337
0001c0 ef b3 53 3e 45 be 7a bd aa da 62 be a6 35 fe 3c
       0.20674108 -0.06121661 -0.22153726 0.031031441
0001d0 1c 10 a8 bc 61 11 61 bd 45 74 54 3d df d0 ec 3c
       -0.020515494 -0.054948214 0.051868696 0.028908191
0001e0 94 5f 83 3c 02 0f 48 3d 6e ce 04 be 7c de 46 3d
       0.016036786 0.048842438 -0.12969372 0.04855202
0001f0 8e c8 25 3e 72 31 dc 3d 04 eb 8e be ce b1 84 3d
       0.16189787 0.107516184 -0.27913678 0.06479226
000200 ad 87 7b 3e f4 0a 47 3e 8d 1a df 3b 4d b2 d1 3d
       0.24563475 0.19437772 0.006808585 0.10239086
000210 9b a1 3e be f3 fe 2f 3e 2b 7d a3 3d 58 73 a3 be
       -0.18616335 0.17187099 0.07982858 -0.31923938
000220 7f 8a 48 be 88 28 02 3e 56 e1 59 be 3f 20 4f bc
       -0.19584082 0.12710774 -0.21277365 -0.012641965
000230 43 aa 22 3e 0e 95 d2 bd 0d 8a af bd 2e d0 03 3e
       0.15885262 -0.10282336 -0.08571253 0.12872383
000240 53 24 c5 bd 93 f2 30 be 1d 8a 17 3e 4e 36 05 bd
       -0.09626069 -0.17280035 0.1479878 -0.032522492
000250 4d 2a bb 3d 40 28 5b bd d6 88 47 3d a8 ea a1 be
       0.091389276 -0.053505182 0.04871448 -0.3162434
000260 2a f7 da bd 09 eb db bd 1e 31 55 3e 31 7c a8 3c
       -0.10691674 -0.10738189 0.20819518 0.020567032
000270 8d 4d 47 be 8c 1b f8 be bf 83 86 be b1 98 04 3d
       -0.19463177 -0.48458517 -0.2627239 0.03237218
000280 fa af 1e 3e 38 f8 47 be 9d 9e a5 bb d0 75 cb 3c
       0.15496817 -0.19528282 -0.0050543086 0.02483645
000290 00 b3 75 bc 2a 6f 68 be bc 62 df 3b 1b 76 53 3e
       -0.01499629 -0.22698656 0.00681719 0.20650522
0002a0 72 43 be bd 5d c1 9b 3e c5 95 99 3d d3 13 4d bd
       -0.09290208 0.30420962 0.074992694 -0.050067734
0002b0 22 da 66 3c 05 74 30 be 21 10 15 3e 9d 3e 1a 3e
       0.014090093 -0.17231758 0.14556934 0.15062948
0002c0 9b a6 8c be 27 a3 70 bc 59 5f 2c bd 38 0e 75 3c
       -0.2747086 -0.014687336 -0.042083118 0.014957003
0002d0 df 08 ee bd f7 25 81 3e d9 cf 44 3e 93 67 e7 bd
       -0.11622786 0.25224277 0.19219913 -0.11299052
0002e0 7d de 65 3d 02 97 b6 3c f5 d2 2c be e5 f8 05 bd
       0.056120384 0.022288803 -0.16877349 -0.032708067
0002f0 be 2c 0b 3e 87 23 b9 bc fd 2f 9d be 48 ea b8 bd
       0.13591287 -0.022599949 -0.30700675 -0.090290606
000300 8c 64 b7 bc 93 31 85 3e 2b 33 0a be 37 d0 7a be
       -0.022386812 0.26014385 -0.13496082 -0.2449349
000310 ea 05 13 be 60 f7 9f bc a7 f9 7c 3e af 00 5a 3d
       -0.14357725 -0.019527137 0.2470461 0.05322331
000320 07 9f 8a bd f1 cc 61 bc a7 ad 2f be 2a f0 34 3c
       -0.06768613 -0.013781772 -0.17156087 0.011043588
000330 e6 7c 02 3e e6 95 29 3d 3e d4 02 be 01 68 d4 bd
       0.12742957 0.04140272 -0.12776276 -0.103714
000340 4a 4e 43 be 18 91 1d be 68 62 0d be 1d 5c f6 bd
       -0.19072834 -0.1538738 -0.1380707 -0.12029288
000350 f3 b8 be bd f6 db 70 be 03 89 e4 bd d7 41 a4 bb
       -0.0931262 -0.23521408 -0.111589454 -0.0050127315
000360 29 2b 74 3c 10 8b c0 3d 4c 77 ce 3d 18 fe d4 bd
       0.014902868 0.09401524 0.10081348 -0.10400027
000370 21 25 2c 3d e5 ff 2c be 43 c3 3d 3e cb 08 31 3e
       0.042027596 -0.16894491 0.18531518 0.1728851
000380 24 93 84 bd 3a fe 44 3e cd 84 d1 bd bb af c3 bd
       -0.06473377 0.19237605 -0.10230408 -0.09555002
000390 60 62 21 be b9 fc 63 be d1 ff fa 3d be 38 11 3e
       -0.15760183 -0.22264375 0.12255824 0.14181802
0003a0 a5 3c ff 3c 68 d3 3d 3e 0d 31 b2 3d 1c f1 82 3d
       0.031156847 0.18537676 0.08700762 0.06393644
0003b0 67 4a 0d bd a1 29 1f 3e b9 bc 81 3e 74 a6 2e 3e
       -0.034494784 0.15543224 0.25339296 0.17055684
0003c0 59 4f 4d be 5e 1b 40 3d 5d 66 27 3c dd 35 91 3c
       -0.200498 0.0469011 0.010217276 0.01772588
0003d0 6b a2 9c 3e 86 da 51 3e 38 62 01 3d 03 93 cc 3d
       0.30592665 0.20493516 0.03158781 0.09988978
0003e0 b2 60 03 3d 14 07 23 3d 06 ff c0 bc 8a 64 73 3d
       0.032074638 0.039801672 -0.023559105 0.059422053
0003f0 63 dd 1c be d1 41 c9 3d 18 a7 1d bd 29 8d 15 be
       -0.15318827 0.098270066 -0.03848943 -0.1460463

lstm.bias_ih_l1 f4 [256]
000000 6a 8a 54 3e 51 88 04 be 4e 65 35 3d 81 e7 4b 3e
       0.20755926 -0.12942626 0.044286065 0.1991253
000010 4d 91 cd bd d7 6f 55 3e cc 72 cd 3e b3 e0 82 bd
       -0.100374795 0.20843445 0.40126646 -0.06390514
000020 37 8a 14 3c 79 5f 4b 3e df cb 44 bd fc 2b 32 bd
       0.009066156 0.19860639 -0.04804599 -0.043498978
000030 5c 9b 09 3c e6 12 0c be b1 3b 02 3d 72 33 89 be
       0.008398857 -0.13679084 0.031795207 -0.26797062
000040 6f 1d ae 3d 10 5a 3c bd 4b c5 47 3e 57 01 f3 bd
       0.08501708 -0.045984328 0.19508855 -0.1186549
000050 f2 64 29 bd 32 e0 4d 3d f0 c2 a7 3c a8 ed cf 3c
       -0.041356035 0.050262637 0.020478696 0.025381878
000060 ca b7 57 be dc 75 3e 3e 0c ff 9c 3d c0 f3 26 bd
       -0.21066204 0.18599647 0.07665834 -0.040759802
000070 2d 8a 3f 3d f1 32 6e bc b7 86 91 3d 22 2d 41 3e
       0.046762634 -0.014538513 0.07105773 0.18864873
000080 e0 45 cb 3d 05 62 47 3d 80 52 93 bc 18 a3 cc 3e
       0.09925437 0.048677463 -0.017983675 0.3996818
000090 9d 32 95 be 76 9d bb ba de a4 a5 bd 7a 2a 82 bc
       -0.29140177 -0.0014313895 -0.080880865 -0.015889395
0000a0 2c 59 d7 3d 6f a9 48 3e 01 f8 c7 3d c3 4a 9f bd
       0.10515055 0.19595884 0.097641 -0.077779315
0000b0 a0 27 26 bd 65 b4 21 3e 86 c4 28 bd 36 d4 2c 3e
       -0.040565133 0.15791471 -0.041203044 0.16877827
0000c0 3d 21 fb bd c7 c5 1b 3e 92 f1 c4 bd f3 a4 62 be
       -0.12262199 0.15212165 -0.096163884 -0.22133236
0000d0 b5 d8 28 be ba f3 1c be 7b 3d 79 bd 31 dd 5a bc
       -0.16488917 -0.1532735 -0.060849648 -0.0133584
0000e0 2c 23 f5 3d 74 f4 0d bd d4 74 8a 3c 69 f3 bf 3d
       0.11969599 -0.034656957 0.016901411 0.09372599
0000f0 b6 b9 0a 3d bd c8 d4 3d 07 9c 19 be 25 99 33 3d
       0.033868514 0.1038985 -0.15000926 0.043847222
000100 6c 45 10 be 45 81 39 3e 35 29 38 be d6 ec b0 3a
       -0.14088982 0.18115719 -0.17984469 0.0013498317
000110 14 a4 fa bd 32 c2 b1 3d e6 c8 3c be a9 47 43 3e
       -0.12238327 0.08679618 -0.18436012 0.19070305
000120 b4 b2 82 3e 9b 08 86 bd b3 95 0c 3e 8e 0e 7b 3d
       0.25526965 -0.0654461 0.1372898 0.061293177
000130 c2 6c 47 3e 4a 8d 87 3d 47 5e db 3d 74 3e 81 bd
       0.19475082 0.066187456 0.10711341 -0.0631074
000140 8e 14 72 3d e0 c1 d2 3d 07 b4 ac bd 85 0a 42 3e
       0.059101634 0.10290885 -0.08432775 0.18949325
000150 23 92 98 3e ce af 52 3c ad 02 73 3c 67 01 af 3d
       0.29798993 0.012859298 0.014832181 0.08545189
000160 91 87 66 3e 16 2d 22 be d1 f8 18 be 3d 59 5c 3e
       0.22512652 -0.15837511 -0.14938666 0.21518417
000170 67 58 43 bd 8e f1 af bc 78 0b 10 be 8a d9 32 be
       -0.04769173 -0.021477487 -0.14066875 -0.17465797
000180 c0 c1 de bc ab e6 a1 bd cc 66 56 3e da 33 0b be
       -0.027191997 -0.079053245 0.20937651 -0.13593999
000190 05 7b 23 bc 87 71 7c 3d cf 3c 7d 3c 92 86 3d 3c
       -0.009978061 0.061631706 0.015456392 0.011567729
0001a0 69 f9 5c 3c ba 6c 55 be 5c f8 a0 3c a7 2c 28 bc
       0.013487198 -0.20842257 0.019649677 -0.010264552
0001b0 4b 17 d9 3c 51 f1 58 bc ec 6a a3 bd 19 62 89 3e
       0.026500365 -0.013241128 -0.07979378 0.26832655
0001c0 ae be b5 3d 7e 74 c2 bd 1d cb 7b 3d e1 5c c6 3c
       0.0887426 -0.09494875 0.061473 0.02421421
0001d0 a7 d6 18 3d 85 21 0c be 7c 72 86 3e 5c 45 e7 3d
       0.037314083 -0.13684662 0.2625922 0.11292526
0001e0 6f 2d 76 3c 30 34 1c 3d 60 fa 3b 3e 4d d5 b3 3d
       0.015025481 0.038135707 0.18357229 0.08780918
0001f0 1e 05 67 3e 98 fa 61 be 1d 0f 15 3e 1d 80 2a 3e
       0.22560546 -0.2206825 0.14556547 0.16650434
000200 4d 90 76 3c 3d 7d ca bd 0d f6 e2 3d 4e 95 ce bb
       0.015049052 -0.098871686 0.11082087 -0.0063044196
000210 5b 69 53 bb ad 66 71 3d 32 3a 10 bc b5 6d ad 3d
       -0.0032258842 0.05893581 -0.008802937 0.084681906
000220 22 66 7b bd 14 10 d4 3d d2 28 95 bd e5 b7 d8 3c
       -0.0613767 0.10354629 -0.072831765 0.026454875
000230 eb 86 49 3b dc 91 bc 3d 9a 5d e5 bd 85 e5 3c bd
       0.0030750583 0.09207508 -0.11199494 -0.046117324
000240 f9 6a 05 3d 2c ef 01 3e 30 b7 9c 3d d7 6d 32 3b
       0.03257272 0.12688893 0.07652128 0.0027226114
000250 6b c0 01 bc c6 08 5f 3d e3 10 50 bb b2 ee a3 3d
       -0.007919411 0.054451726 -0.0031748347 0.08004512
000260 b3 c5 e4 bc 6c b0 94 bd 5e 7f b6 bc f2 af 3e bd
       -0.027926302 -0.07260212 -0.02227753 -0.046554513
000270 35 e6 16 3d ac 1c d9 bd 3a 09 14 3d 19 99 9c 3d
       0.036840636 -0.10601172 0.03614161 0.076463886
000280 48 8e 9f bd 15 3b dc 3d 45 54 22 ba 5d 3e b4 bc
       -0.0779081 0.107534565 -0.0006192367 -0.022002393
000290 ab 51 9a bd 66 32 91 bd 43 ec 03 3c c9 50 e6 bd
       -0.07535108 -0.07089691 0.008051935 -0.11245877
0002a0 48 fe 4e bd e9 81 1e bd 57 e2 b2 bc 09 9a 76 bd
       -0.05053547 -0.03869811 -0.021836443 -0.060205493
0002b0 e3 fd 9a bb db 66 82 3d 26 61 e3 bd aa 6e b1 bd
       -0.0047299727 0.063672744 -0.11102514 -0.086636856
0002c0 fd 8d d9 bd b1 fc 38 bd fe 92 32 be 7e c8 2e bd
       -0.10622785 -0.04516286 -0.17438886 -0.042671673
0002d0 91 d4 a4 bd 63 b2 90 3d 4c 3c e9 3c a0 9c 90 3d
       -0.08048356 0.070652746 0.028471135 0.07061124
0002e0 ce aa 1a be f8 72 35 3c 09 3e db 3d e7 55 0d be
       -0.1510422 0.011074774 0.10705192 -0.138023
0002f0 98 be 9c bd 30 21 eb bc 4b 37 43 bc 8d 3f 88 bd
       -0.076535404 -0.028702348 -0.011915038 -0.06652746
000300 b5 11 82 3e 6d 3c b7 3d ab 99 ce 3d 4d 8f 04 3e
       0.25404134 0.08947072 0.100879036 0.1294529
000310 f8 02 4e bd 80 93 b3 3d ba 8c cc 3e 9f c2 e5 bc
       -0.0502958 0.08768368 0.39951116 -0.028046904
000320 85 95 9c 3d 97 4c 36 3e 86 ea 31 bd f9 6e 01 3e
       0.07645706 0.17802654 -0.04343655 0.12639989
000330 43 58 ba bd 3b c7 a8 3d 72 20 c7 3c a7 3d aa 3b
       -0.09098866 0.08241125 0.024307463 0.005195338
000340 d0 d2 f2 bd 30 ce 33 3e 7c f9 97 3e b3 1d b5 bd
       -0.118566155 0.17559123 0.2968253 -0.08843555
000350 9c 28 ec 3d 9b 73 30 ba 2a ff ed bd 68 e8 f8 3d
       0.11531183 -0.0006731094 -0.11620934 0.12153703
000360 f3 c5 96 3b 1f b9 9a 3e de 9f 6e 3d bc 12 10 3e
       0.004601234 0.3021936 0.05825793 0.14069647
000370 e7 0c 21 3e 3d 59 bd bc 54 61 35 3e 14 31 78 3e
       0.15727578 -0.023113841 0.17712909 0.24237472
000380 6b 38 3a 3e c6 e1 ab 3d 7f eb 0c be 4c b0 a7 3e
       0.18185584 0.08392672 -0.1376171 0.3275169
000390 23 67 8f bd 2e c2 20 be 3c 6f 51 bd de 40 8b 3d
       -0.07002094 -0.15699074 -0.051131472 0.06799482
0003a0 23 57 5e 3d 61 51 7d 3e 24 19 4a 3d be 36 8f b9
       0.05428232 0.24738075 0.049340382 -0.00027315872
0003b0 ae 7b bb 3d d3 70 10 3e 13 b3 24 bd 1a 2f 27 3d
       0.091544494 0.14105539 -0.04020984 0.040816404
0003c0 57 64 d6 3d 23 61 30 bc ff 96 8e bb ce 8e a3 3c
       0.10468357 -0.010765347 -0.004351496 0.019965556
0003d0 0f a7 d0 bd a6 6c b4 3d 9d d2 ab 3d 10 76 92 3d
       -0.10188114 0.088097855 0.08389781 0.07151425
0003e0 b0 e0 b0 3d bd 4e 1f 3d 77 2b 8b bd 86 fb a3 bd
       0.08636606 0.03889345 -0.067954 -0.08006959
0003f0 79 1f bd bd dd 25 21 3e 5e 22 ae 3c 77 95 d2 bd
       -0.092345186 0.157371 0.021256622 -0.102824144
