Models/Precipitation_Models/mafraq_precipitation_model.pth (torch, 223671 bytes, 11 tensors)

lstm.weight_ih_l0 f4 [256, 11]
0.22392586 -0.22715609 0.14409389 0.005342766 0.06078223 0.14523731 -0.11194708 -0.18267131
-0.42653 0.25342098 -0.112506784 0.28530043 0.3980988 -0.052651905 -0.48220807 -0.17574485
0.45050356 -0.13601957 -0.023971107 -0.108433485 -0.07352912 -0.32594058 0.34813166 0.05977037
-0.06356345 0.15257561 0.03633715 -0.27245787 -0.27096772 -0.16517328 -0.29794377 -0.2621989
-0.12272341 -0.07532749 0.01220191 0.34664682 0.2841103 -0.34823102 -0.30066115 -0.0053980555
-0.38616696 -0.4417434 -0.11576035 0.10181464 -0.06371748 0.09038665 0.2698041 0.053870615
-0.26815638 -0.0027284634 -0.29101375 -0.21176967 -0.27844334 -0.00037494535 0.15669478 0.036860663
0.15798527 0.033437338 -0.09310266 -0.08177291 -0.3472278 -0.0236767 -0.49183702 -0.010595626
0.05895814 -0.057675097 -0.33226866 -0.09120804 0.15784387 -0.2255545 -0.17835414 0.03360923
0.4213837 -0.43029433 0.05087346 0.058527485 -0.27859902 -0.08947063 0.1714974 -0.18998024
0.06861551 -0.11990705 0.47818473 -0.19005238 -0.14667292 -0.28078732 -0.04407314 0.101989836
0.04423061 0.41977596 -0.38105538 -0.5511685 -0.28132874 -0.09749468 -0.03871447 -0.07076094
-0.22095512 -0.20701653 0.03233237 0.42069677 0.44617295 -0.30643106 0.28614703 -0.32651561
-0.0747894 0.12703152 -0.04696814 0.13040726 -0.000105870306 -0.2938658 -0.03036528 0.20666496
0.0039107287 -0.098010436 -0.5271527 0.29435852 -0.4556058 -0.09298177 -0.12954482 0.09478299
-0.2584008 -0.01525523 0.25501087 -0.038174815 0.0032687497 0.28296128 -0.30106026 0.24976441
-0.48511556 -0.4423155 -0.043984134 0.07439063 -0.0029679006 0.082770504 0.12073764 0.03926561
0.1747508 0.0040973146 0.1159715 -0.01971693 -0.30815282 -0.11139401 0.33132374 -0.09054742
0.11399923 -0.46340802 -0.003135658 0.14100184 -0.27407268 -0.012736678 -0.21686667 -0.006679756
0.26269412 -0.4282365 0.27188578 0.27712286 -0.0889441 -0.003844169 0.14938635 0.34954786
0.21900229 -0.0678507 -0.50593543 -0.12702292 -0.07100063 -0.042593475 -0.0008541399 0.38522106
-0.092857026 0.0632833 0.016033534 0.10357777 0.20719348 0.10722422 0.0064390097 -0.06773582
0.015228018 0.14910005 -0.30834472 -0.030217053 -0.12407001 0.04941102 0.08287573 -0.21349792
-0.16180782 -0.17288704 0.08406075 0.48627257 0.08579388 0.26066348 0.0034676997 -0.039336998
0.16132909 -0.18588479 -0.029257089 0.071919374 0.114732236 -0.19909345 0.61332196 0.3941261
-0.17257726 -0.21503565 -0.47764894 -0.107226305 0.1372381 0.0113862585 0.032670397 0.23060386
-0.037982244 0.090774685 0.032977216 0.19914533 -0.19359885 -0.39918306 -0.06168436 -0.5943893
0.38246924 -0.33614326 -0.050438836 -0.11221366 -0.25312662 0.08926298 -0.4149579 0.029837571
-0.26276052 0.51756376 0.28538412 0.05989988 -0.18766657 0.14559405 0.033519167 0.05755803
0.1314623 -0.24939755 0.1977444 -0.22303466 0.19863585 -0.21433216 -0.16986585 0.0735729
0.24712144 -0.3703567 0.3762171 -0.037541676 -0.00029604477 -0.33215368 0.06595577 -0.16232441
0.47272846 0.1656259 0.013232945 -0.36030963 0.09878703 -0.07028214 0.4249429 -0.40575
00000000: d24c 653e 9b9b 68be 598d 133e 5f12 af3b
00000010: caf6 783d 17b9 143e 8344 e5bd 300e 3bbe
00000020: 2462 dabe 65c0 813e f569 e6bd e612 923e
00000030: 9bd3 cb3e 86a9 57bd fae3 f6be 75f6 33be
00000040: 67a8 e63e b748 0bbe 0e5f c4bc 6012 debd
00000050: 6f96 96bd afe1 a6be 503e b23e c7d1 743d
00000060: 8e2d 82bd c83c 1c3e 43d6 143d 997f 8bbe
00000070: 48bc 8abe 2f23 29be 168c 98be ef3e 86be
00000080: 6956 fbbd 4d45 9abd 85ea 473c b17b b13e
00000090: e876 913e 564b b2be 42f0 99be 2ce2 b0bb
000000a0: adb7 c5be 312c e2be c313 edbd 3284 d03d
000000b0: 4f7e 82bd a31c b93d c323 8a3e 6fa7 5c3d
000000c0: cb4b 89be 05d0 32bb c1ff 94be 26da 58be
000000d0: 2090 8ebe 5094 c4b9 9974 203e 35fb 163d
000000e0: e4c6 213e 97f5 083d 9bac bebd 8e78 a7bd
000000f0: d8c7 b1be a4f5 c1bc 10d2 fbbe 4799 2dbc
00000100: 177e 713d b93c 6cbd 1e1f aabe 48cb babd
00000110: d3a1 213e c2f7 66be 78a2 36be d5a9 093d
00000120: 9bbf d73e 8a4f dcbe b060 503d 84ba 6f3d
00000130: 88a4 8ebe 613c b7bd 049d 2f3e 2e8a 42be
00000140: 4a86 8c3d d491 f5bd a1d4 f43e 179d 42be
00000150: 6d31 16be 5bc3 8fbe 0986 34bd 0ce0 d03d
00000160: 282b 353d e0ec d63e b119 c3be 6119 0dbf
00000170: 520a 90be 4aab c7bd 1093 1ebd 1deb 90bd
00000180: 0f42 62be 24fc 53be f26e 043d 9165 d73e
00000190: c870 e43e 88e4 9cbe dd81 923e 0e2d a7be
000001a0: 2f2b 99bd 8d14 023e aa61 40bd 7b89 053e
000001b0: b006 deb8 9475 96be 9cc0 f8bc fb9f 533e
000001c0: 9225 803b b2b9 c8bd 7bf3 06bf 29b6 963e
000001d0: 2a45 e9be 3a6d bebd 66a7 04be 961d c23d
000001e0: 1c4d 84be 12f1 79bc c990 823e 325d 1cbd
000001f0: 8538 563b 4de0 903e 9224 9abe 3ec2 7f3e
00000200: 1161 f8be 2d77 e2be b528 34bd 1d5a 983d
00000210: 1c81 42bb 9583 a93d 4c45 f73d fad4 203d
00000220: e0f1 323e c442 863b 7782 ed3d 6685 a1bc
00000230: 35c6 9dbe 8b22 e4bd 44a3 a93e ed70 b9bd
00000240: 6e78 e93d d143 edbe 9d7f 4dbb c962 103e
00000250: 4153 8cbe 80ad 50bc 4c12 5ebe dbe1 dabb
00000260: d87f 863e d141 dbbe 9d34 8b3e 0ce3 8d3e
00000270: 5328 b6bd 74ee 7bbb bcf8 183e f0f7 b23e
00000280: 2342 603e 4ff5 8abd fc84 01bf 4c12 02be
00000290: c768 91bd 7f76 2ebd 5ce8 5fba b23b c53e
000002a0: d32b bebd ad9a 813d c258 833c 9520 d43d
000002b0: 872a 543e 5f98 db3d 54fe d23b 14b9 8abd
000002c0: f07e 793c afad 183e 5cdf 9dbe c189 f7bc
000002d0: 6b18 febd 3663 4a3d c0ba a93d 339f 5abe
000002e0: f3b0 25be 4d09 31be 0b28 ac3d b8f8 f83e
000002f0: b4b4 af3d af75 853e 5942 633b d51f 21bd
00000300: 7433 253e 9558 3ebe 90ac efbc 774a 933d
00000310: bcf8 ea3d 27df 4bbe ab02 1d3f e5ca c93e
00000320: 18b8 30be 4e32 5cbe 678e f4be 7799 dbbd
00000330: 2588 0c3e 6e8d 3a3c 65d1 053d 6b23 6c3e
00000340: 4593 1bbd 14e8 b93d 1e13 073d c1ec 4b3e
00000350: c73e 46be b961 ccbe bda8 7cbd e629 18bf
00000360: 02d3 c33e f81a acbe f498 4ebd 46d0 e5bd
00000370: d099 81be 82cf b63d 5d75 d4be ec6d f43c
00000380: 8c88 86be 0f7f 043f de1d 923e 9459 753d
00000390: aa2b 40be 9b16 153e 654b 093d f8c1 6b3d
000003a0: 0e9e 063e 1262 7fbe 827d 4a3e 3363 64be
000003b0: 3267 4b3e e479 5bbe 50f1 2dbe 63ad 963d
000003c0: 670d 7d3e 659f bdbe 879f c03e 4dc5 19bd
000003d0: 7536 9bb9 0c10 aabe d213 873d 5f38 26be
000003e0: 7709 f23e d699 293e ffce 583c 817a b8be
000003f0: db50 ca3d 15f0 8fbd 1e92 d93e 77be cfbe

lstm.weight_hh_l0 f4 [256, 64]
-0.09264542 -0.20332064 0.13694495 -0.47488475 -0.7486415 -0.033297803 0.35366473 0.035215713
0.09827357 -0.3247685 -0.049738728 -0.16236593 0.32200044 -0.2871265 -0.078152314 0.32224086
0.11145579 -0.11122258 0.24270204 -0.07298589 -0.15695043 0.08433476 -0.21062124 0.09854269
-0.15085283 -0.10784285 -0.06736828 -0.2527929 -0.19092841 -0.082182035 -0.10088088 0.23622681
0.2324939 -0.19030957 0.1213605 -0.0553335 -0.24054383 -0.099891186 -0.00082266534 0.11964555
0.2295146 -0.4374155 0.1306272 0.048841406 0.3170824 0.08651274 0.20211734 -0.06377672
0.4744589 0.29172257 0.083320335 -0.18045591 0.2072898 0.19009908 0.11334826 0.4798057
0.37284514 -0.084027626 0.29945672 0.09817695 0.115186945 0.14897697 0.15291148 0.17451993
-0.29171076 -0.121136434 0.09361915 -0.012702205 0.13817751 -0.4206778 0.03491469 0.36113465
-0.2207265 -0.0492697 -0.17516749 0.054969933 -0.0051515233 -0.12023379 0.039075036 0.0042565404
0.09685709 0.12800817 -0.167929 0.0338677 0.2548195 0.10101857 0.51644194 -0.07849449
0.042731978 0.124975234 0.01931968 -0.10374878 -0.048105482 -0.05507543 -0.14126882 0.24134031
-0.044526465 0.08772434 0.021599073 0.18187474 0.12202967 -0.17016597 -0.3530695 -0.027379528
-0.05642435 0.14727938 -0.13736144 -0.074110955 -0.21982707 -0.1871459 -0.0013188873 0.21077092
-0.08521966 -0.08714984 -0.33630535 0.52116144 -0.20908828 0.47793972 -0.44983616 -0.24384195
-0.0002783599 -0.22282645 -0.078265324 -0.121432684 -0.002101331 0.014980982 -0.09029245 0.19591407
0.4116528 0.19570073 -0.08143368 0.013990062 -0.2580171 -0.226127 0.448345 -0.38330486
-0.03651451 -0.011395785 -0.11947709 -0.08668925 -0.19206038 -0.22797236 0.10407511 -0.16808116
-0.11491235 0.05024 0.07301229 -0.04664362 -0.106195986 -0.3139873 -0.5030959 0.12354797
-0.27358666 0.14857422 0.22957437 -0.34249392 0.023978459 0.22542325 0.05992273 0.21358043
-0.17553423 -0.35672566 0.09349878 0.10609987 -0.062066723 -0.11981257 -0.10259694 0.14337662
-0.13560407 -0.15976661 0.13475168 0.64263797 0.32737812 -0.004384314 0.10652868 -0.053048354
0.07100995 -0.2001319 0.39057565 -0.3446678 0.04142891 0.28820124 0.17786324 0.4631657
0.18582454 -0.27187932 0.488416 0.2573292 -0.04364964 0.11827621 -0.09642694 -0.06486922
0.39083266 -0.030472597 -0.2362065 0.10737766 -0.2772836 0.11719789 0.34492096 0.27981275
0.16885923 -0.094649754 0.011887911 -0.100287825 0.01724879 -0.22960228 0.15568645 0.07214907
-0.036381375 -0.18665543 -0.19566838 -0.09515942 -0.010630998 -0.29785767 -0.09419254 0.031876236
-0.06432111 -0.0008104117 0.5387849 0.06048966 -0.13247563 -0.36306387 0.13173689 -0.13147177
-0.20000474 0.3255916 0.3348001 0.12943487 0.13763194 -0.21347657 0.08857419 0.21727031
0.033480797 -0.29294285 0.054994382 -0.030878218 0.33967724 -0.13467826 0.12415387 -0.10465511
0.46391684 -0.03021744 0.12247877 0.053362574 0.0250444 0.0065481435 -0.09346653 0.15424056
0.017744092 -0.23094341 0.0051234527 0.27760252 -0.26537448 0.22948863 -0.18664338 0.09496805
00000000: e2bc bdbd 4933 50be 4c3b 0c3e 1824 f3be
00000010: f8a6 3fbf 4763 08bd 8b13 b53e 5a3e 103d
00000020: a743 c93d 0f48 a6be d6ba 4bbd 4143 26be
00000030: 3edd a43e 3f02 93be 520e a0bd c1fc a43e
00000040: ef42 e43d aac8 e3bd e286 783e a079 95bd
00000050: 9db7 20be b4b7 ac3d 18ad 57be c0d0 c93d
00000060: 2a79 1abe b6dc dcbd 61f8 89bd 126e 81be
00000070: bd82 43be 0e4f a8bd a39a cebd 71e5 713e
00000080: e212 6e3e 83e0 42be db8b f83d 61a5 62bd
00000090: 1f51 76be c093 ccbd 23a8 57ba ba08 f53d
000000a0: e005 6b3e edf4 dfbe 23c3 053e ed0d 483d
000000b0: a058 a23e 972d b13d d9f7 4e3e 5e9d 82bd
000000c0: 47ec f23e a95c 953e daa3 aa3d 6fc9 38be
000000d0: c743 543e 55a9 423e 2223 e83d 18a9 f53e
000000e0: 8fe5 be3e ad16 acbd 6452 993e ff10 c93d
000000f0: 22e7 eb3d 6b8d 183e d494 1c3e 5ab5 323e
00000100: 1d5b 95be 6116 f8bd 66bb bf3d e91c 50bc
00000110: 687e 0d3e 1563 d7be b502 0f3d a4e6 b83e
00000120: 2106 62be 06cf 49bd 1b5f 33be 2728 613d
00000130: 1cce a8bb 223d f6bd 250d 203d 737a 8b3b
00000140: 035d c63d 9314 033e 94f5 2bbe dbb8 0a3d
00000150: b477 823e d3e2 ce3d 8a35 043f b8c1 a0bd
00000160: ba07 2f3d 04f3 ff3d 4e44 9e3c 3e7a d4bd
00000170: 410a 45bd c696 61bd c6a8 10be ea21 773e
00000180: 6261 36bd d2a8 b33d 8af0 b03c 5f3d 3a3e
00000190: b1ea f93d fd3f 2ebe 87c5 b4be 084b e0bc
000001a0: 381d 67bd 68d0 163e 7aa8 0cbe 7cc7 97bd
000001b0: 591a 61be 2da3 3fbe 84de acba 55d4 573e
000001c0: a587 aebd 9e7b b2bd 3730 acbe d66a 053f
000001d0: 3d1b 56be 84b4 f43e ed50 e6be b4b1 79be
000001e0: d5f0 91b9 9e2c 64be 9249 a0bd b3b1 f8bd
000001f0: 7cb6 09bb cb72 753c 3feb b8bd b39d 483e
00000200: 28c4 d23e c665 483e b4c6 a6bd 9336 653c
00000210: d11a 84be d68d 67be 7a8d e53e 8940 c4be
00000220: 3d90 15bd 63b5 3abc 68b0 f4bd 228a b1bd
00000230: 7aab 44be 9671 69be 5525 d53d 781d 2cbe
00000240: 2b57 ebbd 75c8 4d3d 7887 953d 610d 3fbd
00000250: 487d d9bd f2c2 a0be e5ca 00bf b806 fd3d
00000260: 8d13 8cbe d723 183e 8b15 6b3e 5d5b afbe
00000270: 796e c43c 5ad5 663e 8971 753d d4b4 5a3e
00000280: 3fbf 33be bfa4 b6be 4a7c bf3d e34a d93d
00000290: ad39 7ebd 4b60 f5bd 581e d2bd 52d1 123e
000002a0: cbdb 0abe dc99 23be 58fc 093e ec83 243f
000002b0: 1b9e a73e 4baa 8fbb b52b da3d 3b49 59bd
000002c0: aa6d 913d 60ef 4cbe 88f9 c73e 4c78 b0be
000002d0: 5cb1 293d 1d8f 933e c821 363e 0e24 ed3e
000002e0: ca48 3e3e c433 8bbe a911 fa3e a7c0 833e
000002f0: f7c9 32bd cc3a f23d 7d7b c5bd 27da 84bd
00000300: 381b c83e aba1 f9bc 1ee0 71be d2e8 db3d
00000310: 1ef8 8dbe 7305 f03d 7b99 b03e 9e43 8f3e
00000320: 6fe9 2c3e bbd7 c1bd 83c5 423c b463 cdbd
00000330: 564d 8d3c dc1c 6bbe 456c 1f3e e4c2 933d
00000340: a304 15bd 9a22 3fbe 4b5d 48be f1e2 c2bd
00000350: a32d 2ebc cd80 98be 05e8 c0bd a890 023d
00000360: c9ba 83bd cf71 54ba cfed 093f 01c4 773d
00000370: b1a7 07be 82e3 b9be 09e6 063e 89a0 06be
00000380: 0bce 4cbe f1b3 a63e eb6a ab3e 938a 043e
00000390: 63ef 0c3e 9a99 5abe 6366 b53d 1c7c 5e3e
000003a0: 2923 093d 9bfc 95be ca41 613d 51f4 fcbc
000003b0: 2dea ad3e 19e9 09be 6244 fe3d 6b55 d6bd
000003c0: 8286 ed3e 918a f7bc 26d6 fa3d b792 5a3d
000003d0: ea29 cd3c cf91 d63b 616b bfbd 3df1 1d3e
000003e0: 0f5c 913c 6e7c 6cbe a3e2 a73b eb21 8e3e
000003f0: 2adf 87be 11ff 6a3e 711f 3fbe 9c7e c23d

lstm.bias_ih_l0 f4 [256]
-0.03533979 0.052025728 -0.057179023 -0.08406048 0.105487995 -0.034010462 -0.17100915 -0.10961712
0.08712403 -0.38545886 0.025574459 -0.10360575 0.04997858 0.008352998 -0.23188712 0.029335637
0.13542426 -0.20354706 0.064762115 -0.1977593 0.032977294 -0.091867 0.07076606 -0.22882257
0.06999389 -0.12422678 -0.1836374 0.10755202 -0.18035768 -0.014531372 -0.02486307 -0.15342544
0.045067694 -0.21124205 0.16056308 0.09945295 -0.040985774 -0.01036015 -0.18322395 0.040411152
-0.14129195 -0.17212212 -0.041884653 -0.13204126 -0.16343166 0.017669447 0.3437503 -0.28198308
-0.20994864 0.012218268 -0.15843368 0.028977461 -0.13211526 -0.21003857 -0.04501092 -0.2276493
-0.08673609 0.00946468 -0.010561068 -0.16295938 -0.20823899 -0.13976522 0.1148641 -0.071750164
0.0788191 0.114992134 0.27232927 -0.087410584 0.12141485 0.18520573 -0.0016274855 0.13967225
-0.07226426 -0.036245335 -0.051862296 0.15329301 0.094905086 0.16780654 0.41731802 -0.046860646
0.10824346 0.04386723 0.31712282 -0.091029994 0.17948216 0.31816247 0.015278811 0.028816536
0.06735817 0.07610028 0.14057863 0.050442133 0.2591197 -0.13039777 -0.07626166 0.21173269
-0.05264471 0.08523751 0.10958116 0.22390458 0.07740584 0.045554016 0.025722198 0.07881309
0.17437534 0.2417431 0.12571311 0.027515374 0.106774874 0.03225157 -0.08861636 0.15561432
0.036510173 -0.07501141 0.09167756 -0.0011186744 -0.11472597 -0.011789377 0.04269085 0.15628397
0.024489718 0.105058745 -0.019928692 0.11747823 -0.023668068 0.06490523 0.14570911 -0.06771442
0.16038828 -0.059759572 0.037580952 0.091253355 0.15798171 -0.06316056 -0.06654096 -0.042315975
0.16560729 0.09369742 -0.17532906 0.02624082 -0.15268265 -0.12635587 -0.012546487 -0.17433207
-0.13983865 -0.013723151 0.08046674 0.02700136 -0.13154294 0.13694179 -0.054409515 0.11965494
-0.094724305 -0.044339668 0.030064667 -0.009564683 0.028923102 0.1264938 0.137944 -0.014776002
-0.057153974 0.040823407 -0.0057660383 -0.18734136 -0.11639923 -0.14052133 0.022664014 -0.08130865
0.057402607 0.13813868 -0.17025849 -0.08204214 -0.051031876 -0.1657979 0.22857322 -0.14406359
-0.1330149 0.124663204 -0.10899735 -0.021799048 0.03352435 0.033719376 -0.11336968 0.10499846
0.017656473 -0.04074307 -0.02905621 0.0829455 -0.10915206 -0.10874513 -0.008926143 0.14122844
-0.023982147 -0.020551104 0.09963817 -0.06819063 0.14389062 0.068939336 0.19014257 -0.040481593
-0.006383977 -0.0065528913 -0.02822985 -0.09550302 -0.09032784 0.19692071 0.16931903 0.04721521
-0.050690677 -0.13427266 0.2513938 -0.10497908 0.11971878 -0.0933737 0.00090776314 0.003250138
0.029311255 -0.04029943 -0.13348363 -0.04908788 0.066350214 0.01703482 -0.054119807 -0.1585731
0.115921736 -0.017868994 0.24220437 0.27678418 0.038254593 0.06964547 -0.04902249 -0.05956513
0.13565215 0.26503554 -0.08245787 -0.026668351 -0.035331223 -0.0459577 0.44112152 0.07065427
0.14251639 0.15686668 -0.09092628 -0.07784731 0.046106067 0.18183638 0.0719406 -0.120317675
0.015323665 0.19941415 0.088725634 0.17560947 0.15419748 0.14135782 0.09055708 -0.026988676
00000000: 75c0 10bd ee18 553d 8d34 6abd e727 acbd
00000010: 170a d83d 8e4e 0bbd 061d 2fbe f17e e0bd
00000020: 156e b23d dd5a c5be 8781 d13c 402f d4bd
00000030: 57b6 4c3d 03db 083c d173 6dbe 4a51 f03c
00000040: a8ac 0a3e a46e 50be 00a2 843d 6a81 4abe
00000050: 3313 073d c424 bcbd cced 903d 7750 6abe
00000060: f558 8f3d 9c6a febd 710b 3cbe 3c44 dc3d
00000070: afaf 38be fe14 6ebc a3ad cbbc 8f1b 1dbe
00000080: e798 383d d64f 58be a66a 243e fdad cb3d
00000090: b3e0 27bd 9ebd 29bc 0f9f 3bbe 2a86 253d
000000a0: d6ae 10be c840 30be 3e8f 2bbd d335 07be
000000b0: a15a 27be 84bf 903c 0a00 b03e 1660 90be
000000c0: c7fc 56be 212f 483c 703c 22be 2462 ed3c
000000d0: 3949 07be 5a14 57be 5f5d 38bd e61c 69be
000000e0: b1a2 b1bd bf11 1b3c 5408 2dbc d3de 26be
000000f0: 9a3c 55be 9d1e 0fbe df3d eb3d c0f1 92bd
00000100: e96b a13d ff80 eb3d be6e 8b3e 5204 b3bd
00000110: 59a8 f83d 92a6 3d3e 5a51 d5ba 3e06 0f3e
00000120: 49ff 93bd fd75 14bd 8f6d 54bd d8f8 1c3e
00000130: 995d c23d 7ad5 2b3e b5aa d53e f3f0 3fbd
00000140: bfae dd3d 20ae 333d ec5d a23e ef6d babd
00000150: 2cca 373e 31e6 a23e fa53 7a3c a810 ec3c
00000160: 15f3 893d 77da 9b3d d8f3 0f3e 699c 4e3d
00000170: 56ab 843e fe86 05be 132f 9cbd 74d0 583e
00000180: fba1 57bd 0191 ae3d 166c e03d 3e47 653e
00000190: f486 9e3d d996 3a3d 5cb7 d23c c268 a13d
000001a0: 738f 323e 818b 773e f0ba 003e ec67 e13c
000001b0: c9ac da3d 391a 043d 7f7c b5bd 5c59 1f3e
000001c0: b18b 153d 959f 99bd 72c1 bb3d 7ca0 92ba
000001d0: 73f5 eabd 3b28 41bc 9adc 2e3d e808 203e
000001e0: a99e c83c 0a29 d73d 7f41 a3bc 6d98 f03d
000001f0: 89e3 c1bc 09ed 843d c534 153e dcad 8abd
00000200: d33c 243e 74c6 74bd 7cee 193d 0ae3 ba3d
00000210: f5c5 213e 535a 81bd a046 88bd 8453 2dbd
00000220: f594 293e 6fe4 bf3d 7689 33be fdf6 d63c
00000230: d758 1cbe 6f63 01be c88f 4dbc 1b84 32be
00000240: dd31 0fbe 11d7 60bc bfcb a43d f531 dd3c
00000250: 31b3 06be 783a 0c3e 83dc 5ebd a60d f53d
00000260: d1fe c1bd 839d 35bd 2d4a f63c 30b5 1cbc
00000270: 24f0 ec3c 9787 013e 3141 0d3e 0b17 72bc
00000280: 491a 6abd 7236 273d 09f1 bcbb 6ad6 3fbe
00000290: b862 eebd d3e4 0fbe e2a9 b93c 2685 a6bd
000002a0: ff1e 6b3d 3a74 0d3e 3e58 2ebe b605 a8bd
000002b0: cd06 51bd edc6 29be 190f 6a3e 6885 13be
000002c0: 0f35 08be 6c4f ff3d 013a dfbd eb93 b2bc
000002d0: d450 093d 541d 0a3d 5d2e e8bd 6f09 d73d
000002e0: 4fa4 903c 35e2 26bd 4a07 eebc 55df a93d
000002f0: 1d8b dfbd c4b5 debd f53e 12bc 309e 103e
00000300: 3576 c4bc ca5a a8bc 190f cc3d 87a7 8bbd
00000310: 1058 133e 1130 8d3d bcb4 423e 07d0 25bd
00000320: ae30 d1bb a3b9 d6bb 4942 e7bc 1697 c3bd
00000330: cdfd b8bd 95a5 493e f861 2d3e bc64 413d
00000340: 07a1 4fbd c67e 09be b0b6 803e 46ff d6bd
00000350: 1f2f f53d b63a bfbd f4f6 6d3a 4400 553b
00000360: 281e f03c 0411 25bd efaf 08be 5f10 49bd
00000370: 9fe2 873d 9b8c 8b3c bbac 5dbd fd60 22be
00000380: 6068 ed3d ff61 92bc 6c04 783e a8b6 8d3e
00000390: d9b0 1c3d 49a2 8e3d cecb 48bd 91fa 73bd
000003a0: 66e8 0a3e bdb2 873e acdf a8bd 9677 dabc
000003b0: 79b7 10bd 243e 3cbd aeda e13e 30b3 903d
000003c0: d1ef 113e a9a1 203e 8f37 babd 696e 9fbd
000003d0: b7d9 3c3d 5133 3a3e 9855 933d 1d69 f6bd
000003e0: 1c10 7b3c 3933 4c3e c9b5 b53d f8d2 333e
000003f0: f2e5 1d3e 1bc0 103e fe75 b93d 5b17 ddbc

lstm.bias_hh_l0 f4 [256]
-0.0038379352 -0.13523616 -0.024042679 -0.0058155605 -0.035860673 -0.038345706 -0.17460327 -0.051457062
-0.09507252 -0.2453552 -0.060234305 -0.13836044 -0.041823827 -0.11310326 -0.17495269 -0.0017937598
-0.03036474 -0.20022136 -0.065185346 -0.10140091 0.028747795 -0.24020463 0.04919712 -0.12999403
0.05951972 -0.078382 -0.27707115 -0.049168482 -0.23841126 -0.12999755 0.053690758 0.07588436
-0.08895479 -0.109526426 0.13016361 0.061268035 0.01683672 -0.011870635 -0.049492016 0.008964029
-0.19119388 -0.20140263 -0.14087613 -0.13000533 -0.08955364 0.0069724615 0.26150173 -0.18551993
-0.17951289 0.06584701 -0.1528885 -0.16575745 -0.2090699 -0.17067592 0.05048173 -0.16234602
-0.071428634 -0.043687463 -0.13728692 -0.1340356 -0.2099389 0.053253725 -0.0654566 -0.101649635
-0.06250484 0.18589354 0.247014 -0.1270323 0.087691866 0.1906318 -0.06343443 0.14523865
-0.13183671 0.08407144 -0.0811789 0.19379926 -0.09011969 0.042915475 0.4200489 -0.11088665
0.14732477 -0.1113342 0.10537064 0.06528238 0.15923592 0.35279688 0.018683052 0.033913232
-0.05703903 -0.024981236 0.0878727 0.015935091 0.2752376 -0.14296739 -0.16593534 0.16362008
0.1948986 0.1306943 0.0004274134 0.26412272 0.17808497 0.2593165 0.059560858 -0.017459052
0.15230785 0.17363584 -0.11149034 0.052346174 0.06910216 0.13601156 -0.25022066 0.0726894
0.096574016 -0.10541008 0.049033087 -0.027648501 0.04833555 -0.04266368 -0.04094583 0.1122394
0.016912919 0.19333225 0.11585484 0.13267267 0.13928694 -0.068519 0.11938925 0.12009414
0.025728043 -0.03609559 -0.13146165 0.110966526 0.17900236 0.03626932 0.051091492 -0.084953114
-0.030485686 -0.056014962 -0.17325856 -0.10795824 -0.00836559 0.019273896 -0.22721262 -0.045107346
-0.12417313 0.090635836 0.030511701 -0.04675297 -0.1419957 0.08115598 -0.014296357 -0.09252004
-0.05683445 0.06576694 0.10741489 -0.13867567 0.11678858 0.15401852 0.07528851 0.03677497
-0.10604103 0.03025182 -0.21736817 -0.08390492 -0.019904908 -0.1361909 0.017138608 -0.041047476
-0.022440605 0.04471006 -0.064736366 -0.08795728 -0.022501864 -0.11021284 0.13245565 -0.14903322
0.08686159 -0.093414925 -0.042255867 -0.19769076 0.020492362 0.039766766 -0.026176013 0.029669978
0.007533035 0.04514503 0.033118088 0.096133836 -0.07535375 0.063584805 -0.21863255 0.13165495
-0.06543725 0.113575354 -0.0615185 0.09638804 0.13421361 -0.12270351 -0.024636762 0.026028747
0.12410968 -0.037804738 0.028800856 0.031970307 -0.06059643 0.07348302 0.0012177094 0.021761915
0.1688093 -0.1202593 0.25295985 -0.017898502 -0.010359989 0.00029342627 0.07155708 -0.010496833
-0.00037008617 0.06942909 0.0761051 0.11738238 0.16937916 -0.08595364 -0.061860006 -0.010327701
0.03531703 -0.12256072 0.24867654 0.11394424 0.039867476 -0.07647007 -0.00044821942 0.09405067
0.10772756 0.13107586 -0.115896724 -0.061866317 -0.051125184 -0.053187963 0.39088783 0.12971728
-0.0052137347 0.07159893 0.10841826 0.08731763 0.015304641 0.04605199 0.105533294 -0.09055675
-0.046363458 0.14369072 0.15316206 0.1624105 0.07624152 0.08054833 0.13115647 0.004553756
00000000: de85 7bbb 597b 0abe 27f5 c4bc 7590 bebb
00000010: a4e2 12bd 6310 1dbd 33cb 32be a4c4 52bd
00000020: 62b5 c2bd 653e 7bbe 3fb8 76bd 5cae 0dbe
00000030: 764f 2bbd afa2 e7bd cc26 33be 971c ebba
00000040: 7abf f8bc d406 4dbe e57f 85bd 48ab cfbd
00000050: 7f80 eb3c 34f8 75be eb82 493d 281d 05be
00000060: f3ca 733d be86 a0bd 45dc 8dbe e464 49bd
00000070: 1522 74be 141e 05be d7ea 5b3d 4269 9b3d
00000080: ee2d b6bd 644f e0bd 9c49 053e 31f4 7a3d
00000090: 29ed 893c 0d7d 42bc 24b8 4abd dddd 123c
000000a0: 54c8 43be 7e3c 4ebe d541 10be 1e20 05be
000000b0: e667 b7bd 3f79 e43b 8ee3 853e f0f8 3dbe
000000c0: 3ad2 37be ccda 863d ce8e 1cbe 52bc 29be
000000d0: 6b16 56be abc5 2ebe eec5 4e3d 093e 26be
000000e0: 2d49 92bd a0f1 32bd f194 0cbe a140 09be
000000f0: 39fa 56be 9420 5a3d 1c0e 86bd af2d d0bd
00000100: 8a02 80bd e05a 3e3e 3df1 7c3e c114 02be
00000110: cb97 b33d fc34 433e e9e9 81bd 71b9 143e
00000120: 3400 07be a62d ac3d 2041 a6bd 5073 463e
00000130: ac90 b8bd 23c8 2f3d a610 d73e 8a18 e3bd
00000140: 4edc 163e 2f03 e4bd 90cc d73d c5b2 853d
00000150: be0e 233e cba1 b43e 330d 993c 9ae8 0a3d
00000160: c2a1 69bd 73a5 ccbc 9af6 b33d 4f8a 823c
00000170: f1eb 8c3e 0b66 12be f4ea 29be 068c 273e
00000180: 8093 473e bad4 053e 7516 e039 183b 873e
00000190: e85b 363e 22c5 843e 16f6 733d 4906 8fbc
000001a0: 97f6 1b3e 98cd 313e 0c55 e4bd f168 563d
000001b0: 6f85 8d3d 9d46 0b3e ec1c 80be 2ede 943d
000001c0: 99c8 c53d 3de1 d7bd ebd6 483d 1c7f e2bc
000001d0: 7ffb 453d 1cc0 2ebd d1b6 27bd c5dd e53d
000001e0: f68c 8a3c e4f8 453e 4d45 ed3d 58db 073e
000001f0: 3ca1 0e3e b153 8cbd 5a82 f43d ebf3 f53d
00000200: 9ec3 d23c f8d8 13bd e29d 06be 6b42 e33d
00000210: 654c 373e 238f 143d 5045 513d e6fb adbd
00000220: 1ebd f9bc f26f 65bd b16a 31be 3619 ddbd
00000230: d40f 09bc 4ae4 9d3c 6daa 68be 7bc2 38bd
00000240: 7b4e febd 489f b93d adf3 f93c 0b80 3fbd
00000250: 5267 11be 1b35 a63d 443b 6abc 267b bdbd
00000260: 3ecb 68bd d1b0 863d 56fc db3d ff00 0ebe
00000270: da2e ef3d 08b7 1d3e dd30 9a3d 5aa1 163d
00000280: 0a2c d9bd aad2 f73c c395 5ebe 58d6 abbd
00000290: 9e0f a3bc a175 0bbe 4466 8c3c 6621 28bd
000002a0: 5cd5 b7bc e521 373d 8094 84bd f222 b4bd
000002b0: d455 b8bc 45b7 e1bd 74a2 073e 2a9c 18be
000002c0: 7de4 b13d 5350 bfbd 7d14 2dbd 726f 4abe
000002d0: 99df a73c 7ae2 223d 146f d6bc 740e f33c
000002e0: add7 f63b ffe9 383d d5a6 073d d1e1 c43d
000002f0: 1153 9abd c038 823d 36e1 5fbe 8ed0 063e
00000300: f703 86bd 329a e83d d3fa 7bbd 1867 c53d
00000310: 4b6f 093e fa4b fbbd 09d3 c9bc 3d3a d53c
00000320: 372d fe3d 24d9 1abd c6ef eb3c 4cf3 023d
00000330: f633 78bd 447e 963d 8c9b 9f3a 0b46 b23c
00000340: 58dc 2c3e 824a f6bd f483 813e e19f 92bc
00000350: f1bc 29bc 02d7 9939 858c 923d e9fa 2bbc
00000360: 2008 c2b9 d730 8e3d fedc 9b3d 2c66 f03d
00000370: bb71 2d3e 7608 b0bd eb60 7dbd 8535 29bc
00000380: 97a8 103d 1d01 fbbd 10a5 7e3e 995b e93d
00000390: 144c 233d 579c 9cbd fefe eab9 a39d c03d
000003a0: 44a0 dc3d c038 063e 435b edbd 8967 7dbd
000003b0: a468 51bd 9fdb 59bd 7322 c83e 9bd4 043e
000003c0: fad7 aabb 76a2 923d 650a de3d 96d3 b23d
000003d0: 51c0 7a3c 03a1 3c3d d721 d83d d175 b9bd
000003e0: 9ce7 3dbd a923 133e 84d6 1c3e f04e 263e
000003f0: 8424 9c3d 86f6 a43d e24d 063e ad37 953b

lstm.weight_ih_l1 f4 [256, 64]
-0.0070728646 -0.15002584 0.0241572 0.025005953 0.09394209 0.17491265 -0.25639498 -0.11508006
-0.061707813 -0.07000115 0.113948554 0.123259746 0.051369283 0.14957374 -0.2728553 0.15406744
-0.25545335 0.25428388 0.0057120933 0.19628853 -0.37415323 0.105309255 0.06453882 -0.15183304
-0.25976965 0.047370926 -0.29438114 -0.28732616 0.11328275 0.35618547 0.3568128 -0.25931233
-0.22015588 -0.111765444 -0.22241709 -0.20496316 -0.012561565 -0.05618478 0.17229901 0.1276002
-0.000971837 -0.25759426 0.06854675 -0.06302121 0.09058457 -0.19190414 0.019348158 -0.19012034
0.03774015 0.22474359 -0.16119976 -0.21093477 -0.06580256 0.28009173 -0.08110023 0.1941826
-0.16592327 -0.065962166 0.27804014 0.6310065 -0.18593375 0.30558395 -0.19483404 0.3983087
0.077529274 -0.0059663225 0.20151748 -0.39729336 -0.009517867 -0.17938855 0.19926389 0.35845497
0.21778515 0.22865638 -0.19763543 0.046088204 -0.4042046 0.084528394 -0.067017324 -0.15828525
-0.048091896 -0.04667436 0.043669406 -0.3209961 -0.25410375 0.112517275 -0.054556724 -0.3507389
0.18560241 -0.1591401 -0.17404436 -0.17435002 -0.2314129 0.013911583 -0.11172349 0.031757977
0.15149562 -0.07967639 0.21826515 0.007998296 -0.28423515 0.097549364 0.101408236 -0.36132795
0.35492784 -0.15542072 -0.1318711 0.0022298694 0.45640704 0.13233808 0.003788506 0.1291126
-0.1814004 -0.17992257 0.18777329 -0.15592624 0.21840195 0.5002652 -0.10580255 0.2157686
0.051111303 -0.14732313 -0.06834868 0.036726397 0.26215157 0.3085423 -0.019887745 0.08482054
0.31596875 0.13741559 -0.25269055 0.11227094 -0.03422784 0.2369332 0.40227184 0.050200935
-0.48822582 0.05747485 -0.03182092 0.22326924 0.77615225 0.05037936 -0.21418963 0.22258392
-0.1529259 -0.2525873 -0.3206288 -0.08506277 -0.20314969 0.12491776 -0.5558391 -0.40793762
0.15997343 0.03919845 -0.16349874 -0.5745932 0.15679276 0.895862 0.053379845 -0.23354761
0.06903404 0.14090851 -0.21173015 0.17585157 0.1004155 -0.18265769 0.22108173 -0.07793668
0.037944056 -0.46339008 -0.04897712 -0.2780091 -0.6430274 -0.0027828394 -0.113517426 -0.043813232
-0.35474485 -0.15080157 0.3937945 0.13704468 -0.049539495 -0.0644935 -0.04449443 0.24349803
0.41267633 0.028985478 0.18423367 0.4104127 -0.26536068 0.15382142 -0.14048493 0.52402335
-0.103181936 0.31523156 0.06542952 -0.21018793 0.2063692 0.156691 -0.21338305 0.33356273
0.14962994 -0.12121794 0.18782227 0.053680353 -0.16998997 -0.1822405 -0.11946439 0.24435946
-0.044463 0.38238275 0.4023357 -0.19257094 0.053972073 0.018047083 0.31485838 -0.28789777
-0.2159584 -0.01106513 -0.13300705 0.34762543 -0.24635507 0.086321145 -0.095319144 -0.15490331
-0.09482598 -0.3552801 0.08449381 -0.06056108 -0.32324994 -0.17165472 0.15327941 -0.17823318
-0.19285406 0.12084922 0.13166066 0.23101686 0.0707682 -0.2575194 -0.05654307 -0.15922065
-0.26140133 -0.0903855 -0.23689796 -0.05452038 0.0067253225 -0.08740573 0.039930753 -0.078985274
-0.07687398 -0.09973108 0.009979442 -0.23152214 0.11594693 -0.23805124 0.18108322 0.14125219
00000000: 7dc3 e7bb 60a0 19be 52e5 c53c 49d9 cc3c
00000010: b664 c03d 4d1c 333e 3446 83be 18af ebbd
00000020: 55c1 7cbd c35c 8fbd dc5d e93d 9b6f fc3d
00000030: 9968 523d dc29 193e b1b3 8bbe dbc3 1d3e
00000040: c8ca 82be 7f31 823e 832c bb3b dcff 483e
00000050: 0391 bfbe 61ac d73d ee2c 843d 1f7a 1bbe
00000060: 8700 85be 0408 423d 20b9 96be 6a1c 93be
00000070: c900 e83d f15d b63e 2bb0 b63e 96c4 84be
00000080: 8b70 61be 48e5 e4bd 4ec1 63be dde1 51be
00000090: 06cf 4dbc 0322 66bd 276f 303e a0a9 023e
000000a0: e1c2 7eba 65e3 83be 3d62 8c3d 4411 81bd
000000b0: 6784 b93d 8582 44be 0780 9e3c e8ae 42be
000000c0: 6a95 1a3d 2f23 663e 8d11 25be 49ff 57be
000000d0: 7ec3 86bd 2f68 8f3e e117 a6bd ced7 463e
000000e0: cae7 29be 2c17 87bd 475b 8e3e a489 213f
000000f0: 6b65 3ebe 8075 9c3e 9382 47be 1eef cb3e
00000100: abc7 9e3d 2481 c3bb 995a 4e3e 096a cbbe
00000110: d4f0 1bbc a2b1 37be d50b 4c3e 6987 b73e
00000120: 1203 5f3e e624 6a3e f160 4abe fcc6 3c3d
00000130: e8f3 cebe 391d ad3d 6140 89bd 8715 22be
00000140: 02fc 44bd 9d2d 3fbd b1de 323d 9a59 a4be
00000150: e319 82be 756f e63d df76 5fbd 0d94 b3be
00000160: 8f0e 3e3e 9ff5 22be af38 32be d088 32be
00000170: 81f7 6cbe 69ed 633c 49cf e4bd a714 023d
00000180: ab21 1b3e 602d a3bd e680 5f3e 490b 033c
00000190: 4587 91be f6c7 c73d 1faf cf3d faff b8be
000001a0: 1ab9 b53e 9c26 1fbe 3809 07be 0023 123b
000001b0: 2fae e93e a283 073e 9548 783b 1836 043e
000001c0: 07c1 39be 9f3d 38be a447 403e 21ab 1fbe
000001d0: c3a4 5f3e 6111 003f 02af d8bd 72f2 5c3e
000001e0: 165a 513d e0db 16be 65fa 8bbd 6b6e 163d
000001f0: bb38 863e 42f9 9d3e a0eb a2bc 64b6 ad3d
00000200: a8c6 a13e acb6 0c3e a860 81be 4eee e53d
00000210: 7e32 0cbd 9e9e 723e 93f6 cd3e 7f9f 4d3d
00000220: bcf8 f9be c06a 6b3d a756 02bd b1a0 643e
00000230: eab1 463f 965a 4e3d 8754 5bbe 0aed 633e
00000240: 9b98 1cbe 1f53 81be 7529 a4be 6435 aebd
00000250: 7906 50be e2d4 ff3d 794b 0ebf 33dd d0be
00000260: 13d0 233e 8e8e 203d 376c 27be 8a18 13bf
00000270: 488e 203e 3657 653f d3a4 5a3d 1b27 6fbe
00000280: b861 8d3d 524a 103e cacf 58be 6f12 343e
00000290: a4a6 cd3d 9e0a 3bbe 4063 623e 449d 9fbd
000002a0: 3a6b 1b3d 7741 edbe 3c9c 48bd 3557 8ebe
000002b0: 729d 24bf 4c60 36bb d37b e8bd 8175 33bd
000002c0: 1ea1 b5be ba6b 1abe 6f9f c93e 7155 0c3e
000002d0: ede9 4abd 2b15 84bd cb3f 36bd 8c57 793e
000002e0: 504a d33e f472 ed3c c0a7 3c3e 9d21 d23e
000002f0: 5bdd 87be 5d83 1d3e 48db 0fbe 6526 063f
00000300: 0d51 d3bd 0866 a13e eaff 853d 813b 57be
00000310: 7352 533e 9b73 203e 1681 5abe bcc8 aa3e
00000320: 9738 193e 1c41 f8bd 7b54 403e eedf 5b3d
00000330: da11 2ebe 419d 3abe bfa9 f4bd 5e39 7a3e
00000340: d61e 36bd acc7 c33e f2fe cd3e 5131 45be
00000350: d211 5d3d 7ad7 933c 1e35 a13e 5667 93be
00000360: 3324 5dbe 854a 35bc 0033 08be f6fb b13e
00000370: 8144 7cbe 24c9 b03d af36 c3bd f99e 1ebe
00000380: 2034 c2bd 46e7 b5be 170b ad3d e50e 78bd
00000390: 0481 a5be 41c6 2fbe 47f5 1c3e c282 36be
000003a0: 897b 45be cc7f f73d 0dd2 063e af8f 6c3e
000003b0: ebee 903d 95d9 83be b599 67bd bd0a 23be
000003c0: 65d6 85be 081c b9bd 6195 72be c350 5fbd
000003d0: 1860 dc3b c601 b3bd 6e8e 233d 08c3 a1bd
000003e0: 1b70 9dbd cf3f ccbd d080 233c 2414 6dbe
000003f0: 9675 ed3d b4c3 73be e16d 393e 6aa4 103e

lstm.weight_hh_l1 f4 [256, 64]
0.036709994 0.31227714 0.012641338 0.43183395 -0.18991312 0.031122979 -0.2688008 -0.23237602
-0.013550905 0.34055218 0.053880002 0.21175437 -0.5284084 0.13701518 0.4162643 -0.269251
0.029717261 -0.2405263 0.34083265 -0.032217853 -0.014300699 -0.46772635 0.2244429 -0.00056163355
0.0013474644 -0.21280865 -0.4072297 0.27904505 0.0052772183 -0.0315466 -0.45590955 0.41333655
-0.35389674 -0.407081 -0.34566742 -0.09155623 0.14741391 -0.3115885 -0.08362239 0.43331856
-0.29620627 -0.5223056 -0.19053344 -0.10064102 -0.035522074 -0.07944126 -0.11271557 0.5012786
-0.5004868 -0.23226658 -0.13912636 -0.35839108 -0.42625803 -0.12997517 0.06311474 0.5028466
0.2271451 -0.18106225 -0.2003969 0.08418415 -0.19347729 0.13191171 -0.080109976 0.28908426
-0.30718508 -0.28335226 0.14211364 0.035997402 0.41955295 0.23241615 0.24242337 0.14126822
-0.10621393 0.24625914 -0.075789 -0.053675678 0.08589846 -0.35649043 0.034386724 -0.01617091
0.05257114 -0.095256485 0.09248472 -0.062317256 -0.36900964 -0.101404056 -0.038521778 -0.23109818
0.08705959 -0.050321285 0.18185054 -0.345758 -0.13753232 0.014564562 -0.058683015 -0.13453777
0.21978651 0.21934885 0.123435654 0.0061968532 -0.3793895 0.3803011 0.22193703 -0.018040162
0.20561475 0.21040013 0.21500257 0.24660632 0.14584985 -0.23602927 0.3724848 -0.11793829
0.098353505 0.07998059 -0.16691436 0.059885677 0.017950771 0.036230683 0.00525354 -0.08284683
-0.2385049 -0.03573708 0.06889444 -0.19219086 -0.1388399 0.18390834 0.23597385 -0.17241931
-0.028667862 -0.02865614 0.024949307 0.46948165 -0.25176886 -0.05597821 -0.021853752 -0.5824899
0.24839106 0.0049306555 -0.010986777 0.11905642 -0.30948463 0.06416089 0.31237036 -0.19052677
-0.21409245 -0.1568998 0.4332121 0.061659798 -0.38692257 0.08675738 0.19644243 -0.14636965
-0.14453566 -0.2949306 -0.5295044 0.0465949 -0.008632624 0.4474734 -0.13767098 0.36311385
-0.2045148 -0.5806751 0.0821565 0.33008438 -0.11641003 -0.3161489 -0.25583303 -0.00052780384
-0.374314 -0.39206353 -0.016500644 -0.11597204 -0.16857643 -0.26134306 -0.06656056 0.22338681
-0.24940158 -0.001278356 -0.013598037 -0.1927667 -0.08544437 -0.40935215 -0.23067494 0.32953063
0.6528183 -0.28507295 -0.40946323 -0.02627735 -0.040453 0.748571 0.028880816 0.5323016
-0.18180262 0.2666962 0.06850242 -0.05258845 0.057978053 0.17302568 0.113848865 -0.17706843
0.20175606 -0.34870845 0.14253691 -0.095675394 -0.08890853 -0.21439913 -0.07583675 0.049025226
0.056629848 0.029787311 -0.15582216 0.14538732 0.28563964 -0.15464784 -0.10650802 -0.13201588
-0.32712623 -0.074736245 -0.029209008 -0.099860474 -0.051701833 0.089628845 -0.034342546 0.06525824
0.16702916 -0.26894146 0.34943473 -0.15825209 0.1631322 0.03357862 0.22296077 0.1699547
0.15368795 0.2749794 0.07818315 -0.20202824 -0.17171015 0.055261135 0.23063388 0.070673205
0.20664339 -0.15808602 0.05294192 -0.055434443 -0.16464841 0.07031566 0.076209486 0.016639182
-0.1223171 -0.043741502 0.29600704 -0.41579562 0.22517641 0.0065810955 -0.059155542 -0.033022024
00000000: 385d 163d cae2 9f3e 9d1d 4f3c 5719 dd3e
00000010: 9678 42be 9ef5 fe3c 42a0 89be fbf3 6dbe
00000020: 9d04 5ebc db5c ae3e 47b1 5c3d 23d6 583e
00000030: c645 07bf b54d 0c3e 9820 d53e 44db 89be
00000040: 9d71 f33c 874c 76be 9e81 ae3e def6 03bd
00000050: 7b4d 6abc d479 efbe 5cd4 653e 973a 13ba
00000060: 679d b03a 83ea 59be 6980 d0be fede 8e3e
00000070: 84ec ac3b 0237 01bd fa6c e9be d9a0 d33e
00000080: f431 b5be ec6c d0be 52fb b0be d581 bbbd
00000090: acf3 163e 8788 9fbe 3742 abbd eedb dd3e
000000a0: 59a8 97be d2b5 05bf 331b 43be e11c cebd
000000b0: 987f 11bd 19b2 a2bd 6cd7 e6bd cb53 003f
000000c0: e71f 00bf 4ad7 6dbe 2477 0ebe 097f b7be
000000d0: 7e3e dabe 3618 05be 4d42 813d 8eba 003f
000000e0: ba98 683e 6268 39be d834 4dbe bd68 ac3d
000000f0: e91e 46be dd13 073e b310 a4bd da02 943e
00000100: 5d47 9dbe 8c13 91be 3d86 113e 0372 133d
00000110: a5cf d63e 80fe 6d3e d53d 783e 9ea8 103e
00000120: b086 d9bd 5b2b 7c3e 4337 9bbd 07db 5bbd
00000130: 88eb af3d ea85 b6be 18d9 0c3d db78 84bc
00000140: d654 573d d515 c3bd a168 bd3d 6140 7fbd
00000150: d5ee bcbe eeac cfbd 03c9 1dbd 00a5 6cbe
00000160: 4c4c b23d b11d 4ebd 0737 3a3e 3107 b1be
00000170: 46d5 0cbe 33a0 6e3c 9a5d 70bd 45c4 09be
00000180: b70f 613e fc9c 603e d5cb fc3d f90e cb3b
00000190: 573f c2be d3b6 c23e 7643 633e f6c8 93bc
000001a0: ac8c 523e 2273 573e a229 5c3e 5e86 7c3e
000001b0: aa59 153e a8b1 71be 54b6 be3e a189 f1bd
000001c0: 906d c93d ddcc a33d 99eb 2abe af4a 753d
000001d0: 7f0d 933c a066 143d e325 ac3b 99ab a9bd
000001e0: a13a 74be 0b61 12bd 8718 8d3d aecd 44be
000001f0: 0c2c 0ebe 7852 3c3e 21a3 713e b08e 30be
00000200: ddd8 eabc 48c0 eabc 7d62 cc3c e65f f03e
00000210: d9e7 80be 6849 65bd a406 b3bc 0f1e 15bf
00000220: 3a5a 7e3e 5691 a13b e201 34bc dad3 f33d
00000230: c574 9ebe c966 833d 02ef 9f3e 7319 43be
00000240: 0d3b 5bbe 57aa 20be facd dd3e fc8e 7c3d
00000250: b71a c6be daad b13d 3428 493e ede1 15be
00000260: 2801 14be 2501 97be 9a8d 07bf 4bda 3e3d
00000270: d96f 0dbc 3c1b e53e 9ff9 0cbe 0fea b93e
00000280: 546c 51be 20a7 14bf ab41 a83d d200 a93e
00000290: 6268 eebd 45de a1be 8cfc 82be 515c 0aba
000002a0: 16a6 bfbe 8dbc c8be 5c2c 87bc c082 edbd
000002b0: 4d9f 2cbe c2ce 85be e750 88bd 83bf 643e
000002c0: 2163 7fbe 828e a7ba 4dca 5ebc a264 45be
000002d0: 75fd aebd 9b96 d1be 0d36 6cbe 3db8 a83e
000002e0: 1a1f 273f 15f5 91be 2aa5 d1be 9943 d7bc
000002f0: 0cb2 25bd 59a2 3f3f 7697 ec3c eb44 083f
00000300: 772a 3abe 688c 883e ff4a 8c3d fd66 57bd
00000310: 657a 6d3d a52d 313e 9829 e93d 6d51 35be
00000320: 2499 4e3e ea89 b2be 32f5 113e 76f1 c3bd
00000330: ad15 b6bd 728b 5bbe 4c50 9bbd adce 483d
00000340: b3f4 673d 8504 f43c d88f 1fbe 6ae0 143e
00000350: 5c3f 923e 015c 1ebe e020 dabd 2c2f 07be
00000360: 177d a7be 510f 99bd bb47 efbc a683 ccbd
00000370: 4dc5 53bd 548f b73d c5aa 0cbd 1da6 853d
00000380: b109 2b3e b2b2 89be 1ce9 b23e d60c 22be
00000390: 210c 273e bc89 093d d44f 643e 9b08 2e3e
000003a0: 6060 1d3e 1aca 8c3e 7d1e a03d 7ee0 4ebe
000003b0: c9d4 2fbe 8059 623d 4a2b 6c3e 1dbd 903d
000003c0: 539a 533e 4de1 21be a0d9 583d 3a0f 63bd
000003d0: 9899 28be a801 903d b813 9c3d e54e 883c
000003e0: 6381 fabd 4a2a 33bd 3c8e 973e 2ae3 d4be
000003f0: a594 663e 3ba6 d73b 154d 72bd 1a42 07bd

lstm.bias_ih_l1 f4 [256]
0.33975562 -0.021450704 0.71792537 -0.32614738 -0.022965224 0.4127608 0.15347676 -0.12468412
-0.123409525 0.5730001 0.19177818 -0.07976546 0.031326026 0.468023 -0.04650676 -0.084614314
-0.21316032 -0.044786777 0.13025165 -0.059070565 0.053676583 0.13103805 0.47433394 0.21463618
-0.10651676 0.14837192 -0.1825414 0.11425218 -0.08651066 0.17190926 -0.14838232 0.0077183614
-0.16955864 0.009236789 -0.22955877 -0.06886347 -0.045272678 -0.20608863 0.10710823 -0.19749236
-0.09625335 0.11139383 -0.13702096 0.08632708 -0.11122708 0.092523076 0.21571623 -0.23153901
0.032252654 -0.08855181 -0.17958367 -0.0628854 0.046220917 -0.015336869 -0.1667163 -0.11886056
-0.060073283 0.22525814 0.12767062 0.5192406 0.3207733 0.081912115 -0.017283177 -0.16727172
-0.13903192 -0.01866271 -0.3401255 -0.021476697 -0.045421842 -0.34833848 -0.14474653 0.07101195
0.10061359 -0.28202364 -0.18418562 -0.044855468 0.15799634 -0.3940608 0.042777404 0.07524834
0.0083880145 -0.056443643 0.016135747 -0.04193122 0.08548471 0.20776059 -0.13289985 -0.13579963
-0.016285015 -0.14249092 0.012546841 -0.052230943 -0.013246177 0.016312601 0.18376803 0.19204573
0.13030776 -0.06129717 0.08805487 -0.16098613 0.40567523 -0.023895191 -0.17294735 0.065457866
-0.11377717 0.1042123 0.051371075 0.105176054 0.28488085 0.038999327 -0.13794637 0.09082316
0.2082933 0.03301744 -0.040281095 0.18774177 0.28942788 0.00871321 -0.028183537 -0.069392286
0.2331643 0.010618814 0.22305188 -0.388616 -0.32559565 -0.004671962 -0.00224714 0.03972309
-0.04455842 0.10051716 0.0585176 0.06211413 -0.10397429 -0.05274893 -0.11134043 -0.093769856
-0.04643347 0.1620929 0.05739912 0.10979137 -0.12385552 0.07855444 0.1014918 -0.056606743
-0.09052782 -0.1946234 0.16290784 0.024477998 -0.12779383 0.048159547 0.037786227 -0.17874745
-0.03226166 0.06761549 -0.1572134 0.056378264 0.19329642 0.133606 0.04215823 0.18307994
-0.19532752 -0.12022059 -0.037506163 0.098913126 0.010332768 -0.23917036 -0.03617934 -0.058553625
-0.21285328 -0.25743428 -0.09509968 0.0007209176 -0.085951336 -0.060380153 0.027358703 0.2083804
-0.21659884 0.040985804 -0.13914688 -0.09370617 -0.040220603 -0.12870765 -0.098375514 0.049684454
0.11294696 -0.015346002 -0.18103924 0.20966223 -0.060430557 -0.05620265 -0.04059276 0.21204984
0.20634228 -0.055496678 0.8423154 -0.19795358 -0.14898162 0.40130812 0.3081274 -0.17317107
-0.07838399 0.4805389 0.43249837 0.044001937 -0.078507066 0.7284913 -0.21551785 -0.11365386
-0.057220705 0.24028198 0.3059457 0.11178808 0.12515333 -0.18103094 0.64106065 0.31508088
0.025295451 0.16879869 -0.28412104 0.1155347 -0.025604745 0.055161428 -0.15750405 -0.035975475
0.108605534 -0.06893598 -0.22046249 0.15757391 -0.16885868 -0.09318628 0.02756386 -0.04872693
-0.0820284 0.02761559 -0.05903858 -0.07238218 -0.010983834 0.21539044 0.21133132 -0.2827185
-0.13016814 -0.11576252 -0.13700539 -0.033361927 0.05831452 -0.1246377 -0.0293349 -0.17155828
-0.117155276 0.077522166 -0.05193557 0.55520606 0.5820727 0.10206432 0.09956237 -0.07555746
00000000: 73f4 ad3e 63b9 afbc f5c9 373f cafc a6be
00000010: 9121 bcbc 6255 d33e 0329 1d3e 635a ffbd
00000020: 22be fcbd 22b0 123f 8061 443e 135c a3bd
00000030: b84f 003d b6a0 ef3e df7d 3ebd 454a adbd
00000040: b346 5abe 5772 37bd b060 053e faf3 71bd
00000050: fadb 5b3d d72e 063e e6db f23e 96c9 5b3e
00000060: 7625 dabd cfee 173e 22ec 3abe 0cfd e93d
00000070: 802c b1bd fb08 303e 89f1 17be 4fea fc3b
00000080: c8a0 2dbe e755 173c 7411 6bbe 4a08 8dbd
00000090: d86f 39bd e608 53be 8f5b db3d 703b 4abe
000000a0: 7a20 c5bd 7322 e43d 394f 0cbe 41cc b03d
000000b0: 06cb e3bd bd7c bd3d b7e4 5c3e 9018 6dbe
000000c0: 5c1b 043d a75a b5bd c8e4 37be 10ca 80bd
000000d0: 2552 3d3d 7e47 7bbc aeb7 2abe 2a6d f3bd
000000e0: 670f 76bd 12aa 663e 16bc 023e f4ec 043f
000000f0: 663c a43e 8ac1 a73d 7395 8dbc 4749 2bbe
00000100: 625e 0ebe 8ae2 98bc ee24 aebe e6ef afbc
00000110: 410c 3abd 6c59 b2be 6f38 14be b76e 913d
00000120: 7f0e ce3d 6765 90be 289b 3cbe 5eba 37bd
00000130: cbc9 213e 56c2 c9be 5c37 2f3d cd1b 9a3d
00000140: e26d 093c 7331 67bd 1d2f 843c 12c0 2bbd
00000150: 9c12 af3d 31bf 543e e616 08be 0f0f 0bbe
00000160: 2768 85bc 24e9 11be 4491 4d3c 1df0 55bd
00000170: 7e06 59bc 01a2 853c b02d 3c3e a3a7 443e
00000180: 666f 053e be12 7bbd 1d56 b43d 8cd9 24be
00000190: aab4 cf3e d9bf c3bc 1c19 31be c60e 863d
000001a0: 0104 e9bd 426d d53d 7a6a 523d 8b66 d73d
000001b0: e7db 913e c2bd 1f3d d041 0dbe 7e01 ba3d
000001c0: d74a 553e 4c3d 073d cafd 24bd 613f 403e
000001d0: e42f 943e dac1 0e3c 29e1 e6bc 8b1d 8ebd
000001e0: 9fc2 6e3e 89fa 2d3c b667 643e adf8 c6be
000001f0: 79b4 a6be 4217 99bb c144 13bb aeb4 223d
00000200: e482 36bd f1db cd3d 27b0 6f3d 636b 7e3d
00000210: 79f0 d4bd 430f 58bd 7406 e4bd 690a c0bd
00000220: 0631 3ebd aefb 253e 571b 6b3d 4cda e03d
00000230: f6a7 fdbd 26e1 a03d efda cf3d 79dc 67bd
00000240: a666 b9bd 5b4b 47be 50d1 263e 1586 c83c
00000250: 63dc 02be f242 453d bbc5 1a3d 9209 37be
00000260: cd24 04bd fd79 8a3d 8dfc 20be e5ec 663d
00000270: 7fef 453e 03d0 083e 1cae 2c3d 4f79 3b3e
00000280: f003 48be 3636 f6bd 10a0 19bd f792 ca3d
00000290: c54a 293c 13e9 74be ca30 14bd edd5 6fbd
000002a0: 36f6 59be 6dce 83be 9fc3 c2bd f6fb 3c3a
000002b0: 4107 b0bd 2e51 77bd 5c1f e03c ac61 553e
000002c0: 16cc 5dbe bbe0 273d 857c 0ebe 05e9 bfbd
000002d0: 5cbe 24bd f0cb 03be 1a79 c9bd ed81 4b3d
000002e0: bc50 e73d cc6d 7bbc 5a62 39be b2b1 563e
000002f0: 0886 77bd c034 66bd 9844 26bd 9823 593e
00000300: 644b 533e 7c50 63bd fba1 573f 58b4 4abe
00000310: a38e 18be 4278 cd3e e0c2 9d3e c253 31be
00000320: c987 a0bd 3209 f63e 6d70 dd3e 603b 343d
00000330: 50c8 a0bd 687e 3a3f b6b0 5cbe 5bc3 e8bd
00000340: 4260 6abd 7b0c 763e eaa4 9c3e 26f1 e43d
00000350: 3228 003e 2d60 39be 8d1c 243f 4852 a13e
00000360: 6838 cf3c 90d9 2c3e 5078 91be 759d ec3d
00000370: 0bc1 d1bc f3f0 613d be48 21be 055b 13bd
00000380: 946c de3d 4f2e 8dbd ebc0 61be 0e5b 213e
00000390: 4ae9 2cbe 73d8 bebd 9bcd e13c e495 47bd
000003a0: 81fe a7bd 173a e23c 70d2 71bd 1c3d 94bd
000003b0: 8af5 33bc 508f 5c3e 3d67 583e 7bc0 90be
000003c0: cc4a 05be e614 edbd 244b 0cbe 84a6 08bd
000003d0: 35db 6e3d 0d42 ffbd bf4f f0bc f9ac 2fbe
000003e0: 1bef efbd f1c3 9e3d 64ba 54bd fc21 0e3f
000003f0: b702 153f 1907 d13d 5be7 cb3d dfbd 9abd

lstm.bias_hh_l1 f4 [256]
0.23327889 -0.23108424 0.7433828 -0.12190514 0.004080855 0.44230306 0.12809679 -0.33128825
-0.22560279 0.45228896 0.38713592 -0.09547167 -0.06613087 0.7007421 -0.26019365 0.0554048
-0.06538791 -0.08604181 0.05855877 -0.10940879 -0.10381823 -0.08210974 0.49646717 0.10016051
0.055719938 -0.016993841 -0.054066002 0.13899416 -0.16109535 0.1379111 -0.044190586 -0.010352194
-0.0781406 -0.11222177 -0.18430363 -0.07630763 0.033836827 -0.04642205 0.12258437 -0.25668016
-0.03962665 0.16842501 -0.054648276 0.060782824 0.0031748458 -0.08156556 0.1527112 -0.22693022
-0.05508083 -0.084371954 -0.16513096 -0.019129345 -0.065845236 0.010260926 -0.044138096 -0.020683484
-0.07700214 0.105736114 -0.066919364 0.3560864 0.46887824 0.13813537 0.044796295 -0.17808832
-0.14967695 -0.1428195 -0.39333808 -0.17218632 -0.01931829 -0.18234855 -0.229057 0.002049951
-0.047963213 -0.26331824 -0.1959518 0.0072935624 0.00891596 -0.46438113 0.050613657 0.123882085
-0.044350035 -0.02224907 -0.1513102 -0.05722695 0.14915143 0.1941088 -0.25061187 -0.09749308
0.11020304 -0.006503896 -0.09167762 -0.17046621 -0.0323168 0.042261675 0.12480954 0.12891209
0.074343465 -0.037285708 0.17786978 -0.008266094 0.31516975 0.01995439 -0.25578284 0.15477484
-0.052385267 0.06543247 0.15203558 0.14413431 0.13109268 -0.067703135 -0.2032928 -0.005477046
0.17495191 0.09417395 0.020109294 0.26374814 0.2633513 0.17355016 0.01011793 -0.0059791426
0.19511667 -0.14091407 0.22050007 -0.27731293 -0.21096858 0.079969846 0.06593146 0.030727617
0.09169947 -0.026895918 0.12231026 0.13638023 -0.096610375 -0.10287653 -0.20464166 -0.06047874
0.0025564134 0.043680374 -0.05086084 0.18455426 -0.18059826 0.16108587 0.1114803 -0.19297943
-0.09904872 -0.058550887 0.06357067 -0.14488362 -0.120727316 -0.14589939 0.21117832 0.01991126
0.004245744 0.020607356 -0.0416416 0.081127726 0.055700023 0.017372115 -0.17687882 0.1753164
-0.10719965 -0.1142657 -0.081421405 0.06688842 0.12625356 -0.05794141 -0.14682266 0.08042584
-0.034339935 -0.19300279 0.0113824075 -0.01558617 -0.015463866 0.12772074 -0.16564846 0.10205616
-0.22824664 0.022672748 -0.086593285 -0.17081457 -0.14898524 -0.14018008 0.05889893 0.12730327
0.031282254 -0.18487485 -0.26025707 0.06549156 0.182552 0.07465606 0.03679061 0.08972142
0.42542958 -0.05766211 0.8027625 -0.18487416 -0.074850515 0.4528566 0.2428105 -0.10370008
-0.1006095 0.4426003 0.4031287 -0.15248634 -0.2574685 0.52612716 -0.046129078 -0.10331164
0.052070614 0.20364274 0.12332889 0.036810867 -0.019844085 -0.15466683 0.43546587 0.21335272
0.14478962 0.16735253 -0.27006456 0.1285446 -0.024072044 0.21981421 -0.111067295 -0.06929455
0.099023975 -0.07562037 -0.05302055 0.21143433 -0.16309968 -0.083960414 0.07528211 -0.06844966
-0.078640886 0.019112611 0.011916469 -0.042768072 -0.07348974 0.23542568 0.18423791 -0.099923536
-0.13168392 0.013676628 -0.1820765 -0.07307051 0.015521228 -0.06621145 0.04241861 -0.08675556
-0.21548483 0.1895194 -0.039206326 0.35383055 0.52339965 0.25356886 0.06332808 -0.22029157
00000000: a9e0 6e3e 59a1 6cbe 564e 3e3f 67a9 f9bd
00000010: b1b8 853b 8c75 e23e ce2b 033e 9d9e a9be
00000020: 6b04 67be 6b92 e73e ae36 c63e a786 c3bd
00000030: 9f6f 87bd d663 333f 1a38 85be 25f0 623d
00000040: 19ea 85bd b036 b0bd 52db 6f3d b711 e0bd
00000050: a79e d4bd 2729 a8bd f230 fe3e f420 cd3d
00000060: 973a 643d ab36 8bbc 5074 5dbd 7c54 0e3e
00000070: 2ef6 24be 9138 0d3e 3001 35bd 409c 29bc
00000080: 2e08 a0bd 87d4 e5bd 17ba 3cbe 2d47 9cbd
00000090: 7c98 0a3d 0c25 3ebd 840d fb3d 956b 83be
000000a0: 8e4f 22bd 9b77 2c3e dfd6 5fbd 69f7 783d
000000b0: 1311 503b d80b a7bd 5360 1c3e 6560 68be
000000c0: 709c 61bd 34cb acbd 1718 29be 25b5 9cbc
000000d0: ded9 86bd 711d 283c 26ca 34bd 6970 a9bc
000000e0: 4cb3 9dbd 2d8c d83d 050d 89bd f550 b63e
000000f0: cf10 f03e 5c73 0d3e 527c 373d c95c 36be
00000100: ea44 19be 463f 12be 9c63 c9be 9c51 30be
00000110: 6441 9ebc 94b9 3abe eb8d 6abe 7958 063b
00000120: 1375 44bd a6d1 86be 97a7 48be d6fe ee3b
00000130: 3f14 123c 5dc3 edbe 4450 4f3d e4b5 fd3d
00000140: 62a8 35bd af43 b6bc 10f1 1abe ce66 6abd
00000150: 27bb 183e 75c4 463e 3350 80be 74aa c7bd
00000160: 22b2 e13d a21e d5bb 7ac1 bbbd b28e 2ebe
00000170: 9f5e 04bd 941a 2d3d 259c ff3d 8801 043e
00000180: 6341 983d e6b8 18bd 7f23 363e 836e 07bc
00000190: ee5d a13e 6477 a33c f8f5 82be 4c7d 1e3e
000001a0: ef91 56bd 7501 863d 37af 1b3e f297 133e
000001b0: 293d 063e f1a7 8abd fd2b 50be cb78 b3bb
000001c0: 9826 333e 46de c03d 3fbc a43c ff09 873e
000001d0: fbd5 863e 22b7 313e adc5 253c afec c3bb
000001e0: aacc 473e c74b 10be c5ca 613e f6fb 8dbe
000001f0: 2608 58be 3bc7 a33d 1307 873d 7cb8 fb3c
00000200: efcc bb3d d454 dcbc cd7d fa3d 42a7 0b3e
00000210: a9db c5bd eeb0 d2bd 958d 51be 8eb8 77bd
00000220: 8089 273b 31ea 323d 7553 50bd cbfb 3c3e
00000230: c0ee 38be b2f3 243e c94f e43d 669c 45be
00000240: 0eda cabd 0ed3 6fbd 5731 823d 5f5c 14be
00000250: e23f f7bd a666 15be 213f 583e f01c a33c
00000260: e21f 8b3b c2d0 a83c 6290 2abd 4b26 a63d
00000270: b525 643d f74f 8e3c b91f 35be 2486 333e
00000280: 7d8b dbbd 2304 eabd 44c0 a6bd ccfc 883d
00000290: 9d48 013e f953 6dbd ae58 16be 4eb6 a43d
000002a0: 08a8 0cbd 86a2 45be 477d 3a3c 235d 7fbc
000002b0: 285c 7dbc 3ac9 023e c09f 29be d202 d13d
000002c0: 7db9 69be 33bc b93c d257 b1bd 04ea 2ebe
000002d0: 968f 18be 5e8b 0fbe 0140 713d ca5b 023e
000002e0: d221 003d d54f 3dbe 6a40 85be 7020 863d
000002f0: e9ee 3a3e 47e5 983d c0b1 163d ddbf b73d
00000300: e8d1 d93e 1b2f 6cbd d881 4d3f a74f 3dbe
00000310: 3a4b 99bd d2dc e73e 51a3 783e b560 d4bd
00000320: 5b0c cebd 829c e23e e366 ce3e 6125 1cbe
00000330: e9d2 83be 45b0 063f d8f1 3cbd 0e95 d3bd
00000340: ff47 553d b987 503e db93 fc3d fec6 163d
00000350: 1090 a2bc fb60 1ebe 62f5 de3e 2379 5a3e
00000360: bb43 143e 765e 2b3e e745 8abe 32a1 033e
00000370: bc32 c5bc fa16 613e 4077 e3bd 4dea 8dbd
00000380: 15cd ca3d dade 9abd 142c 59bd 3e82 583e
00000390: 9a03 27be 70f3 abbd 822d 9a3d 562f 8cbd
000003a0: 790e a1bd 0d92 9c3c 4b3d 433c 932d 2fbd
000003b0: ca81 96bd 6e13 713e dda8 3c3e b6a4 ccbd
000003c0: 26d8 06be ef13 603c 4372 3abe fea5 95bd
000003d0: c04c 7e3c de99 87bd 23bf 2d3d e6ac b1bd
000003e0: 0ea8 5cbe 6011 423e d096 20bd 4729 b53e
000003f0: 85fd 053f c7d3 813e 27b2 813d 1d94 61be
