Models/Precipitation_Models/mafraq_precipitation_model.pth (torch, 224106 bytes, 11 tensors)

lstm.weight_ih_l0 f4 [256, 11]
00000000: 4aeb 51be 13a1 703e e991 49be 1b77 a5be
00000010: dfff 86be 709f b1be 7526 883e 8f4c dbbe
00000020: e99e ab3e ca57 8dbe c77d 08be f14f ccbe
00000030: b71c 30bd 459e 9e3d 25cd e53d c56f 09be
00000040: ffe8 07bf f9a7 5e3f fb34 813c 7129 09be
00000050: da50 303e b4ec bbbd 0e01 123d b157 953d
00000060: 2a42 46be 9059 d03e ea55 04bf 5bbd 743b
00000070: b6aa c1be 0dd3 b9bd a4fa c1be 2352 d8bd
00000080: 2b25 aabe e747 b7bd e243 99bd 0b8b 78bc
00000090: eeaf cabc e797 403e f4de b03d 9797 1bbf
000000a0: 308c 19be 4377 4cbe ec1e 4cbd 49db c4be
000000b0: fddd 863e 49b5 9f3d 3b98 f83d 3ca3 2dbe
000000c0: 977b 80be 629b 68be 5e70 563d 5b65 d43d
000000d0: 931b a8bd b581 f83d 05e0 28be 69a3 9b3e
000000e0: 637b 783d a5e9 aabd 80d8 953d a2e4 9abe
000000f0: 1bd6 43be 7068 c13e 2b7c 7d3e f038 a23c
00000100: 4376 81be daef c6be eaa9 5fbc 6545 5cbd
00000110: ed82 7f3d e3b7 4f3e cd57 863e 86bd 4e3e
00000120: 6e4f 833e e83f fbbe 0c39 223e b99e 303e
00000130: 0f66 acbd 9f0b 3e3f e8c4 0c3f e0b2 e4bd
00000140: e4db b43e 1ac8 d7bd c41c 013f a77d 75be
00000150: 4d29 a4be edbd a43d a000 e2bd b807 d8bd
00000160: cd78 893c 4825 463d 5d03 df3c b096 debe
00000170: 08f6 5abc 8998 833d bdf7 9dbd 7e17 18bf
00000180: 2c37 6b3d 0dea 87be cd5f 8bbe fd91 b63d
00000190: c0c8 1c3e 2416 3a3e dd0c 343e fa28 91bc
000001a0: bbe2 6a3e 8d38 9b3d 0006 83be cba9 3ebe
000001b0: 2813 08be 5cbc 22be db70 07bb c444 6fbe
000001c0: abc6 073f 5437 71be 92df ed3d 5f44 613e
000001d0: 2c74 e43d e907 eebb 8bea 8e3e 9247 c4bd
000001e0: 4847 9f3e fd9a 0c3e 2eb2 923e a428 04be
000001f0: 047a bebe 0d2d 94bc 6524 663e 7b32 d4bc
00000200: d713 a4be f904 0a3e eeba 2dbe 6bb0 113e
00000210: d804 673e e604 103e c71c 81be 2e9f c2bd
00000220: e3c2 93bd 9a1c ce3e bdeb 0bbe 64a7 74be
00000230: 2aaf 04be 6d92 1f3e f4d6 97bd 3466 a53d
00000240: ab68 85bd b116 1b3e 9107 5cbe c1c9 9f3e
00000250: a46e 053d 5fc8 5abe 2a2d 103e f732 bc3d
00000260: d520 73bd 6a9b 17bd ce27 753c 633c 813c
00000270: 251f 4e3e 6387 913e 9d62 be39 944e a2bd
00000280: b2ff 053e 67c0 76be c722 f93c 512d 0fbc
00000290: 6434 953d ec4d da3d e0bf fc3b f7b6 6e3d
000002a0: 3590 2d3e f2ec a33d 40ab a7be 5655 573d
000002b0: 436d 10be 2d64 bfbe 54e3 f03d ccb5 b0be
000002c0: f669 a83d 2df1 f43e c37a c3be 3d59 d23c
000002d0: bf27 91be 4fa0 073f abd7 4abf 5c89 f0bd
000002e0: 79e1 8ebe 73e4 9dbe 065f 4abe 25f8 64be
000002f0: 998b c6bd 90bb 063e 6053 eebd 1e80 dcbb
00000300: ea23 f5bd 99d3 f33e 39c0 6f3d b40a 983c
00000310: 9712 9bbe 04b0 973d 1f17 013e 7580 b13d
00000320: 0274 953d 075a 8ebe c429 6ebe f714 823e
00000330: e162 c8bd 3a9a 603d e33c 573d ad0a 6d3e
00000340: 9913 44be 887c 0e3d cb1b f2bd 88b2 9c3e
00000350: cae9 0dbe f44c 03be bd59 033d a7d3 aebe
00000360: 291f cbbd 62ee 073d a196 053e ed03 eebd
00000370: 58a7 343e c8a9 023e fa45 513e 3ae6 92be
00000380: 76cb b23c 55b9 bebd 3bbd 10be 75d7 ac3d
00000390: e381 423c 7f83 ce3e 9531 b7be de8f 56be
000003a0: d142 763d b54c 38be 1132 93bc 9061 75be
000003b0: deb2 90be da29 86be b77f 003f 6b49 58be
000003c0: edc0 8ebe 781c 3bbe 4459 373e e994 693c
000003d0: bc82 78bd 569a 26be d5b6 e53e b384 053e
000003e0: cc22 d23d bde8 113e 1dd6 5ebe 4a8e 0a3d
000003f0: 64e2 8ebb ef7e f83e 63c5 873d 17d6 2b3e
-0.20499912 0.23498945 -0.19684567 -0.32317433 -0.2636709 -0.34691954 0.2659184 -0.42831847
0.33519676 -0.2760604 -0.1332923 -0.3990474 -0.042996135 0.07745031 0.11220769 -0.13421543
-0.530899 0.86975056 0.015772333 -0.13394715 0.17218342 -0.09176007 0.035645537 0.072921164
-0.19361177 0.4069333 -0.51693594 0.003734431 -0.37825555 -0.09073458 -0.37886536 -0.10562541
-0.33231482 -0.08949261 -0.07483651 -0.015169869 -0.024742093 0.18807946 0.08636275 -0.6077818
-0.14994884 -0.1996737 -0.049834177 -0.3844855 0.2634124 0.07798249 0.12138411 -0.169568
-0.25094292 -0.22715524 0.052353255 0.103708945 -0.08208384 0.12134115 -0.16491707 0.3039811
0.060664546 -0.083453454 0.07316685 -0.30252558 -0.19124644 0.37774992 0.24754398 0.01980254
-0.2528554 -0.38854867 -0.0136513505 -0.053777117 0.06238072 0.20284991 0.26238862 0.20189485
0.25646538 -0.49072194 0.15842074 0.17248048 -0.08417904 0.7423648 0.54987955 -0.1116693
0.35324013 -0.10536213 0.5043452 -0.23973714 -0.3206276 0.08044038 -0.110352755 -0.10548347
0.016781235 0.048375398 0.027223283 -0.4347434 -0.0133643225 0.06425578 -0.07713268 -0.59410846
0.057425663 -0.26545754 -0.27221528 0.08914564 0.15310955 0.18172508 0.17583032 -0.017719734
0.22938053 0.075791456 -0.25590515 -0.18619458 -0.13288558 -0.15892166 -0.0020666632 -0.23366076
0.5303752 -0.23556262 0.11614908 0.21998738 0.111549705 -0.0072641266 0.27913317 -0.095839635
0.3110907 0.13730998 0.28651565 -0.12906128 -0.37202466 -0.018087888 0.22474821 -0.025902977
-0.32046387 0.1347846 -0.1696584 0.14227454 0.22560441 0.14064369 -0.25217268 -0.09503017
-0.07214906 0.40256196 -0.13664146 -0.2389198 -0.12957445 0.15583201 -0.07414046 0.08076134
-0.065141045 0.15145375 -0.21487261 0.31208614 0.03257622 -0.21365498 0.14079729 0.09189408
-0.059357483 -0.03701345 0.014963103 0.015775865 0.20129068 0.28423604 0.00036313097 -0.07925144
0.13085821 -0.24096833 0.030412091 -0.008738832 0.07285383 0.10659394 0.007713303 0.058279958
0.16949542 0.08004178 -0.3274784 0.052571617 -0.1410418 -0.37381116 0.117621094 -0.345137
0.082233354 0.47840253 -0.38179597 0.025677318 -0.28350636 0.52978987 -0.79235333 -0.11744949
-0.27906397 -0.30838355 -0.19762811 -0.22360285 -0.09694595 0.13157487 -0.11636996 -0.00672914
-0.11969741 0.47622374 0.058532927 0.018559791 -0.3028762 0.07406619 0.12606476 0.08667079
0.07297517 -0.2780306 -0.2325812 0.2540662 -0.09784485 0.054834582 0.0525483 0.23148604
-0.19148101 0.03478673 -0.11821707 0.3060496 -0.13858715 -0.12822324 0.032068003 -0.34145853
-0.09918053 0.033186324 0.13045742 -0.116218425 0.17641962 0.12760079 0.2043685 -0.28691274
0.021825533 -0.09312693 -0.14134686 0.08439533 0.011871788 0.403347 -0.35780016 -0.20953318
0.060122315 -0.17998011 -0.01796821 -0.23962998 -0.28261465 -0.26203805 0.5019488 -0.21121757
-0.27881566 -0.18272579 0.17905146 0.014256694 -0.060671553 -0.16269812 0.44866052 0.13038902
0.10260543 0.14248939 -0.21761365 0.033827104 -0.004360484 0.48534343 0.066294454 0.16780888

lstm.weight_hh_l0 f4 [256, 64]
00000000: 55a1 88bd 5a27 d3be bcab 853d bf46 8bbc
00000010: c9cc e13d aa57 bebe 918f 9e3e 6ed5 edbd
00000020: 8073 0b3f 012c 903b a70e 293e 74bd c13e
00000030: d02d 32be 464a 693e d9ba 5a3e efdc 403c
00000040: f126 963e 8a66 ce3d 768c 64be e3a7 cfbe
00000050: 0af2 80bc 4ed4 4cbd 0a2e e13e 1e49 053e
00000060: 434c ce3c add7 5cbc 0b3c aabe 12d4 ffbd
00000070: 8336 c9be e85d 61bd a709 e4ba c77c a33b
00000080: 1fae a7be b91f 38bd ba5b e83c 015a 663e
00000090: c36f f73d 105d f6bd 83f2 03be 0496 b73d
000000a0: 3344 073d ad32 25b9 17a7 073e b904 263e
000000b0: 27aa 103e 4976 523e df10 263c a495 023f
000000c0: 2f48 5dbd 8013 19bb d403 e1be 9f62 bd3e
000000d0: 667e 273e a820 14be 2fe9 653e 95f0 4e3e
000000e0: 9912 8b3e 0fd9 92bd a78f abbe db97 77be
000000f0: 9e14 5abe bcb9 6c3e 994b c23e 6401 debd
00000100: 80e7 b53e 4fe5 4ebd 00b6 38be cc5c b03d
00000110: 576a ed3c eefe b83e 31a2 c3bd 6ecf a7be
00000120: e681 c9be 27a0 38be 96b3 c23d 67c7 b23d
00000130: 875b 96bd 0704 a5be 02e0 7dbe c12c 78be
00000140: 49cd 903e 7f9e 93bd b335 963e 37d7 68be
00000150: 4663 8abe 14d7 9dbe 6c9e 613e ec32 63be
00000160: 6b8d cebd 0d07 0cbe 4cdd 29be 13c5 753e
00000170: 3d9c fc3e 585a 94be 202b 423e 451e 2a3e
00000180: f39d 8a3d 8e85 77be d355 73be 1efe 86bc
00000190: 6751 93bd 4090 c4bd e585 0a3e c990 b43e
000001a0: c732 1a3e 2a90 06be 656c d7be 115e 4c3e
000001b0: 4dc6 043e 7ef7 123e 1c01 e9bc db09 07be
000001c0: 4654 c63e 2a0c 9dbe 5804 c53e 378b 87bc
000001d0: a161 a83e aac8 37be bab3 383e 9382 ddbd
000001e0: 8182 fcbe 9143 4dba da21 c0bd ad07 903e
000001f0: 5632 0dbe 5ba3 053f f689 04be aaf1 59bd
00000200: 5320 0ebe ec51 a4be e29d 17bc fb49 983d
00000210: 2828 013e 69f0 8c3d 2e75 303e d06b 1a3d
00000220: 4e9b 8abe 3fc8 f1bd f5b7 28be a788 883d
00000230: 7f45 f8bd d06a d13c 5124 a53e dd2d 7bbe
00000240: 67c2 4dbe c2a5 333e b16b 2fbe 0931 43be
00000250: 003e a3be 0332 c43e bdbe 64be 5eee f03e
00000260: 749d df3d 746e 5fb9 4314 0abe fd46 ddbd
00000270: d1ed 1fbe ead2 d1bc 26aa 053e c7fa cc3e
00000280: 2579 383e 92b9 b8be 7879 703e e506 073e
00000290: b381 0c3d 9f56 7b3e ff9e 133e 0b7e 06be
000002a0: 7070 ccbc 9c03 1c3e 6141 0a3e cd65 5cbc
000002b0: b67d 04bf fd91 893c e6f1 dabe 652b 813d
000002c0: daf5 87be 342d 883e f316 8c3e ec08 d83b
000002d0: 51f9 dc3d 6f5f 203e e001 ddbd 7557 a83e
000002e0: 1fed 533e 49e4 19be ddb0 2c3e d90d 743e
000002f0: 0250 553e 4eea 8f3c 99ac 9dbd 8c29 3c3e
00000300: 5c6d 9bbe 6439 64be cba2 cf3d 5b97 5c3d
00000310: cb0a 803d f36c 67bc 4803 76bc 7a68 6f3d
00000320: 3950 c93d 5826 4abe a528 2cbe b37b 9cbd
00000330: cbea bbbe 8e75 51be c0ca df3d b414 5ebe
00000340: c5ca 273e 8ae0 b5be bca7 a5bc 9220 2c3e
00000350: bedd b5bd f58a 69bd 7f2e 233e d8a3 88be
00000360: 7c01 473e 3b68 6abd a534 38bd df10 14be
00000370: b3d5 04be 8dc7 a2be c874 12be 50de 943c
00000380: e2f0 a8be 5924 12bd 8422 b93e b414 9ebe
00000390: 9082 a63e 65c7 4bbe b8cd 85be 2d37 83bd
000003a0: 659d 1bbc 045d 03be 55df ad3e 106d b837
000003b0: d09a 6fbc 61ae db3d 7a4c 9d3e 4ab7 cd3d
000003c0: 26f7 aa3d b85d 103e 52e1 acbe 5f3e 4a3e
000003d0: cd08 bf3e 6bb0 b6bd e87f e8bd 6b0c 3b3d
000003e0: e192 183e c4c4 5b3e 9d02 bd3d 9af6 24be
000003f0: 81cc 90be 3e20 10be 521f 553e 0d89 c13e
-0.06671397 -0.4124096 0.06526896 -0.017001508 0.11025388 -0.37176257 0.30968907 -0.11612974
0.54473114 0.004399777 0.16509496 0.37839854 -0.17400289 0.2278224 0.21360339 0.011771425
0.29326585 0.100781515 -0.22319207 -0.40557775 -0.015740413 -0.050007157 0.43980438 0.13016173
0.025182849 -0.0134791555 -0.33248934 -0.12491621 -0.39299402 -0.055021197 -0.0017397896 0.00498924
-0.3275003 -0.044952128 0.028364051 0.22495271 0.12081864 -0.12029469 -0.1288548 0.0896416
0.033024024 -0.00015754504 0.13247333 0.16212739 0.14127408 0.20552935 0.010135858 0.51009583
-0.054023918 -0.002335757 -0.43948233 0.36989304 0.16356811 -0.14465582 0.22452234 0.20208962
0.27162626 -0.07170307 -0.33508036 -0.24179022 -0.21296927 0.23117727 0.379483 -0.10840109
0.35528183 -0.050511654 -0.18038177 0.086114496 0.02898137 0.36131996 -0.0955242 -0.32775444
-0.39356917 -0.18029843 0.095069095 0.08729439 -0.07341676 -0.32229635 -0.24792483 -0.24235822
0.2828162 -0.07207965 0.29337844 -0.22738348 -0.27028865 -0.30828154 0.2203309 -0.22187394
-0.10085567 -0.13674565 -0.16588324 0.24000959 0.4933795 -0.28975177 0.18961763 0.1661311
0.06768408 -0.24172041 -0.23763208 -0.016478594 -0.07193261 -0.09597826 0.13527639 0.35266712
0.15058433 -0.13140932 -0.42074886 0.19957758 0.1296627 0.14352223 -0.028442912 -0.13187353
0.3873617 -0.30673343 0.38479877 -0.016545875 0.32886985 -0.17947641 0.1803731 -0.10815921
-0.49318317 -0.00078301976 -0.09381457 0.28130856 -0.13788733 0.52202386 -0.12943253 -0.053208984
-0.13879518 -0.3209375 -0.009253951 0.07435986 0.12612975 0.06881792 0.172322 0.037700474
-0.27071613 -0.11805772 -0.16476424 0.06666689 -0.1212263 0.025563627 0.3225427 -0.24529214
-0.2009369 0.175437 -0.17130925 -0.19061674 -0.3188324 0.38319406 -0.22338386 0.4705686
0.10918704 -0.00021308084 -0.13484292 -0.108045556 -0.15618064 -0.025613267 0.13053188 0.40035078
0.18014963 -0.3607908 0.23483837 0.13186224 0.03430338 0.24544762 0.14416121 -0.13134019
-0.024955958 0.15235752 0.13501503 -0.013452006 -0.5175432 0.016793245 -0.4276268 0.06307105
-0.26554757 0.26596987 0.2736126 0.0065928604 0.10789741 0.15661405 -0.10791373 0.32879224
0.20695923 -0.1502849 0.16864343 0.23833407 0.20831302 0.01756778 -0.07698936 0.18375224
-0.30356872 -0.22287518 0.10138472 0.05385528 0.062520586 -0.014125097 -0.015015431 0.058449246
0.098297544 -0.1974119 -0.1681238 -0.07640781 -0.3670257 -0.20455 0.10927343 -0.21687585
0.16385944 -0.35522872 -0.020221584 0.168093 -0.088801846 -0.057017285 0.15935706 -0.26687503
0.1943416 -0.05722831 -0.04497208 -0.14459561 -0.12972145 -0.3179287 -0.14302361 0.018172413
-0.3299628 -0.035679195 0.36159146 -0.3087517 0.32521486 -0.19900282 -0.26133513 -0.06407008
-0.009497975 -0.12828451 0.3395945 2.1985295e-05 -0.0146243125 0.107266195 0.3072241 0.10044725
0.08347921 0.14098251 -0.33765656 0.19750355 0.37311402 -0.08920368 -0.11352521 0.04566614
0.1489978 0.21461779 0.09229014 -0.16109696 -0.28281024 -0.140748 0.20812729 0.37799874

lstm.bias_ih_l0 f4 [256]
00000000: c1dc 2dbe 6627 fabd 7b7e 02be a28c 4ebd
00000010: e599 87bd a4b0 80be 9d1a 623e d98b bdbd
00000020: afad 16be 12fa edbd 81ab 843e 7e22 74be
00000030: 483c fa3c 5b81 0abd 93fe 0b3e 4671 56bd
00000040: 834f 32be 7c95 8e3e f54f 79bd 08f0 93bd
00000050: a042 cebd 7517 33bc bfd6 023e 0c90 32be
00000060: b9e2 0fbe 6125 52be 1598 d43d de79 c4bd
00000070: 8886 abbe 0496 9dbd 0c4f 30be 5c65 2d3c
00000080: 7a75 223d a49d 8f3d 716d 8cbe d68c 6c3c
00000090: a728 babc 4331 00bd 2762 82bd 50c3 2cbd
000000a0: 438c 1dbe 3088 25be fa1b 1ebd a684 61be
000000b0: b9d7 8cbd 1b59 75bc 0ea5 0abe 096f 003e
000000c0: a900 5f3d 79f2 103e ee1b 12be d8ba abbd
000000d0: a426 c8bd 091f 9b3b 7acf ccbd 8712 123d
000000e0: 7508 d83d eefd 4abb 6e61 10be cec6 663e
000000f0: 9254 cebd cf4b 803d 9adb 293c 40df c8bd
00000100: 28a7 ba3b 7e39 953e 6ced 133e c142 da3d
00000110: ba02 cb3d 67bd 0f3d b875 fa3d 326a 173c
00000120: cab9 b03e 8c5e 3d3e d13f a4bd 7541 923e
00000130: 47cc d33d 2008 4a3e 8bce 283e a0ae cf3d
00000140: 221e bc3c 3f55 59bd 0250 f23d f72a 1e3e
00000150: f726 9a3e 83b4 87bc bf8f f2bc 34f7 c3bc
00000160: b638 f33d 817b 363e 8c8f 793e d983 823d
00000170: 3436 003e 9a57 8dbd b509 1e3e 1358 8d3d
00000180: 1b21 2d3d da37 4e3c faff 453d f748 9b3d
00000190: 86bc a43e 0b07 873e e0b5 e93d 4a76 5d3d
000001a0: 4a66 913e 1b8f 0c3b f9d4 c03d 5a84 193e
000001b0: d750 3c3a 5d93 6c3e f213 e5bd 4edd 2c3e
000001c0: 2f08 1abe 9109 2e3d 8690 023e b97c 843e
000001d0: 1766 23bd f73a 9a3d 1656 3f3c aceb 393e
000001e0: 6b52 463e 711d 133e 6ac5 99bc 2d02 ae3d
000001f0: 63fb 253d 799a fdbc 22be 6d3e 645c 173e
00000200: 103c b6bd e4c1 f03d 4169 ac3d 9f0d bebd
00000210: 966d 073e 1479 19be 01a8 31be 8ae8 073d
00000220: f08d 2abd e699 c9bc 7de0 4f3e 4d71 e9bc
00000230: 647b 45bd 8153 8ebd c862 833d e226 b13b
00000240: 93b9 5cbe 491b 323e 2680 2cbe 450d adbd
00000250: a079 90ba f177 7e3c 0161 c3bc f32c 393e
00000260: c8f8 33bd 0b3e 153e cad7 50bc 3b02 dbbd
00000270: e8b9 233d 4f48 cfbb 2c9a 193c 088d dcbd
00000280: c2b7 16bd 0a09 05bd c9da b4ba 6c81 123e
00000290: 65aa 583e 8350 9a3d 3041 95bd 3bc9 a2bd
000002a0: bb21 963c a362 bc3d da07 35be 0b54 1c3d
000002b0: 2b23 7dbc 79f5 833d 263a 053d a52e 3f3e
000002c0: 72f4 00be 8096 92bd 9a1d 063e 5e09 9e3d
000002d0: 2872 23be 2eb6 f0bc dd83 98bd 1a27 303e
000002e0: 40c7 a4bd b5f8 80bd ad0f 2a3e afad 033e
000002f0: 6731 14be e041 913d 7cc7 c4bd 5476 203e
00000300: 4cb1 cc3c 0dc5 463e dd9c b6bd 87a2 9ebd
00000310: c3f6 7e3e 52de 863d 3bac 9b3e a5a6 61bd
00000320: 6ca2 243e e055 58be 8f1c 1c3e 1515 e33c
00000330: 00f5 ce3d 4b7b 523d f6a4 d7bd 755d 283e
00000340: 2211 3d3d 1273 ba3d 6f9b 16bd 4484 923d
00000350: a3ef c23d a0dd 86bc 057a cf3d 4535 07be
00000360: 3241 28bd 4f7d e6bd 67cc 4a3e c49e e43d
00000370: 6b18 c9bd ed16 fa3d 9fea a7bd 188c 9f3e
00000380: 3040 8e3d cccd 353e be57 2bbe 221d b83d
00000390: d5a0 a03c ae09 95bd 4ff7 353e 5466 b83c
000003a0: 4b8f 003e 4aad 823d 1582 08be ee5a dcbc
000003b0: 23b5 cebd 593b 0b3e 7ebc 1839 364b 8b3d
000003c0: 3448 1bbd f44f 823e cf79 c33d 21f4 2e3e
000003d0: c8f4 9cbd 5132 bfbc aa75 5f3e b20d 9e3c
000003e0: 0a28 983d 455d 283b 3a6e 2c3d 88f5 bc3e
000003f0: c096 0c3e 27da 9a3e 73c7 683e 1aa6 853c
-0.16978742 -0.12214546 -0.12743561 -0.050427087 -0.0662115 -0.25134766 0.22080465 -0.092551894
-0.14714693 -0.11619963 0.25912097 -0.23841283 0.030546322 -0.03381477 0.13671331 -0.05235412
-0.17413144 0.27848423 -0.06086727 -0.07223517 -0.100713015 -0.010930886 0.12777232 -0.17437762
-0.14051332 -0.20522071 0.1038057 -0.09593557 -0.33501077 -0.07694629 -0.17217654 0.010583248
0.039662816 0.070124894 -0.27427247 0.014437875 -0.022724463 -0.03129698 -0.06366377 -0.042178452
-0.15385537 -0.16165233 -0.0386009 -0.22023258 -0.06877083 -0.014974858 -0.13539526 0.12542357
0.05444399 0.14154996 -0.14268467 -0.08385247 -0.09772995 0.0047339243 -0.100005105 0.0356622
0.10548488 -0.0030974108 -0.14099666 0.22536775 -0.10074724 0.06264459 0.0103672985 -0.098082066
0.005696196 0.29145426 0.14446038 0.106572635 0.099126294 0.035092738 0.12229484 0.0092416275
0.34516746 0.18493098 -0.080199845 0.28565565 0.10341697 0.19729662 0.1648504 0.10140729
0.022963587 -0.053059813 0.118316665 0.15446077 0.30107853 -0.016565567 -0.02960956 -0.023921587
0.11876051 0.1782055 0.24371165 0.06372804 0.12520677 -0.06901474 0.1543339 0.069015644
0.0422679 0.012586558 0.04833982 0.07582276 0.32175082 0.2637256 0.11411643 0.054067887
0.28398353 0.0021447602 0.09415621 0.14991894 0.0007183677 0.2310309 -0.11185445 0.16881296
-0.15042184 0.042489592 0.12750444 0.25876406 -0.039892282 0.07530778 0.011678239 0.18156308
0.19367377 0.143667 -0.018770892 0.08496509 0.040522944 -0.030957447 0.23217061 0.14781338
-0.08898175 0.11755732 0.08418513 -0.09279942 0.13225397 -0.14987594 -0.17349245 0.03318075
-0.04163927 -0.024609517 0.20300479 -0.028496409 -0.048213378 -0.06949521 0.064153254 0.0054062465
-0.21555166 0.17393221 -0.1684576 -0.084497966 -0.0011022575 0.015531526 -0.023849966 0.18083553
-0.04393843 0.14574449 -0.012746761 -0.10693785 0.039972216 -0.0063257585 0.009375136 -0.10769087
-0.03679634 -0.032479323 -0.0013798113 0.14307183 0.2115875 0.07534888 -0.07287824 -0.07948538
0.01832663 0.09198501 -0.17678776 0.038166087 -0.015450279 0.064433046 0.032526158 0.18670137
-0.12593248 -0.07157612 0.1309723 0.077166304 -0.15961516 -0.029383745 -0.07447026 0.17202416
-0.080458164 -0.06297437 0.16607542 0.12859224 -0.1447197 0.07092643 -0.09608361 0.15670139
0.024986885 0.19411106 -0.08916638 -0.077458434 0.2489882 0.06585373 0.3040484 -0.055090565
0.16077584 -0.21126509 0.15245269 0.027720014 0.10105324 0.051387113 -0.10529511 0.16441901
0.046158917 0.09103979 -0.036769327 0.07154134 0.09518363 -0.0164631 0.10130695 -0.13203914
-0.0410778 -0.112543695 0.19804536 0.11163095 -0.098191105 0.12211404 -0.08199047 0.3116157
0.069458365 0.17754287 -0.1673269 0.08989932 0.01960794 -0.07277237 0.17770122 0.022509731
0.12554662 0.063807085 -0.13330872 -0.026898827 -0.10093143 0.13596858 0.00014566068 0.06801455
-0.037910655 0.25451624 0.095447175 0.17085315 -0.07663876 -0.023339422 0.21822229 0.01929364
0.07429512 0.0025690359 0.042097308 0.36906075 0.13729382 0.30244562 0.22732334 0.016314555

lstm.bias_hh_l0 f4 [256]
00000000: 1fd4 61be 464a c4bd 9f67 08be 7183 aebd
00000010: 1773 043e 43dc 48be 4afe 473e 8f4d a8bd
00000020: a23c 72be 945d 12bd 392d 103e fc94 98be
00000030: a021 2c3c e27a 37be 0a8e 173e cdc5 0fbe
00000040: c76d 06be 5d45 6f3e 9187 12be 600a 62be
00000050: f1b2 0fbd 2e42 c6bd c072 b03d fef1 12be
00000060: 6b19 fabd dcf0 10be 8fad 8b3d a2b0 11be
00000070: f576 1ebe 0e27 d6bd 3790 20be c5df 6c3e
00000080: 80bf f3bd 002e 8d3c 2312 35bd 79df 0abe
00000090: 6da3 f1bd 2922 a93d 69fd e43d fa94 4abe
000000a0: 9efc 20bd 63b8 fbbd 10ab 88bd 9b74 76be
000000b0: e34c 56be 2f6b e4bc 46cb 72bc ac30 283d
000000c0: b737 fbbb 4956 c33c c016 13be 06f6 ad3c
000000d0: 7efa 8bbd ffc3 2bbe 57fe dbbd 6097 b0bc
000000e0: 8bed 98bd 6193 a8bd e87d 21be 766c 573e
000000f0: 6686 4cbd 7e2f 2b3e 7461 c1bd 543f e4bb
00000100: 3884 833c c33b 963e 407b 153e 818e 583c
00000110: 6cb3 623d 110c 3b3e 4b7c 23bd 2a17 763d
00000120: 4f15 093f 8cf0 ad3d f3a5 e53d b4c1 073e
00000130: 1cf4 b83c 404b 9b3e 7f4c 023d 28df ef3c
00000140: cee6 823d 0ab3 3a3d 9c6e 093e edf5 943b
00000150: de20 dc3d 8f89 2d3d f9e1 2e3e 9b05 ecbd
00000160: 330d 333e 8123 183e 4993 183e be3d 6a3d
00000170: a953 e33d f7f4 093e f88a c93d 665a 053e
00000180: 28b4 433e 25af 13be eb42 00bd 31cd 113d
00000190: dda2 6e3e e2b6 923e efac 643e 82bb fc3c
000001a0: f4bd 7b3e 7254 6f3c 6430 fabc e4e7 823e
000001b0: 4d57 1a3e 5532 ca3d 5b4a 9f3b b79b 0bbd
000001c0: 1edb 4dbc ee9b 3a3e faf1 233d ddd0 843e
000001d0: 9e27 c8bc e948 4c3d 6b1e 053e 334d ac3e
000001e0: 66da d03d 2c41 d63d 23c7 263d 17c3 2f3c
000001f0: cbd0 e2bd 43fc a43d 1701 7d3d 77db 693d
00000200: c8bd d9bd 8dc1 c3bd 2e3b 5d3d dc21 1ebc
00000210: 92c7 9e3d 9f72 a2bd c2af cdbd 672d 703d
00000220: 739f d3bc 7982 85bd 393b 243e c73d b63c
00000230: bcc0 bf3d b370 21be 4651 573e 537a c33d
00000240: 5079 15bd f271 153e 9fe7 8ebd 9ed7 f8bd
00000250: 0892 853d aa18 5f3e 53ad d5bd 3864 5e3c
00000260: 39c3 6dbe 4a6a 003e 6cb0 c1bd 5e86 ecbd
00000270: d3f8 ac3d e378 41bd 64e3 1dbc afff 26be
00000280: 44a0 c1bb 49fa 7ebc eb69 433d 311f bc3c
00000290: 33e0 083e a0b2 323e 0039 c03d a82c 20be
000002a0: 307e 0c3e 23a1 dd3d 0e2a 1fbe c050 eabc
000002b0: e69d 4fbc 5ebf 8f3b c5e1 afbd 0903 d53c
000002c0: af92 4abd 6c63 a4bd 04b9 07bd 4442 d33d
000002d0: 6803 b2bd 6f2f 07bd 3c27 08be 50fe c53d
000002e0: 9663 72bd dc47 14bb 9bfe 173d 8e69 3d3e
000002f0: b731 05be 2f99 843d 0859 1cbe 753e 063e
00000300: 2177 b63d e509 a33e 20d4 bcbd b1a0 dcbc
00000310: 9c29 e03d c700 a33a f50e 833e 8a01 57bd
00000320: 9d87 053e 3ab9 a2bd d200 bfbb c039 afbc
00000330: c1f2 76bd f455 143e 87b1 053e 6a89 5e3d
00000340: 2a90 033e a50e 843e 3b4d d2bd 315f 873c
00000350: d35f 1bbd 29ba 2d3d b1ec bc3c f386 3ebd
00000360: 5afa 3fbd 2b0f 06be 5d3e a63e a75d fabd
00000370: cdcf 25be 0a81 683e 7cc8 d53d 84de aa3e
00000380: 168e 173d a313 3c3e 5c63 593d 8194 573d
00000390: f2a2 0e3d b014 db3d 1aaa ae3d 85b6 cebc
000003a0: a542 d13d f598 443e 1d56 943d 439c 843d
000003b0: c058 5f3d 1200 4f3d 7112 ba3d 282d 183d
000003c0: 347f 133e 535d dd3d 5f6b 853d e12e 753c
000003d0: aee4 023d 8036 a7bb 48bc c23d bfe6 443c
000003e0: 1b4a 2b3e 4f1e 133c d92e 35bc e6b1 683e
000003f0: f40e cf3d ff50 573e 8b72 3e3e 6416 2a3d
-0.22053574 -0.09584479 -0.13320778 -0.08521164 0.12934528 -0.19615273 0.19530597 -0.08217918
-0.23655942 -0.035733774 0.14079751 -0.29801166 0.010506064 -0.1791797 0.14800277 -0.14040299
-0.13127814 0.23366304 -0.14309527 -0.2207427 -0.03508276 -0.096805915 0.08615637 -0.14350125
-0.12211879 -0.1415438 0.06820213 -0.14227536 -0.15475066 -0.10456668 -0.15680014 0.23132236
-0.1190176 0.017233849 -0.04420675 -0.1356181 -0.11798749 0.08258469 0.11181147 -0.19783393
-0.039303415 -0.12291028 -0.066732526 -0.24067919 -0.20927767 -0.02788314 -0.014818972 0.041062042
-0.007666554 0.023844855 -0.14364147 0.021235477 -0.06834887 -0.16773985 -0.10741871 -0.021556556
-0.07467183 -0.08231235 -0.15770686 0.21037468 -0.04993286 0.16717336 -0.09442416 -0.006965557
0.016054258 0.2934247 0.14597797 0.013217569 0.05534689 0.18266322 -0.039913457 0.060080685
0.5354814 0.08493146 0.11213293 0.13257486 0.022577338 0.3033085 0.031811234 0.029281214
0.06391679 0.0455809 0.134211 0.004545918 0.107484564 0.042367514 0.17078389 -0.11524507
0.17485504 0.14857294 0.14899935 0.05718779 0.11099941 0.13472353 0.09840959 0.13022766
0.19111693 -0.14422281 -0.031313818 0.035596076 0.23304315 0.28655154 0.22331594 0.03085113
0.2458418 0.014607536 -0.030540653 0.25567544 0.15072365 0.09872881 0.004861159 -0.034084048
-0.012564449 0.18223545 0.04002569 0.259406 -0.024432953 0.04987422 0.12999885 0.33652648
0.10197906 0.10461649 0.040717255 0.010727665 -0.1107498 0.080559276 0.061768617 0.057094064
-0.10631901 -0.09558401 0.054011516 -0.009651627 0.07752909 -0.079320185 -0.10043289 0.05863705
-0.025832867 -0.06519026 0.16038217 0.022246255 0.09362933 -0.15765648 0.21027097 0.09544816
-0.036492646 0.14594248 -0.06977772 -0.12150501 0.06521994 0.21786752 -0.104334496 0.013573699
-0.23219003 0.12540546 -0.09457478 -0.11549066 0.08445897 -0.047234427 -0.009636734 -0.16308473
-0.0059089977 -0.015562602 0.047708433 0.022964092 0.13366775 0.17450953 0.09385872 -0.15642035
0.13720012 0.1082175 -0.15543386 -0.028602958 -0.012671923 0.0043868264 -0.08587984 0.026002424
-0.049456295 -0.08026776 -0.03313543 0.103153735 -0.08692056 -0.03300422 -0.13296217 0.09667647
-0.059177004 -0.002262584 0.037108045 0.18497297 -0.13007246 0.0647453 -0.15268338 0.13109763
0.08909441 0.31843486 -0.09220147 -0.026932092 0.10945436 0.0012436145 0.2559735 -0.052491702
0.13040014 -0.079454854 -0.005828955 -0.021389842 -0.060290102 0.14485914 0.13056003 0.054330267
0.12847963 0.25792423 -0.10268637 0.016524883 -0.037933182 0.042413864 0.023062082 -0.046515416
-0.046869613 -0.13091724 0.32469454 -0.12224894 -0.16192551 0.22705474 0.1043863 0.3337289
0.037000738 0.18366866 0.053073272 0.05263186 0.034823366 0.10697305 0.08528538 -0.025233516
0.102177896 0.19198973 0.07242987 0.06475117 0.054527998 0.050537176 0.09085549 0.03715244
0.14403993 0.10808816 0.0651462 0.01496479 0.031956367 -0.0051029325 0.09508568 0.012017905
0.16727488 0.008979394 -0.011058533 0.22724113 0.10110274 0.21026991 0.18598382 0.04152526

lstm.weight_ih_l1 f4 [256, 64]
00000000: 4338 85be 49d6 9dbe 82d0 f73d 8c42 a2bd
00000010: adf6 04be 9d18 b9bd 1885 03be c5a7 1e3e
00000020: e743 623d 558a 12be efbf c63b a1d1 d1be
00000030: 59cb 3f3f ba9f f93c fae2 fe3d 5c3d 26be
00000040: dbec c4bd 3b50 983e d4e9 453c 5620 cabd
00000050: 234c 213e e01c 03be 2331 bbbe 71c6 173d
00000060: 6d8b 4b3e 46c0 843d aa22 bfbd e785 ccbe
00000070: d524 1d3e 96c8 b83d d4db 21bf df1f 12bd
00000080: 0738 e2bc 5c68 353e 2dba a23c f279 c03e
00000090: 19d2 753e 1f1e 1c3c f750 1dbb c13c ad3d
000000a0: e427 7b3e 4a33 083e 081a c4bd e689 c03b
000000b0: 3527 a9be 67af 64be 25a4 0abd cf42 9c3e
000000c0: 1b72 e6be 2a10 27be 1b4e b03e 0e64 cd3e
000000d0: b317 a1bd f835 093d 3392 0cbe 4203 ed3e
000000e0: be42 f53d 791f 833e 9fbe 0a3e 2599 17be
000000f0: 56ba a2be 9b12 883c 4195 62be 019a 0c3e
00000100: 425d 283e 4343 f1bd 80ce 5a3e d508 083e
00000110: d51a 103e 2432 3d3e bfb7 5cbe 7382 9b3d
00000120: ec8c 9f3c 4fcc 97be 9e79 1c3e 16ab d2be
00000130: d4f1 1ebe bebf d73d b0f1 32be 9cbb d93d
00000140: ce2a 8bbe 14b7 7f3e 330c 6a3e 9b13 8c3a
00000150: 27ca 4bbe 0066 aa3d c1c0 a1bc 0f7c b3be
00000160: 1514 7b3e 5c7e 2abe 2306 7cbe 3af2 91be
00000170: 5a61 1f3b b279 233d 358d 82bc 064a 67be
00000180: 191a 123e 854c f6be 06a4 5d3e 61af f4bd
00000190: 26b9 9e3e 51d1 bebb 06a0 2cbe 1f58 cabe
000001a0: 5707 0b3e 542c a63e 5d0b 87be 7c6f d73e
000001b0: 4e99 bcbd e65f 3b3e bf6f 46be 32fe b53e
000001c0: f5de 39be 1ecf 91be c9cd f23d 0f01 413e
000001d0: 3544 853c b3be d3bc 210f 74bd dbb8 0dbd
000001e0: aa7a 373e 3fe5 16be dbb9 803d c0b1 bbbd
000001f0: b3dc 9dbe 9d69 ba3e a82b b4bd f119 2c3e
00000200: 86f8 03be 6a50 53be 30c2 643c b94d 3dbe
00000210: 11b0 593e b4c6 6d3e ae7a f8be f0be 6abd
00000220: fa4e c2bd f3b3 a93c 8bad b23d e889 4ebf
00000230: 9c3e 07be 480e 7cbd a1be 053d ff4a 6fbe
00000240: dc35 c9be 4429 a5be 4e58 783e c3ec 95be
00000250: 5287 c3be 26c4 bebe 7b17 0e3e 8880 883e
00000260: a9c2 8a3d 0345 27be fc9d 14be e198 9fbb
00000270: 4d4b 393f a62b e73e 3e68 0e3e f8a3 473e
00000280: d046 783e 0904 ddbd 624b 753d 698f d83d
00000290: f938 bd3e bc5e 28bf 43e0 39bf b93c c83e
000002a0: c653 43bc 9a4f afbe 7e64 763d 2a18 9e3e
000002b0: 9321 dd3e 55f7 59be 01aa cfbd 339d cabd
000002c0: f79a c73e fab4 4f3e 22ad 9abe 932c be3e
000002d0: be7d 043c d6cc 1b3e abbd 543e 01ff 95be
000002e0: 566f c2bd 456b e5bd 0e54 52bc c2c9 733e
000002f0: 4ff1 d93d d2be 9b3e 9fd9 8d3d b82e debe
00000300: 45cb 323e 1fd8 233c 5a72 1b3e ce94 b3be
00000310: fc8c 53bd 5eab 853e 281f 1e3e 448d d33e
00000320: 8756 61bd ddee dabd 82e6 a6be 8b8b 9c3d
00000330: b8a2 5e3e e45a 0fbe d4f5 163f fe2c d8bd
00000340: 55f0 153f 6b7e f23d c4de 67bd 920e 753e
00000350: b0ad 3c3e 1da8 acbc 110b 84be e9e7 16be
00000360: 2cb9 e7bd ed8b 243f c795 f1be 47b1 353d
00000370: f590 d53e 07bd b23d 4046 7cba 8f49 cebe
00000380: 0b75 813e c6be c8bd 5080 943d 69e1 c33d
00000390: 5e86 193f fc80 a73e df1e 80be 469f 713e
000003a0: f6ed 8e3e 1162 b0bd 2284 37be 92ee cf3e
000003b0: a4d9 4bbe 45fa 31bd d40f 84be dad0 84be
000003c0: 0901 d63b 6e06 65be 57b9 793e cb3d 323e
000003d0: e03c debe c516 f5bd 31a2 75be 061b c83e
000003e0: ded8 f1be 0720 c9bd 08dd c63d da0e 0dbe
000003f0: ddc3 803e 010a 8a3e 6500 ecbe 257d 513e
-0.26019487 -0.3082755 0.121003166 -0.07922849 -0.12984724 -0.09037898 -0.1284374 0.15493686
0.055240538 -0.14310582 0.0060653607 -0.40980247 0.7491966 0.030471671 0.12445636 -0.16234344
-0.09615489 0.2974871 0.012079675 -0.09869449 0.157517 -0.12803984 -0.36560926 0.037054483
0.19877405 0.06481986 -0.093327835 -0.3994591 0.15346082 0.09022634 -0.63226056 -0.035674926
-0.027614607 0.17715591 0.019864166 0.37593037 0.24005927 0.009528666 -0.0024004558 0.084588535
0.24526936 0.13300815 -0.095752776 0.005875814 -0.33037725 -0.22332536 -0.033847947 0.3051972
-0.4500893 -0.1631476 0.3443459 0.40115398 -0.078658484 0.033498734 -0.13727646 0.46291548
0.11975621 0.2560995 0.13549279 -0.14804514 -0.31782788 0.016610434 -0.22127248 0.13730623
0.16441825 -0.11780407 0.21367836 0.13284619 0.14072736 0.18476158 -0.21554469 0.075932406
0.019476376 -0.29648063 0.15280768 -0.41146153 -0.15521938 0.10534619 -0.17475009 0.10631487
-0.27181095 0.24972183 0.22856216 0.0010686995 -0.19901334 0.08320236 -0.019745233 -0.35055587
0.2451938 -0.16649765 -0.24611716 -0.28505117 0.00243195 0.03991098 -0.015936473 -0.22586831
0.14267768 -0.48105255 0.21644601 -0.11947513 0.31000632 -0.0058232923 -0.16857919 -0.39520356
0.13577019 0.32455695 -0.26375857 0.42077243 -0.09208928 0.18298301 -0.19378565 0.35545498
-0.18151458 -0.2847833 0.11855657 0.1884806 0.016267875 -0.025847768 -0.05958474 -0.03460012
0.17917886 -0.14735888 0.06285449 -0.091647625 -0.30832443 0.36408702 -0.08797389 0.16806771
-0.12887773 -0.20636144 0.0139623135 -0.1848668 0.2125857 0.2322033 -0.48531097 -0.057311
-0.0948772 0.02071569 0.08724507 -0.8067918 -0.13207477 -0.061537057 0.0326525 -0.23368452
-0.39298904 -0.32258046 0.24252436 -0.29282197 -0.3818918 -0.37259024 0.13876145 0.26660562
0.0677541 -0.1633492 -0.14513391 -0.0048705195 0.72380525 0.4515049 0.13906953 0.19496143
0.24245763 -0.10791785 0.059886344 0.10574228 0.3695753 -0.65769553 -0.7260782 0.39108828
-0.011921829 -0.3424042 0.06015443 0.3087781 0.43189678 -0.21285756 -0.101398475 -0.098932646
0.38985416 0.20283881 -0.30210215 0.37143382 0.00808662 0.15214857 0.20775478 -0.29296115
-0.09493892 -0.11202101 -0.012837423 0.23807433 0.10641729 0.30419022 0.069262736 -0.4339502
0.17460354 0.010000258 0.1518034 -0.35074466 -0.051648125 0.26107305 0.15441573 0.41318715
-0.05501416 -0.10690091 -0.32597739 0.07643803 0.2174176 -0.13999516 0.58968854 -0.105554566
0.5856984 0.118405186 -0.05660893 0.2393134 0.18425632 -0.021076256 -0.25789693 -0.14736904
-0.113146156 0.6427601 -0.47184584 0.044358518 0.41712156 0.0872746 -0.0009623505 -0.40290496
0.2528461 -0.09802012 0.07251036 0.09564478 0.59970653 0.32715595 -0.25023553 0.23595914
0.27915925 -0.08612455 -0.17921498 0.40611702 -0.19907242 -0.043451566 -0.25793326 -0.2594059
0.006530885 -0.22365734 0.24387108 0.17406385 -0.4340582 -0.119672336 -0.23987652 0.39083117
-0.4723577 -0.09820562 0.09710127 -0.13775197 0.25149432 0.26960757 -0.4609405 0.20457895

lstm.weight_hh_l1 f4 [256, 64]
00000000: fadf 173e c0c7 6c3e 67f9 1bbd 7a21 46be
00000010: 16fb 393e daad c1bc bd0c 803e 3ef2 533d
00000020: 450d a1bc 7390 ddbd bd83 793e 89de 27be
00000030: a946 60be a5aa f8bd 4d38 1bbe 0d9d a0be
00000040: e316 82bd d287 3dbe 3217 c8bd 2685 a9bd
00000050: 1acb d33d 045e 143d ea36 a23d ff3d 97bd
00000060: a1c3 5b3e 2711 533c a1cc 99bb 8912 1b3e
00000070: 5aa3 27be 35dc 14be 9517 9d3e 7f8b d23d
00000080: b1f6 003c da9b 213e 100e fa3d d7e2 acbe
00000090: a268 27bc 03c7 913d d483 073d b5d1 bdbe
000000a0: ca0a b0bd 5c77 00bd 02e3 af3d 6859 64be
000000b0: fd8c 1e3e 1a5b 49bb d48f 4e3e ffe0 d53e
000000c0: 6327 35bd 3375 7fbd 37db ce3e 67d8 92bd
000000d0: 9a5b 82be ef63 88be 34e6 e3bc ed54 1fbd
000000e0: 8ce7 273d 1ecc 44be 2c0f c63c 9eb6 46bc
000000f0: 6933 b4be cb4f e7bc 6968 983c 9476 c8bc
00000100: 0e00 66be 5a46 41be b7c0 e03c 83e5 aabe
00000110: 24ca da3d 2b7a 583c 279b 3a3e 5808 7c3e
00000120: ed23 24be 6b98 0ebe 8ddb 2cbc d647 44be
00000130: f772 993d 6234 0cbe d57b 2dbe 26bc 0b3e
00000140: bc04 05be f469 90be f916 29bd e9ad af3d
00000150: 94a8 fa3d 660b 9d3e 2475 4bbe 94c3 c0bc
00000160: fc00 26bd 434b 26be 33ee 05be c9c0 9cbc
00000170: 7c43 40be dbda 9abe 5371 303c 4d89 bbbe
00000180: 0988 bf3c 2b3a 0dbd d251 8bbe 7622 193e
00000190: 525d 8dbd d66d 39be 97fe da3e 6a93 8c3d
000001a0: a313 a1bd e922 b83d efa2 c23d ce69 6abd
000001b0: aaf5 963d 2b06 06bc 87d4 6c3e c43f 33bd
000001c0: d69c 32bc 127c d93d 4186 b2bd ed95 8f3e
000001d0: e739 473d bdd6 15be 78a4 823e 0687 87be
000001e0: a746 c9bc e751 debe 61a6 91bb e15c 4dbd
000001f0: 40ea 1dbe 30b2 bcbd ed72 2fbd c08c ed3b
00000200: c82b 23be 64b0 2d3e 60b4 0abe bb88 12be
00000210: aea9 8c3d 4c79 ecbb 912b a4bd ba74 59be
00000220: ad8a 603e b9d5 07ba b0db e43d dc7c 63be
00000230: 0258 04bd d39f b7bd ac27 243e 4d35 6bbe
00000240: 46f6 4abd 0392 aebd 7cb1 6dbc 9a3b ce3c
00000250: 3aca 953e c635 123e 48c5 abbd b8a2 6fbe
00000260: c5b6 6c3e 7892 adbd 8007 df3d 1650 0a3e
00000270: 9077 23be e920 d63d bfe0 783e 6e0f 60bc
00000280: 44b9 873e bdc8 823e 204a a63d 1dda f3ba
00000290: caf4 343e 4735 553e ac3e b1be 1f83 0b3e
000002a0: 5d19 303e 5d53 e13d 5af4 5d3d 1924 0c3c
000002b0: a46d 863d 3b95 ac3e 2975 063e 19c5 bd3d
000002c0: eb18 f9bd 2de9 06be c89b 84bc 714f 21be
000002d0: 8226 133e d0cf 363e 1ae3 81bd acc6 b5bc
000002e0: 2096 e13d 40cc c6bd f1d9 e83d ca47 0c3e
000002f0: bfcc 0ebe d33b a3be 2bcf adbd ca35 903d
00000300: 6179 eb3c 0a9d f93e b790 2bbe 445a 423e
00000310: fd33 cc3e 784a b5bc 755a acbd afd4 ccbd
00000320: 6246 ae3c 999d 503d af4e 7f3d 0fb3 c0bb
00000330: b4bb 36bd f5a0 cdbd ff8c aabd 1077 05be
00000340: d3f0 92bd a03f 263e 720d bcbd 7920 39be
00000350: ff06 83bd 74e3 763e 57aa 3c3e 05ed 5e3b
00000360: 3f48 56bc d54e c5bd 0c8e 29bd e225 e23d
00000370: 007c 0abf 815c 86bd b6c7 ccbd 307d 033e
00000380: f5cc 30be 9bef 853e 5f29 533e 0327 873e
00000390: 86a2 45be 7a1c f53e 3d62 3bbe c194 d83e
000003a0: 016d f23d 91b0 383d 1edb 0c3e 517c e13c
000003b0: d99b ab3c 13df 743e 1168 31be 8b18 83bc
000003c0: e2f9 5ebe 9610 5d3d 9203 0a3d 9c25 8fbc
000003d0: 3c34 87be 3107 833e 1a55 d1bd 4c21 89be
000003e0: 70ab b03d f870 933e f627 303e 8434 263e
000003f0: 4196 3e3e 87be 8cbc 753d 10be 8761 ed3d
0.14831534 0.23123074 -0.038079645 -0.19348708 0.18162188 -0.02364247 0.2500972 0.051744692
-0.019659648 -0.10818567 0.2436666 -0.16393484 -0.21901955 -0.12141923 -0.15158196 -0.3136982
-0.063520215 -0.18508843 -0.09770049 -0.08277349 0.10341473 0.036222473 0.0792063 -0.07384872
0.21461345 0.012882507 -0.004693583 0.1514379 -0.16370907 -0.14537127 0.30682054 0.10280513
0.007871316 0.15782109 0.122097135 -0.33766815 -0.0102178175 0.071180366 0.033084705 -0.37074056
-0.08595808 -0.03136383 0.0858822 -0.22299731 0.1548347 -0.0030724467 0.20172054 0.4177322
-0.044227015 -0.06236763 0.40401623 -0.07170182 -0.2546051 -0.26638743 -0.02781973 -0.03889935
0.040992305 -0.1921849 0.024177156 -0.0121285 -0.35195473 -0.02823629 0.018604474 -0.024470605
-0.22460958 -0.18874493 0.027435644 -0.3337823 0.106830865 0.013212721 0.18223248 0.24612558
-0.1602933 -0.1392533 -0.010550392 -0.19168028 0.07492631 -0.13691857 -0.1694177 0.13645992
-0.12990087 -0.28205836 -0.041281674 0.085780926 0.12239185 0.3067276 -0.19868904 -0.023530759
-0.040528283 -0.16239648 -0.13079147 -0.019134896 -0.18775743 -0.30245098 0.010769206 -0.3662819
0.023380296 -0.0344793 -0.2721086 0.14954552 -0.06902565 -0.18108305 0.42772362 0.068640545
-0.078650735 0.089910336 0.09503733 -0.05722981 0.073710755 -0.0081801815 0.23127948 -0.043761984
-0.01090165 0.10619368 -0.08717013 0.28044072 0.048639204 -0.14632697 0.25516105 -0.26470202
-0.024569822 -0.43421862 -0.0044448827 -0.050137404 -0.1542139 -0.09213674 -0.04283421 0.0072494447
-0.1593467 0.16961819 -0.1354537 -0.14309971 0.06868301 -0.007216608 -0.08016122 -0.21235934
0.219279 -0.00051816885 0.111747146 -0.22215599 -0.032310493 -0.08966031 0.16030759 -0.22969551
-0.04955127 -0.08523943 -0.014507648 0.025174905 0.2925585 0.14278325 -0.08387238 -0.23401916
0.23116596 -0.08475202 0.108901024 0.13507113 -0.15963578 0.10455496 0.24304484 -0.013675554
0.26508534 0.25543776 0.08119607 -0.0018604432 0.17671505 0.20821105 -0.34618127 0.13624237
0.17197175 0.110022284 0.05418811 0.008553528 0.06563881 0.33707604 0.1313063 0.09266109
-0.12162956 -0.13174887 -0.016187564 -0.1575296 0.14370158 0.17852712 -0.06342144 -0.02218946
0.11014962 -0.09706926 0.11369694 0.1369926 -0.13945292 -0.3188158 -0.0848678 0.070415094
0.028744401 0.48752624 -0.16754423 0.18979746 0.39883414 -0.022130236 -0.08415691 -0.10001504
0.021273796 0.050931547 0.062330898 -0.0058807204 -0.0446126 -0.10040466 -0.08327674 -0.130337
-0.0717484 0.16235209 -0.09182252 -0.18078794 -0.06397819 0.24110204 0.18424354 0.0034015786
-0.013078748 -0.09634177 -0.041395232 0.11042382 -0.5409546 -0.065606125 -0.09999029 0.12840724
-0.17265685 0.26159367 0.2062125 0.2639695 -0.19300279 0.47873288 -0.18299194 0.4230099
0.11837197 0.04509026 0.13755462 0.027525099 0.020948337 0.23913221 -0.17324854 -0.016002914
-0.2177501 0.053970896 0.03369481 -0.017473988 -0.2640704 0.25591424 -0.1022131 -0.26783216
0.08626449 0.28797126 0.17202744 0.1623097 0.18612005 -0.017180694 -0.14085944 0.115908675

lstm.bias_ih_l1 f4 [256]
00000000: 6e05 2d3d 6a10 9fbd 729c cd3d d487 753e
00000010: 488f 5fbd 5047 ecbd fa9a a13e 49b3 39be
00000020: 67e3 e0bd ad4f 8f3e a6b0 9abd a945 c53e
00000030: 73ed 99be b291 87be a86a 18be 387f 1ebd
00000040: 844c 27be 2bd5 0c3e 3b7b 31bd a833 943d
00000050: 4037 953d 5f0d 05bd 6f41 fbbd 25ab 833b
00000060: 00a7 01be cd15 a3bd 673b 04be ba3c 133e
00000070: 55a2 13bd 84f2 693e c1b4 cf3c 1d70 e9bd
00000080: 895a 38be fe60 1f3d a125 2bbe 84f6 c73c
00000090: 3027 5abc 0b56 833d 99e3 953d c185 eebd
000000a0: 7686 d4bd 7408 2cbe efca b1bc 8d6c 373d
000000b0: 062c 09be e76e 10be 3e04 5bbe 8442 973d
000000c0: 45de 70be 0778 463c da19 5fbe 0559 993c
000000d0: 40de 33be 16d6 e93d b566 6f3d 0e87 11be
000000e0: d112 e9bd 59df 86be 0be0 d8bd aac9 1bbd
000000f0: 4aff 953d 8c54 c73d 5dfa febd 10e5 1cbe
00000100: cda5 613d d11f 04be 1026 1ebe 069c 94be
00000110: e7ee a1be 90ef 8d3d a172 cdbe 06ef efbd
00000120: 26f6 a2bc 4007 f1bd 9447 1c3e 8fc5 b2be
00000130: 307a cbbc 42fd 6dbe 25e7 1f3e c10c 843e
00000140: 76fe 5b3e d7a2 28be 13ff 223e 816f d03d
00000150: 605b e63b 4b85 67bc 3c6d 9a3d 98ca 35be
00000160: c8b4 c9bd ec72 bdbd 8efe 2b3d 5aac 4abd
00000170: ee93 e23d f89b 93be 174b bdbe 6a50 18be
00000180: 621d cfbd 9ee4 293e 9ece 463e f0c5 b5be
00000190: d36a 7cbc 7f37 b6bd 376a 613e 622b 073d
000001a0: 82f3 6b3d becb 513d f14d 523e d98e a2bd
000001b0: 7b5c 0f3e 0c03 673d 98c1 f5bd cf22 06be
000001c0: 2259 6f3e 206f 803d d7db c7bd eeec 60be
000001d0: 3b3a b7be 0735 4dbe 342f 36be 0a20 8c3d
000001e0: 91ab 27bd fa4f 6cbd 78f7 b83b 5eee 2f3e
000001f0: 56bb a53b f634 dbbd e8c6 42be 3a59 ae3c
00000200: f252 0dbe 9793 f03d c81b a0bd 86b6 e4bc
00000210: f180 633c d956 e43d 7912 bbbc 0afc b0bd
00000220: dd9b 713d 2e03 c2bd e084 7dbd a09d 08be
00000230: 8bd1 80bc 7b7f f33c b239 533e c6aa 15be
00000240: c0d6 173b 208b c6bd fe62 17be 8444 d23d
00000250: f031 11bd 92f2 083e 2ac9 19be d509 72bd
00000260: a585 133e ee93 86bc 985d be3d 466f 4abd
00000270: 9cf8 76bd 5d11 903d 131a bfba 1b9e 533d
00000280: 80f9 bd3d 5c4a 123e d8ec 0f3e b0ba e0bd
00000290: 7602 be3d 6053 bcbb 21fa d23c 75a7 f8b9
000002a0: 10e4 ae3d 6de3 00be cf8f 063c c4fe 40bb
000002b0: cca4 d23d 8d9a f83d 9641 1d3d c081 9b3d
000002c0: 8404 e9bc d93c 99bd 6e85 193e e08d 513e
000002d0: a503 3a3d 9ae6 9b3d d541 b03d b0bc 95bd
000002e0: c7ca 7dbd 36b4 c93d a9ef 8a3d 2ea0 073e
000002f0: db6a b5bd 2dad d8bc d5f0 babc bedc 22be
00000300: 6991 963d 81d2 2bbe fa0a e93d 6ea3 7b3e
00000310: 8732 443d cc14 d93c d44d 8c3e de47 46be
00000320: 5b67 64be 3e35 8f3e 3c30 07be 9943 ff3e
00000330: 6c01 8ebd a62a 2dbe c9d3 93be 5ab0 71be
00000340: 767d b9bc 5963 3f3c 2d4e 9f3a fa39 5ebc
00000350: ae04 043e efc0 4b3e e710 263d 5720 073e
00000360: d3d0 5abe 9bf4 21be 1573 28be 6de5 9dbc
00000370: fea5 41bd 371b 2a3e 0819 e03c ea27 37bc
00000380: 71a9 0dbd c052 8ebb 6ad3 cbbd d140 893d
00000390: 8d1e 5dbc 7d31 4abd a0e1 ca3d aebb b73d
000003a0: b6f6 10bd c2d7 b83d 6dc8 213d 7aaa 0e3c
000003b0: f8fa 92bc a913 9abd a977 77be eb00 dd3d
000003c0: f217 15be 4ae1 4ebe 93a7 3dbe 4473 22bd
000003d0: c621 e7bd 3f80 a7bd 9b77 733e d844 88bd
000003e0: ceeb 48be 8658 a3be 2ea5 ab3d 1087 7ebd
000003f0: 4451 963d 7dec 20bd 6af2 d5bd c103 8ebd
0.042241506 -0.077668026 0.10039605 0.23977596 -0.054580003 -0.11537039 0.3156355 -0.18134798
-0.109808736 0.27990475 -0.07553224 0.3852971 -0.30063972 -0.26478344 -0.14884436 -0.038695544
-0.16337782 0.13753192 -0.043330412 0.07236415 0.07285929 -0.032483455 -0.1226834 0.0040182048
-0.12661362 -0.079631425 -0.12913285 0.14378634 -0.036043484 0.22846419 0.025354745 -0.11398337
-0.18003286 0.03891086 -0.16713573 0.02440954 -0.013315007 0.06412896 0.073188014 -0.11646605
-0.10377209 -0.168001 -0.021703212 0.044781256 -0.133957 -0.14104806 -0.21388337 0.07385734
-0.23522289 0.012113578 -0.21787205 0.018719206 -0.1756525 0.11417787 0.05844756 -0.14211676
-0.11380542 -0.26342276 -0.10589608 -0.03803412 0.07324083 0.09732923 -0.12450097 -0.15321755
0.05508976 -0.12902762 -0.15444207 -0.29025286 -0.3162758 0.069304585 -0.40126517 -0.11715512
-0.019892763 -0.11768961 0.1526168 -0.3491635 -0.024838537 -0.23241141 0.15615518 0.2579098
0.21483788 -0.16468368 0.15917616 0.10177518 0.0070299357 -0.014130901 0.07540366 -0.17753065
-0.098489344 -0.09250435 0.04199081 -0.049480774 0.110633716 -0.28829932 -0.36971352 -0.14874426
-0.10113026 0.16591117 0.19414756 -0.35502577 -0.015406328 -0.08897304 0.22013174 0.033000357
0.057605274 0.051219694 0.20537545 -0.07937402 0.14000122 0.05639939 -0.11999816 -0.13099216
0.23373845 0.062711954 -0.09758728 -0.21965382 -0.35786614 -0.2003976 -0.17791444 0.068420485
-0.040935103 -0.05769346 0.005644735 0.17180774 0.0050577326 -0.10703461 -0.19021189 0.02128278
-0.13801172 0.117469005 -0.07817799 -0.027919065 0.0138857225 0.111493774 -0.022835957 -0.08641823
0.058986533 -0.09473263 -0.061894298 -0.13341379 -0.015724918 0.029723873 0.20627478 -0.14615926
0.0023168772 -0.09694505 -0.14783856 0.102669746 -0.035448015 0.13373783 -0.15018144 -0.059091408
0.1440645 -0.01642796 0.09295195 -0.049422525 -0.060295686 0.07034562 -0.0014579914 0.051664453
0.09276104 0.14286178 0.14055192 -0.10973108 0.09277813 -0.0057472438 0.025754036 -0.0004742701
0.08539593 -0.12586756 0.008212998 -0.0029448727 0.10285339 0.12138853 0.038392626 0.07593107
-0.028444536 -0.07482309 0.14992306 0.20464277 0.045413632 0.07612343 0.086063065 -0.0731138
-0.06196096 0.09848826 0.06783993 0.13244697 -0.08858272 -0.026449764 -0.022819916 -0.15904519
0.073519535 -0.1677952 0.11379047 0.24574062 0.04789975 0.026499175 0.27403128 -0.19363353
-0.22305052 0.27970308 -0.13201994 0.4985626 -0.06933865 -0.169108 -0.28872517 -0.23602429
-0.022642832 0.011681401 0.0012154036 -0.013563627 0.1289241 0.19897817 0.040543463 0.1319593
-0.21368723 -0.15815966 -0.1645015 -0.019274438 -0.047277443 0.16611944 0.027355686 -0.01117895
-0.03458542 -0.0043433607 -0.099524334 0.06701816 -0.013496053 -0.049363602 0.09906316 0.08971344
-0.035391532 0.090255275 0.03949778 0.008707637 -0.017941937 -0.07523281 -0.2416674 0.10791191
-0.14559916 -0.20203128 -0.18520956 -0.039660707 -0.11285739 -0.08178758 0.23776095 -0.06653756
-0.19621202 -0.31903476 0.08381115 -0.062140524 0.07339719 -0.039288033 -0.104466274 -0.0693431

lstm.bias_hh_l1 f4 [256]
00000000: 4074 b3bd f3d9 2e3d d887 1f3e 42a9 9d3d
00000010: c388 0bbd a875 adbc 0fbe 853e da2f ecbd
00000020: 97f5 2bbe 605d 813e 0a79 d4bd 362b 973e
00000030: 6c8b 28be 9dcf d6be e0fd 80be 2e5b 4cbe
00000040: 2a06 00be 8106 533d 2be9 913c 4ac7 923c
00000050: 02fb be3b 8b29 50bd f209 0dbe 8e27 a83c
00000060: 0624 a2bd 4378 62be 6045 91bd 19c4 a43e
00000070: f871 0b3d 7cdb 7bbc 5d7d 45be 5d05 f5bd
00000080: 4b4b 33be 3d18 833d 13d5 53bc 7543 1b3e
00000090: 7b2e a63b 55e4 483e 1b3f 503d f7a5 733c
000000a0: 529c 7bbe 7e17 e03c 08e7 6b3d acd1 a3bd
000000b0: e2bb 3b3d 87ab 14be 2cfd 8cbe d4aa 333e
000000c0: 0c27 8ebe 4ae0 883d cc32 47be 9a27 e4bd
000000d0: c8bc 4cbe f66e c83b 92c2 6ab9 9191 9d3c
000000e0: 1320 0ebd 3d66 13be d5fd b6bd 6c54 a63d
000000f0: 8746 41bd 6fc7 e13c 0172 82be 6f02 f1bd
00000100: 19c0 12bd bd08 28be d9a4 7bbe a30f 4cbe
00000110: 7dd6 b9be 5c28 d0bd 552f 4ebe 2af5 2ebe
00000120: 9dd7 d33c d051 53be ccfd 963d 1a83 b9be
00000130: cd0e 6cbd 7726 1abe f618 143d a08c 993e
00000140: c249 333e 6ebd f9bd 253d 5c3e 2f89 8cbd
00000150: f944 053d 2b86 7bbd 2ec8 1fbe 1630 61be
00000160: 93ed 10be 1cdf c43d 0ea1 943c a45a 4dbe
00000170: 4ad0 4d3d 8a9a 54be 9174 bfbe a708 8fbd
00000180: 30a7 e83d 0d29 443d aaa4 533d 3b6b 01bf
00000190: 437b dbbd f010 a83d 4d52 7e3e 16e8 59bd
000001a0: c070 533c 3fa1 bcbd d100 283e dd92 1d3c
000001b0: 2ffc fcbb c1d7 36bc 9d66 d0bd 1d74 9abd
000001c0: ca68 213e 12af 5e3e 6728 31be a77c 32be
000001d0: 6de5 b1be 5371 45be 833c b0be 71ac 873d
000001e0: 8a14 4c3e 30a8 aebd 821e b33d 114d b43d
000001f0: ae9a dc3c fe9e 35be 60ca 8bbe 90ad fbba
00000200: c29f 51bd 6855 a83d b75d 743d 36f3 9bbd
00000210: 7b5b 5c3d ed0a a23d 33cb fa3b c0e4 fabc
00000220: 1446 27bd 413f 863d def6 ff3c 4216 10be
00000230: 8a84 a33c b4ce 21be 611e 413d ab08 98bc
00000240: 9a86 60bd a77a ab3d 6190 4abd 7c74 9d3d
00000250: 94d0 143e 7121 003d 1efa 28bd 9399 c5bd
00000260: 8536 a0bd e95a ae3a 2ad3 83bd 49a1 2b3e
00000270: 2750 88bd a895 333c e4d6 d33c 02cd bd3d
00000280: e83c 733d fb65 62bb 76ae 173c f545 18bd
00000290: 1a9b b4bc 100d 9f3d 258b 99bd 22a8 aabd
000002a0: c377 ea3c 3a83 d3bd 8173 923d 3d5c c4bd
000002b0: 095e 103e 9200 583d 7041 97bc db77 fe3d
000002c0: f938 a9bd 4218 8cbd 1b92 d03d 482a 6f3d
000002d0: 1cff dabd b1ca acbd 52f3 a13c 9eb0 30be
000002e0: 245c 2cbe 37db 64bc f8ed 113e f666 aebd
000002f0: 6a89 febd a49d d6bd 0210 91bd df6f 0abe
00000300: 13d4 8dbc f81d 2ebe 0c9e 803e 0ed6 003e
00000310: 1973 c8bd 1968 c0bd 700c 973e 6925 2dbe
00000320: 3fb2 65be 90ac b23e 0900 e0bd 254e 093f
00000330: 0b7d 763d c2a4 a3be c9f0 84be c08b 4dbd
00000340: 8a70 59be 3837 113d 5ee8 953d 424b e03d
00000350: f1bd da3d 0948 f03d 7635 71bd 2ad2 4a3a
00000360: ee25 c7bc 46ed 85bc 13e6 c4bd 6ad5 dbbb
00000370: fca8 4d3d 4824 623d 775a 1fbd c38a a83d
00000380: 0d1b 72be 0e81 bebd 9cf4 c43c e91d 883e
00000390: c072 c2bd 64dc 0e3e 2c2f b7bc c99a dd3d
000003a0: bda7 22be 53c8 a43d 7d2b 1fbe 81e4 51bd
000003b0: 8eaa 26bd 390f 4bbe 0ba6 85be 37ba 843d
000003c0: 2929 5bbd 3017 6ebc 88a6 28be 9a5d 9bbc
000003d0: 785e e3bc da76 c93d 4256 7f3e 070a 623a
000003e0: ceb3 0cbe ae31 07be de9c e3bc 30ca 9f3d
000003f0: 7d0f 3cbc 6f5d 57bc 49a6 6cbe 3b99 0dbe
-0.08762407 0.04268832 0.15579164 0.07698299 -0.034065973 -0.021174267 0.26121566 -0.115325645
-0.16792904 0.25266552 -0.10374649 0.29525155 -0.16459435 -0.4195527 -0.2519369 -0.19956657
-0.12502351 0.051519874 0.017811378 0.017917294 0.0058282623 -0.05082087 -0.13773325 0.020526674
-0.07917027 -0.22116189 -0.0709331 0.3218086 0.034044236 -0.015372153 -0.19286104 -0.119639136
-0.1750919 0.064011075 -0.012929219 0.15162452 0.005071459 0.19618352 0.050841432 0.014871112
-0.2457135 0.027354952 0.057593375 -0.07998976 0.045833476 -0.14518557 -0.27536905 0.17545635
-0.27764165 0.06683405 -0.19452971 -0.11140366 -0.1999389 0.006116743 -0.00022388462 0.01923445
-0.034698557 -0.1439447 -0.08935133 0.08121571 -0.0471864 0.027560918 -0.25477603 -0.11768042
-0.03582773 -0.16409583 -0.24574603 -0.1992784 -0.36296454 -0.10163948 -0.20135243 -0.1708571
0.025859648 -0.20636678 0.07372627 -0.36232835 -0.057631303 -0.15053736 0.036156617 0.299901
0.17508605 -0.12194334 0.215077 -0.06862103 0.03253648 -0.06140725 -0.15603706 -0.21991
-0.14153127 0.09612867 0.018143203 -0.20054108 0.050247468 -0.20762077 -0.3739362 -0.06984072
0.113600135 0.04789071 0.051670708 -0.50554246 -0.1071687 0.082063556 0.24836083 -0.05319985
0.0129053 -0.09210443 0.16406561 0.0096175345 -0.0077204923 -0.011159838 -0.10175822 -0.07541678
0.1576263 0.21746472 -0.17300569 -0.17430364 -0.3474535 -0.19281511 -0.34421167 0.066246875
0.1992971 -0.08528173 0.08746053 0.08803762 0.026929226 -0.17736432 -0.27302837 -0.0019201506
-0.051177748 0.08219415 0.059659686 -0.07614748 0.05379818 0.0791224 0.0076536178 -0.030626655
-0.040838316 0.065550335 0.031245645 -0.1407099 0.01996066 -0.15801507 0.047148112 -0.01855882
-0.054815866 0.083730035 -0.049454097 0.07688233 0.14532691 0.031281892 -0.041254155 -0.096484326
-0.07822899 0.001330224 -0.06436761 0.16760744 -0.06655913 0.010960974 0.025859304 0.09267618
0.059384257 -0.0034545648 0.009257903 -0.03717609 -0.022046614 0.07766163 -0.07497243 -0.0833285
0.02862156 -0.10327764 0.07150937 -0.095879056 0.14098372 0.05273492 -0.01846382 0.12425204
-0.0826282 -0.06840564 0.101841174 0.058389932 -0.106931895 -0.08437098 0.019769344 -0.17254874
-0.16832024 -0.0139682805 0.14250934 -0.08515732 -0.124285534 -0.10479286 -0.070831314 -0.13519238
-0.017313039 -0.1700362 0.2512058 0.12581655 -0.09787578 -0.09394855 0.29501677 -0.16908802
-0.22431277 0.3489728 -0.10937507 0.53634864 0.060177844 -0.31961638 -0.25964954 -0.050182104
-0.21234336 0.03545305 0.07319711 0.10951854 0.1068076 0.117324896 -0.058888875 0.00077370054
-0.024310078 -0.016348492 -0.09614196 -0.0067087905 0.050209984 0.05521038 -0.038904633 0.08229592
-0.23643132 -0.09301959 0.02404242 0.2658532 -0.09494543 0.1395126 -0.02236136 0.108205386
-0.158843 0.08046021 -0.15543933 -0.05124331 -0.040689997 -0.19830026 -0.26103243 0.0648083
-0.05350605 -0.0145318955 -0.16469777 -0.018965531 -0.027755007 0.09837122 0.24935248 0.000862271
-0.13740465 -0.13202545 -0.027784761 0.07802236 -0.011478302 -0.013144835 -0.23110308 -0.13827984
