Models/Precipitation_Models/mafraq_precipitation_model.pth (torch, 224106 bytes, 11 tensors)

lstm.weight_ih_l0 f4 [256, 11]
000000 b5 89 fc 3d f6 b7 50 3e 58 76 46 3e 63 8a 6d be
       0.12330953 0.20382676 0.19381082 -0.23197322
000010 52 58 62 be c6 89 96 be c6 46 12 3c 74 61 18 bd
       -0.22104004 -0.29401988 0.0089280065 -0.037202314
000020 c7 5c 03 bd 1b 86 4d be 35 88 01 3e cd 53 0f 3e
       -0.0320709 -0.20070688 0.12649615 0.13996811
000030 19 40 fb bd d4 b8 86 3e 9c f7 03 be 42 57 63 bd
       -0.12268085 0.26312888 -0.12887424 -0.055503137
000040 cf cf 2d be 73 b4 2c bd f5 6c 85 3d 9f 02 e3 be
       -0.16973804 -0.042164277 0.065149225 -0.44337937
000050 79 ad f2 bd 66 71 d4 bd cc 4d 08 3e 83 97 2b 3e
       -0.118494935 -0.103731915 0.13310927 0.16757016
000060 d6 e5 85 bd 6a cd 7e 3d f8 2e 36 3e 08 f5 49 3c
       -0.06537978 0.062207617 0.17791355 0.012326486
000070 94 76 74 3e cc 43 f7 bd 0e 3f 01 bf 01 bd d0 3c
       0.23873359 -0.12073478 -0.5048684 0.02548075
000080 59 f0 0f 3e 96 d9 61 3b e6 2d 72 3e e0 ec aa be
       0.14056529 0.0034461967 0.23650321 -0.33383846
000090 1b 73 18 3e 01 aa ae be 20 80 f7 3d 17 89 ac be
       0.14887659 -0.34114078 0.12084985 -0.3369834
0000a0 79 62 12 3c 4c 66 cc bd e4 92 1a bd 21 f1 ea 3d
       0.0089346105 -0.09980449 -0.037737742 0.11471773
0000b0 92 28 12 be 55 17 b5 bd b0 51 9e 3b 25 eb d9 3c
       -0.14273289 -0.08842341 0.0048315153 0.026601383
0000c0 bc 17 41 3d e6 cd ab be 54 c4 20 3f 31 e8 90 3d
       0.047141775 -0.33555526 0.6279957 0.07075537
0000d0 e1 39 8b be 62 53 32 be 54 95 d3 bc b1 8c 3a 3e
       -0.27192596 -0.1741462 -0.025828041 0.18217732
0000e0 4b 8b 93 be 74 7a 72 3e 3b dc 85 3d 1d d7 ae 3d
       -0.2881721 0.23679525 0.06536146 0.08537123
0000f0 6a a5 60 3e 81 38 aa be b4 48 0b bb 0b 5d 1b 3e
       0.219381 -0.33246234 -0.0021253051 0.15172212
000100 df a6 6d bd a1 6f a1 3c be 57 a8 3d 68 3a b2 3d
       -0.05802047 0.01970655 0.082198605 0.08702546
000110 27 6b 0c bd 1a 12 68 3e 9b 46 08 bc fd 2b bf 3d
       -0.034281876 0.22663155 -0.008317615 0.09334562
000120 c4 6e a7 be c4 e7 b8 3d c9 21 87 be a8 4b c8 3d
       -0.32701695 0.09028581 -0.26392964 0.09780055
000130 61 fb 71 be b2 eb 2d 3e b3 52 48 bd 7c 6a 16 3d
       -0.2363105 0.16984442 -0.048906993 0.036722645
000140 e1 79 7c bd 09 a6 5b 3e a0 17 46 be da 10 05 be
       -0.06163967 0.21450056 -0.1934495 -0.1299471
000150 e4 9d 09 3e 29 bc b2 be 98 f2 1f bd c4 d0 2b 3e
       0.13439137 -0.3490918 -0.039049715 0.16778857
000160 0e ff 91 3a fa fa 07 bc da 87 c0 be 44 f7 20 3d
       0.0011138634 -0.008299584 -0.37603647 0.03929831
000170 8a 7f 64 be a8 d8 44 bd eb 5e 3b 3c 2c fa 28 be
       -0.22314277 -0.048058182 0.011436204 -0.16501683
000180 d2 cf 80 be ec 4a b8 3d 17 d1 01 3e ef a9 91 ba
       -0.25158554 0.08998665 0.12677418 -0.0011113266
000190 de 6a 97 be 37 23 cd 3e 13 c6 ed 3c fc 69 53 be
       -0.2957372 0.4006593 0.029025113 -0.20645899
0001a0 ad 08 3e 3e 03 31 1d bd 5e 3c da bb cf 03 57 be
       0.18557997 -0.03837682 -0.0066600284 -0.20997547
0001b0 3c 00 9b 3d 52 28 d9 bd 68 89 ae bd 35 ae b5 bc
       0.07568404 -0.106033936 -0.08522302 -0.022177795
0001c0 6a 40 bc bd c3 7e 4f 3e d5 69 71 be 5c 8b 79 3e
       -0.091919735 0.202632 -0.23575528 0.24369568
0001d0 3a 07 e9 be 06 9b 3e bc 2f b7 43 bc 02 88 c8 3d
       -0.45513326 -0.01163364 -0.01194553 0.097915664
0001e0 e3 c8 85 3d 69 20 a2 3e 34 53 2c be bb 5b a9 bd
       0.06532457 0.31665352 -0.16828614 -0.08269449
0001f0 89 e0 70 be d6 8b e2 3e fc 45 b3 be 52 35 bb bb
       -0.23523153 0.4424731 -0.3501433 -0.0057131434
000200 08 1e 79 bc bd ba 01 bd 3d ba f3 bd 34 72 aa 3b
       -0.015204914 -0.031672228 -0.119007565 0.0052016024
000210 d6 95 8c 3e a0 7b 66 3e 07 3a 66 bd b1 f3 a6 be
       0.27458066 0.22508097 -0.056207683 -0.32607797
000220 2f 36 d2 bd 48 04 c5 3d f8 57 28 3e 50 e6 08 3e
       -0.10264241 0.09619957 0.16439807 0.13369107
000230 aa db 09 bd 7c 87 10 bd a3 93 4d be ec ac 7d 3d
       -0.033656754 -0.035285458 -0.2007585 0.06193249
000240 1f 3f 67 bd f0 64 1b 3d 62 2d b3 bc 77 f3 23 3e
       -0.05645668 0.03793806 -0.021872226 0.16010843
000250 68 f7 51 3e 5b 32 e4 bd 29 60 86 bd 3f 79 ba bd
       0.20504534 -0.11142417 -0.0656131 -0.09105157
000260 eb 47 86 3e c5 2e 85 bc b5 cb 73 3d 5d 34 02 be
       0.26226744 -0.016257653 0.059520442 -0.12715288
000270 21 d3 61 3e 09 5e 2a be 84 63 95 be 37 57 20 3f
       0.22053196 -0.16637434 -0.29177487 0.6263308
000280 c9 17 7a 3c c2 08 3f 3e 2e 87 ca bd 7d 8b ac be
       0.01526446 0.18655685 -0.09889065 -0.3370017
000290 31 39 b7 3d 33 b2 3f be ff f3 db 3d c9 63 da be
       0.08946455 -0.18720321 0.10739898 -0.42654255
0002a0 0a 73 a8 bb 58 df 3f 3e bf e3 8c bb cd 79 b1 be
       -0.005140667 0.18737543 -0.0042996104 -0.3466324
0002b0 34 20 9b be b4 02 3b 3e 48 a0 23 3e 46 12 12 be
       -0.30298007 0.1826275 0.15979111 -0.14264783
0002c0 21 6a 19 3d 14 8b d8 3e 6c 62 83 be 62 06 2d 3e
       0.037454728 0.42293608 -0.25661027 0.16896966
0002d0 90 ed a4 bd 99 41 57 be 96 1b fe bd c2 66 43 be
       -0.08053124 -0.21021117 -0.12407605 -0.19082168
0002e0 7a 8b 00 3e b1 25 1d 3e 69 22 b2 bd 8a 5f 13 bc
       0.12553206 0.1534641 -0.086979695 -0.008994946
0002f0 8e b2 68 3d 88 32 28 be 1e 9e 32 bf f5 e0 0e be
       0.056810908 -0.16425526 -0.6977252 -0.13953002
000300 6b dd cf 3b f1 71 4a 3e 4a 6d 4c 3e d6 c7 4f be
       0.0063435338 0.19770028 0.19963565 -0.20291075
000310 f5 e8 05 bd 85 19 35 bd 74 2a 02 3e 4d b7 99 3e
       -0.03269287 -0.04421379 0.12711507 0.3002266
000320 24 9d 3f be 71 01 3b 3a f5 fc 85 be 6f eb ce bd
       -0.18712288 0.00071336987 -0.26169553 -0.10103499
000330 8c f0 e5 3b 80 4a 84 3d f7 f6 30 3c 5e f1 08 be
       0.007017201 0.06459522 0.0108010685 -0.13373324
000340 9c cd 36 bd 49 98 ae be 2c 6d 19 be 4b db c4 bd
       -0.044629678 -0.3410056 -0.14983052 -0.09612139
000350 cc 1e 24 3e b5 82 e9 3d 9e 31 55 3e a1 12 50 3e
       0.16027373 0.114018835 0.20819709 0.20319606
000360 95 cd ad be 7e 6d 3c 3d e4 7c 2a bd 39 93 38 3e
       -0.3394591 0.046002857 -0.04162301 0.18024911
000370 65 00 9f be 2a 73 22 bc 01 fb df bc 32 24 67 3e
       -0.31054989 -0.009915153 -0.027341368 0.22572401
000380 00 3d f0 3c 7f f3 b4 be c6 8b 26 be 67 15 03 3d
       0.029325962 -0.35342023 -0.16264257 0.032002833
000390 7d e3 1f bd 07 03 56 3d 59 1b 28 bc 46 c6 98 3e
       -0.03903531 0.05224898 -0.010260426 0.2983877
0003a0 1b 0d 34 be 7c ac 87 3e 81 e9 5a 3c 47 53 8c be
       -0.17583124 0.26498783 0.013361336 -0.27407286
0003b0 ca 1f 83 be 40 91 15 3f 61 d8 47 be bc 16 a5 bc
       -0.2561019 0.5842476 -0.19516136 -0.020152442
0003c0 b1 b1 4b bc 6c 6b f4 bc 96 36 0e 3e 14 89 ad 3e
       -0.012432502 -0.029836379 0.1388801 0.33893645
0003d0 08 1a b1 be fd d5 cb be b5 79 9d ba da 5b 7a be
       -0.34590173 -0.39811698 -0.0012014421 -0.24449101
0003e0 12 12 8c bd 24 f3 06 be 7d 5d 0c 3e d7 57 4e be
       -0.06839384 -0.13178688 0.13707538 -0.20150696
0003f0 70 c4 06 be f6 c0 49 3e f3 09 f4 3b 58 93 77 3d
       -0.13160872 0.19702515 0.007447475 0.060443252

lstm.weight_hh_l0 f4 [256, 64]
000000 ff cd 7e 3e 7d b5 8a 3e d7 57 10 3d 8c 23 b3 3d
       0.24883269 0.2709159 0.03524002 0.087470144
000010 6e 97 0e be 8f 70 1d 3e 54 d6 8d 3d 4e de a1 3d
       -0.13924953 0.15374969 0.069256455 0.079037294
000020 14 1e 29 bd 2b 33 97 be 76 61 1c be 39 d7 23 be
       -0.04128845 -0.29531226 -0.15271553 -0.1600007
000030 f9 5b 95 3c 32 8f 21 be c7 ea 56 be 3e 6c b9 bd
       0.018232333 -0.15777281 -0.20987998 -0.09053849
000040 b0 c4 4b be da 36 44 bd 45 38 5f 3d b6 c0 c8 bd
       -0.19899249 -0.047903873 0.054497022 -0.09802382
000050 1c 94 8b bc c6 45 e6 bd f3 9f 0b 3f 14 02 f2 3d
       -0.017038397 -0.11243777 0.5454094 0.118168026
000060 02 3c b9 3e dc b9 a0 bd a8 ef 99 be 85 05 33 3e
       0.36178595 -0.0784795 -0.30065656 0.17482574
000070 a3 4e fc bd 67 f4 35 3d a4 af 41 3e 39 f8 0e 3e
       -0.12319686 0.044422533 0.18914658 0.13961877
000080 bf 65 c1 be c2 28 96 bc de 7f f4 3d 5f 61 23 3d
       -0.3777294 -0.018329982 0.11938451 0.039887782
000090 ec db 8f be a8 d6 35 3d cf 1a 07 3d 15 21 98 be
       -0.28097475 0.044394165 0.03298455 -0.2971274
0000a0 8c ab f9 be d9 73 fe bd 5f 79 17 3c 3f d5 83 3d
       -0.48763692 -0.1242444 0.009245246 0.06437158
0000b0 f9 36 00 bd 38 8b 84 3b c4 20 e3 bd dd 5c 8b bd
       -0.031302426 0.0040449165 -0.11090234 -0.06804822
0000c0 3f 22 09 be 55 f7 4a bd 4d 73 63 bd e9 ce 71 bd
       -0.1339197 -0.04955228 -0.05552988 -0.059035216
0000d0 76 95 70 be d8 80 f1 bd b6 ca d7 bb 32 29 4a 3d
       -0.23494515 -0.11792153 -0.0065854443 0.049355693
0000e0 41 e7 0f bd 56 39 da 3d 5e 0a 0d be 60 f8 93 bd
       -0.03513265 0.10655467 -0.13773486 -0.07225108
0000f0 02 75 e0 bc a9 05 2b 3e b8 71 b7 be 03 e2 90 be
       -0.027399544 0.16701378 -0.35828948 -0.28297433
000100 82 8a df 3e 65 3e 9e 3d aa dd ef 3d 80 72 2e 3e
       0.4366036 0.077267446 0.11712201 0.17035866
000110 65 ab 8f 3e c5 31 5a 3d 0d 17 28 bd 0b 7f b4 3a
       0.2806045 0.05327012 -0.041037608 0.0013770772
000120 02 ee 2f bd 83 eb 48 3e 17 36 8c 3e c7 0f 39 bd
       -0.04295159 0.1962109 0.27385017 -0.045181062
000130 29 85 5d 3c 5f 4a 89 3e 84 e2 c3 bc 04 29 af be
       0.013520517 0.26814553 -0.023911722 -0.3421098
000140 57 0e 3b be 36 00 cf 3c be 4f a1 be 25 47 ab bd
       -0.18267189 0.025268655 -0.3150615 -0.08363179
000150 69 c5 60 3e e4 ad 84 3c 18 21 d5 3e d0 ec 6f bd
       0.21950306 0.016196199 0.4162681 -0.05857545
000160 42 1e 69 be 8d f1 1f 3e eb f4 e7 be 6e 1c 7b 3e
       -0.22765449 0.15619488 -0.45304045 0.24522564
000170 a9 c2 03 3e 83 79 0d bd f6 9e 86 3d 74 fc 28 bd
       0.12867226 -0.03453971 0.06573288 -0.041256383
000180 8b a3 3b be ea c5 63 3e a0 71 bf bd d9 ea 5f be
       -0.18324105 0.22243467 -0.09347844 -0.21866931
000190 a1 66 35 be 50 02 fa 3e b8 46 5f be f7 24 c7 3e
       -0.17714931 0.4882989 -0.21804321 0.3889539
0001a0 dd 09 ae be ea e7 ba 3d 3b be b7 be b1 33 11 bd
       -0.339919 0.09126265 -0.35887322 -0.035449687
0001b0 e7 32 73 be d0 69 72 be 27 fb 04 3d 12 39 2e 3d
       -0.23749886 -0.23673177 0.03246608 0.042534895
0001c0 cc bf cd 3c 19 1a 8b be 38 a0 b9 3e e2 18 7b be
       0.02511587 -0.27168348 0.3625505 -0.24521211
0001d0 60 fa 2c be 2e 83 24 bd 85 1f 0c be 5a b5 8a bc
       -0.16892385 -0.040164165 -0.13683899 -0.016932178
0001e0 b5 17 a9 3e 20 1a 38 3e 1b 15 ac 3e 91 d1 87 be
       0.330259 0.17978716 0.33609852 -0.26527074
0001f0 96 f1 6a be af 5b c1 3d b1 95 ce be 48 c9 0f 3e
       -0.2294372 0.094413154 -0.4034858 0.14041626
000200 35 29 60 3e dd 1d 34 3d 2a 93 aa bd a8 d2 f9 3d
       0.21890719 0.043973792 -0.083288506 0.121983826
000210 de e8 53 be e1 be 55 3d 7e 64 56 3d 15 ef a1 be
       -0.206943 0.05218399 0.05234193 -0.31627718
000220 88 1e 11 3c 86 1a 16 3e 08 e3 ed be e9 a0 59 bd
       0.008857377 0.14658555 -0.46462274 -0.05313197
000230 8d f4 e2 3d 7a 7a 2a be 86 00 80 3e 41 a9 2a be
       0.110818006 -0.16648284 0.250004 -0.16666128
000240 12 e4 7f bd 3b 84 81 be ed a5 d2 bd 30 ab 02 3e
       -0.062473364 -0.25296196 -0.10285554 0.12760615
000250 6c 3b 46 bc da cb 4b 3e 66 5d 1e be 23 82 af 3d
       -0.012099128 0.19901982 -0.15465316 0.085697435
000260 32 93 86 3e 9d 15 b4 3b 1e 64 f3 3d e7 80 04 bc
       0.26284176 0.0054957406 0.1188433 -0.008087373
000270 f4 e3 b7 3e f8 f2 d6 bd dd 94 a9 be 59 48 01 3e
       0.35916102 -0.10495561 -0.33121386 0.12625255
000280 82 b8 dd 3d 9b 11 c3 3d e3 7f 18 3d 1a 9e d3 3d
       0.10826208 0.09524842 0.037231337 0.1033289
000290 08 ba b4 be f3 f8 f1 3d 6e 84 ac be 8b d4 aa be
       -0.3529818 0.118150614 -0.33694786 -0.33365282
0002a0 15 88 3a be 90 28 88 bd bd 38 96 bd b0 69 c2 3c
       -0.18215974 -0.06648362 -0.07335041 0.023732036
0002b0 e8 84 93 be 19 eb 8f 3e 19 b7 63 3c 29 62 03 be
       -0.28812337 0.28109053 0.013898634 -0.12830414
0002c0 e9 4e 32 bb c2 31 10 be 74 e8 b6 3c 5d 26 7a be
       -0.0027207679 -0.14081481 0.02232764 -0.24428697
0002d0 8a 7e c7 bd 84 cb 84 bd 89 65 3a be 36 9f b8 bd
       -0.09740932 -0.0648413 -0.18202795 -0.09014742
0002e0 92 2e 94 3e 96 e7 be 3e ab 28 a8 bd f4 31 89 3c
       0.2894178 0.3728606 -0.08210882 0.016747452
0002f0 af 42 d5 3d f8 29 a5 be 11 c0 d2 3c be c8 e1 bd
       0.104131095 -0.32258582 0.02572635 -0.11024617
000300 1e a8 fd be 5d 36 cf 3d 0a cb 57 be f0 23 c9 bd
       -0.49542326 0.10117791 -0.21073547 -0.09821308
000310 00 1b 79 bd 27 96 f6 ba 11 32 2f 3e 18 1b 72 bc
       -0.060816765 -0.001881306 0.17108943 -0.0147769675
000320 0a a2 fc bd 71 f6 41 be 20 6a 86 be a2 7d 2f be
       -0.12335594 -0.18941666 -0.26252842 -0.17137769
000330 84 49 84 be 72 23 48 3e 6c fa 21 bd 87 f7 e5 3e
       -0.25837338 0.19544771 -0.03954546 0.4491541
000340 98 86 86 be 2e 3a 6c bd 8d d4 34 be 5a 67 89 3d
       -0.26274562 -0.057672672 -0.17659207 0.06709166
000350 6a e6 21 be d1 d4 19 be cf 06 a0 3e 8f 39 b5 3d
       -0.15810552 -0.1502259 0.31255195 0.08848869
000360 63 16 c7 3e 8f 04 a2 bd 8b 4f 22 be e6 37 b1 be
       0.38884267 -0.07911026 -0.15850656 -0.3461296
000370 64 5e 81 be 43 83 cd 3d 25 43 9f be 63 8a fc 3d
       -0.25267327 0.10034802 -0.31105915 0.12331083
000380 5f 07 74 bd de 15 db be a3 d7 d4 3d b4 a3 96 bc
       -0.059577342 -0.4279012 0.10392692 -0.018388607
000390 22 4b 89 3c c7 c1 b0 be bc 62 89 be 88 1b 04 bf
       0.016759459 -0.3452284 -0.2683314 -0.5160451
0003a0 3e 85 e1 bd 40 76 ce 3d 89 a9 95 3e 43 5d 8c bd
       -0.11011742 0.10081148 0.29230908 -0.06853726
0003b0 e8 6a 03 3f 60 5b a8 3d ee 8f 01 3e 03 1b c6 3e
       0.51335 0.082205534 0.12652561 0.38692483
0003c0 90 5c 96 3e cf 9d 07 3e 38 78 3c 3d 3c 58 0f be
       0.29367495 0.13243793 0.046013087 -0.13998502
0003d0 24 92 4a bd 73 06 a4 3e da 6c d1 be ec 8f 92 3e
       -0.049455777 0.3203617 -0.4090336 0.2862543
0003e0 28 1e 6d 3c 4a 95 cf 3d ef 76 39 bd 82 2b 5e 3e
       0.014472522 0.101358965 -0.04527944 0.21696284
0003f0 54 61 48 bc f0 de 18 3e 92 0d 9c be 8a 2b 72 be
       -0.012230236 0.14928794 -0.30479103 -0.23649421

lstm.bias_ih_l0 f4 [256]
000000 cb b9 40 bd af f7 2a bd a9 ae 5c 3d aa 67 48 bd
       -0.047052186 -0.041740116 0.053877506 -0.048926987
000010 a1 85 c6 bc 6c b8 19 be f5 c9 0c be aa 4e 71 3c
       -0.024233641 -0.15011758 -0.13748915 0.014728228
000020 c2 ff ff 3d 38 7d e4 bd ab 98 41 3d be a0 10 be
       0.12499954 -0.11156696 0.047264736 -0.14123818
000030 de 77 c5 bd bb 3c 23 3c 3c cb 4b be a3 c3 83 3d
       -0.096420035 0.00996321 -0.19901747 0.06433799
000040 c9 c2 b0 bd 57 a6 82 bd a3 db 94 bd c7 d6 bc 3d
       -0.08630902 -0.06379383 -0.07268455 0.09220653
000050 98 d4 20 bd 6f 5b 89 3d 48 dd 1c 3c 31 cd c2 3d
       -0.039265245 0.06706893 0.009574242 0.095117934
000060 5b 14 81 3d 1e be f4 bd 27 72 8f bd cf 11 1d 3d
       0.063027106 -0.119503245 -0.07004195 0.03834706
000070 50 2a ee 3d 39 44 69 3d 75 3f 95 bd bd d0 19 be
       0.11629164 0.056949828 -0.07287494 -0.15021034
000080 66 9d cc 3d aa 88 15 3d 3f f1 28 be 40 64 c6 bd
       0.09990959 0.036507286 -0.16498278 -0.0968709
000090 f9 90 da 3b b5 78 b6 3c ca c6 09 bd b0 b0 29 bd
       0.006670114 0.022274354 -0.033636846 -0.041428268
0000a0 a0 b6 38 3c 82 46 65 3c 43 a2 5e bd 79 51 83 bd
       0.01127401 0.013993861 -0.054353964 -0.06412024
0000b0 45 ca 33 3d 3d 0a 69 be 46 5c 89 bd 12 51 a2 bd
       0.04389407 -0.22757812 -0.06707053 -0.07925619
0000c0 63 3d 5e 3d 35 3b 3b bd f6 42 ac bd 90 02 fd 3c
       0.05425776 -0.04571076 -0.08411209 0.030885011
0000d0 a6 b7 ad bc d6 23 8c 3d 1f 81 dd 3d 42 b6 08 be
       -0.021205734 0.06842773 0.108156435 -0.13350776
0000e0 66 05 29 3d 90 a5 e8 bb 67 81 88 3d 0e f1 2f be
       0.041264914 -0.0070998147 0.066653065 -0.17181799
0000f0 d3 21 12 3e d7 f7 c7 3d 1e e2 37 bc ad c8 56 3d
       0.14270715 0.097640686 -0.011223344 0.052437473
000100 df 6a 6e 3d b4 19 dc 3d 70 53 13 3e 37 67 0d 3e
       0.05820739 0.1074709 0.14387298 0.13808905
000110 05 ad 83 bc 39 09 88 bd b0 98 91 bd 9d 7a c5 bd
       -0.016073713 -0.06642384 -0.07109201 -0.09642527
000120 d9 a2 ef 3d a2 c8 c5 3d 3c 64 29 3d fe 89 5a 3e
       0.117009826 0.09657408 0.041355357 0.21341702
000130 3e 1e 51 3e 5f 96 65 3c 1c 09 8d 3d fa 4b 27 3b
       0.20421693 0.014012902 0.06886503 0.0025527463
000140 4f 26 34 3d 0f 18 4c bd 71 75 22 be 7a d6 3f 3e
       0.043981846 -0.04982763 -0.15865113 0.1873416
000150 14 4b aa bd cc eb a2 3c b1 9a 98 3d dc 6d 83 3a
       -0.08315101 0.019887827 0.0745138 0.0010027247
000160 d4 b3 15 3e 63 0d 64 3d ba c7 4f 3d 30 28 50 3e
       0.1461938 0.05567683 0.050727583 0.2032783
000170 9a 6a ad bd 1d 1b 8d ba 09 0e 0b 3e 18 b4 24 3e
       -0.08467598 -0.0010765527 0.13579573 0.16084325
000180 44 e7 64 3d 6c f3 af bc 0a 8b f9 3c e5 c9 c1 3d
       0.055884615 -0.021478377 0.030461807 0.094623365
000190 26 5a 1a 3e 87 a1 4c bd e0 2b 4f 3d b9 3a 5b bc
       0.15073451 -0.049958732 0.05057895 -0.0133807
0001a0 0f 6e e7 3c 9b 12 81 3e 49 ab b2 bd 61 82 2f 3e
       0.028250722 0.25209507 -0.08724076 0.1713958
0001b0 ae 2f ce bc f6 2b f3 3d 65 50 b0 3d 54 16 7c 3e
       -0.02516922 0.11873619 0.08609084 0.24617893
0001c0 03 6e 38 3e 2d 93 e0 3d e7 a2 8d 3d 80 ea a2 3e
       0.18010716 0.109655716 0.06915837 0.31819534
0001d0 1c 02 23 3e 5a ae ca bd 9e 6a 19 3d cc c0 78 3d
       0.15918773 -0.09896536 0.037455194 0.06073074
0001e0 ce 17 57 3d d2 2b 9e bb 2e bf 96 3e a3 f3 40 3e
       0.052512936 -0.004827001 0.29442734 0.1884294
0001f0 69 34 ac 3e 61 05 52 3e eb fa 81 3e 39 e9 25 3e
       0.33633736 0.20509864 0.25386748 0.16202249
000200 fe 46 71 3d 6c 70 bb bc 84 19 f4 bd 48 d6 c3 3d
       0.058905594 -0.022880755 -0.11918929 0.09562355
000210 4a 99 ec 3c e3 fa 80 bd 3e b6 40 bd ed 1b ec bd
       0.028881688 -0.06297853 -0.0470488 -0.11528764
000220 53 07 09 bd 9c 11 0c be c8 5c b6 bd be 63 70 3d
       -0.03345425 -0.13678592 -0.08904415 0.05868887
000230 79 f3 a2 bd e1 11 1d bd 26 1e 41 bd 22 3d a2 3c
       -0.07956595 -0.03834713 -0.047147892 0.019804541
000240 f1 b7 51 bd 8a cc 59 bd ca ca 29 bc 68 8f e8 3c
       -0.05120081 -0.05317358 -0.01036329 0.028388694
000250 97 f7 36 3d 2f a6 17 be 4a 6d 55 bc 4d 29 95 3d
       0.044669714 -0.14809488 -0.013026545 0.07283268
000260 f9 92 82 3d 8e 13 0c 3e 14 00 84 3d ad 4c 65 3b
       0.06375689 0.13679335 0.064453274 0.003498833
000270 54 ae 48 be 34 18 73 bd d4 9e 80 3d 02 95 c9 bd
       -0.19597751 -0.059349254 0.06280294 -0.09842874
000280 71 85 30 3c b5 45 af 3c 48 9d a4 3d 76 b4 e6 3d
       0.010774002 0.021395544 0.080378115 0.11264889
000290 7c 24 de bc e2 4b 08 bd 38 df f5 3c a7 04 b5 bd
       -0.027117006 -0.033275492 0.030013666 -0.08838778
0002a0 91 ae 8a 3d c8 e7 98 3c a1 20 5b 3d c4 ff 90 3d
       0.06771577 0.01866521 0.053497914 0.070800334
0002b0 06 69 00 bc 12 a9 d1 bd 33 88 82 3d 42 be 19 3d
       -0.00783754 -0.10237326 0.06373634 0.03753496
0002c0 04 eb 27 3d 64 5a 09 bd 30 55 5c bd 7e c0 17 be
       0.040995613 -0.03353347 -0.05379218 -0.14819524
0002d0 14 92 42 3c df 6f f6 3d c2 89 8b bd d6 a3 10 3d
       0.011875648 0.120330565 -0.068133846 0.035312496
0002e0 fc 49 3b bd 22 4b 47 bd 85 96 0d be a7 9a 2b 3e
       -0.045724854 -0.048655637 -0.1382695 0.16758214
0002f0 da 57 18 3d 52 23 36 3c 6c 8a 06 3e af 70 1b be
       0.037193157 0.011116819 0.13138741 -0.15179704
000300 96 1b 62 3c 8d 93 2d bc d3 c4 96 3d 15 af cc 3c
       0.013800522 -0.010594261 0.0736176 0.02498583
000310 4b cd a8 3d 2b 67 3e bd 7c 3a 97 bd e0 27 f8 3c
       0.082422815 -0.046485107 -0.07384202 0.030292451
000320 39 99 14 3e ee d9 2c 3e fc 23 42 3e 6a 1c 22 3e
       0.14511575 0.16880009 0.1895904 0.15831152
000330 aa c3 d3 3d 45 6a 90 3d b5 7b a0 bd f5 52 4c 3e
       0.10340054 0.07051519 -0.07836095 0.1995352
000340 e7 f0 79 3e 88 df 05 be f4 90 5c 3c 43 8a 09 3e
       0.24408303 -0.13073552 0.013462294 0.13431649
000350 2b 08 04 bd c2 8c 24 3e f9 51 90 bd 39 35 07 3e
       -0.032234352 0.1606932 -0.07046885 0.13203897
000360 9f 6b 75 3d e2 2f e5 3d 08 dc 1d 3c 45 f6 6c 3e
       0.05991709 0.111907735 0.009634979 0.2314082
000370 13 91 02 3e b3 4c 8d 3d fd 5d fe 3d 92 bf 44 3d
       0.12750654 0.06899395 0.124202706 0.04803426
000380 92 60 90 3d e1 63 d9 bc fa c0 c8 3d 03 e0 26 bd
       0.07049669 -0.026536884 0.09802432 -0.040740978
000390 ef de 3c bd fc 35 9f bd 91 de 9e 3d e9 88 80 bd
       -0.046111044 -0.077739686 0.07757295 -0.062761135
0003a0 84 1f 25 3c 52 19 13 3e 11 f9 86 3b 50 5b bb 3d
       0.010078315 0.14365128 0.0041190465 0.09148276
0003b0 06 de be 3a 31 9c 71 bd 77 a3 aa 3d f6 9d 80 ba
       0.0014562018 -0.058986846 0.0833196 -0.0009812701
0003c0 1e 0c 78 3e 5b 9b 30 3d 24 08 8b bd 71 c8 89 3d
       0.24223372 0.04311691 -0.06788662 0.06727684
0003d0 d0 bf ae 3d 5a 1e 92 3e 00 08 83 3b 5f 40 4a 3c
       0.08532679 0.2853878 0.0039987564 0.012344449
0003e0 57 31 54 3e e9 4c 55 3e 01 c6 64 3a c5 67 1e bd
       0.20721947 0.2083012 0.00087270146 -0.03867318
0003f0 d7 62 01 3e a0 df 08 3e 3f 12 9d 3d 8a 18 1a 3d
       0.1263536 0.13366556 0.07669496 0.03762106

lstm.bias_hh_l0 f4 [256]
000000 78 64 d1 bd e4 26 79 bd 79 fc 65 3e 7f 58 32 3e
       -0.10224241 -0.060828105 0.22459592 0.17416571
000010 04 d6 01 3c 93 3b 71 bd 03 dc c6 bd 46 e9 f5 3d
       0.00792456 -0.058894705 -0.09709933 0.12007384
000020 55 e5 07 3e b3 b5 17 3d e8 7f 8a bd d4 25 37 3d
       0.13271077 0.037038516 -0.067626774 0.04471381
000030 aa a5 f8 bc f4 ae 50 be b1 3a 31 be 9e e4 96 bd
       -0.030352432 -0.2037924 -0.17307545 -0.07367824
000040 58 f8 c7 3d ac a8 b3 bc c8 77 b9 3c 5e fc df 3b
       0.09764165 -0.021931015 0.022640124 0.0068355044
000050 4a 45 3d 3d 45 ef b0 3d 5f 09 f4 bd 20 62 1d bd
       0.046208657 0.08639387 -0.1191585 -0.038423657
000060 f9 a7 7a bd 09 6d d1 3d 66 9b 5c be 77 a3 e9 3d
       -0.061195347 0.10225875 -0.21543655 0.114081316
000070 e6 8b 5b 3e 73 aa d6 bc 06 48 d3 bc 02 de 22 be
       0.21440086 -0.026204323 -0.02579118 -0.15905002
000080 eb cc 8c bd cc 58 b0 3d cf 01 1d be 5b b2 c1 bd
       -0.068750225 0.08610687 -0.15332721 -0.09457847
000090 49 67 82 bc e2 b2 88 3d 2f 70 5f 3c 83 99 a0 3c
       -0.01591839 0.06674744 0.0136375865 0.01960445
0000a0 73 09 e6 3d dc b3 18 3e 78 2f 4b bc 66 9f 84 3b
       0.11232271 0.14912361 -0.012401454 0.004047322
0000b0 e6 12 f1 bd 32 e2 1c be 27 54 94 bd 25 18 51 be
       -0.11771183 -0.15320662 -0.07242613 -0.20419367
0000c0 c9 32 20 3e 51 ad d9 bd e8 16 64 bd cb 9b c3 3d
       0.15644373 -0.106287606 -0.055685908 0.095511995
0000d0 4d a0 30 3e 7a 17 21 3e 9e e1 8e 3d 44 8c 19 bd
       0.1724865 0.15731612 0.06976627 -0.037487283
0000e0 ba e5 18 be ec 3b e6 bd 4b 70 83 3d 37 e6 54 3c
       -0.14931384 -0.11241898 0.064179026 0.012994341
0000f0 7e 77 25 3e 44 a5 e7 bd 80 ef 9c bd 9a e8 31 3b
       0.16158864 -0.11310819 -0.076628685 0.0027146698
000100 c1 da c5 bd a6 bc 8e bd 66 b4 1e 3e 7c 80 f0 3c
       -0.096608646 -0.069695756 0.15498504 0.029358141
000110 d2 bb 24 3e 8e 09 9a bd 7b 15 91 3c b3 26 bc bd
       0.16087273 -0.07521354 0.017710438 -0.09187069
000120 62 e5 21 3e f6 d0 55 3d d1 50 c6 3d f9 c1 4d 3e
       0.15810159 0.052201234 0.09683383 0.20093526
000130 48 df 12 3e 7b 59 ed 3d 87 7d 2c 3d 61 7c 03 3d
       0.14342988 0.11589333 0.0421119 0.03210104
000140 d4 4b 39 3e c9 df 86 bd 12 1c 00 3a 61 e7 ee 3d
       0.18095332 -0.065856524 0.00048869953 0.11665226
000150 31 4a 18 be ea bd 0f 3e b5 d8 80 3e 02 3b 6b 3e
       -0.14872052 0.1403729 0.25165334 0.22971728
000160 62 e8 9d 3c d5 99 3d 3d 1b 9e c7 3c 60 d4 3a 3e
       0.019275848 0.046289284 0.024367383 0.18245077
000170 e4 2d a9 bc 7a 65 13 3e b2 55 33 3d eb d2 95 bc
       -0.020651765 0.14394179 0.043782897 -0.01828905
000180 5a 57 bb 3d ac 54 36 bc 80 9b ba bc e7 43 26 3e
       0.0914752 -0.011128586 -0.022779226 0.1623684
000190 07 6d 23 ba b2 b1 1c bd 02 12 97 3d bb 0f 4a bd
       -0.0006234203 -0.0382554 0.073764816 -0.049331408
0001a0 c3 cd 83 3d 4e 57 bc 3e bd f6 c9 3c 48 e4 dd 3d
       0.0643573 0.36785358 0.024653787 0.10834557
0001b0 d9 ab 91 3d 5c 7a 8d bd e7 4c ca 3d 8a cd 82 3e
       0.071128555 -0.06908104 0.09877949 0.2554744
0001c0 97 05 ce 3d 58 ae 64 bc b4 c7 9f 3d 45 d8 52 3e
       0.1005966 -0.013957582 0.07801762 0.20590313
0001d0 75 33 8d 3d ce de 97 3c 7d 12 f6 3c fc dc 98 3d
       0.0689458 0.018538859 0.030038113 0.074640244
0001e0 ea 0f 44 3e d8 81 5a bd e3 67 61 3e ae 0a 15 3d
       0.19146696 -0.053346485 0.22012286 0.036387138
0001f0 11 5c c9 3d 78 97 2d 3e 34 2f 88 3d b5 55 f3 bb
       0.098320134 0.16952312 0.06649628 -0.0074259886
000200 2a 18 c6 bd cb e8 e5 3d 6f 0d 57 3d ba 62 63 bd
       -0.09672578 0.11226042 0.052503046 -0.055514075
000210 b4 75 96 3d e0 4c 0c 3d 65 45 e2 3c b3 22 de 3c
       0.07346669 0.034253 0.02762098 0.027116155
000220 68 de fe bd af e6 0a be 7b bd 34 bd f5 19 f3 bd
       -0.124447644 -0.13564561 -0.044126015 -0.11870185
000230 39 6a c3 3c 17 20 4e 3d 61 d0 fd 3d b7 c6 e7 3d
       0.023854362 0.050323572 0.12393261 0.11317199
000240 a0 05 ab bc 99 50 5a 3d 59 97 da bd 96 08 c0 3c
       -0.020876706 0.05329952 -0.106733985 0.023441594
000250 47 b8 36 3d 8d 09 e5 bd 9d b7 0f be a9 37 be bd
       0.044609334 -0.11183462 -0.14034887 -0.0928796
000260 13 29 17 3e 90 ef d6 bd 65 5e 2a bd 71 59 8d 3d
       0.14761762 -0.10494912 -0.041593928 0.06901825
000270 31 57 56 be 00 c5 2f bd 46 f9 ae bd 55 ac 1f be
       -0.20931698 -0.042912483 -0.08543639 -0.15593083
000280 98 15 19 3d 63 1d a6 bd 20 5e be 3d 33 ba c1 bb
       0.03737411 -0.08111074 0.09295297 -0.0059120893
000290 fc 7e 98 bb 4f fe 09 be fa b6 0d bd d7 62 b9 3d
       -0.0046538096 -0.13475917 -0.03459833 0.09052055
0002a0 d9 7c 35 bb 4b d6 24 3d ea cd 94 3d 63 9e 31 3d
       -0.0027692823 0.04024343 0.072658375 0.04336394
0002b0 2e c4 af 3d 85 46 ff bd 88 e4 03 bd 79 b2 dc 3d
       0.0858234 -0.124646224 -0.032200366 0.107762285
0002c0 3f 05 13 3d e5 0c b0 bd bc bc 44 bd 41 c1 69 bd
       0.035893675 -0.085962094 -0.048031554 -0.057069067
0002d0 d7 ba 08 be 89 65 d8 bd 39 df 4e 3d 39 7e 7e bd
       -0.13352524 -0.10566241 0.05050585 -0.062132094
0002e0 0a 78 d1 bd 95 68 96 3c 3e 37 88 3d a4 62 1d bd
       -0.10227974 0.018360415 0.066511616 -0.03842415
0002f0 6c 63 09 be 4e c2 25 bd 58 47 c7 3b bd ba e7 bc
       -0.13416833 -0.040468507 0.006081503 -0.028287286
000300 92 65 a7 bc 34 a5 5d 3e 41 73 1e 3e 68 85 10 3d
       -0.020434175 0.21645051 0.15473653 0.035283476
000310 77 e2 0f bd 0f b1 97 3d 4d 7b 0a be 3b 21 14 3e
       -0.035128083 0.07406818 -0.13523598 0.14465801
000320 62 a4 99 3d da 35 d1 3d fe c7 3f 3e 61 5d bc 3d
       0.07502057 0.102153495 0.18728635 0.09197498
000330 4a 67 bd 3d c4 53 dd 3c 18 19 e0 bd e6 02 34 3e
       0.092482165 0.027017482 -0.10942286 0.1757923
000340 b5 6b 85 3b fd f0 ff b8 4a 25 7d bc eb 32 05 3d
       0.0040716776 -0.00012204235 -0.015450785 0.032519262
000350 34 ca 40 bd 8b 43 7c 3d e6 3c ca 3d 04 e5 39 bd
       -0.047067836 0.06158785 0.09874897 -0.045384422
000360 5d 38 82 bb 7b 25 17 3d 48 1c a1 bd 76 3a 0c 3d
       -0.003974004 0.03690098 -0.07866722 0.03423544
000370 fa 1e 3f 3e 5b 5a 3f 3e bf 54 21 bb 8f 5b 28 3d
       0.1866416 0.18686812 -0.0024617163 0.041102942
000380 ad da 8a 3d f8 62 31 3d 5b bd 81 ba 84 1e 8a 3d
       0.0677999 0.043307275 -0.0009898351 0.06744102
000390 78 14 1e 3e 89 fe db 3d a9 1e f1 3d f3 07 81 3d
       0.15437496 0.10741908 0.11773426 0.06300344
0003a0 a4 85 79 3d ba 3b 4c 3c 48 7a a2 bc 5d aa 19 3d
       0.060918465 0.012465412 -0.019833699 0.037515987
0003b0 ed 87 88 bd e4 44 e2 3c 6d e5 ad bd f4 f1 48 3d
       -0.06666551 0.02762074 -0.08491025 0.04905887
0003c0 52 19 80 3d cb 1b 9a bb f5 08 8b bc 17 f8 00 3e
       0.062548295 -0.00470302 -0.016972044 0.12594639
0003d0 20 d3 2d 3e 9b a5 53 3e da d9 9f bc 79 f2 b4 3d
       0.16975069 0.20668642 -0.01951306 0.088353105
0003e0 53 ca 1d 3d 0d 23 05 3d 71 13 59 3e 11 06 7c 3b
       0.03852303 0.03250413 0.21198823 0.0038455764
0003f0 63 7c 3d 3e d4 e2 51 3e bc 32 f7 3d 99 3b 05 3e
       0.18504481 0.20496684 0.12070224 0.13011016

lstm.weight_ih_l1 f4 [256, 64]
000000 c0 e8 03 be 73 5d 50 bd 7d cc 8a 3e f1 34 39 3e
       -0.12881756 -0.05087037 0.27109137 0.18086602
000010 27 80 22 bd 37 90 38 be 7b 95 de 3c ef 84 de bd
       -0.039672997 -0.18023764 0.027170887 -0.10865199
000020 92 af 9c 3d 03 1b 18 bd b4 c5 fb 3d 5d 99 a9 3c
       0.07650675 -0.037135135 0.12293568 0.020703012
000030 72 c2 03 bf 9d 37 8a be bb 8f 33 be d4 d4 00 bd
       -0.51468575 -0.26995555 -0.17535298 -0.03145297
000040 2c 93 1b 3c 43 ff f1 3d af 95 cf bd 1c bc 80 3c
       0.009495538 0.118162654 -0.10135972 0.015714698
000050 17 67 19 3d 94 50 39 3b e7 d9 1c bd 7f 70 ac bd
       0.03745183 0.0028276788 -0.038293745 -0.084198944
000060 eb cf 72 be 68 a9 4c 3e 45 0b 9b 3e e6 af 04 bc
       -0.23712127 0.19986498 0.30282035 -0.008098578
000070 e3 61 44 bd f7 d0 14 be 4b e8 c6 3c ef f3 78 bd
       -0.047944915 -0.14532839 0.024280688 -0.06077951
000080 fd e1 38 3e 50 c0 1c 3c ac 6b da 3d e6 f2 84 bc
       0.18054958 0.009567335 0.10665068 -0.016229104
000090 ab 3d 14 3e 4d e7 8f bd 17 ca 9e be b1 c6 6e be
       0.1447665 -0.07026539 -0.31013557 -0.23317982
0000a0 7c 04 41 3e c4 bd 62 be 3b 52 84 3d 83 89 8e bd
       0.18849367 -0.22142702 0.06460997 -0.06959822
0000b0 2a 6b 27 bb e0 99 aa be 75 5e 52 3d 89 0f b7 bb
       -0.0025546052 -0.33320522 0.051359612 -0.0055865687
0000c0 dc a4 1e 3e 8e f3 7c 3e 5f df 6e 3e 24 30 f7 bd
       0.15492576 0.24702284 0.23327397 -0.12069729
0000d0 7d 1e 72 be 82 fd 7d 3c 81 0b 3c 3e 36 7e c0 be
       -0.23644443 0.0155023355 0.18363763 -0.3759629
0000e0 a4 9f a2 be 10 cb 90 bd 40 03 8e bd ab e8 f0 3d
       -0.3176242 -0.07069981 -0.06934214 0.11763128
0000f0 3e a4 dc be 13 ab 82 3c 00 14 31 be 81 5e ea 3d
       -0.43094057 0.015950715 -0.17292786 0.114438064
000100 4b 4f 0b 3e fb ef 20 3e a2 a6 60 be 51 b5 e6 3d
       0.13604467 0.15716545 -0.21938565 0.11265052
000110 6c fe 28 3e b1 d6 c2 3e c2 c4 3e be 2e 56 06 3e
       0.16503304 0.38054422 -0.18629745 0.13118812
000120 8b d3 2a bd 57 10 6f be 7c 2b a9 bd 9e ce 09 bd
       -0.04170565 -0.23346077 -0.08260247 -0.03364431
000130 fe fe 99 3d 48 71 76 bd 1c 46 58 3d ed fb 23 be
       0.07519339 -0.060166627 0.052801237 -0.16014071
000140 c5 6f 98 3d f3 c5 a3 be 3b d5 1b be 31 9d 6e 3d
       0.07443193 -0.3198696 -0.1521806 0.05825538
000150 e7 d7 ab 3c 91 89 19 be a2 4a 46 3e 9e 25 af bd
       0.020976974 -0.14993884 0.19364408 -0.08552097
000160 6a da 83 3e fa 62 10 be db a0 ab be c3 45 db bd
       0.25752574 -0.14100257 -0.3352116 -0.10706665
000170 33 f1 17 bf d0 eb ec bc ed 2f a1 be f6 5b 7f 3e
       -0.59352416 -0.028921038 -0.31481877 0.24937424
000180 fc e5 de bd a8 68 24 bd 36 2d 36 be fb 8c 75 3d
       -0.1088371 -0.04013887 -0.17790684 0.059948903
000190 3d 63 e3 bd 2d 86 1a 3e 16 88 d9 bd 0d 9f 86 bc
       -0.111029126 0.15090246 -0.106216595 -0.016433263
0001a0 73 02 9b be 3e bb ed 3e 8e 23 91 be 16 40 85 be
       -0.30275306 0.46431917 -0.2834744 -0.26025456
0001b0 34 7a e7 3d d0 0a 14 be e9 2f f5 3c c7 f7 26 3e
       0.11302605 -0.1445725 0.029930072 0.16305457
0001c0 83 c5 e6 3d 80 2d 97 be 64 24 35 be e0 4f f3 be
       0.11268141 -0.295269 -0.17689663 -0.47521877
0001d0 76 ee a2 bd a1 a0 0f 3f 65 f6 89 be 0d 12 5b 3e
       -0.07955639 0.56104475 -0.26945797 0.21393605
0001e0 d1 7e 51 3e 73 64 24 3e 7d 3b 2b be 6f f5 1e be
       0.20458533 0.16053943 -0.16721912 -0.15523313
0001f0 c6 37 ed 3d 16 55 31 3e 53 01 1a bc 84 bb 50 be
       0.115829036 0.17317614 -0.00939973 -0.20384032
000200 b5 1a 31 be 86 22 eb 3d b9 8a c2 3d 19 c0 38 3e
       -0.17295344 0.11481194 0.094991155 0.1804203
000210 e0 b2 9d 3d 86 ac 31 be d4 e8 98 3e 68 2c cd bb
       0.07700133 -0.17350969 0.29865134 -0.006261397
000220 7b 83 11 be b3 df 80 3e 95 c1 e5 3c e2 bf d3 3e
       -0.14210312 0.2517067 0.028046409 0.41357332
000230 37 e8 85 bd ea 2b e5 bd a2 14 81 be fc 19 7e bd
       -0.06538432 -0.111900166 -0.25211054 -0.0620365
000240 ff 71 76 3d bf b7 49 3e db 32 0f bd d7 fc f7 3c
       0.06016731 0.19699 -0.03496061 0.03027193
000250 f6 6d 8f 3d 2e cc a7 bd 03 28 8d 3e 2f c6 ab 3d
       0.07003395 -0.08193241 0.2756959 0.0838741
000260 6d 43 1c be 82 93 b3 3e bc 33 a3 3e 28 e0 0e 3e
       -0.15260096 0.35073477 0.31875408 0.13952696
000270 ba f8 93 3d f2 96 28 3c d0 d8 c3 bd d5 f3 e4 bd
       0.07225175 0.010289894 -0.09562838 -0.1117932
000280 b8 03 f7 3e 71 d4 bb bd b3 d6 74 3e dc c8 9e 3c
       0.48245025 -0.09171379 0.23910026 0.019382887
000290 3e 3b 39 3e 59 fe ed 3e c7 ea 98 be aa 46 98 bd
       0.18089005 0.46483114 -0.2986662 -0.07435353
0002a0 7c 7d b2 3e f7 78 97 be cb fd 2b 3e 0d 4c 71 be
       0.34861362 -0.29584476 0.16796033 -0.23564167
0002b0 e4 22 da 3e 8b 3d 1a be d8 3c a3 3d e8 3f 5a be
       0.42604744 -0.1506254 0.079705894 -0.21313441
0002c0 62 0b 92 bc 9b 70 4f bc 9d 0e d1 3e 06 94 bc bd
       -0.017827693 -0.012661125 0.40831462 -0.09207921
0002d0 cf a8 cf bd fd 0b a8 bd 37 b5 6f 3e 46 6a fe ba
       -0.101396196 -0.082054116 0.23408972 -0.0019410334
0002e0 9c 3f 87 3d 7d 81 38 bd b0 d9 50 bc 78 45 05 be
       0.066039294 -0.045045365 -0.012747213 -0.13014781
0002f0 61 06 4f be 9e fc ac be 15 79 ca bd a9 91 86 be
       -0.20217277 -0.33786482 -0.09886376 -0.26283005
000300 77 f1 b0 bd 51 05 88 be ee a1 59 be 30 6f 1b 3e
       -0.08639806 -0.26566556 -0.21253178 0.15179133
000310 cb cc a6 bc 22 6d 9c bd b6 67 85 3e ee a4 1c be
       -0.020361325 -0.07638003 0.26055688 -0.1529729
000320 74 2c 57 be 09 eb d0 3b 08 c3 dc bc 8c f0 e8 3d
       -0.21013051 0.0063756746 -0.026948467 0.11374006
000330 b5 a1 8e 3c 01 bd 9f 3d 48 fb 90 3d e3 e6 e1 bd
       0.017411092 0.077997215 0.07079178 -0.11030366
000340 1f cb 05 be c8 91 e1 bd 29 91 80 be 14 82 e8 3e
       -0.13065766 -0.11014134 -0.25110748 0.45411742
000350 58 5f 1b 3e 6d 9c e5 3c d1 5e 91 bd 87 ea 26 3e
       0.1517309 0.028028691 -0.07098163 0.16300403
000360 24 0f c0 3d 62 dd 34 3e 78 09 b0 3d df d8 b9 be
       0.09377888 0.17662576 0.08595556 -0.36298272
000370 2f c5 99 bc 3d e7 0f be a6 ea c9 be 20 6a 61 3d
       -0.018770782 -0.14053054 -0.39436835 0.05503285
000380 9b 43 85 bd 71 88 2b bd d9 3d 3d bd 14 c1 16 3e
       -0.06507035 -0.041878168 -0.04620156 0.14722091
000390 0d d2 2d be 2e 57 c8 3c e9 ff 0c bf 7f 98 0b be
       -0.1697466 0.024455633 -0.5507799 -0.13632391
0003a0 f7 e5 20 3c 6f 35 a1 bc ae 87 db 3e dd bd d3 bd
       0.009820453 -0.0196788 0.42876953 -0.10338948
0003b0 5f d9 61 3e 5b 78 03 3e 7e c2 c6 bd fb 32 45 3d
       0.22055577 0.1283888 -0.09705065 0.048144322
0003c0 f8 d1 17 3e 8c fe df bb ea 6c 8f 3d 58 63 9f be
       0.1482619 -0.0068357643 0.070031956 -0.3113048
0003d0 21 05 ed bc 06 20 c1 3d 93 e2 ab 3b d7 cc 04 bc
       -0.02893311 0.09429936 0.0052455156 -0.008105478
0003e0 bf 49 57 3e 2b b7 db 3e 05 85 ce 3d d2 fc 0e be
       0.21024226 0.42913184 0.10083965 -0.13963631
0003f0 23 c1 3a 3b 0c 87 90 3e 3b 37 3a bd 7f c4 65 bd
       0.0028496466 0.28228033 -0.045462828 -0.056095596

lstm.weight_hh_l1 f4 [256, 64]
000000 51 44 21 bd 7f 3a d1 bd 15 d0 86 3c 75 78 2b be
       -0.039371792 -0.10216235 0.016456643 -0.1674517
000010 e8 0e 65 3e a2 15 ed bd ad c2 ee 3a 86 c5 10 3e
       0.22368968 -0.11576392 0.0018215977 0.14137849
000020 d4 c2 74 be 68 bb 47 be ec 71 f1 bd 1b f9 ca 3e
       -0.23902446 -0.19505084 -0.11789307 0.39643177
000030 42 11 78 bc 7e 32 c7 3d 91 24 3e be 3e 8e 12 be
       -0.015140833 0.097264275 -0.18568636 -0.14312074
000040 36 a2 3a 3d ec 75 0f 3c 18 d8 6d be de 94 39 bd
       0.045564853 0.008756142 -0.23226964 -0.045307986
000050 b2 a0 06 be 26 50 45 3c d5 7d 1e bd ec 3d 5b bd
       -0.13147238 0.012043035 -0.03869422 -0.05352585
000060 7f 8c 8e be b9 36 e4 3d 42 91 a7 bd 4f 27 1f 3d
       -0.27841565 0.1114325 -0.081820026 0.038855847
000070 ee 03 06 be 3e ea 08 be 0c 28 15 be 2a 6d a1 bd
       -0.13087437 -0.13370606 -0.14566058 -0.078821495
000080 9d 20 f3 3c a9 23 4e 3d 65 47 39 3d 9f 8e 0f 3e
       0.029678637 0.050326977 0.045234103 0.1401925
000090 b5 c6 29 bd 6f 65 0e 3d 2f 72 3f bc d7 95 9c 3e
       -0.041449267 0.034764703 -0.011684938 0.3058307
0000a0 c0 97 a0 3d c6 39 59 3e 6c a9 e5 3d 65 8c 39 3c
       0.07841444 0.21213445 0.11213955 0.011324977
0000b0 f4 f8 c6 be 0c f3 32 3d 51 08 f9 3d 64 e5 36 be
       -0.3886181 0.04368882 0.12159789 -0.17860943
0000c0 30 b4 37 3d 76 f2 13 3c b5 ee 46 3e f7 76 2f be
       0.044849575 0.009029975 0.19426997 -0.17135225
0000d0 e3 a5 87 be af c8 33 3e 1a 70 ca bd d8 1d 88 3d
       -0.2649375 0.17557023 -0.09884663 0.06646317
0000e0 88 06 89 bd 19 73 04 bd da 12 05 be 6b f1 9b bc
       -0.06690699 -0.03233633 -0.12995473 -0.019036015
0000f0 bd 2e 47 be ef ab a8 3d 03 7f 33 3e 16 81 06 bd
       -0.19451423 0.08235919 0.1752892 -0.03283795
000100 83 6f e5 bd 6b d5 14 3e 1e 7d 09 3e 89 80 93 3d
       -0.1120291 0.14534537 0.13426635 0.072022505
000110 9e b9 46 3d da 72 85 bd 70 e5 9e 3c f6 08 a7 3d
       0.048516862 -0.06516047 0.019396514 0.08156006
000120 e9 72 b1 3e df 94 7b 3e cc 2e 7d 3d 89 57 d3 be
       0.34657982 0.24568509 0.061812207 -0.41277722
000130 9b 69 b2 bd 8e 2e 2d be 05 d9 ea 3d fe 27 43 bd
       -0.08711549 -0.1691229 0.114671744 -0.04764556
000140 f8 3d d6 be 14 cb 73 bd 7b 4a 1d 3e 36 90 37 3e
       -0.41844153 -0.059519842 0.15360443 0.17926106
000150 37 2e 03 bd f3 8b d2 3d 94 a5 81 3e 3f 1b 13 be
       -0.032026496 0.102805994 0.2532164 -0.14365862
000160 1a 5a 73 3c 03 00 ae bb c0 37 ac bd 2d 4c 3f 3d
       0.014853025 -0.00531006 -0.08409071 0.046703506
000170 b3 4b 31 be a1 a0 20 be 40 1a cb 3e 0b b2 56 3e
       -0.17314033 -0.15686275 0.39668465 0.20966356
000180 15 4a e0 bd 16 cc b1 3d 97 d7 22 bd 1e 2d 52 bd
       -0.1095163 0.086815044 -0.039756384 -0.05131256
000190 44 e8 6d 3e 45 0f 98 3e 27 4e e9 3d 67 bd e2 be
       0.23233134 0.2969915 0.113918595 -0.44285128
0001a0 7c 53 d6 bd 99 42 ed bd 9f 45 95 bd 10 7c 32 3b
       -0.10465142 -0.11584968 -0.0728867 0.0027234592
0001b0 9c b1 2b 3e f9 81 00 bd 27 f2 92 3e 92 e8 bc 3a
       0.16766971 -0.03137395 0.28700373 0.0014412573
0001c0 9b 01 b3 3e 81 73 5d be 9c 39 e1 3d f1 f3 98 be
       0.34962162 -0.21626092 0.10997316 -0.29873613
0001d0 68 2e 37 3e 65 39 53 3e 16 45 a7 3e e4 1c 08 be
       0.17888796 0.20627363 0.32669896 -0.13292271
0001e0 b3 84 c6 3d ee 88 b0 3e bf 59 4a bd 4d 58 1a bd
       0.09693279 0.3447947 -0.049401995 -0.037681866
0001f0 16 be f9 3d c9 f5 cf bd c7 98 2b be c6 a5 cc 3d
       0.12194459 -0.10154302 -0.16757499 0.09992556
000200 ed 62 0b 3d 13 40 a8 3d b6 e2 63 3d d7 03 bc bc
       0.03402989 0.08215346 0.05563613 -0.02295105
000210 8c 74 a3 3d b1 84 4f be fa 26 8b be bc 90 c4 bd
       0.07981214 -0.20265462 -0.27178174 -0.095979184
000220 99 02 30 bd 4e 2c 87 be 78 4d 72 be 42 82 af bd
       -0.042971227 -0.2640099 -0.23662364 -0.085697666
000230 ff bf ec 3d 7b 3f c9 3d 3a fd 3d be 33 28 b1 bc
       0.11560058 0.09826561 -0.1855363 -0.021625614
000240 91 42 3d be c0 76 1d 3e d6 26 1b be da dd 67 bd
       -0.18482424 0.15377331 -0.15151533 -0.05660806
000250 95 9c c1 3d a9 57 db bd 06 53 34 be af 4d 28 3e
       0.09453694 -0.10710079 -0.17609796 0.16435884
000260 d1 10 88 bd ae 3b ca bd df a5 93 bc 97 13 1a 3d
       -0.066438325 -0.09874664 -0.01802343 0.03761634
000270 03 d4 27 be 58 93 2f bc a0 8c 0a 3e cc 5a 3b bd
       -0.1638947 -0.010716282 0.13530207 -0.045740888
000280 e6 30 17 bd 16 1e a3 bd 3c 01 2f be 12 dd 6a 3c
       -0.036911868 -0.07964723 -0.17090315 0.014334934
000290 88 cf ac bd b5 db 04 bc 24 df 2b 3e cc d1 95 3e
       -0.08438021 -0.008109023 0.1678434 0.29261625
0002a0 5d 4a 3e 3e 5e 96 e2 3d 08 a6 9d bd 4a ab 33 be
       0.18583055 0.110638365 -0.076976836 -0.1754581
0002b0 76 25 81 3e 3d 86 17 3d 22 5e 7a 3e 1b 33 03 3e
       0.25223893 0.036993254 0.24449971 0.12812464
0002c0 ff f7 25 3d be cc df bd da d0 43 be f0 50 3d be
       0.04051971 -0.10927723 -0.1912264 -0.18487906
0002d0 de 97 58 be 5d de 2e bc db f0 be 3d c1 0e 72 bd
       -0.21151683 -0.010673133 0.09323283 -0.0590961
0002e0 cc 66 6a bd b0 c4 4d 3d 71 0e dc 3d f1 a7 fb bc
       -0.05722694 0.050236404 0.10744942 -0.03071973
0002f0 9b b6 ab bd 8d 89 91 bd 73 cf 80 3d 13 22 b8 3d
       -0.083844386 -0.07106314 0.06289568 0.08990874
000300 07 09 c3 3d 27 bc f5 bd 8a 6e ee bc d1 4f 2f bd
       0.09523206 -0.11998778 -0.029105444 -0.04280073
000310 86 68 b2 3d d6 cd 35 be 9b af 5d bc 78 1a 78 3e
       0.087113425 -0.17754301 -0.013530637 0.24228847
000320 d2 fa e1 3b 64 ae 90 bd 2f 9b 02 bc 5d 02 18 be
       0.006896355 -0.07064512 -0.007971569 -0.14844652
000330 b2 a0 fd 3c df 0f 76 3e cd 76 94 be 5f 1c 8c bb
       0.030960415 0.24029492 -0.28996888 -0.004275843
000340 74 98 e1 3d aa bf f4 3d c7 18 b7 bd 74 ce 57 3d
       0.11015406 0.119506195 -0.08940273 0.052687123
000350 1b 95 6e be 45 e2 e9 3d 03 e0 88 3d 5f ab 6e bc
       -0.23299067 0.114201106 0.06683352 -0.014567225
000360 11 67 cc bd c7 4d ae bd 06 64 33 be 81 ce e6 bd
       -0.09980596 -0.085109286 -0.17518625 -0.11269856
000370 38 60 14 be e2 fd b2 be ac 95 4a 3e 2b f1 b8 3a
       -0.1448983 -0.34959322 0.19783658 0.001410996
000380 53 e0 1a bd e6 c5 d5 bd 7a f5 20 be c5 26 80 3e
       -0.03781159 -0.10438137 -0.15718642 0.2502958
000390 2a 40 e4 3d 0c 0c 8c bd fe 4d 58 3e 96 0c 4a 3d
       0.11145051 -0.06838235 0.21123502 0.04932841
0003a0 5f 54 07 be 79 74 2d 3e e3 11 4e 3d ce ce 1c be
       -0.13215779 0.16938962 0.050310027 -0.15313265
0003b0 d4 76 c8 bd 60 82 b9 be 60 9d 8b be 42 d3 7d 3c
       -0.0978829 -0.3623228 -0.27268505 0.015492262
0003c0 57 d2 33 be 46 46 57 be 97 f7 f3 3d ce 05 32 3c
       -0.17560707 -0.21022901 0.119124584 0.010865642
0003d0 c4 dc ae 3b a2 ef 31 3e 4e 93 1b be a9 15 85 be
       0.005336376 0.17376569 -0.15192911 -0.25993088
0003e0 4d 9b 3a 3e 90 36 6b 3d bc ce 08 bc 86 f6 ff bd
       0.18223305 0.05742508 -0.008350071 -0.124981925
0003f0 de b7 8f bd e6 f6 14 3c b2 f9 a9 bd ab 43 c6 3c
       -0.07017492 0.009092068 -0.08299579 0.024202188

lstm.bias_ih_l1 f4 [256]
000000 60 c7 bd bd bf f3 89 bd 7e 6c 25 bc e4 27 9a bd
       -0.092665434 -0.06735944 -0.010096667 -0.0752714
000010 d5 c3 1e be 42 2a 5a 3d 59 17 0b 3e 4d 60 12 be
       -0.15504391 0.053262956 0.13583125 -0.14294548
000020 68 96 cc 3d 43 aa 07 3c 0c 76 71 bd 94 83 8c 3d
       0.09989625 0.00828034 -0.05895047 0.06861034
000030 8c 53 b7 bd 8f 04 15 be 57 00 c3 3d c9 01 69 bd
       -0.08951482 -0.1455252 0.09521549 -0.056886468
000040 9a 04 66 3e ba 50 16 bd 7b 26 eb bd 16 b1 d4 bd
       0.22462693 -0.03669808 -0.11481949 -0.10385339
000050 c3 e1 a0 bc cd d5 74 bd 3e 82 c9 3d 6f 4e 8d bd
       -0.019638902 -0.05977421 0.09839295 -0.06899726
000060 27 a0 7b 3d ba cf 30 be 93 e3 05 3d 1d 03 53 bc
       0.06143203 -0.17266741 0.032687735 -0.01287916
000070 f4 88 57 bd 65 20 56 3e 6c a1 2f 3d 32 25 a2 3e
       -0.052620843 0.20910795 0.042878553 0.31669003
000080 dc 56 d5 bd f1 63 10 be d5 76 c7 bd 19 35 36 be
       -0.10416958 -0.14100625 -0.09739462 -0.17793693
000090 93 10 31 be 37 c8 9c 3e 2c ba 95 bd 4a ac c3 bc
       -0.17291479 0.30621502 -0.073109 -0.023885865
0000a0 d3 ee 29 bb e4 6a 12 be 8a 7e 9a bd 5d 0b c5 bd
       -0.0025929704 -0.14298588 -0.07543667 -0.09621308
0000b0 01 36 f1 bd 10 0b 02 3e cf f8 09 be dc f7 5c be
       -0.117778786 0.12699533 -0.13473819 -0.21578926
0000c0 90 9f 76 bd 5b 58 8f be 5d c9 a9 3d 11 b3 e1 bc
       -0.060210764 -0.27997097 0.0829036 -0.027551206
0000d0 ce fb bd bd d3 1a 8c bd 89 08 57 3d e4 db 65 3c
       -0.092765436 -0.06841054 0.052498374 0.014029477
0000e0 cf 07 b3 bd 17 b8 b5 bd 12 a7 d3 3e e9 f9 b2 3c
       -0.08741724 -0.08873003 0.41338402 0.021847682
0000f0 c9 1e 91 3d 3e 56 a2 bd c2 93 ef 3d b2 0a 5b bb
       0.0708595 -0.07926606 0.116981044 -0.0033423123
000100 c4 3b 80 3c 73 13 87 3e 03 d2 8a 3d a7 43 84 bc
       0.015653498 0.26382026 0.06778338 -0.01614554
000110 90 67 04 3d 78 d8 73 3d 82 6d 6a 3c 1a 60 50 3e
       0.032325327 0.059532613 0.014308335 0.2034916
000120 22 eb 24 3d e3 63 1e 3e 60 25 68 3d 3b 8c 4b bd
       0.040263303 0.15467791 0.05667627 -0.04969428
000130 27 67 ea bb 97 a1 28 3e 8f 55 22 3e 8e 7d ea 3d
       -0.00715341 0.16467892 0.1585295 0.11449729
000140 1c 62 14 be 71 8b 7e 3d 49 1b bb 3d 7c 51 3b 3d
       -0.14490551 0.0621447 0.091360636 0.045732006
000150 af 68 2c 3e c1 9c 5b bc 14 89 bd bc b3 3c 24 3e
       0.16836809 -0.013404072 -0.023136653 0.1603878
000160 10 77 4a 3e fd 8c 7f 3e 24 79 96 bd 5d 4c 85 3e
       0.19771981 0.24956127 -0.073473245 0.26034823
000170 c3 5f 69 3d c0 00 ed bc ed 48 eb 3d 9a 15 92 be
       0.05697609 -0.028931022 0.11488519 -0.28532106
000180 58 33 73 3e f2 95 13 bd 27 e3 e5 bc 20 50 3f bd
       0.23750055 -0.03603167 -0.028062416 -0.046707273
000190 b9 84 d8 3d 54 4c 90 bc f8 24 51 3d 90 ca ba bd
       0.1057219 -0.017614521 0.051060647 -0.09120667
0001a0 d9 af 01 3e 3c 8d 18 3e b6 e5 9f bc 8f 5a fa bd
       0.12664737 0.14897627 -0.019518714 -0.12224304
0001b0 b0 d8 7a 39 01 6f 09 be d0 a0 ba bd e1 4e 00 3e
       0.0002392258 -0.13421251 -0.09112704 0.1253009
0001c0 f9 09 47 3d fc 0d 1d be ac 26 75 3c 78 bf 18 3e
       0.048593495 -0.15337366 0.014962833 0.1491679
0001d0 2a 9a a4 bb b9 19 1a 3e 90 ab 0b be 33 d6 da 3d
       -0.0050232606 0.15048875 -0.13639665 0.106853865
0001e0 8b 83 97 3d e9 70 0d 3c da 30 84 be 39 b1 1b 3e
       0.07398137 0.008632877 -0.2581852 0.15204324
0001f0 cf da af bd 6f 4c ec bd 6f ae f8 3d 5d d8 04 bd
       -0.08586656 -0.11538016 0.121426456 -0.032432903
000200 81 5c 67 3d 3f e3 2c 3e e1 60 12 3e 6b 4c 80 bd
       0.056484703 0.16883563 0.14294769 -0.062645756
000210 8a 69 24 3d 69 56 18 3e 0c 3e 8f 3d ad cc 06 3d
       0.040139712 0.14876713 0.069942564 0.032910038
000220 59 e4 04 3e 97 2e 16 be 79 2f d3 3d 35 69 b2 bd
       0.12977733 -0.1466621 0.10311789 -0.08711473
000230 a2 65 52 bd 2f 5a a8 3c f0 7e cd 3d 91 ad ec 3d
       -0.051366456 0.020550815 0.10033977 0.11556543
000240 a4 eb 36 bd e8 43 4b be 76 e3 88 3c 61 04 df bd
       -0.04465832 -0.19850123 0.016710024 -0.10889507
000250 b2 07 3f 3c ab fe c1 bd e9 ee 7d 3d a9 cc 0a be
       0.01165955 -0.09472402 0.06199542 -0.13554634
000260 ff a0 3b be 8b d7 1b bc 8c 54 73 3b ef c9 79 3d
       -0.18323134 -0.009511839 0.0037129251 0.060983595
000270 29 33 98 3d 39 0b 1e 3d 27 5f 96 3d eb eb 54 3d
       0.07431633 0.03858492 0.073423676 0.0519828
000280 5c c4 03 bd 53 80 11 3e 59 83 a8 3d 87 07 9d bd
       -0.032169685 0.14209108 0.082281776 -0.07667451
000290 dc 1b 07 be 29 8e 00 be cc 2d b5 bd 55 00 8b 3d
       -0.13194221 -0.1255423 -0.08846626 0.06787173
0002a0 95 ba 99 bc b3 0b ed bc 86 14 20 be dc 9c cc bb
       -0.018765727 -0.028936243 -0.15632829 -0.006244285
0002b0 21 67 08 bc 63 f7 91 3d c8 58 90 bd cf fd a5 bd
       -0.008325369 0.071272634 -0.07048184 -0.08105051
0002c0 c3 44 57 bd 1b b3 df 3d 6b 81 a1 3c f6 a8 3c 3d
       -0.05255581 0.109228335 0.019715032 0.04605957
0002d0 d8 14 28 3d db 90 d6 3c f1 a2 37 bd 81 f2 a8 3d
       0.041035503 0.02619212 -0.044833127 0.08249379
0002e0 cc 23 20 3d a1 74 e5 3c aa fc 2b 3d c5 f1 4e be
       0.03909664 0.028009715 0.041989006 -0.20209415
0002f0 e7 f1 34 3e 2d 0c f0 bd fc b1 57 3b 81 9c 29 be
       0.17670403 -0.11721072 0.0032912483 -0.16563608
000300 6e 8c 1e 3b 1f da 82 3e 00 c6 ab 3d 28 cf a7 bd
       0.002419259 0.25557038 0.08387375 -0.08193809
000310 80 f2 27 3d a6 a2 e1 3d 8e 8a 3b 3e 5d 00 f4 3c
       0.04100275 0.11017351 0.18314573 0.02978533
000320 07 f2 9f 3e 30 10 fe 3d 81 99 ec 3c d4 39 80 3e
       0.3123934 0.12405431 0.02888179 0.2504412
000330 f0 cf 19 be 71 b6 ce 3d 6e 13 8f bc be 76 34 bc
       -0.15020728 0.10093392 -0.01746532 -0.0110146385
000340 a7 fa 8a 3e 97 2d ce 3a 36 a5 fb 3d 10 58 15 be
       0.27144358 0.001573014 0.12287371 -0.14584374
000350 b6 a4 6c 3b be fc fc bd 79 94 2d 3d 56 e2 ee bd
       0.0036108918 -0.12352894 0.042377923 -0.11664264
000360 09 3f 17 3d 08 d3 17 3e 26 b0 3e 3d 57 4f 79 bd
       0.03692535 0.14826596 0.046554707 -0.06086668
000370 71 3b 4e be 27 d4 95 3e 36 12 97 3d 29 25 78 3e
       -0.20139863 0.29263422 0.0737652 0.24232925
000380 74 16 24 3e 66 96 c2 3d 36 4e be bd 2f c5 e9 bd
       0.1602419 0.095013425 -0.09292261 -0.11414563
000390 77 b0 98 bc 7f 46 b6 3e a5 68 f4 3d dc 3c b3 bd
       -0.018638832 0.3560066 0.11934022 -0.087518424
0003a0 10 29 04 3e 7c 57 2c be 63 5f 47 bd c3 5f 11 be
       0.12906289 -0.16830248 -0.048674952 -0.14196686
0003b0 f1 ac 6a 3d d5 52 49 3e f2 a9 2b be 3c f5 29 bb
       0.057293836 0.19660504 -0.16764048 -0.0025933525
0003c0 14 85 ee bd 5b 6b 7a be 19 1b 8a 3c c7 a1 08 3c
       -0.116464764 -0.24455015 0.016858624 0.008339352
0003d0 f8 ba 98 3d e0 76 ea bd 48 69 15 3e 39 fa 9d 3d
       0.074575365 -0.11448455 0.14590943 0.07713742
0003e0 5a 1e d2 bd b2 79 0b 3d 86 01 2c 3f ed 9e 64 bd
       -0.10259695 0.034051605 0.67189825 -0.055815626
0003f0 df 42 28 bd 3b 78 75 be 4e 09 c6 3d e7 d3 60 bd
       -0.0410794 -0.23971646 0.096697435 -0.054889586
