Models/Precipitation_Models/safawi_precipitation_model.pth (torch, 223671 bytes, 11 tensors)

lstm.weight_ih_l0 f4 [256, 11]
0	0x3e9ac2c9	0.30226734
1	0x3e2c10ce	0.16803285
2	0xbd198c83	-0.037487518
3	0x3e86d191	0.2633176
4	0xbf0a29ac	-0.53969836
5	0xbd80f11f	-0.0629599
6	0xbecc63b0	-0.39919806
7	0xbdd7db45	-0.10539869
8	0x3eb5adcd	0.35484162
9	0xbe4f7b3c	-0.20261854
10	0xbd9a01e5	-0.075198926
11	0x3e6ca555	0.23109944
12	0x3ec49e50	0.38402033
13	0xbe8c4d0f	-0.2740254
14	0x3c5db279	0.013531321
15	0xbd870853	-0.065933846
16	0xbda9c120	-0.08288789
17	0xbe0689f4	-0.13138562
18	0x3e2ff3ff	0.17182921
19	0xbe16791e	-0.1469464
20	0xbc069d88	-0.008216269
21	0xbe2ff999	-0.17185058
22	0x3dfad722	0.122480646
23	0xbe2156cc	-0.15755767
24	0x3e6b33ea	0.22969022
25	0x3dbc9a6c	0.09209141
26	0x3e78e41d	0.24305768
27	0x3de3e739	0.111280866
28	0x3cf6b977	0.030117733
29	0xbe50340c	-0.20332354
30	0xbe9790c0	-0.29602623
31	0xbde581b9	-0.11206383
32	0xbe7fd05e	-0.2498183
33	0xbd9306f1	-0.07179058
34	0x3e1f85e5	0.1557842
35	0xbe0ebde3	-0.13939624
36	0x3e227ec5	0.15868671
37	0xbf02d9ee	-0.51113784
38	0xbd907a7c	-0.07054612
39	0xbe8ce471	-0.27518037
40	0x3e867466	0.2626068
41	0x3dd0841a	0.101814464
42	0x3e0fd7ac	0.14047116
43	0x3deccfda	0.11563082
44	0xbe199534	-0.14998323
45	0x3de1bcaf	0.11022317
46	0xbb4dc483	-0.0031397648
47	0x3e6a703d	0.22894378
48	0xbe8aa5a8	-0.2707951
49	0xbd427b53	-0.047480892
50	0xbd8b8b3e	-0.06813668
51	0x3c0c596a	0.00856624
52	0x3dae5396	0.085120365
53	0x3e2434ab	0.16035716
54	0xbe02e47c	-0.12782472
55	0x3e6340bc	0.22192663
56	0x3e523e18	0.205315
57	0x3e12096f	0.14261411
58	0xbd883f0f	-0.066526525
59	0x3e593e72	0.21215227
60	0xbeb32887	-0.34991857
61	0xbba49e5c	-0.0050237607
62	0x3dd237f7	0.10264581
63	0xbccd97a8	-0.02509673
64	0xbe23651e	-0.15956542
65	0xbe83690b	-0.2566608
66	0x3e88f0fb	0.26746354
67	0x3de3362b	0.11094316
68	0x3e8ed6df	0.2789831
69	0x3e83d906	0.25751513
70	0xbe664cce	-0.22490236
71	0x3da39f1c	0.07989332
72	0x3e06de0b	0.1317064
73	0xbdd14fe7	-0.10220318
74	0xbe9436c5	-0.28948036
75	0x3e56c41b	0.20973246
76	0x3ddc7c72	0.107659236
77	0xbdf428de	-0.11921857
78	0xbdb3c212	-0.0877725
79	0x3e1ab0b1	0.15106465
80	0x3eece0ab	0.46265158
81	0x3f112fa6	0.5671333
82	0xbe1099f6	-0.14121231
83	0xbdbf7963	-0.093493246
84	0x3ef80458	0.48440814
85	0xbed802c1	-0.421896
86	0x3e38a136	0.18030247
87	0x3d18f0a9	0.037338886
88	0xbea5530f	-0.3228993
89	0xbdf2ab09	-0.118490286
90	0xbe88054c	-0.2656654
91	0x3e2f67bf	0.1712942
92	0xbed58b33	-0.41707763
93	0x3dca74f3	0.098855875
94	0xbe3c3d14	-0.18382674
95	0x3ca4b568	0.020106032
96	0xbd437bc8	-0.04772547
97	0xbe9f61cf	-0.3112931
98	0x3e1e99aa	0.15488306
99	0x3ed438e9	0.4144967
100	0x3e910a1c	0.28328025
101	0x3d18c44f	0.03729659
102	0xbd6b6b39	-0.057475302
103	0xbc59f376	-0.0133026745
104	0x3d4d1f9e	0.05007898
105	0x3e629df6	0.2213057
106	0xbda118d6	-0.07866065
107	0xbe20d746	-0.1570712
108	0x3e00e331	0.12586667
109	0xbd067b0a	-0.032832183
110	0x3ebfa5bf	0.37431142
111	0x3e8ba8a8	0.27277112
112	0xbc23a849	-0.009988853
113	0x3e1dd70e	0.15414068
114	0x3d9d1798	0.07670516
115	0x3eaf45d1	0.34232953
116	0xbede3497	-0.43399498
117	0xbe96a7f8	-0.29425025
118	0x3e6a7194	0.22894889
119	0xbe8dcc38	-0.2769487
120	0xbe08aac0	-0.13346386
121	0xbd306df2	-0.043073602
122	0x3d10e330	0.035372913
123	0x3bca52da	0.0061744275
124	0xbeb1bdae	-0.34715027
125	0xbe0e14ee	-0.13875172
126	0xbedc2eb4	-0.43004382
127	0xbe5cc658	-0.21560037
128	0x3e8044a1	0.2505236
129	0x3ec30c49	0.3809531
130	0xbe49cf55	-0.19707997
131	0x3ce1b081	0.027549984
132	0x3e8d5e58	0.2761104
133	0xbb36d432	-0.0027897474
134	0xbbc910f3	-0.0061360537
135	0xbe40ab9b	-0.18815462
136	0x3dcb40c5	0.09924463
137	0x3ed8d072	0.4234653
138	0xbdb0e761	-0.08637882
139	0xbe36e1f8	-0.17859638
140	0xbf10b0bc	-0.56519675
141	0x3dda833a	0.10669561
142	0xbe540628	-0.20705473
143	0xbeff111c	-0.4981774
144	0xbe824cbf	-0.25449178
145	0xbdc4f5aa	-0.09617169
146	0xbcf0c6fb	-0.029391756
147	0xbd40c66e	-0.047064237
148	0x3ec50f85	0.38488403
149	0x3da98ec4	0.082791835
150	0xbe9c1aaf	-0.30489108
151	0x3e4b26e0	0.19839048
152	0x3e1542cf	0.14576267
153	0xbe50f039	-0.20404138
154	0x3e3c7666	0.1840454
155	0x3df3d692	0.119061604
156	0xbdb25f24	-0.08709553
157	0xbe3e28d9	-0.1857027
158	0xbee390cc	-0.4444641
159	0x3d5b4c0b	0.053539317
160	0x3b5cf217	0.0033713633
161	0xbde71308	-0.11282927
162	0xbc8e1be7	-0.01734729
163	0x3eb0bb0a	0.345177
164	0xbea1b05b	-0.3157986
165	0xbd51980e	-0.0511704
166	0x3e18eadf	0.14933346
167	0xbd4ed992	-0.05050046
168	0x3e3824ca	0.17982784
169	0xbe2d082f	-0.16897653
170	0xbd167d1f	-0.03674042
171	0xbebeff35	-0.37304083
172	0x3e4d104a	0.20025745
173	0xbdb2a1bc	-0.08722255
174	0x3b9e2ea5	0.004827338
175	0xbe819bde	-0.2531423
176	0x3dc5787e	0.09642123
177	0x3e84e0fc	0.259529
178	0xbe3ec107	-0.18628322
179	0xbe3f39c0	-0.18674374
180	0xbc62f596	-0.013852498
181	0x3ea517b2	0.3224464
182	0x3cdd780a	0.027034778
183	0xbe118bac	-0.14213437
184	0xbce6e7a1	-0.028186621
185	0xbca12044	-0.019668706
186	0xbe51767c	-0.20455354
187	0x3ea4c42f	0.32180926
188	0x3e4625b5	0.19350322
189	0x3d98c704	0.07459834
190	0x3e028608	0.12746441
191	0x3d181327	0.03712764
192	0x3ef5458c	0.47904623
193	0x3e1874b4	0.14888269
194	0x3e20bc80	0.15696907
195	0xbe8fb6db	-0.28069195
196	0x3e21e72c	0.15810841
197	0x3c7ff340	0.01562196
198	0x3dd436d3	0.103620194
199	0xbd86c7bb	-0.06581064
200	0x3e4ef375	0.20210059
201	0xbebf3170	-0.37342405
202	0xbe85fcb8	-0.26169372
203	0x3e4b19d5	0.19834073
204	0x3eb9e9d4	0.3631121
205	0xbd2191d5	-0.039445717
206	0x3e56d206	0.20978555
207	0xbd934572	-0.0719098
208	0xbd36fc44	-0.044674173
209	0x3eb32385	0.34988037
210	0x3e81c8c4	0.25348485
211	0xbe286cac	-0.16447705
212	0xbef5117a	-0.47864896
213	0x3d454aca	0.048167028
214	0x3e5ebd57	0.21751915
215	0xbf054e23	-0.5207235
216	0x3e452347	0.19251738
217	0xbe4b2391	-0.19837786
218	0xbdb3827c	-0.08765122
219	0xbe13b29d	-0.14423604
220	0x3ef6ce33	0.48204193
221	0x3e0e98e3	0.13925509
222	0x3dba7667	0.09104615
223	0xbe83fd4a	-0.25779182
224	0xbe624a24	-0.22098595
225	0x3e856ae2	0.26058108
226	0x3b4695db	0.0030301723
227	0x3d83a1ab	0.0642732
228	0xbd0337a2	-0.032035477
229	0x3dc7cb78	0.097556055
230	0xbec45bf2	-0.383514
231	0xbc7a809e	-0.015289454
232	0xbdcd5f52	-0.100279465
233	0x3e9219d9	0.28535345
234	0xbeaf0c33	-0.34188995
235	0xbe2a5bbb	-0.16636555
236	0xbe996d60	-0.2996626
237	0xbcb00e26	-0.021491122
238	0x3e364aac	0.17801923
239	0x3e0690d0	0.13141179
240	0xbe83a192	-0.25709206
241	0x3dae4920	0.08510041
242	0xbe90f6ee	-0.28313392
243	0x3c1cc8f0	0.009569392
244	0x3d04b95f	0.032403346
245	0x3ab8d8fc	0.0014102752
246	0xbd5a9dfe	-0.05337333
247	0xbeb9605c	-0.3620633
248	0x3e3f973d	0.18710037
249	0xbe13745a	-0.14399853
250	0xbd922da7	-0.07137614
251	0xbea1a4ce	-0.31571048
252	0xbd57cc94	-0.052685335
253	0xbdc32042	-0.09527637
254	0x3e6256a2	0.2210336
255	0xbef3c2d5	-0.47609583

lstm.weight_hh_l0 f4 [256, 64]
0	0xbcb1d72c	-0.021709047
1	0xbe345a19	-0.17612495
2	0x3d4f14a0	0.05055678
3	0xbebb2f23	-0.365594
4	0xbe31087f	-0.17288397
5	0xbbec190d	-0.0072051347
6	0x3e1c83d6	0.15284666
7	0xbe7b03fe	-0.24513242
8	0x3e6d5335	0.23176272
9	0x3e3fa132	0.18713835
10	0x3da623e8	0.08112317
11	0xbe89536c	-0.26821458
12	0x3d94a64f	0.07258283
13	0x3d31ce40	0.043409586
14	0xbd6feb79	-0.058574174
15	0x3cc5e422	0.024156634
16	0xbeb83d0f	-0.35984084
17	0xbe77b0be	-0.24188516
18	0xbe06bc8d	-0.13157864
19	0x3dfe603e	0.124207005
20	0x3d9531bb	0.07284876
21	0xbd07f1bb	-0.033189517
22	0x3e1587f6	0.14602646
23	0x3e97c0a6	0.29639167
24	0xbdf377ca	-0.11888082
25	0x3ec58ec0	0.38585472
26	0x3d0ea5e4	0.034826174
27	0xbc9b0757	-0.018924398
28	0xbdb458eb	-0.08806022
29	0x3e84d1c0	0.25941277
30	0xbe2d1078	-0.16900814
31	0x3d21f91e	0.039544217
32	0xbd764c4b	-0.060131352
33	0x3e9b7c6e	0.3036837
34	0xbcbd8efb	-0.023139467
35	0xbcbfce46	-0.023413789
36	0x3d4c9ea2	0.04995597
37	0xbea3cf19	-0.3199394
38	0xbdb51dbb	-0.08843561
39	0xbc2679df	-0.010160892
40	0x3d347823	0.044059884
41	0x3e18d4e6	0.14924964
42	0x3c832dcb	0.016013047
43	0xbca011c3	-0.01953972
44	0xbe365f31	-0.1780975
45	0xbe0fa5e0	-0.1402812
46	0x3e018cbf	0.12651347
47	0x3c5fc8b3	0.01365869
48	0xbe02e875	-0.12783988
49	0x3d2755ff	0.040853497
50	0x3f446a08	0.7672429
51	0x3dc9ed4b	0.09859713
52	0x3e1c599b	0.15268557
53	0x3e805b78	0.25069785
54	0x3d85dd94	0.06536403
55	0xbec3f53d	-0.3827304
56	0xbdfe6f12	-0.12423529
57	0x3cc0c672	0.023532126
58	0x3e9f3859	0.31097677
59	0x3e1d2c8f	0.15349029
60	0x3e5ffc54	0.218736
61	0xbe9b882c	-0.30377328
62	0xbc87a6e0	-0.016559064
63	0x3e0a3313	0.13496046
64	0x3db98b85	0.09059814
65	0x3b0cc1db	0.0021477852
66	0xbe4e2cc3	-0.20134263
67	0xbd29c99f	-0.041452046
68	0xbdc66bc3	-0.09688523
69	0x3e228e39	0.15874566
70	0xbd348cc0	-0.044079542
71	0x3d7fff30	0.062499225
72	0xbdd49e44	-0.10381749
73	0x3dfe4831	0.12416113
74	0x3e13b13d	0.1442308
75	0xbee9e822	-0.45684916
76	0x3e13fb73	0.14451389
77	0xbcfaf9ed	-0.030636752
78	0x3e29e60f	0.16591667
79	0xbe5dd959	-0.21664943
80	0xbe7365ad	-0.23769255
81	0xbde6f293	-0.11276736
82	0x3ec5f421	0.38662818
83	0x3d986365	0.07440833
84	0x3e63ff31	0.22265317
85	0xbe6d7c77	-0.23192011
86	0xbddc51a0	-0.10757756
87	0xbe749947	-0.23886596
88	0xbcbfa0d8	-0.023392126
89	0xbe3c638b	-0.18397348
90	0x3e90428f	0.2817578
91	0xbe042e2a	-0.12908235
92	0xbeca1ac9	-0.3947356
93	0x3e286055	0.16442998
94	0xbcc2e3c3	-0.023790246
95	0x3e826dba	0.2547434
96	0xbea3f603	-0.3202363
97	0x3d87ddf2	0.066341296
98	0x3e52b0dc	0.20575279
99	0x3f1d84af	0.61530584
100	0xbcd765aa	-0.026293594
101	0x3e1f7f72	0.1557596
102	0x3db12c5b	0.08651038
103	0xbda8a28e	-0.0823413
104	0x3e7543f5	0.23951705
105	0x3e301ee1	0.1719928
106	0x3d90ffff	0.070800774
107	0x3ead3c90	0.33835268
108	0x3e2ed814	0.17074615
109	0xbdd86e4b	-0.10567912
110	0x3e584337	0.2111939
111	0xbeace788	-0.33770394
112	0x3e254eac	0.16143292
113	0xbdbfb236	-0.09360163
114	0x3d3d2beb	0.04618446
115	0x3e905625	0.28190723
116	0xbdd1ecb2	-0.10250224
117	0x3e66c680	0.22536659
118	0x3ec092e2	0.37612063
119	0x3d4c48ac	0.049873993
120	0xbe89dc60	-0.26925945
121	0x3e8159ca	0.25263816
122	0x3e223d7a	0.15843764
123	0xbe82e8ba	-0.2556818
124	0x3d8d6b00	0.06905174
125	0x3d72d794	0.059287623
126	0xbc9a76d4	-0.01885549
127	0xbd983a2e	-0.07432972
128	0x3e226122	0.15857366
129	0xbe45ec34	-0.19328386
130	0x3da2f83f	0.079575054
131	0xbd6c87c5	-0.057746667
132	0x3e081fee	0.1329343
133	0xbe85c091	-0.2612348
134	0xbec4db12	-0.38448387
135	0x3e6ec976	0.23319039
136	0x3e53df49	0.20690645
137	0xbe848f97	-0.258908
138	0x3dee7fcd	0.1164547
139	0xbe89715d	-0.26844302
140	0x3d6e3d1c	0.058163747
141	0xbd9c32fc	-0.07626912
142	0x39c55df9	0.00037644783
143	0x3d61f648	0.055166513
144	0x3d9f4f5c	0.077788085
145	0x3d802cc7	0.062585406
146	0xbe150d26	-0.14555797
147	0x3bd1dbef	0.006404392
148	0xbdbba78b	-0.09162816
149	0x3e6771cd	0.22602005
150	0x3e13041c	0.14357036
151	0xbe6142e9	-0.2199818
152	0xbef7e083	-0.48413476
153	0xbe9d1951	-0.30683377
154	0x3e45fc4d	0.19334526
155	0xbe684841	-0.22683813
156	0xbe58cf51	-0.21172835
157	0xbe58ff74	-0.21191198
158	0xbd5f5345	-0.05452277
159	0x3d1eb4bb	0.038746577
160	0xbdf73826	-0.12071256
161	0x3d635622	0.055502065
162	0x3cb9926d	0.022652829
163	0xbdce72e1	-0.10080505
164	0xbe98c73a	-0.29839498
165	0xb9feac08	-0.00048574829
166	0x3e733543	0.23750786
167	0xbdb2a843	-0.087234996
168	0xbef9cf6b	-0.4879106
169	0x3d54619e	0.051850908
170	0xbe5091e1	-0.20368148
171	0xbe012ba8	-0.1261431
172	0x3dc096d0	0.09403765
173	0xbc9f7b99	-0.019468116
174	0x3e5805e2	0.21095994
175	0x3e0ff880	0.14059639
176	0xbd9c6465	-0.07636336
177	0x3d84108b	0.06448468
178	0xbe9a98d9	-0.30194739
179	0x3dd3defd	0.10345266
180	0x3abcf7d0	0.0014417116
181	0xbe72c0a3	-0.23706298
182	0xbcfa2957	-0.03053729
183	0xbb8759ab	-0.0041305623
184	0xbcede9a4	-0.029042073
185	0x3d7be362	0.061496146
186	0xbe397667	-0.18111573
187	0x3e04fe9c	0.12987751
188	0x3e81f59f	0.25382707
189	0x3e8ae68c	0.27129018
190	0xbcf3404f	-0.02969375
191	0x3d1471ce	0.036241345
192	0xbc92fd8a	-0.017943162
193	0xbe377373	-0.17915134
194	0xbddeef46	-0.108854815
195	0x3e04a501	0.12953569
196	0xbd94838c	-0.07251653
197	0x3e2bea42	0.16788581
198	0xbd8b255f	-0.06794237
199	0xbdba8dd7	-0.09109085
200	0x3e6d2800	0.2315979
201	0xbad02c4b	-0.0015882341
202	0x3e75883f	0.23977755
203	0x3ed65b6c	0.41866624
204	0x3e6bffa9	0.23046745
205	0xbd9a078f	-0.07520973
206	0x3e4f5c02	0.20249942
207	0x3e4ab95b	0.1979727
208	0x3ed87b60	0.42281628
209	0xbd86aff9	-0.06576533
210	0xbdb02ef9	-0.08602709
211	0xbf06622a	-0.52493536
212	0x3e523870	0.20529342
213	0xbe867213	-0.26258907
214	0xbb360407	-0.0027773397
215	0x3e907a65	0.2821838
216	0x3c2f98e0	0.010717601
217	0x3cd71975	0.026257256
218	0x3e1c2734	0.1524933
219	0x3e23ca51	0.15995146
220	0x3dd9c645	0.1063352
221	0x3e922902	0.2854691
222	0x3e374ba4	0.17899948
223	0x3ec4be59	0.38426474
224	0xbe336d38	-0.17522132
225	0xbe150e1b	-0.14556162
226	0x3d9fc043	0.07800343
227	0xbc89ca99	-0.016820239
228	0x3e95892b	0.29206213
229	0x3e0b43a9	0.13600029
230	0xbe372da6	-0.17888507
231	0x3ea89aeb	0.32930693
232	0x3e3bef3a	0.18352976
233	0x3e158ced	0.1460454
234	0x3e67690b	0.22598664
235	0xbeb94b71	-0.3619037
236	0xbdd326be	-0.10310124
237	0x3ba8defa	0.005153534
238	0x3e65bc91	0.22435214
239	0x3e3fdb0f	0.18735908
240	0x3e89bea4	0.2690326
241	0x3eb82671	0.35966828
242	0x3e25b08c	0.16180629
243	0xbe172796	-0.14761195
244	0x3e57ee89	0.21087088
245	0x3e1bbe71	0.15209366
246	0xbd0c89cb	-0.034311097
247	0xbdc791ba	-0.09744592
248	0xbe1720b8	-0.14758575
249	0xbecd1698	-0.400563
250	0x3ea3351b	0.31876454
251	0x3d5e7358	0.05430922
252	0xbe8e35fd	-0.27775565
253	0x3db40969	0.08790857
254	0xbbff5eb9	-0.0077932742
255	0x3bca9f48	0.0061835386

lstm.bias_ih_l0 f4 [256]
0	0xbd584725	-0.052802224
1	0xbeb41de7	-0.35179064
2	0x3c7d3b8c	0.015456092
3	0xbd3d3d97	-0.046201315
4	0xbe36cefd	-0.17852397
5	0x3e9b6237	0.3034837
6	0x3d372d24	0.044720784
7	0x3d72b86c	0.05925791
8	0xbe9fa802	-0.31182867
9	0xbd9e6536	-0.07734148
10	0xbe4a17fe	-0.19735715
11	0xbc55d64c	-0.013051581
12	0xbe282c2b	-0.16423099
13	0x3d5c552c	0.053792164
14	0xbe1b31c9	-0.1515571
15	0xbaba0f98	-0.0014195321
16	0xbda35f2b	-0.07977136
17	0xbd87d2c9	-0.06632001
18	0xbd064f95	-0.03279074
19	0xbcefdf0d	-0.029281164
20	0xbe24b7c8	-0.16085732
21	0x3d3636c4	0.044485822
22	0xbdfe2a5d	-0.12410424
23	0xbcbd2f6a	-0.023093898
24	0xbdc02566	-0.09382133
25	0xbe148949	-0.14505495
26	0xbe61775b	-0.22018187
27	0x3dc408b0	0.095719695
28	0x3da6e614	0.08149353
29	0xbbac7d0e	-0.005263931
30	0xbd821c2a	-0.06353028
31	0xbe109952	-0.14120987
32	0xbdf5fd72	-0.120112315
33	0x3da47d9b	0.0803177
34	0xbdedbf87	-0.116087966
35	0xbda10487	-0.07862192
36	0xbe2cfc77	-0.16893183
37	0xbe50797e	-0.20358846
38	0xbda321f9	-0.07965464
39	0x3e0bd08d	0.13653775
40	0xbd494291	-0.04913575
41	0x3c693de5	0.014235948
42	0x3d49ace4	0.049237147
43	0x3d768d8e	0.06019359
44	0x3e391cfd	0.18077464
45	0x3d07167e	0.032980435
46	0xbdc1cd65	-0.09463004
47	0x3dc76679	0.09736342
48	0xbda2e1ec	-0.079532474
49	0xbded13d3	-0.11576047
50	0xbd0bbeee	-0.03411763
51	0x3d5ca839	0.053871367
52	0x3e271ab7	0.16318785
53	0xbe3f20af	-0.18664812
54	0xbe086309	-0.13319029
55	0x3d8d525f	0.06900477
56	0xbd8825eb	-0.06647857
57	0xbe4c770c	-0.19967288
58	0x3ad9ea0f	0.0016625541
59	0xbdf89180	-0.12137127
60	0x3bb1264e	0.0054061776
61	0xbd3d5651	-0.046224896
62	0x3c8ef866	0.01745243
63	0x3e17257b	0.14760391
64	0x3e8e0970	0.27741575
65	0x3d6a3fe5	0.05718984
66	0xbd081df6	-0.033231698
67	0x3cebfcaa	0.028807003
68	0x3d4ef731	0.05052871
69	0x3e588bf0	0.21147132
70	0xbd22316b	-0.03959791
71	0xbcbb8d03	-0.022894388
72	0xbda9fc82	-0.08300115
73	0x3d001d23	0.031277787
74	0x3cd1c6a1	0.025607409
75	0x3e8bb55f	0.27286813
76	0xbe7a1e71	-0.24425675
77	0x3e5f1f2b	0.21789233
78	0x3cc90630	0.024539083
79	0xbe0e1af3	-0.13877468
80	0x3e2c443f	0.16822909
81	0x3e81b2e9	0.2533181
82	0xbe2462c1	-0.16053297
83	0x3e540ffa	0.2070922
84	0xbcf018c7	-0.02930869
85	0x3e63454f	0.22194408
86	0x3e870413	0.26370296
87	0x3e1860a3	0.14880614
88	0x3bbd12ee	0.005770079
89	0xbe4005fd	-0.18752284
90	0x3e830bfa	0.25595075
91	0x3e6c43d2	0.23072746
92	0xbdde8b0a	-0.10866363
93	0xbc19ed2e	-0.009394927
94	0x3c2f519f	0.010700612
95	0xbd06e32f	-0.032931503
96	0x3e3472ae	0.17621872
97	0x3e1c78a2	0.15280393
98	0x3ce12f62	0.027488414
99	0x3e031637	0.12801443
100	0x3e165305	0.14680107
101	0xbdaa393e	-0.08311699
102	0x3e5a8712	0.21340588
103	0xbe38e22e	-0.1805503
104	0x3d92b943	0.07164242
105	0x3e176657	0.14785133
106	0x3d83c78b	0.06434544
107	0xbd04ff9f	-0.03247034
108	0x3e462326	0.19349346
109	0x3e7420f7	0.238407
110	0x3c162d80	0.0091661215
111	0x3c8cd936	0.017193418
112	0xbda3def4	-0.08001509
113	0x3e2e8202	0.17041782
114	0x3d19ce2a	0.03755013
115	0x3e0562f4	0.13026029
116	0x3da2ab56	0.07942836
117	0x3dab2da5	0.083583154
118	0x3de8f8e2	0.11375596
119	0xbb89ad1e	-0.0042015454
120	0x3e3e3cfc	0.18577951
121	0xbdf370cd	-0.118867494
122	0x3df341c2	0.11877777
123	0x3edeeb39	0.43538836
124	0x3cecd368	0.0289094
125	0x3e638807	0.22219859
126	0xbe57072d	-0.20998831
127	0xbd1e4c80	-0.038647175
128	0x3dc8d7c9	0.09806783
129	0x3dacaccc	0.08431396
130	0x3d7eb2f7	0.062182393
131	0xbdc8d529	-0.09806282
132	0x3c1014d7	0.008794031
133	0x3d8cd717	0.06876963
134	0x3cc791b9	0.024361478
135	0xbd913ce9	-0.07091696
136	0x3dcabd14	0.09899345
137	0x3d8b75cc	0.06809577
138	0xbd0c1d7d	-0.03420781
139	0xbd81f526	-0.063455865
140	0x3d1bf26d	0.038072992
141	0xbe288b6c	-0.16459435
142	0x3df1b477	0.11801999
143	0x3e0e5cd7	0.13902603
144	0x3e21c701	0.1579857
145	0x3bb0c9ed	0.005395165
146	0xbdbb5c42	-0.09148456
147	0xbdc46e12	-0.09591307
148	0xbe119b76	-0.1421946
149	0xbd5c9cba	-0.053860404
150	0xbc4f4dcf	-0.012652828
151	0xbb3cc458	-0.0028803553
152	0x3e1cba01	0.1530533
153	0x3be69583	0.007036866
154	0x3dc91427	0.09818297
155	0x3d90a1fb	0.07062145
156	0x3db48dd6	0.088161156
157	0x3dc431ad	0.095797874
158	0xbde99142	-0.11404659
159	0xbd816f50	-0.06320059
160	0xbd42b306	-0.04753401
161	0x3e07dfac	0.13268918
162	0x3d51d7a0	0.051231027
163	0x3cafea41	0.021474006
164	0x3df99caa	0.121880844
165	0xbd0f07cb	-0.03491954
166	0xbda08765	-0.078383245
167	0x3e83c39d	0.2573518
168	0xbc314bd5	-0.010821302
169	0xbd853d57	-0.0650584
170	0x3de87cb4	0.1135191
171	0xbc3899f0	-0.01126717
172	0x3da5f0f1	0.081025966
173	0x3da04509	0.078256674
174	0x3d886805	0.06660465
175	0x3d8ebf6d	0.06970105
176	0xbd0719d0	-0.0329836
177	0xbe04f0f9	-0.12982549
178	0x3e07f2e5	0.1327625
179	0xbdebfd5d	-0.115229346
180	0x3e0727ad	0.13198729
181	0x3e1c0e7c	0.152399
182	0xbe3a32c4	-0.18183428
183	0xbde8bd2c	-0.11364207
184	0xbc256c04	-0.010096554
185	0x3d8ebc33	0.0696949
186	0x3e1238f6	0.14279541
187	0x3e3ff3df	0.18745373
188	0xbdfc5106	-0.123201415
189	0xbe06a09e	-0.13147208
190	0x3d429272	0.047502942
191	0x3dfea871	0.124344714
192	0x3d9480f5	0.07251159
193	0x3d941b1e	0.07231735
194	0x3cf9c1dc	0.030487947
195	0xbd36838c	-0.044559047
196	0xbdb7aa68	-0.08968049
197	0x3d5605e2	0.052251704
198	0x3e522875	0.20523246
199	0x3eb7522e	0.35804886
200	0x3a10b376	0.0005519906
201	0xbe101fca	-0.14074627
202	0x3dad1fcc	0.084533304
203	0x3e61171e	0.21981475
204	0xbe252bec	-0.16130036
205	0xbd377943	-0.04479338
206	0x3dfa5aa1	0.12224317
207	0xbce411c9	-0.027840512
208	0xbdb3b563	-0.08774831
209	0xbd600a0a	-0.054697074
210	0xbc17362d	-0.009229225
211	0x3dc5e63a	0.09663053
212	0xbdb059b7	-0.08610862
213	0x3e2da251	0.1695645
214	0x3d8cc2da	0.068731025
215	0xbd1ee4fd	-0.0387926
216	0x3c87231b	0.016496232
217	0xbe122cca	-0.14274898
218	0x3c78d16e	0.015186651
219	0x3cb4b74a	0.022060055
220	0xbd8b63ff	-0.06806182
221	0x3c92a528	0.017901018
222	0xbd773944	-0.060357347
223	0x3e20964d	0.15682335
224	0x3e48bab5	0.19602473
225	0xbc877ef6	-0.016540032
226	0x3d916c60	0.07100749
227	0x3c8e16bb	0.017344823
228	0x3e0fcaad	0.14042158
229	0xbc8085dc	-0.01568883
230	0xbe2bc699	-0.16774978
231	0x3e055329	0.13020004
232	0x3e3f027c	0.18653291
233	0xbc5a166c	-0.01331101
234	0x3c890e49	0.016730445
235	0x3dd9590e	0.10612689
236	0x3df104dc	0.11768505
237	0xbcfdd4f4	-0.030985333
238	0xbe2a65ec	-0.16640443
239	0x3eb5a9e5	0.35481182
240	0x3c8fd7ea	0.01755901
241	0x3d8b3194	0.06796566
242	0x3e2cce98	0.16875684
243	0x3e1a0709	0.15041746
244	0x3e9847b4	0.29742205
245	0xbd4329e3	-0.04764737
246	0xbd551995	-0.05202635
247	0x3e4ccc0e	0.19999716
248	0x3d5b4858	0.05353579
249	0x3ce2d27f	0.027688263
250	0x3e54291c	0.20718807
251	0xbd2dd886	-0.04244282
252	0x3bf1c633	0.0073783635
253	0x3da6751d	0.08127806
254	0x3d09ef24	0.033675328
255	0x3d929647	0.071575694

lstm.bias_hh_l0 f4 [256]
0	0xbd661c8b	-0.056179564
1	0xbe6ec3a1	-0.23316814
2	0xbe64c321	-0.22340061
3	0x3e0523e2	0.1300197
4	0xbda5b822	-0.08091761
5	0x3e9db4a7	0.3080189
6	0x3d607edd	0.054808486
7	0x3d778b4f	0.06043559
8	0xbdb31f1c	-0.08746168
9	0xbc1ae317	-0.0094535565
10	0xbcc7e95c	-0.024403267
11	0xbd3c2057	-0.04592928
12	0xbdbcba90	-0.092152715
13	0xbc835139	-0.01602994
14	0xbe1fa3f2	-0.15589884
15	0xbddf3861	-0.10899425
16	0xbb8533cb	-0.004065012
17	0xbddc6313	-0.107610844
18	0xbe085b11	-0.13315989
19	0x3e0c4a1f	0.1370015
20	0xbe29baaf	-0.1657512
21	0x3c0bbe4d	0.008529258
22	0xbd74028f	-0.059572753
23	0xbe1fb74d	-0.15597267
24	0xbc8ffcf4	-0.017576672
25	0xbda2cc86	-0.07949166
26	0xbe76058e	-0.24025556
27	0x3cee9f67	0.029128743
28	0xbd3028e3	-0.043007743
29	0xbd0ae765	-0.03391208
30	0xbe70202d	-0.23449774
31	0xbddc7ec3	-0.107663654
32	0xbe70d96b	-0.23520438
33	0x3dc7fce6	0.097650334
34	0xbdf23e47	-0.11828285
35	0xbd88835a	-0.06665678
36	0xbe289d77	-0.16466318
37	0xbe71bda1	-0.23607494
38	0x3dd025ec	0.10163483
39	0xbcfbec55	-0.03075234
40	0x3ca68c38	0.020330533
41	0x3e47af7e	0.19500539
42	0xbdc64940	-0.0968194
43	0xbd122742	-0.03568197
44	0x3d6d8077	0.05798384
45	0xbd31f923	-0.043450486
46	0xbda87098	-0.082246006
47	0x3c0c8f38	0.008579068
48	0x3c20935b	0.009800757
49	0x3dd01385	0.10159973
50	0xbdd27621	-0.102764376
51	0xbbcb94eb	-0.0062128208
52	0x3e5471f5	0.20746596
53	0xbdfeb3f1	-0.12436665
54	0xbea42fb3	-0.32067642
55	0xbd83a126	-0.06427221
56	0x3ded97b0	0.11601198
57	0xbe72e547	-0.23720275
58	0xbe044ded	-0.12920351
59	0xbe5c724b	-0.21527974
60	0xbc8623ab	-0.01637443
61	0xbd8fb069	-0.070160694
62	0x3c81a0aa	0.01582368
63	0x3dc05a70	0.093922496
64	0x3e8ff051	0.28113034
65	0x3e0e884c	0.1391918
66	0xbd40d42e	-0.04707735
67	0xbe0376d8	-0.12838304
68	0xbdafc011	-0.08581556
69	0x3da6a632	0.08137168
70	0x3d589174	0.05287309
71	0xbd06a785	-0.032874603
72	0xbe080391	-0.1328261
73	0x3de01466	0.10941391
74	0x3e708986	0.23489961
75	0x3e7b388c	0.2453329
76	0xbe3d6ab0	-0.1849773
77	0x3e6a4547	0.2287799
78	0x3d936a05	0.07197956
79	0xbdbca35a	-0.09210844
80	0x3d1f8336	0.038943492
81	0x3e0acee6	0.13555488
82	0x3da4577b	0.08024498
83	0x3ec2e3eb	0.38064513
84	0x3c01116e	0.007877691
85	0x3e82c9bd	0.2554454
86	0x3e6bb235	0.230172
87	0x3d444c47	0.047924306
88	0x3e56a8df	0.20962857
89	0xbe28459e	-0.16432807
90	0x3d1025fe	0.035192482
91	0x3e134b6f	0.14384244
92	0xbe484f5a	-0.1956152
93	0x3e589ec2	0.21154311
94	0x3df72928	0.12068397
95	0x3e3b7d0d	0.18309422
96	0x3e3c3c6c	0.18382424
97	0x3e1f6a0c	0.15567797
98	0x3c899db6	0.016798835
99	0x3cf4bab8	0.02987419
100	0xbd573686	-0.052542232
101	0x3e0e5e68	0.139032
102	0x3d3630c3	0.044480097
103	0x3bb19c1a	0.00542022
104	0x3dbda1e1	0.092593916
105	0x3e6fd7ef	0.23422216
106	0x3e639d36	0.2222794
107	0xbd3bf31a	-0.045886137
108	0x3d3d3598	0.04619369
109	0x3e15bb01	0.14622118
110	0x3e558071	0.20849778
111	0xbd874268	-0.06604463
112	0xbccf4bec	-0.025304757
113	0x3d5cc557	0.053899135
114	0x3c039042	0.008029999
115	0x3e7d2c66	0.24723968
116	0x3da4fa97	0.08055609
117	0x3e8055dc	0.25065506
118	0x3dad94bb	0.08475634
119	0x3c0dc055	0.008651813
120	0x3e613645	0.21993358
121	0xbbcca792	-0.006245562
122	0x3e44916f	0.19196104
123	0x3e8263c0	0.25466728
124	0x3da292c4	0.079381496
125	0x3e31f015	0.1737674
126	0xbcd8e1a7	-0.026474787
127	0x3cd7b51d	0.026331479
128	0x3e48056e	0.19533321
129	0xbd2045b3	-0.03912897
130	0x3debd648	0.1151548
131	0xbdf715a0	-0.120646715
132	0x3db6c2a6	0.08923845
133	0x3e3a65bc	0.18202871
134	0x3d9a9fd3	0.07550015
135	0xbe24344c	-0.16035575
136	0x3dd912e8	0.10599309
137	0x3d2697cc	0.04067211
138	0xbd2ae3e1	-0.04172123
139	0xbd5c7854	-0.05382569
140	0xbd3ef953	-0.046624493
141	0xbe5a929b	-0.21344988
142	0x3e09b21d	0.13446851
143	0x3cba1f9b	0.022720149
144	0x3de0e785	0.10981659
145	0x3d984f20	0.07436967
146	0x3e0e5ca5	0.13902529
147	0xbe34d82b	-0.17660587
148	0xbdd7b397	-0.10532301
149	0xbdd4afae	-0.10385071
150	0x3e11ea75	0.14249595
151	0xbde3c86c	-0.11122212
152	0xbd6996c7	-0.057028558
153	0xbe19ceac	-0.15020245
154	0xbab6f141	-0.0013957397
155	0x3e355fd9	0.17712344
156	0x3e25ef31	0.16204526
157	0x3e5c0b7a	0.21488753
158	0xbd840acf	-0.06447374
159	0xbb40bfec	-0.002941127
160	0xbe1f1979	-0.15537061
161	0x3e425957	0.18979393
162	0x3d97c0cb	0.07409819
163	0x3d88ec7b	0.0668573
164	0x3ddb1681	0.10697652
165	0xbd30fd37	-0.043210234
166	0xbd8880cd	-0.06665192
167	0x3e4f04b7	0.20216642
168	0xbe2fa250	-0.17151761
169	0xbd1c1611	-0.03810698
170	0xbd79d786	-0.060996555
171	0x3da8c00d	0.08239756
172	0x3dc4d218	0.09610385
173	0xbdec97d2	-0.11552395
174	0xbd82e9ee	-0.06392275
175	0x3e03f63b	0.12886898
176	0x3d5f8076	0.05456587
177	0xbd60ca15	-0.05488022
178	0xbdc66e39	-0.09688992
179	0xbe621636	-0.22078785
180	0x3dc7b340	0.09750986
181	0x3df04533	0.11731949
182	0xbe409258	-0.18805826
183	0xbdca2cea	-0.09871848
184	0xbe3155ed	-0.17317934
185	0x3d092972	0.03348679
186	0x3dc72d70	0.097254634
187	0xbcd467ac	-0.02592834
188	0xbcbde82b	-0.023181995
189	0xbe1637e5	-0.1466976
190	0x3e1f9eb6	0.15587887
191	0x3d9f4bb5	0.07778112
192	0x3e234de6	0.15947685
193	0x3d15b366	0.03654804
194	0x3dcb858d	0.09937582
195	0x3e11fbc4	0.14256197
196	0x3dedcb1d	0.116110064
197	0x3e0f5dad	0.14000578
198	0x3e00aabe	0.12565133
199	0x3eda9ba7	0.42696878
200	0xbe1353c5	-0.14387424
201	0x3d62fb99	0.055415723
202	0xbb6353ac	-0.0034687323
203	0x3e1bb292	0.15204838
204	0x3c0cc66c	0.008592229
205	0x3ceabf0b	0.02865555
206	0xbd322984	-0.043496624
207	0xbd69ab4f	-0.05704814
208	0xbd6dd342	-0.0580628
209	0xbd0eee31	-0.034895126
210	0x3e0ca4af	0.13734697
211	0x3e4c3326	0.19941387
212	0xbc0917aa	-0.008367458
213	0x3dbd7d42	0.09252407
214	0x3e2b9484	0.16755873
215	0x3e0d781a	0.13815346
216	0x3cdd86ab	0.027041754
217	0xbda82464	-0.08210066
218	0xbbc6cafe	-0.006066679
219	0x3c999ee3	0.01875252
220	0xbd8c4fdd	-0.0685117
221	0xbd5348dd	-0.05158316
222	0x3d903288	0.07040888
223	0xbcc7f31a	-0.024407912
224	0x3dd65cec	0.10466942
225	0xbda65f35	-0.08123628
226	0xbe0900af	-0.13379167
227	0x3d74ca6c	0.059763357
228	0x3e295805	0.16537483
229	0xbdf42352	-0.11920799
230	0xbdf5a1a7	-0.11993723
231	0x3deead2f	0.11654126
232	0x3e250860	0.16116476
233	0x3e4a50f6	0.19757447
234	0x3e4ec88b	0.20193689
235	0x3daa1d35	0.08306352
236	0x3dd2507b	0.10269257
237	0xbbfba2e1	-0.007679329
238	0xbd37754b	-0.044789594
239	0x3e8ac33e	0.27102083
240	0xbc456bda	-0.01204964
241	0xbca08971	-0.019596787
242	0x3dd6cf35	0.1048874
243	0x3cf853fd	0.030313486
244	0x3e1112f1	0.14167382
245	0xbe00c49a	-0.12574998
246	0x3d6ad942	0.0573361
247	0x3df9b7c9	0.12193257
248	0x3e80733a	0.2508791
249	0xbd8fa51c	-0.07013914
250	0x3dfabf56	0.12243526
251	0xbd31963e	-0.043356173
252	0x3dc095d1	0.09403575
253	0xbc9e209a	-0.019302655
254	0x3dc65f04	0.096860915
255	0x3e21adfd	0.15789028

lstm.weight_ih_l1 f4 [256, 64]
0	0x3d0e1539	0.03468821
1	0xbc5935ed	-0.013257486
2	0xbd8407b1	-0.064467795
3	0xbe51df07	-0.20495234
4	0xbdbca983	-0.09212019
5	0x3dec4a75	0.11537639
6	0x3ca0a783	0.019611126
7	0x3d40085c	0.046882972
8	0x3de8bea4	0.11364487
9	0x3edf93fe	0.43667597
10	0x3db05269	0.086094685
11	0x3e4bc115	0.19897874
12	0xbecefd68	-0.4042771
13	0xbe3e8e7b	-0.1860904
14	0xbafcc522	-0.0019284824
15	0x3e75382c	0.23947209
16	0x3eade9d1	0.3396745
17	0x3dd9c4c3	0.106332324
18	0xbe5c4c4a	-0.21513477
19	0xbd97a659	-0.07404775
20	0x3e86c149	0.2631934
21	0x3e9af47b	0.3026465
22	0x3e9dae82	0.307972
23	0x3e38203d	0.17981048
24	0xbd60ca4a	-0.054880418
25	0x3e757d1a	0.23973504
26	0xbdf04655	-0.11732165
27	0x3e050d93	0.1299346
28	0x3eb28493	0.3486677
29	0xbdea837e	-0.114508614
30	0x3e3d5371	0.18488862
31	0xbe3fe888	-0.18741047
32	0x3e026321	0.12733127
33	0x3df00995	0.117205776
34	0xbe8e9bef	-0.27853343
35	0xbea18bca	-0.31551963
36	0xbd9f0c9f	-0.07766079
37	0xbdb94927	-0.09047156
38	0xbe2b1991	-0.16708972
39	0x3e984850	0.2974267
40	0xbee17d40	-0.4404087
41	0xbdd3ae11	-0.10335935
42	0xbd9e8bda	-0.07741518
43	0xbdcfc040	-0.10144091
44	0x3dbee949	0.09321839
45	0xbda3711b	-0.079805575
46	0x3bebf0c1	0.007200331
47	0x3e57e232	0.2108238
48	0xbcf0ed13	-0.02940992
49	0x3e44230f	0.19153999
50	0x3e806233	0.2507492
51	0xbe064d75	-0.13115485
52	0x3dca2fc4	0.09872392
53	0xbd8b5280	-0.06802845
54	0xbd74a3ce	-0.05972653
55	0xbe7e8fb3	-0.24859504
56	0xbcc2da62	-0.023785774
57	0xbe531524	-0.20613533
58	0xbe1a35ba	-0.15059558
59	0x3dcb1cde	0.09917615
60	0xbe05b69c	-0.13057941
61	0xbeac2903	-0.3362504
62	0x3e8f884b	0.2803367
63	0xbe1dfea9	-0.15429176
64	0x3e4c58f9	0.19955815
65	0x3e2d663a	0.16933528
66	0xbc889eae	-0.016677227
67	0xbef18ce8	-0.47177815
68	0x3c81ede2	0.015860502
69	0x3e1e2b0e	0.15446112
70	0x3dbcae53	0.09212937
71	0xbebd7fd3	-0.37011585
72	0x3d155632	0.036459155
73	0x3e5dcdbd	0.21660514
74	0x3e15f561	0.14644386
75	0xbcd8e74e	-0.026477482
76	0x3e6617ea	0.2247006
77	0x3d9ca1e8	0.07648069
78	0x3e7dc56b	0.2478234
79	0x3aca5901	0.0015437902
80	0x3ef0de36	0.47044533
81	0x3e0a9ea3	0.13537078
82	0xbd83f6a9	-0.06443531
83	0xbc8d0f85	-0.017219314
84	0x3e62ca5b	0.22147505
85	0x3dceb352	0.100927964
86	0xbd2d16c4	-0.04225804
87	0xbd4b25f6	-0.04959675
88	0xbd237fb4	-0.03991671
89	0xbe2a6ab4	-0.16642267
90	0x3e341772	0.17587069
91	0x3dd9f417	0.106422596
92	0x3e63749f	0.22212456
93	0x3d2e7280	0.042589664
94	0xbdc54e4f	-0.09634077
95	0x3e737ba1	0.2377763
96	0xbe5eb01e	-0.21746871
97	0x3ebcc63c	0.3686999
98	0xbe297575	-0.16548713
99	0x3bebe5da	0.0071990313
100	0xbe874058	-0.26416278
101	0x3e1c589d	0.15268178
102	0xbd041faf	-0.03225678
103	0xbde47c66	-0.111565396
104	0xbd9817f1	-0.074264415
105	0x3e45de5d	0.19323106
106	0x3d8ae6bb	0.067822896
107	0xbde4e805	-0.11177067
108	0xbe8619bd	-0.26191512
109	0xbe0e72af	-0.13910936
110	0x3ecc6f4e	0.3992867
111	0x3df88668	0.12135011
112	0x3cbc2054	0.022964634
113	0xbd9bdd1b	-0.07610532
114	0x3e248756	0.16067252
115	0x3d0ca36f	0.03433555
116	0x3d822da6	0.06356363
117	0xbe03756e	-0.12837765
118	0x3d43d0ff	0.047806736
119	0xbe4a8695	-0.19777901
120	0xbe5e2571	-0.2169397
121	0x3d6a337d	0.05717801
122	0xbd8faac0	-0.0701499
123	0x3d7b88de	0.061409824
124	0xbddde96e	-0.10835539
125	0xbebac52a	-0.3647855
126	0xbd917c46	-0.071037814
127	0x3dca37eb	0.09873947
128	0xbdaa94df	-0.08329176
129	0xbd75f60e	-0.06004911
130	0x3dace0b9	0.084413
131	0xbd0ab791	-0.03386647
132	0x3bef3c5a	0.0073008956
133	0xbe2bc11b	-0.16772883
134	0xbbe19f27	-0.0068854275
135	0xbdbac1f6	-0.09119026
136	0x3e81264d	0.25224534
137	0xbe09aabb	-0.13444035
138	0xbe1fc698	-0.15603101
139	0xbe05c21e	-0.13062331
140	0x3e974fd6	0.29553097
141	0xbe580be1	-0.21098281
142	0xbe4d5339	-0.20051278
143	0xbc99c692	-0.018771444
144	0xbe704de6	-0.23467216
145	0xbe275b32	-0.16343382
146	0x3c8e1ffe	0.01734924
147	0x3e47652f	0.19472192
148	0x3dbe3904	0.092882186
149	0xbe4b042b	-0.19825809
150	0x3d1cdfc7	0.03829935
151	0x3e35be24	0.17748314
152	0xbeb698ff	-0.35663602
153	0xbdccd15c	-0.1000087
154	0x3cee7c93	0.029112136
155	0xbe6e62fc	-0.23279947
156	0xbe3bf5b3	-0.18355446
157	0xbdb98d01	-0.090600975
158	0x3ec12e76	0.3773076
159	0x3eba6c5b	0.36410794
160	0x3e405c4a	0.18785205
161	0x3d6da2a4	0.058016434
162	0xbda5f794	-0.081038624
163	0x3ebb2410	0.3655095
164	0xbd7e03f4	-0.06201549
165	0xbd463feb	-0.0484008
166	0xbe39b8e4	-0.18136936
167	0x3ea45cce	0.32102054
168	0x3dbfa58a	0.09357746
169	0xbdb1fa89	-0.08690364
170	0xbea82233	-0.32838592
171	0x3e378ed2	0.17925575
172	0x3d4a22b0	0.049349487
173	0xbda0ad80	-0.078455925
174	0x3d92be62	0.07165219
175	0x3da25fad	0.07928405
176	0xbdb60378	-0.0888738
177	0x3d0605e2	0.032720454
178	0x3e152e27	0.14568387
179	0xbec0dea2	-0.37669855
180	0xbe788513	-0.24269514
181	0x3eb4a129	0.35279205
182	0xbe03d7b5	-0.12875254
183	0x3e8e142c	0.27749765
184	0x3b46cfb8	0.0030336212
185	0x3e02c7a3	0.12771468
186	0xbea4dec2	-0.322012
187	0xbe949581	-0.29020312
188	0x3e0c9deb	0.13732116
189	0x3e32c257	0.17456947
190	0x3e2d9179	0.16950025
191	0xbe4a815f	-0.19775914
192	0x3ecd5897	0.4010665
193	0xbc6ea91c	-0.014566686
194	0x3e5c847b	0.21534912
195	0xbe9e91d3	-0.3097063
196	0x3e813bdb	0.2524098
197	0x3d011e28	0.0315229
198	0xbd857465	-0.06516341
199	0xbd522dbb	-0.051313143
200	0xbda212ec	-0.07913765
201	0xbc49c9b1	-0.012316153
202	0x3e35460f	0.17702506
203	0x3e1ec827	0.1550604
204	0xbe59fa6b	-0.21286933
205	0xbddfaf27	-0.109220795
206	0x3e7819f9	0.24228658
207	0x3dcca5c9	0.099925585
208	0x3ce74332	0.028230283
209	0x3db15ba5	0.08660058
210	0xbe8d0e91	-0.27550176
211	0x3d1e81ff	0.038698193
212	0xbdcb5870	-0.099289775
213	0x3e457554	0.19283038
214	0xbd8c6af5	-0.06856338
215	0xbe6d5b17	-0.2317928
216	0x3e4d24aa	0.20033517
217	0xbe132ea2	-0.14373258
218	0x3d18a2b4	0.03726454
219	0x3e84116c	0.25794542
220	0x3d5c4587	0.053777244
221	0x3e3841c0	0.17993832
222	0x3e396cda	0.1810793
223	0x3bcc4f55	0.006235043
224	0x3da14006	0.078735396
225	0x3e13a4ad	0.14418288
226	0x3e84f62c	0.25969064
227	0xbe37da48	-0.17954361
228	0xbec3a1bd	-0.38209334
229	0x3e98f467	0.29873964
230	0xbe5986d7	-0.21242844
231	0xbdd05c88	-0.10173899
232	0xbb9e4807	-0.0048303637
233	0x3e38d07e	0.18048283
234	0xbd4265b2	-0.047460265
235	0x3d9ff001	0.07809449
236	0x3e106fa2	0.14105085
237	0xbe18dac5	-0.14927204
238	0xbda1ebc8	-0.079063
239	0x3de97c07	0.114006095
240	0x3ea0c578	0.31400657
241	0xbe55a76b	-0.20864646
242	0xbe5e2fff	-0.21697997
243	0xbe9a25cf	-0.3010697
244	0xbe6f95a0	-0.23396921
245	0x3e7210a5	0.23639162
246	0xbecf3d36	-0.40476388
247	0xbb5cc4d6	-0.003368666
248	0x3d922e3a	0.07137723
249	0x3e9b9d30	0.30393362
250	0xbd922a3b	-0.07136961
251	0x3e9f2f08	0.3109057
252	0xbed29c64	-0.41134942
253	0xbed729b1	-0.42023996
254	0xbe992fbe	-0.29919237
255	0x3e207a30	0.15671611

lstm.weight_hh_l1 f4 [256, 64]
0	0x3e4471de	0.19184062
1	0xbe36086f	-0.17776655
2	0xbd835d7f	-0.06414317
3	0x3e46836b	0.1938607
4	0xba5ade38	-0.0008349153
5	0xbd622528	-0.055211216
6	0xbdd00f18	-0.10159129
7	0x3d1d299e	0.038369767
8	0x3e97a106	0.2961504
9	0x3e035c7c	0.12828249
10	0x3d7ae4a8	0.06125322
11	0xbe2a2c58	-0.16618478
12	0x3d63be29	0.055601273
13	0x3df5a2b1	0.119939215
14	0x3d9cbde9	0.0765341
15	0xbc41b973	-0.011824
16	0x3e51da28	0.20493376
17	0xbeec0409	-0.4609683
18	0x3e1d5b85	0.15366943
19	0x3e6a6b36	0.2289246
20	0x3b33c065	0.0027427908
21	0x3e531476	0.20613274
22	0x3e13c62f	0.1443107
23	0x3e371392	0.17878559
24	0x3d5d1e8d	0.053984214
25	0x3de3adf7	0.111171655
26	0x3d8e90ee	0.06961237
27	0x3e40b390	0.18818498
28	0x3c93ffb4	0.018066265
29	0x3d95e2b4	0.07318631
30	0x3e4a8eb1	0.19780995
31	0xbe8cba04	-0.2748567
32	0x3e4ad919	0.19809379
33	0xbe612387	-0.21986209
34	0x3c075413	0.008259791
35	0x3dd76f23	0.105192445
36	0xbe280b42	-0.16410545
37	0x3de76df8	0.11300272
38	0xbe32a952	-0.17447403
39	0x3e139456	0.14412054
40	0x3e3cf552	0.18452957
41	0xbdab999b	-0.08378907
42	0xbb322385	-0.0027181816
43	0x3e2f0c64	0.1709457
44	0x3e8100de	0.25195974
45	0xbd186596	-0.037206255
46	0xbe0c8cb3	-0.13725547
47	0x3e8465e1	0.25858977
48	0xbe80417e	-0.25049967
49	0xbe88916a	-0.26673442
50	0xbd5135fd	-0.051076878
51	0x3da4b745	0.080427684
52	0xbd9654a6	-0.07340364
53	0xbecd6ad9	-0.4012058
54	0xbe111e69	-0.14171757
55	0x3d5cd17e	0.053910725
56	0xbe0b6495	-0.13612588
57	0x3bc18cd2	0.0059066797
58	0xbdad5ab4	-0.08464566
59	0xbe71311e	-0.23553893
60	0x3dda1747	0.10648971
61	0xbec01bc1	-0.37521175
62	0x3e60e0bb	0.21960728
63	0x3a77717c	0.0009439213
64	0x3da4dfe6	0.08050518
65	0x3d206dfe	0.039167397
66	0x3cd1f714	0.025630511
67	0xbe408f9e	-0.18804786
68	0xbdf02456	-0.117256805
69	0x3d53a99f	0.051675435
70	0xbef32735	-0.4749085
71	0x3d3cabf2	0.046062417
72	0x3ea60e35	0.32432714
73	0x3da3a0dd	0.079896666
74	0xbd188ecb	-0.037245553
75	0xbe87eac6	-0.26546305
76	0xbc640826	-0.013917958
77	0x3daa0aa8	0.08302814
78	0x3e0357f9	0.12826528
79	0xbe382159	-0.17981471
80	0x3ec13bea	0.37741023
81	0x3d865fdc	0.065612525
82	0xbe417b72	-0.18894747
83	0xbddc31b9	-0.10751671
84	0xbd9761c7	-0.073916964
85	0xbd9fe24c	-0.078068346
86	0xbdc3dda7	-0.09563761
87	0x3d03d06e	0.032181196
88	0xbda2fe81	-0.07958699
89	0xbdab58f3	-0.08366575
90	0xbc967548	-0.018366471
91	0xbcc2cc37	-0.023779018
92	0xbdece487	-0.11567026
93	0x3b5c0b2d	0.0033575997
94	0x3d814bc5	0.0631328
95	0xbd165de7	-0.036710646
96	0xbdc86a67	-0.0978592
97	0x3e5a9b76	0.21348366
98	0x3f09401c	0.5361345
99	0x3ea0cbdc	0.31405532
100	0x3e7ef66f	0.24898694
101	0x3e2b2d5a	0.16716519
102	0xbde31cc2	-0.110894695
103	0x3e0ba741	0.13638021
104	0xbe305145	-0.17218502
105	0x3e66cd0b	0.22539155
106	0xbd7433dc	-0.05961977
107	0xbd495a9a	-0.04915867
108	0x3e488073	0.1958025
109	0x3d1e2afc	0.03861521
110	0xbdb2d61b	-0.087322436
111	0xbdafc4fc	-0.08582494
112	0xbe22bed1	-0.15893103
113	0x3dc38821	0.09547449
114	0x3e08a93a	0.13345805
115	0x3cdf1085	0.027229557
116	0x3c13962f	0.0090079745
117	0x3b885f18	0.0041617267
118	0xbd91c5bf	-0.07117795
119	0x3e157c75	0.14598258
120	0x3dd57870	0.10423362
121	0x3e7d755f	0.24751805
122	0xbe2d304f	-0.1691296
123	0x3c3de612	0.011590498
124	0xbe02d366	-0.12775955
125	0x3db1a70f	0.08674442
126	0xbd2c2795	-0.042029936
127	0x3e2dbf23	0.16967444
128	0xbba2f137	-0.0049726027
129	0x3e2a2ed1	0.16619422
130	0xbd8dd47a	-0.06925292
131	0xbc21076d	-0.009828431
132	0xbeb05f96	-0.34447926
133	0x3df68664	0.12037352
134	0xbdd607c7	-0.10450702
135	0x3dcc1e46	0.09966712
136	0x3eedd971	0.46454957
137	0x3e4e65f3	0.20156078
138	0xbe020f77	-0.12701212
139	0xbe967a8a	-0.29390365
140	0xbec330b6	-0.381231
141	0xbe30f82c	-0.1728217
142	0xbe8289c5	-0.25495735
143	0x3e17123d	0.14753051
144	0x3deb5799	0.11491317
145	0x3da0a334	0.078436285
146	0x3c6c1b2d	0.014410776
147	0xbe2ff7d6	-0.17184386
148	0xbca421ef	-0.020035712
149	0x3e129fab	0.14318721
150	0xbd802441	-0.06256915
151	0xbde8bd8b	-0.113642775
152	0x3e32fadf	0.17478512
153	0xbcab8345	-0.020936618
154	0x3ddaca1c	0.106830806
155	0xbe1b49fc	-0.15164942
156	0xbecfa713	-0.40557155
157	0x3dffdb07	0.12492948
158	0xbda6533d	-0.08121345
159	0x3df1ecd7	0.11812752
160	0x3c9c802a	0.019104082
161	0xbe0772c1	-0.13227369
162	0x3e4c269e	0.19936606
163	0xbee2bd76	-0.44285172
164	0x3cd82051	0.026382597
165	0x3eae2f7e	0.3402061
166	0x3d0ea5bd	0.03482603
167	0xbc625219	-0.013813519
168	0x3d54b764	0.051932707
169	0x3e6b27a0	0.22964334
170	0xbdecc144	-0.115603
171	0xbe546492	-0.2074149
172	0xbe677f46	-0.22607145
173	0xbe3a1ed5	-0.18175824
174	0x3e52c073	0.20581226
175	0x3d2ab8fe	0.04168033
176	0x3e69c68e	0.22829649
177	0x3e5476bb	0.20748417
178	0x3c05747b	0.008145447
179	0xbe4cc27c	-0.19996065
180	0x3e0505f5	0.12990554
181	0xbe066a08	-0.13126385
182	0x3e80f74f	0.2518868
183	0x3e8f369a	0.27971345
184	0x3e087f79	0.13329877
185	0xbb4ff310	-0.003173057
186	0x3e86b9d1	0.26313642
187	0xbe977843	-0.2958394
188	0xbdfa486a	-0.12220843
189	0x3e3ca0b1	0.18420674
190	0xbdeec901	-0.11659432
191	0x3dd2186f	0.102585666
192	0x3de310be	0.11087178
193	0xbd2b9123	-0.04188646
194	0x3e0c6f12	0.13714245
195	0x3c51a3c7	0.012795395
196	0x3df8dfd2	0.12152065
197	0xbe4d54e0	-0.20051908
198	0xbba4229d	-0.005009009
199	0x3d8f5ffd	0.0700073
200	0x3dbad3f8	0.09122461
201	0xbe1ade23	-0.15123801
202	0xbe24543e	-0.16047761
203	0x3e08267d	0.13295932
204	0xbe14eba1	-0.1454301
205	0x3dcf6048	0.10125786
206	0x3d059266	0.03261032
207	0x3d331094	0.043716982
208	0x3e2b94be	0.1675596
209	0x3e8e02e6	0.27736586
210	0x3c9c4f63	0.019080823
211	0xbd58cc26	-0.052929066
212	0xbd3979ab	-0.045282047
213	0x3cbd7d44	0.02313102
214	0x3c7770d5	0.015102585
215	0x3d8a99e7	0.06767636
216	0xbe9bfb43	-0.30465135
217	0xbd63ba13	-0.055597376
218	0x3e0fb27a	0.14032927
219	0xbcf73196	-0.030175012
220	0x3cffd402	0.031229023
221	0xbe57fa7d	-0.21091647
222	0x3e2e7b83	0.17039303
223	0x3f16eed7	0.5895819
224	0x3d20a361	0.03921831
225	0x3b0de54c	0.0021651564
226	0xbe372db7	-0.17888533
227	0x3e6fa1d0	0.2340157
228	0x3f0d3ca8	0.5517068
229	0xbd26f1a3	-0.040757786
230	0x3d295e24	0.041349545
231	0x3da7c659	0.08192129
232	0xbddc80e0	-0.107667685
233	0x3ddc082f	0.107437484
234	0x3e3173f5	0.1732939
235	0x3b3e7f80	0.0029067695
236	0xbce1c58a	-0.027560014
237	0x3e5aac16	0.21354708
238	0x3e060e64	0.13091427
239	0xbc219715	-0.009862681
240	0xbe178656	-0.14797339
241	0x3d1e9c11	0.038723055
242	0x3de73d4a	0.11290987
243	0x3e9d5547	0.30729124
244	0x3e1ac5bc	0.15114492
245	0xbd9a6403	-0.07538607
246	0x3ee22ead	0.44176236
247	0x3d0ef363	0.03490008
248	0x3e3ad649	0.18245806
249	0x3c93a1a9	0.018021422
250	0x3e39c15b	0.18140166
251	0xbb4147f8	-0.002949236
252	0x3d2fd622	0.042928822
253	0x3e89e82e	0.26934952
254	0x3d553866	0.05205574
255	0x3d655e01	0.055997852

lstm.bias_ih_l1 f4 [256]
0	0x3d603501	0.05473805
1	0xbe57a0a8	-0.21057379
2	0xbde6cffb	-0.11270138
3	0xbd504466	-0.05084648
4	0xbdc75225	-0.09732465
5	0xbdbae812	-0.09126295
6	0x3b3a74bf	0.0028450934
7	0x3d5e31ff	0.0542469
8	0xbe23c63e	-0.15993592
9	0x3d322b4f	0.043498334
10	0xbd4fc309	-0.05072311
11	0xbdd8af32	-0.10580291
12	0xbe52140b	-0.20515458
13	0xbd95e2a4	-0.07318619
14	0x3d706638	0.058691233
15	0xbc73c340	-0.014878094
16	0x3e026d0f	0.12736915
17	0x3e5fdabf	0.21860789
18	0xbe032f96	-0.12811121
19	0xbe0301e0	-0.12793684
20	0xbdd9a05b	-0.106262885
21	0xbe291213	-0.16510801
22	0xbe89a7e1	-0.26885894
23	0xbdde70ce	-0.108613595
24	0xbd542fa0	-0.05180323
25	0xbd6988de	-0.057015292
26	0xbe260b3d	-0.16215225
27	0xbd56aed0	-0.052412808
28	0x3e93c2eb	0.28859648
29	0xbdf48fc3	-0.11941483
30	0xbeb3ef2b	-0.35143408
31	0x3ddc32c2	0.10751869
32	0xbdb0f731	-0.08640898
33	0xbdcb0cf5	-0.09914581
34	0xbdaf7ec5	-0.08569101
35	0xbd4df56f	-0.05028289
36	0x3f2d2b82	0.6764451
37	0xbde81076	-0.11331265
38	0x3d290022	0.041259892
39	0x3f009d63	0.50240153
40	0x3de1728c	0.11008176
41	0x3de443e1	0.111457594
42	0x3bbc08ff	0.005738377
43	0xbe2d417c	-0.16919512
44	0x3ddb18bf	0.10698079
45	0x3e443d19	0.19163932
46	0xbd3e6778	-0.046485394
47	0xbdb46d1b	-0.08809873
48	0xbdc419ad	-0.0957521
49	0xbba628b1	-0.0050707688
50	0xbd6db1bf	-0.05803084
51	0x3dbd5cc6	0.09246211
52	0xbe563697	-0.20919262
53	0xbd141c5c	-0.036159858
54	0x3e19242c	0.14955205
55	0x3df725b3	0.120677374
56	0xbe514653	-0.20436983
57	0x3dc482dc	0.09595272
58	0xbdb179ca	-0.086658075
59	0xbe086f02	-0.13323596
60	0xbe2afff9	-0.16699208
61	0x3f1fb158	0.6237998
62	0xbd8a44b2	-0.06751384
63	0x3f1e4feb	0.61840695
64	0x3d7fbb9c	0.062434778
65	0x3bcfd84d	0.0063429237
66	0xbcafa2df	-0.021439968
67	0xbd8d9d7f	-0.069148056
68	0xbe22e7d4	-0.15908748
69	0x3e289c25	0.16465814
70	0x3dbec314	0.09314552
71	0x3df21c22	0.11821772
72	0xbc8d6b44	-0.017263062
73	0xbbcd30a2	-0.006261901
74	0xbe01d5ae	-0.12679169
75	0x3ce68195	0.028137961
76	0x3c0be915	0.008539458
77	0x3c01668a	0.007897982
78	0x3e67732d	0.2260253
79	0xbc2aa578	-0.010415427
80	0xbe57f084	-0.21087843
81	0xbe5c1e2f	-0.21495889
82	0xbdfe9f62	-0.124327436
83	0xbdbd77d4	-0.09251371
84	0x3de40539	0.11133809
85	0xbdc61d50	-0.0967356
86	0xbd813c69	-0.063103504
87	0x3e7afe41	0.24511053
88	0x3db5e79f	0.08882069
89	0x3e9df3cf	0.30850074
90	0x3d90fa79	0.07079024
91	0x3e52014f	0.20508312
92	0xbeaa679e	-0.3328218
93	0x3dc63384	0.096777946
94	0xbe042fdf	-0.12908886
95	0xbe448c3c	-0.1919412
96	0x3d168796	0.0367504
97	0x3e41a8f7	0.18912111
98	0x3c58aec8	0.013225265
99	0xbcbfdf67	-0.023421956
100	0xbebdeec7	-0.37096235
101	0x3eb3e6f2	0.35137135
102	0xbdcd8878	-0.10035795
103	0xbe66d6ab	-0.22542827
104	0x3de4cc18	0.1117174
105	0x3d1f87a2	0.03894771
106	0x3e6222f5	0.22083648
107	0x3d91dfb0	0.07122743
108	0x3c5989e4	0.013277505
109	0x3e08d0db	0.13360922
110	0x3dbd9d0e	0.092584714
111	0x3df43452	0.11924042
112	0xbe4005c9	-0.18752207
113	0x3e8429e2	0.25813204
114	0xbdd3dfcd	-0.10345421
115	0x3d606887	0.054787185
116	0xbe17320f	-0.1476519
117	0x3cdb49f5	0.026768664
118	0xbd10b87a	-0.03533218
119	0xbeaa7928	-0.3329556
120	0xbe32c216	-0.1745685
121	0xbda7a670	-0.08186042
122	0xbc5051b7	-0.012714795
123	0x3dcc7e26	0.099849984
124	0xbd919d12	-0.07110037
125	0xbedc37aa	-0.43011218
126	0xbd98919d	-0.074496485
127	0xbea7acac	-0.32748926
128	0x3dc70290	0.09717286
129	0xbe06b6dd	-0.13155694
130	0x3d80948e	0.062783346
131	0x3e2bba84	0.16770369
132	0x3d5833d7	0.052783813
133	0xbe428340	-0.1899538
134	0x3ccc8ef3	0.024970507
135	0xbdd1760e	-0.10227595
136	0xbd81ba51	-0.06334365
137	0xbe3d1163	-0.18463664
138	0x3dd731af	0.10507523
139	0x3e35a7be	0.1773977
140	0x3dd9e54c	0.10639438
141	0x3e15617e	0.14587972
142	0x3e34eafc	0.17667764
143	0x3daddcf3	0.08489408
144	0xbdf9a161	-0.12188984
145	0xbd024951	-0.0318082
146	0x3e19c32a	0.15015855
147	0x3a2eff60	0.0006675627
148	0x3e377123	0.17914252
149	0x3de00cac	0.10939917
150	0x3ddb918f	0.107211225
151	0xbdc062c9	-0.09393842
152	0xbd2c985f	-0.0421375
153	0xbccedc8d	-0.025251651
154	0x3c249727	0.010045803
155	0x3e17d031	0.14825512
156	0x3e239abf	0.15977
157	0xbdbb7122	-0.09152438
158	0xbaee7ddf	-0.0018195471
159	0x3ccb3186	0.024803888
160	0x3d89b338	0.067236364
161	0xbe5538fe	-0.20822522
162	0xbd2ec89c	-0.042671785
163	0xbc837c11	-0.01605037
164	0xbd2f55d2	-0.042806454
165	0x3cf507dc	0.029910974
166	0x3c8b7247	0.017022265
167	0xbc42d7f6	-0.011892309
168	0x3e067366	0.13129959
169	0xbc2c0b5d	-0.010500756
170	0x3e0d7046	0.1381236
171	0x3e1ed77c	0.15511888
172	0x3dca9951	0.09892524
173	0x3e2939c7	0.16525947
174	0xbe127709	-0.14303221
175	0x3ce08627	0.027407719
176	0x3bff59e9	0.0077927005
177	0xbdefb36a	-0.117041424
178	0xbe0da435	-0.13832171
179	0x3d38a678	0.045080632
180	0xbdc1a47e	-0.094552025
181	0x3bb4dfbd	0.0055198357
182	0xbe236e1b	-0.1595997
183	0xbd84b0e1	-0.064790495
184	0xbe7abbd0	-0.24485707
185	0xbd0fadeb	-0.03507797
186	0xbd77f401	-0.060535435
187	0x3d81079d	0.0630028
188	0x3e6914dd	0.22761865
189	0x3cf9036b	0.030397138
190	0x3ded0023	0.11572292
191	0xbd143b18	-0.03618917
192	0xbcbe831e	-0.02325588
193	0xbdbb25ac	-0.09138045
194	0xbe2554c0	-0.16145611
195	0xbd9ecc7b	-0.07753845
196	0xbe05c0be	-0.13061807
197	0x3bd61f2b	0.006534477
198	0xbc882d7a	-0.016623247
199	0x3cdc1b82	0.026868585
200	0xbe178bce	-0.14799425
201	0xbdfa2d6e	-0.12215696
202	0xbe072a25	-0.1319967
203	0xbdf7de94	-0.12103
204	0xbd73404b	-0.059387486
205	0xbde41400	-0.11136627
206	0xbdee063e	-0.11622284
207	0x3df2565b	0.11832877
208	0x3e8473b2	0.2586952
209	0x3e950248	0.29103303
210	0xbd3753a7	-0.04475751
211	0xbe568399	-0.20948638
212	0xbe3a96c0	-0.18221569
213	0xbe1e9bf9	-0.15489186
214	0xbe2e8971	-0.17044617
215	0x3cdd5363	0.027017301
216	0xbe032684	-0.12807661
217	0xbe1d659d	-0.15370794
218	0x3cbe1700	0.023204327
219	0xbe5f8ead	-0.2183177
220	0x3e2453ee	0.16047642
221	0xbda7ae39	-0.08187527
222	0xbdf6b72e	-0.120466575
223	0xbb0f0ba9	-0.0021827018
224	0x3c62f0ec	0.013851386
225	0xbdedeb5c	-0.11617157
226	0xbcc5b202	-0.024132732
227	0x3d9325df	0.07184958
228	0x3f34ed6f	0.70674795
229	0x3e840f05	0.2579271
230	0x3dd776a4	0.10520676
231	0x3f234887	0.6378254
232	0xbe06f623	-0.13179831
233	0x3dd6d2e3	0.10489442
234	0x3e061eef	0.13097738
235	0xbeac6707	-0.33672354
236	0x3eb7b7ca	0.35882407
237	0x3cc36fe1	0.023857059
238	0x3c0209f3	0.007936942
239	0xbe4f5dd3	-0.20250635
240	0xbdbfefa5	-0.093718804
241	0xbd38e1fe	-0.045137398
242	0xbd69930c	-0.057025
243	0x3d676edf	0.05650222
244	0xbe5b2af8	-0.2140311
245	0x3da568c0	0.0807662
246	0x3e4c8c77	0.19975458
247	0x3e1a772f	0.15084527
248	0xbecbaddc	-0.39781082
249	0xbda876b3	-0.08225765
250	0xbc6f09ad	-0.014589709
251	0x3e666245	0.22498424
252	0xbe461b54	-0.19346362
253	0x3f20f2b5	0.6287034
254	0xbe868a70	-0.26277494
255	0x3f309ef3	0.6899254
