Models/Precipitation_Models/safawi_precipitation_model.pth (torch, 224106 bytes, 11 tensors)

lstm.weight_ih_l0 f4 [256, 11]
000000 1f ec 43 3c 67 68 23 be 20 71 dd 3d 13 90 dc 3e
       0.011958151 -0.15957795 0.108125925 0.4307867
000010 a2 30 82 be 02 f8 27 bd dd d2 f3 bd 8c ab 90 3d
       -0.2542773 -0.041008003 -0.11905453 0.0706397
000020 74 71 fc bd 54 4e fd bc 60 65 dc bd 20 11 da 3c
       -0.12326327 -0.030921139 -0.10761523 0.026619494
000030 02 83 3f 3d 04 61 7e 3e 7c fc 81 3d ed eb df bc
       0.0467558 0.24841696 0.06346986 -0.027334178
000040 7f d9 50 3d 9b df b9 3d 19 6b 9f bd 96 93 a8 3e
       0.05098867 0.090758525 -0.07784099 0.329251
000050 56 18 64 be d4 b1 a6 3d 0d 19 37 3e 69 2a 8c 3e
       -0.22274908 0.08139387 0.1788065 0.27376106
000060 87 ae 26 3e c8 c8 34 be 06 f6 38 3e 0c 81 92 3d
       0.16277514 -0.17654717 0.180626 0.0715352
000070 7d 0f ee bc 7f af 02 3e a8 31 95 3e 8d e8 08 3d
       -0.02906012 0.12762259 0.29139447 0.033424903
000080 16 33 19 be 40 da 79 3d 24 d8 04 be 62 37 87 3e
       -0.14960894 0.060999155 -0.12973076 0.2640944
000090 9a f9 d3 3b a4 94 3d be 8e 14 d6 3d 4f 11 c4 3e
       0.006468964 -0.18513733 0.10453139 0.38294455
0000a0 40 56 41 bd f8 e8 b5 3c 90 21 d1 bd a7 60 89 3d
       -0.047201395 0.022205815 -0.1021148 0.06707888
0000b0 e9 9d a3 3d 7f 31 09 3e c1 36 16 3e 05 2e fb 3d
       0.07989103 0.13397788 0.14669324 0.12264637
0000c0 81 ab da 3c 44 89 74 3e 1b 82 b8 3e 72 d2 24 be
       0.026693108 0.23880488 0.36036763 -0.16095904
0000d0 d8 45 bc bc 94 be 91 be 26 3b 9a 3c fa d5 fc 3c
       -0.022982523 -0.28465712 0.018827032 0.03086375
0000e0 84 c8 8a 3c 21 69 90 3d 42 0a e9 3c 5b 98 41 bd
       0.016941316 0.07051302 0.028447274 -0.047264438
0000f0 cb 28 03 be 2e a4 9d be 6d 29 08 be 28 a7 ce 3d
       -0.1280853 -0.30789322 -0.13297053 0.10090476
000100 09 21 ed 3c 9c ca 2b bd f5 e4 fd 3d 4b 34 58 3d
       0.028946416 -0.04194127 0.12397186 0.052784245
000110 c7 37 f2 bd ab 3a 1e 3d fb 72 91 3e 1a 8d 96 be
       -0.11827045 0.03863017 0.28408036 -0.29404527
000120 fc 82 b2 3d a7 e2 0e bf 51 ce 77 bd 40 0b 45 3e
       0.087163895 -0.55814594 -0.060499493 0.19242573
000130 de b3 36 be 32 8e e8 3d d4 2a 9a bc 63 d3 f1 3d
       -0.17842051 0.113552466 -0.01881925 0.11807897
000140 9e bc 43 3e 2c ff 93 bd a6 08 26 3e 34 2a ce be
       0.1911492 -0.072264045 0.16214237 -0.40266573
000150 63 5d d3 be 53 45 2f bc 6b b0 0a be a6 d9 85 bc
       -0.41282186 -0.0106976805 -0.1354386 -0.016339134
000160 fe c5 2b 3e 62 e2 c1 bd 64 bf b8 3d 0f 9d 28 3e
       0.16774747 -0.09467007 0.0902088 0.16466163
000170 72 2b 76 3d 59 25 08 bc bd 7d d1 ba 28 8b 06 3e
       0.060100026 -0.008309686 -0.0015982907 0.13139021
000180 b9 f1 03 3e 43 3b 2a be 16 a9 d7 3d 7b 4f cd 3e
       0.12885179 -0.16624169 0.105302975 0.400997
000190 02 f3 a2 3d 7e 7d 6f be d9 a0 0b bc 7c 75 f3 bd
       0.07956506 -0.23387715 -0.008522236 -0.11887643
0001a0 01 49 8d 3e 0c 1e a4 3e a4 4a f5 3d 94 03 85 3e
       0.2759476 0.32054174 0.11977127 0.25979292
0001b0 a2 b2 51 3e 13 dc 10 3e 46 40 bf be a7 42 80 bd
       0.204783 0.14146452 -0.37353724 -0.06262713
0001c0 98 36 b1 bd 0f 7c 44 bd 39 bc 90 bc 81 8a 9a 3e
       -0.08652991 -0.047969874 -0.017667877 0.30183795
0001d0 29 a6 45 3e 0a 4b 22 be 82 98 2f bd 6e 50 28 3e
       0.19301666 -0.15848938 -0.042870052 0.16436931
0001e0 13 3c 74 be 8d fe 16 be 43 8a d2 3d 19 a4 31 3c
       -0.23851041 -0.14745541 0.102802776 0.010842347
0001f0 ac ca 5e bd d1 33 59 be fd 13 2f bf 8e b7 15 3e
       -0.0543925 -0.21211173 -0.68389875 0.14620802
000200 7b cc 12 3c 5b f0 f6 3d d2 2d 87 be c1 92 d6 bd
       0.008959885 0.12057563 -0.26402146 -0.1047721
000210 59 ad 88 3c 6d 84 4a bd 8f e4 30 be fc fc 25 bd
       0.016684221 -0.049442697 -0.17274688 -0.040524468
000220 67 3e ea 3d 8c f3 f6 bd c6 05 5a be c4 5e a9 3d
       0.114376836 -0.12058172 -0.21291265 0.08270028
000230 64 27 58 be 06 bb 25 be d7 33 25 be 39 10 e1 3d
       -0.21108776 -0.16184625 -0.16133057 0.10989422
000240 54 97 e1 bd ad b0 01 3e 97 81 15 3e 8b 4d a3 bd
       -0.11015192 0.12665053 0.14600216 -0.079737745
000250 9d e5 54 be dc 32 56 be 53 6f b4 be 7c ae 23 be
       -0.20790716 -0.20917839 -0.35241184 -0.1598453
000260 0d 84 b0 3d c6 49 bd bb 9e 70 c5 3e 1d 7e a7 3d
       0.08618937 -0.0057766167 0.38562483 0.08178351
000270 6b c6 92 3e b7 5f 13 3e ac 29 c2 bc 3a b6 fd 3e
       0.28667006 0.14391981 -0.023701511 0.4955309
000280 99 96 90 bd d8 7c b9 bd b7 72 e7 3d cb 15 71 bd
       -0.07059974 -0.09057015 0.11301177 -0.058858674
000290 98 e2 9d bd 03 e1 79 3e 12 ce 30 be 8e bc 04 3e
       -0.07709235 0.24402241 -0.1726611 0.12962553
0002a0 bc 55 bc bc ec 12 06 be 91 93 f3 be 0a 81 03 3f
       -0.0229901 -0.13093156 -0.47573522 0.51368773
0002b0 a1 e6 5a be fb d8 97 bd a2 95 d5 3d 3c d0 17 3d
       -0.2137704 -0.074144326 0.10428931 0.037063822
0002c0 ff a7 8d be 51 6f ac bd 9a 27 ab 3b 6b ed c2 be
       -0.27667233 -0.084196694 0.0052232267 -0.3807176
0002d0 54 6a 73 3e 81 65 0a 3e 32 4a a9 3d f3 03 44 3e
       0.2377103 0.13515283 0.08266105 0.19142132
0002e0 41 da 9b be f9 da 29 bd 35 47 94 3c 8f c3 bb 3c
       -0.30439952 -0.041468594 0.01810036 0.022920398
0002f0 f3 f8 f8 3d 7b 53 ac be 40 c4 db be 3e 35 e6 be
       0.12156858 -0.3365744 -0.42923164 -0.44962496
000300 0f 08 01 be 79 96 61 bd 54 ac 03 3e d7 d4 9f bd
       -0.1260073 -0.055075143 0.12858707 -0.07804268
000310 15 eb 5d bd 90 a4 2e 3d 62 d4 31 3e ae cb 3a 3e
       -0.05417927 0.042637408 0.17366174 0.1824176
000320 f0 c7 82 bd 0f 12 44 be bf 61 9f bd ba af db 3d
       -0.06385791 -0.19147514 -0.077823155 0.107268766
000330 5e 78 8c be c5 72 9c be 14 ec 3d be a4 6c 41 be
       -0.27435583 -0.30556312 -0.18547088 -0.188891
000340 6a a5 4c bd ed 82 0d be 30 d9 cf bb a6 0b 95 3c
       -0.04996244 -0.13819475 -0.0063430294 0.018194031
000350 ad 0a 0b 3e 3c 48 84 be 88 0c b6 3b c5 c9 80 be
       0.13578291 -0.2583636 0.005555693 -0.25153938
000360 95 c8 cc be 67 f9 15 3d bb 80 f5 bd 5e 44 65 be
       -0.39996782 0.0366148 -0.11987444 -0.22389361
000370 80 8d f0 3e 9f 1b 05 3e ff 84 ac 3d 52 66 de 3d
       0.46982956 0.12998818 0.084238045 0.1085936
000380 fa f9 96 be f0 50 24 be bd 25 24 3e 43 a0 96 3d
       -0.29487592 -0.160465 0.16030021 0.07354786
000390 b0 af 45 be 9e c4 dc bc 8a e9 e5 3c ba f1 59 be
       -0.193053 -0.026949223 0.028065462 -0.21283618
0003a0 a5 e3 c9 bc d8 28 c2 bb ef 51 21 3e f6 61 81 3e
       -0.024644682 -0.005925279 0.15753911 0.2527005
0003b0 0d 8e d3 bd aa 4b 9a 3e 3d c6 5a bc 91 db 93 bd
       -0.103298284 0.30135852 -0.013352928 -0.07219613
0003c0 41 54 04 bd 66 e9 10 be 94 80 47 be 9c 21 be bd
       -0.032306913 -0.14151534 -0.19482642 -0.09283754
0003d0 36 1a 88 3c 06 bd e9 3e c4 ae 1f 3e 86 8e b9 3e
       0.01661406 0.45652026 0.15594012 0.3624155
0003e0 3a 7b 0f 3e f3 e1 4e bd 01 9f ac bd 23 72 a8 3e
       0.14011851 -0.05050845 -0.08428765 0.3289958
0003f0 8b 3a 40 3e 81 ec b9 3d 5a 2c 25 be 24 35 10 3e
       0.18772332 0.09078313 -0.161302 0.14082772

lstm.weight_hh_l0 f4 [256, 64]
000000 85 ca 21 be 5d a2 56 be d9 c2 82 bd d6 ae 69 be
       -0.15799911 -0.20960374 -0.063848205 -0.22820601
000010 d9 c6 ce 3d ac 33 b5 3d 64 45 c6 3d 04 1b 71 3e
       0.10096521 0.08847746 0.09681204 0.23545462
000020 55 49 15 3e e4 37 82 be 5b 1c 9e 3d 98 6e 51 be
       0.14578755 -0.25433266 0.07720252 -0.20452344
000030 85 80 83 be ea 5d af 3d 19 e1 70 3d 6f 6f b5 bd
       -0.2568399 0.085628346 0.05880842 -0.08859145
000040 46 c1 e9 3e 62 00 41 3e 03 db 2e be 65 30 b8 be
       0.45655268 0.18847802 -0.17075734 -0.35974422
000050 e7 61 54 bc e9 13 36 be 84 b5 36 be a2 b9 0a 3d
       -0.012962795 -0.17781033 -0.1784268 0.03386844
000060 3f 4e 6e bd 70 a7 3c 3e 44 5b 55 be 2a a8 1c be
       -0.05818009 0.18423247 -0.20835596 -0.15298524
000070 cf 6a 45 be 8e 70 1c 3e 75 46 84 bc cf 8a 54 3e
       -0.19279025 0.15277311 -0.016146878 0.20756076
000080 e1 0b 2c 3e b4 29 f2 bd 7a c3 4a bd f6 b9 54 bd
       0.16801406 -0.118243605 -0.049502827 -0.05193516
000090 d0 32 8c be 93 de 5b be c7 f0 f9 3b ed 77 89 3c
       -0.27382517 -0.21471624 0.00762758 0.016780818
0000a0 04 db c6 be 07 3a 23 3d a0 01 db bb 5b 70 a8 bd
       -0.3883897 0.03985026 -0.0066835433 -0.08224555
0000b0 ff 59 f7 3b 3a 8d 22 3e ae e6 19 3e 32 77 bd 3e
       0.00754857 0.15874186 0.15029404 0.37005
0000c0 77 c4 20 be 47 b0 c6 3d 57 b2 9a 3d 4c 1a 8d be
       -0.15699945 0.09701591 0.07553547 -0.27559125
0000d0 80 9e 3e be ce a0 25 be 91 9b 33 3e 41 9d 6a bd
       -0.1861515 -0.16174623 0.17539813 -0.057278875
0000e0 55 e9 f8 bd e0 e8 25 bd 95 68 8e be ed fd 45 3e
       -0.121538796 -0.04050529 -0.27814165 0.19335146
0000f0 34 80 4c 3d 4e 8b 16 3e e3 f7 26 3d 70 df f1 bd
       0.04992695 0.14701578 0.040763747 -0.118101954
000100 3b 12 15 bd 1d f5 67 3e 71 c0 02 3e 91 08 52 3c
       -0.03639434 0.22652097 0.12768723 0.012819425
000110 84 95 9a 3e e1 06 79 be b7 99 13 3e 58 dc ee 3d
       0.30192196 -0.2431903 0.14414106 0.11663121
000120 eb b6 0b bf e8 9e dc be ae f9 11 be 53 b0 36 3e
       -0.54575986 -0.43089986 -0.14255401 0.178407
000130 96 31 27 be d0 dc 92 3d cf a6 a3 bd af 31 2f be
       -0.1632751 0.07171023 -0.079908006 -0.17108797
000140 0e 2b 96 be 0f e1 fc 3d 83 61 69 be a0 34 d6 3d
       -0.29329723 0.12347614 -0.22791104 0.10459256
000150 c0 26 85 bd 11 b3 35 3e f5 f1 74 bd 36 85 24 3e
       -0.065015316 0.1774409 -0.05980106 0.16066441
000160 b3 08 d2 bd b6 fd 0e be 24 49 2d bd c8 67 bc 3e
       -0.102555655 -0.1396397 -0.04230608 0.3679793
000170 80 cb 24 bd 5f b1 c0 be 51 5a 55 3d 23 dc 00 bf
       -0.040233135 -0.37635323 0.052088086 -0.503359
000180 db ae 76 be bd 2f 1f bd 21 fe 23 be 79 6f e6 3b
       -0.2409014 -0.038863886 -0.16014911 0.0070323315
000190 72 f9 9b bb 41 44 00 be ad 8e 28 be 6e 88 86 bd
       -0.004759961 -0.12526037 -0.16460676 -0.06568991
0001a0 22 c7 4f 3e 91 e8 31 3e 6d 33 aa 3d 57 d6 0f 3d
       0.20290807 0.17373873 0.0831059 0.03511652
0001b0 66 10 ee bc f9 ca 1c 3e 10 cc 68 3d db e5 2e 3e
       -0.029060554 0.15311803 0.056835234 0.1707987
0001c0 f9 62 0e be a2 03 65 bc 1b 5c 63 be 13 32 c1 bd
       -0.13904943 -0.013977917 -0.22203104 -0.09433379
0001d0 1d 21 b2 3d d2 48 f7 bc 04 61 8e 3d 14 80 a5 3d
       0.08697722 -0.03018609 0.06952098 0.080810696
0001e0 59 47 b3 be 99 c6 a7 bd f5 33 e8 3d b2 e2 1c be
       -0.3501537 -0.08192176 0.11338035 -0.15320852
0001f0 f7 e9 ec 3b 87 fc 16 bd 03 7c 92 be 1c ca b3 bd
       0.007230039 -0.036861923 -0.28610238 -0.08778784
000200 df 41 b5 3c 8e 52 a2 be 93 24 a3 be 75 b5 85 3e
       0.022126136 -0.3170361 -0.3186384 0.26115003
000210 89 b5 70 3e e8 94 e9 be 14 80 ab 3d 71 68 00 be
       0.2350675 -0.4562142 0.08374038 -0.12539841
000220 9c d2 f5 3c ae 19 cd 3d f7 e9 db bd 6a 52 f2 3c
       0.030007653 0.10014664 -0.10737985 0.029580314
000230 5c bb 5c 3e 7c 9e 23 3e a9 b7 16 3e 91 9e bc bc
       0.21555847 0.15978426 0.14718498 -0.02302483
000240 25 30 73 be 48 3c 42 be 89 0a 0c be e5 6a a2 bc
       -0.23748834 -0.18968308 -0.13675894 -0.019826362
000250 60 0f 64 3c 6e 66 46 3e 37 c5 3d be 7f 49 90 bd
       0.013919681 0.19375011 -0.18532263 -0.07045268
000260 b9 78 84 3e be 1c 52 bc e7 9f 18 3d 4b 9e 1e be
       0.25873354 -0.0128242355 0.03726187 -0.15490071
000270 16 f3 f0 3d 42 7e 1f 3e 70 37 d8 3d b6 17 8e 3d
       0.11765115 0.15575507 0.10557449 0.06938116
000280 93 73 bd 3d 3f e4 c1 3e f1 ab eb be b3 10 02 3d
       0.0925056 0.3786945 -0.46029618 0.031754207
000290 27 e5 fc bd 66 e4 0c be 81 36 83 3c ad c7 23 3e
       -0.12348395 -0.13759002 0.0160172 0.15994139
0002a0 ce 9f 1d 3d ec 32 f4 bc 75 0b af 3e 14 7a 24 3e
       0.03848248 -0.029809438 0.3418843 0.16062194
0002b0 8f 4a a5 3e f9 c9 01 be d8 b5 e2 3c 01 1e 8a 3e
       0.32283446 -0.12674703 0.0276746 0.26976016
0002c0 c4 57 23 3e 06 8d 27 be 80 8e 54 3e 05 ce 8a 3e
       0.15951449 -0.1636239 0.20757484 0.27110305
0002d0 89 4e b3 bd a9 bc 43 be 9d 85 99 3e b6 cb 1f 3e
       -0.08755214 -0.19114937 0.2998475 0.15605053
0002e0 2b ee a0 3e 68 0f c2 3d 02 29 ed 3d 3a 15 b7 be
       0.31431708 0.09475595 0.11580087 -0.35758382
0002f0 98 0e d8 bd 7c e3 bd 3d 9b b9 31 3e 9e a6 ae 3d
       -0.105496585 0.09271905 0.17355959 0.085278735
000300 fb 30 ce bd e6 34 48 be 14 b0 45 3d e8 2a e7 bd
       -0.10067936 -0.19551429 0.048263624 -0.112874806
000310 65 22 d2 3e 16 13 50 bd ab bd 06 3b 69 67 df bd
       0.41041866 -0.05079945 0.0020559828 -0.10908396
000320 68 09 f1 3d b2 25 23 3c ba 15 93 be 2e d0 87 be
       0.11769372 0.009957718 -0.28727514 -0.26526016
000330 f2 06 75 3d b1 1a d2 3d 60 29 af 3d 0b 54 a9 3e
       0.059821077 0.10258997 0.085528135 0.33071932
000340 3c a1 8c 3c ee 06 38 bd 32 ed 20 3e f0 d0 d9 3d
       0.017166726 -0.044928484 0.15715483 0.10635555
000350 f1 52 37 be 58 7b a7 3e 49 a5 08 bb bc 37 79 be
       -0.17902733 0.3271129 -0.002085047 -0.24337667
000360 6a e7 8e 3e 8a f7 59 bd e7 ec 8b be 05 a5 2a 3d
       0.2791093 -0.053214587 -0.2732918 0.04166128
000370 2c 47 15 be 37 27 38 3e e1 b2 87 3e 69 f3 1d bd
       -0.14577931 0.1798371 0.2650366 -0.038562212
000380 1c c8 0a be 04 b6 cd bd 3d 53 28 bc 9b 0e dc 3d
       -0.13552898 -0.10044482 -0.010273752 0.10744973
000390 9f 3a 25 3e c2 a8 af 3e 70 8e 06 be a0 55 2d 3e
       0.16135643 0.3430844 -0.13140273 0.16927195
0003a0 01 da 24 3c aa a2 b3 be 08 2e b7 3d f3 b4 5a be
       0.010061742 -0.3508504 0.08944327 -0.21358089
0003b0 51 6f 98 3d 86 2b 00 3e 91 2f 14 3d 7a a4 37 be
       0.07443107 0.12516603 0.036178175 -0.17933837
0003c0 e4 4d 77 3e 5e 74 51 be 82 09 97 3d 61 74 c2 bd
       0.24150807 -0.20454547 0.0737486 -0.09494854
0003d0 63 ad 48 bd 9e 0f 2f 3d af 10 64 bc e6 fa cb be
       -0.04899348 0.042739503 -0.013919993 -0.39839858
0003e0 f1 53 cd 3c 5e ed 35 be ea f7 1c 3f 83 7c ef be
       0.02506444 -0.1776633 0.61315787 -0.46774682
0003f0 08 1c 1b be 7a 76 82 3e ca f9 e7 3d ef 1b ac be
       -0.15147412 0.25481015 0.1132694 -0.33615062

lstm.bias_ih_l0 f4 [256]
000000 bc ce 99 3d 11 5e 2e bd 1b 05 fc bd 9f d8 b7 bd
       0.075101346 -0.042570177 -0.12305661 -0.08976864
000010 6b 68 26 bd a0 27 80 3c 67 4a b9 bd 88 1e 1a be
       -0.040626924 0.015643895 -0.09047394 -0.15050709
000020 b0 55 71 be 1d 31 5b be 8d ad 8c bd d3 bb 35 be
       -0.23567843 -0.21405454 -0.0686904 -0.1774743
000030 c3 58 08 3e be a1 c7 3d bb 92 8b bd aa 19 a9 bd
       0.1331511 0.09747647 -0.06815096 -0.08256848
000040 ec e2 e7 3d 78 aa ec bd 09 5c e2 3d 69 c8 c2 bd
       0.11322579 -0.11555952 0.110527106 -0.095108815
000050 3f 56 cf bb 16 ad 32 bc 16 20 b6 3d 0e ec 50 3d
       -0.00632742 -0.010905525 0.08892839 0.05100637
000060 a0 27 0b 3d 43 f1 fe bd 79 0b 15 be 97 0f fe bd
       0.033973336 -0.12448361 -0.14555158 -0.12405317
000070 96 9e 04 bd b8 fa 17 3d 96 09 00 3c 85 3f 36 be
       -0.0323778 0.03710434 0.007814785 -0.17797668
000080 49 e7 bf 3c 3d 72 f1 bb 06 41 8e bd da be 60 3c
       0.023425715 -0.0073683546 -0.06945996 0.013717378
000090 8d 83 20 bd d1 ff 00 3e 74 a9 e8 bd 5a 0c 0d bd
       -0.039187957 0.12597586 -0.113604456 -0.034435607
0000a0 c7 73 e3 3c a9 36 42 3e 4a 3c b6 3d 18 76 e4 bb
       0.027765168 0.18966164 0.08898218 -0.0069720857
0000b0 11 c1 02 bd 11 71 d4 3c d2 5e d9 bb 3c c1 53 3e
       -0.031922404 0.02593282 -0.006633618 0.20679182
0000c0 d1 79 6a bd e1 55 07 bd a0 fa c2 3c 28 3f e8 bc
       -0.05724508 -0.033040885 0.023801148 -0.028350428
0000d0 bf bf bc 3c 19 2a 0b 3d d7 b9 e8 bc eb 04 5c bd
       0.02304065 0.033975694 -0.028408928 -0.053715628
0000e0 e4 b0 08 3d b9 f0 02 be 4e 11 c3 3d 5d 5c f9 3c
       0.03337182 -0.12787141 0.09524785 0.03043955
0000f0 8c 6e 6a 3d eb 81 f5 3d 3b e7 1a 3e 29 e4 f4 bd
       0.057234332 0.119876705 0.1512727 -0.119575806
000100 01 67 fb 3d d3 06 a0 3d 0b 54 96 3d 7d bc fc bd
       0.12275506 0.078138016 0.07340249 -0.12340639
000110 b4 48 9e bd b0 2d 68 3e 8e 91 25 3e e1 6d 5a 3e
       -0.07728711 0.22673678 0.16168806 0.21330978
000120 48 96 ea 3d 63 f0 1f 3e a1 48 42 bc 9a 53 3c 3e
       0.11454445 0.15619044 -0.011858136 0.18391266
000130 1d 44 23 3d 0b 7f 9b bc 1c 29 06 3e 41 47 31 3d
       0.03985988 -0.018981477 0.1310162 0.043280844
000140 53 b1 1f 3e 36 8b 06 3e 50 c5 4c 3e 2f 86 cd 3d
       0.15594988 0.13139042 0.19997144 0.10035359
000150 c6 bc 21 3d 9c ff 42 3d d8 ff 72 3d 92 0d c5 bc
       0.03948667 0.04760705 0.059326023 -0.024054322
000160 97 e6 83 3c 38 d8 5d bc 7a 40 08 3d 1a c7 80 3e
       0.016101165 -0.01354032 0.033264615 0.25151902
000170 cb 0f 83 bc 58 a5 86 3e aa 70 1e 3d d3 ea 08 3e
       -0.015998742 0.26298022 0.038681664 0.13370828
000180 0a ef 0b 3e b6 5a ea 3c 2f 2c d3 3d 44 be 02 3e
       0.13665405 0.028607707 0.10311162 0.12767893
000190 3d 32 b9 bd 2d 31 81 3e c1 90 0e 3e ae 2e 18 bc
       -0.09042785 0.2523283 0.13922407 -0.009288473
0001a0 6b 95 92 3d 47 f1 c8 3d 29 19 ba 3d b9 a0 60 bc
       0.071574055 0.09811645 0.0908683 -0.013710194
0001b0 fc 04 29 bd bc 35 db 3d e0 35 3b 3e d5 b2 99 3c
       -0.04126452 0.107036084 0.1828227 0.018762032
0001c0 d7 77 f7 bd d7 42 bf 3d 77 09 9a 3b de 96 0b 3e
       -0.120834045 0.093389206 0.0047008353 0.1363177
0001d0 f6 a4 a9 3c 16 00 49 3d 06 37 64 3d a4 71 98 bd
       0.020708542 0.049072348 0.055716537 -0.0744355
0001e0 5f 19 e0 bb 6d 86 98 3d 58 d2 0f 3e ff 30 5e 3d
       -0.006838962 0.07447515 0.14045084 0.054245945
0001f0 bf f4 49 3e 37 31 2d 3e c8 90 fe 3d a4 bb 8d bb
       0.1972227 0.16913305 0.124299586 -0.004325347
000200 b7 13 8b bd f6 26 4f bd 85 b6 22 3e 3f 10 50 bb
       -0.0679087 -0.050574265 0.15889938 -0.0031747965
000210 b7 a8 04 bd 72 41 dd 3d 26 bc 53 3d 24 5a ad bd
       -0.03238746 0.10803498 0.051693104 -0.084644586
000220 b4 4c b3 3d 57 42 b7 bd 68 29 05 3e 6b dc 8d 3d
       0.08754864 -0.089482 0.13004076 0.06926807
000230 f0 c4 7e bd 75 e4 93 3c 99 f6 10 be ca 3b f6 bd
       -0.062199533 0.018053273 -0.1415657 -0.120231226
000240 c3 9e 92 bc b4 3a 96 bd 86 ef d1 bd 29 de 1b 3d
       -0.01789797 -0.073354155 -0.102507636 0.038053665
000250 98 56 9e 3c 7e 87 b0 bc 09 38 01 be f2 1d 5e 3c
       0.0193284 -0.021548983 -0.12619032 0.013556944
000260 4e 20 0d be a7 de b6 3d d1 6f 06 3e 58 45 17 be
       -0.13781855 0.08929186 0.13128592 -0.14772546
000270 c6 94 d2 bc 37 68 f5 bb 87 92 fd bd 59 7c b5 bd
       -0.025705706 -0.00748923 -0.123814635 -0.08861608
000280 9b da d1 3d 53 e2 cf bd 54 b9 07 be ea 8f 00 be
       0.10246774 -0.1015059 -0.13254291 -0.12554899
000290 fb f7 b5 bd 4d d5 17 3d 1a f5 24 3e bc 76 43 bd
       -0.08885189 0.037068654 0.16109124 -0.047720656
0002a0 f5 28 9f 3d 5f 53 7a 3d 45 de 1d be 6f b6 d7 3d
       0.07771484 0.061114665 -0.1541682 0.10532843
0002b0 ff 2d ff bc c9 d6 4a 3c 83 3d 13 3d 70 82 23 3e
       -0.031149862 0.01238031 0.035947334 0.15967727
0002c0 c0 08 83 bd 5d da 8d bd 13 0e 99 bd ec fb 38 3d
       -0.06398153 -0.06926415 -0.074733876 0.045162126
0002d0 80 6d 07 bd 87 73 6c bd 90 6c d2 bd 55 f0 71 3d
       -0.03306341 -0.057727363 -0.10274613 0.05906709
0002e0 8d 25 83 3d 92 e4 7f bd da f0 7d 3d ba 8e 6a bc
       0.064036466 -0.06247384 0.061997272 -0.014316255
0002f0 bd ab 16 3c e2 8c 9e bd 0d 6f ca bc a5 3b e2 bc
       0.009196219 -0.07741715 -0.024711156 -0.027616331
000300 d7 fb fa 3c 9d 6d b6 3d 54 e9 8e 3d 5f e4 0a 3e
       0.030637665 0.08907626 0.069780976 0.13563679
000310 8e 6e c6 bd ae 43 e2 3d cf 68 22 3d c3 45 d1 3d
       -0.096890554 0.11048065 0.039650735 0.10218384
000320 32 8a 8f bd ba 4f 17 3d fa 7e 1a bd c4 02 1d 3d
       -0.070087805 0.036941268 -0.03771875 0.038332716
000330 c7 aa a9 3c 64 ef ec 3d 8c 0a 5c 3e 00 70 0e 3e
       0.020711316 0.11569098 0.21488398 0.13909912
000340 c0 56 bd 3d 46 11 ad 3d cf 27 4a 3d 07 9d a5 3d
       0.09245062 0.0845056 0.04935437 0.08086591
000350 d5 90 b3 3d 94 b2 07 bd e0 96 ab 3d bb 2f 19 be
       0.08767859 -0.03312929 0.083783865 -0.14959614
000360 8b e7 11 3d c8 1c 7d bc 57 75 b9 bd 84 01 7f 3d
       0.035621207 -0.0154487565 -0.09055584 0.062257305
000370 35 c0 94 3b e2 83 9a 3e 82 a8 d1 bc 1b 4b 46 3d
       0.0045395144 0.30178744 -0.025593046 0.04841147
000380 4e 4a 63 3e d8 e4 e0 3d b6 96 03 3d e8 0f b8 bd
       0.22196314 0.109811485 0.03212615 -0.08987409
000390 13 b1 45 be 03 4d 6f 3e 9a 72 c8 bc 89 4e aa 3d
       -0.1930583 0.23369221 -0.024468709 0.08315761
0003a0 95 77 b5 3d a1 43 6c 3d 74 36 c4 3d 3b bf 02 3e
       0.08860699 0.057681683 0.095806986 0.12768261
0003b0 d6 75 2d 3e fa d7 5f 3e 0f 01 de 3d 41 dc 6a 3e
       0.16939482 0.21859732 0.10840046 0.22935583
0003c0 6a c8 29 3e b7 c9 24 3e 8e 54 b4 bb 81 79 62 3d
       0.16580358 0.16092573 -0.0055032438 0.055291656
0003d0 5e 59 c4 3d fd 6b 14 be 84 a1 ba 3d ae 43 93 3d
       0.09587358 -0.1449432 0.09112838 0.07190643
0003e0 7b 3a ab 3d 44 92 1c 3e ce d9 1f 3e 03 73 3a 3d
       0.08360764 0.15290171 0.1561043 0.04551984
0003f0 0e 51 94 3c 41 ef 2d bd 71 53 2c bd c3 15 cc bd
       0.018105056 -0.0424645 -0.042071763 -0.09965088

lstm.bias_hh_l0 f4 [256]
000000 34 c2 66 3d 78 98 0e be 2f 77 35 3b 30 b4 71 bd
       0.05633755 -0.1392535 0.0027689447 -0.05900973
000010 fc 11 31 bc cc c0 21 3e d5 c3 53 bc b5 4e 0b be
       -0.01080751 0.15796202 -0.012925108 -0.13604243
000020 da 4b 66 bd ef 2c c3 bc ee 73 4f 3d 3e 27 19 be
       -0.05622468 -0.023825137 0.05064767 -0.14956376
000030 55 89 4c bc ab 54 51 3d bb 4e e2 3d 72 72 37 be
       -0.012483914 0.051106136 0.11050173 -0.17914751
000040 fb c0 0a 3b db 3d 6d be 11 4a a5 3d 33 94 2a bd
       0.0021172154 -0.23168127 0.08070768 -0.04164524
000050 74 c7 31 be d4 66 a1 bd 9e 34 5c 3d 5c 5f c5 bc
       -0.17361242 -0.07880941 0.053761117 -0.024093322
000060 dc 84 52 bd 29 a0 c2 bd 34 be 1e be 8c ec f5 bd
       -0.051396236 -0.095032044 -0.15502244 -0.12008008
000070 d7 13 23 be 8c c8 22 bc b5 59 64 bd b0 e3 25 ba
       -0.15925537 -0.009935509 -0.055749614 -0.00063281786
000080 f3 dc 5a bd bf 80 f4 3d dc c3 83 bd 3e cc de 3d
       -0.05343337 0.11938619 -0.064338416 0.108788
000090 63 0c 21 be df 39 1a 3e b9 be 00 bd c8 5d 8d bd
       -0.15727381 0.15061139 -0.031431887 -0.06902653
0000a0 32 78 d5 3d 49 4c 53 3e 15 51 92 bd 34 ed 8c 3c
       0.10423316 0.20634569 -0.071443714 0.017202951
0000b0 c7 c5 41 3e 50 82 fd 3c 98 25 df 3c 71 65 36 3e
       0.18923102 0.030945927 0.027239606 0.17812134
0000c0 6d 29 1d 3e ca be 84 3d 38 4e 04 be ec 08 c7 bd
       0.15347834 0.064817026 -0.12920463 -0.097184986
0000d0 3b 29 a3 3d 0e db 10 be 01 b7 42 3d 83 99 ab bd
       0.079668485 -0.14146063 0.047537807 -0.083788894
0000e0 f4 ff 81 bc 5d af 94 bd e1 3f f6 3d 87 21 ed 3d
       -0.015869118 -0.072600104 0.12023903 0.115786605
0000f0 0f b5 be bb 17 83 08 3e 1d 69 25 3d 0c dd 9f bd
       -0.0058199237 0.13331257 0.040383447 -0.07805833
000100 0a d6 2f 3c 30 0e da 3d 01 b5 28 3e 09 00 27 3d
       0.010732183 0.10647237 0.16475298 0.040771518
000110 31 68 13 be c3 e6 0e 3e 84 f2 18 3e 3f 51 0c 3d
       -0.14395215 0.13955216 0.14936262 0.03425717
000120 3b 3f 86 3d 01 79 4f 3e 2c ae 3e ba 5f 2d 6b 3e
       0.06555029 0.20261003 -0.00072738784 0.22966526
000130 d9 71 f2 3d d7 0c 11 bc 57 85 99 3c b0 f1 ef 3d
       0.11838121 -0.008853159 0.01874034 0.1171602
000140 65 9e 61 3e 22 2d 70 3e 97 ce c9 3e 94 25 88 3c
       0.22033079 0.23454717 0.39415428 0.016619481
000150 ad cd ca 3d 56 b4 83 3c 04 19 d3 3d 8c f4 79 bd
       0.09902511 0.016077202 0.10307506 -0.061024234
000160 38 94 55 3d 84 27 29 3e c8 c6 6c bd 15 32 0b 3e
       0.052143306 0.1651898 -0.05780676 0.13593324
000170 15 c0 c1 3d 21 92 4b 3e b8 ec 14 3e 63 09 42 bd
       0.09460465 0.19879963 0.14543426 -0.047372233
000180 2f c3 50 3d 7f b6 58 3e 51 68 03 3e e2 d4 06 bd
       0.05096739 0.21163367 0.12832762 -0.032917865
000190 f4 a0 9e bd 3d fe 4e 3e fc 46 72 bc b4 38 4f 3d
       -0.07745543 0.20214172 -0.014787432 0.050591186
0001a0 82 72 28 3e ab f3 83 3d 55 32 6a 3d 84 d6 07 bd
       0.16449931 0.0644296 0.057176907 -0.033163562
0001b0 b2 9d b9 bc d4 77 46 3e 29 8d bc 3d 4f 9d a6 3d
       -0.022658203 0.19381648 0.09206612 0.08135473
0001c0 e4 ca 0b be e7 16 84 3d 15 ca 1c 3d ec 29 14 3e
       -0.13651615 0.06449681 0.038278658 0.14469117
0001d0 98 16 07 bd bc 66 b7 3c 3f 7f bf bd d0 07 8b bd
       -0.03298053 0.022387855 -0.09350442 -0.067885995
0001e0 21 15 a8 3d c1 38 83 3d 80 eb 2b 3c 8d ed 3a 3e
       0.08207155 0.06407309 0.010493159 0.18254681
0001f0 34 af 72 3e 32 09 61 3e 34 92 8b 3e ef 39 a3 bc
       0.23699647 0.21976164 0.27259982 -0.019925086
000200 78 5e 89 3c 81 ff bc 3c 82 8b 8f bd d0 4d 53 bc
       0.016768679 0.023071053 -0.07009031 -0.01289697
000210 64 f2 a8 bd 1b e7 32 3d da 53 ed 3d 49 a3 2a 3c
       -0.08249357 0.04367743 0.11588259 0.010414907
000220 1b e2 01 3e 58 4c 7d 3c b9 c5 e4 3c ee 3c 02 3e
       0.12683909 0.015460096 0.027926313 0.12718555
000230 91 f2 a8 bd e2 ae d4 3d 5e f7 b1 bd 66 44 1f be
       -0.08249391 0.10384919 -0.0868976 -0.15553436
000240 68 8c f8 3d 6d 3c 87 3d c0 5e 38 bd 0e 3c 75 bc
       0.12136155 0.06603322 -0.045012236 -0.014967931
000250 05 9e 8f 3d 73 7b c0 bd 56 35 e5 bd ec 9f 7b 3d
       0.07012562 -0.09398546 -0.11191814 0.06143181
000260 97 32 cb 3c b0 5f ad 3c 3a c8 3c 3e 3b 81 1c bd
       0.024804397 0.021163791 0.18435755 -0.03820918
000270 f3 b4 f0 3d 7f 2d 3b bd f9 b7 fe 3c 75 78 d8 bb
       0.11753263 -0.045697685 0.031093584 -0.0066061565
000280 f0 41 e7 3d 26 bb 01 bc 6f 21 e2 3c b4 bb 8f bd
       0.112918735 -0.007918155 0.027603833 -0.070182234
000290 21 14 69 bd f8 c3 9f 3c 90 ba a4 3d 76 80 b7 bd
       -0.056903962 0.019502625 0.080433965 -0.08960049
0002a0 2c 37 d5 bd 9f 80 50 bc d1 6c fe bd e3 48 1d 3e
       -0.10410914 -0.012725978 -0.12423099 0.15359835
0002b0 c9 46 fb 3d 78 c4 2d 3d 97 72 0d 3d 2b 1d 33 3e
       0.122693606 0.042423695 0.03453311 0.17491595
0002c0 b7 b3 11 bd fb e6 d7 3b 60 ca 5c bd 42 71 0e 3c
       -0.03557178 0.0065888143 -0.053903937 0.008693995
0002d0 29 c4 96 bd b3 b1 d3 3d 40 c0 e0 3b 7d ca 90 3d
       -0.07361633 0.10336628 0.0068588555 0.070698716
0002e0 08 40 3d 3e 25 f8 6c 3a a4 56 29 be 04 83 14 3e
       0.18481457 0.0009039662 -0.16536957 0.14503103
0002f0 50 98 e1 3c e8 a9 9c bd 08 63 0d bd 0d 94 b4 3d
       0.027538449 -0.076495945 -0.03451827 0.08817301
000300 ad 17 19 3e 39 62 f7 3d 36 c5 9a 3d 77 06 8c bc
       0.14950438 0.12079281 0.07557146 -0.017092926
000310 e5 5b e8 3d ab 7b 92 3e 54 5f 8f 3c 5c 9e c0 3c
       0.113456525 0.28609976 0.01750151 0.023513012
000320 e9 9e b5 3d 94 68 32 3e 9d 22 af bd 77 02 21 bd
       0.088682 0.17422706 -0.08551524 -0.03930899
000330 7e 0d d8 3d 34 23 79 3d ef 06 80 3d 22 21 34 bd
       0.105494484 0.060824588 0.062513225 -0.04397691
000340 3e 10 b5 3d 9c 70 33 3e 7f c5 61 3e 63 23 1a 3e
       0.088409886 0.17523426 0.22047995 0.15052561
000350 5e 36 fa bd 66 e1 44 3d e1 23 85 3d 81 e8 1d be
       -0.12217401 0.04806652 0.06500984 -0.15420724
000360 1a 21 10 3e 2f 72 ff 3c 1c e4 37 be d2 7f 76 3e
       0.14075127 0.031182377 -0.1795811 0.24072197
000370 25 c1 fc 3c f8 3d 09 3e 88 a5 b2 b9 be 95 88 3d
       0.030853817 0.13402545 -0.00034074136 0.06669186
000380 4b 3e 67 3e c8 1f a7 3d 2c 8d 98 3d 8c 78 2a 3c
       0.22582357 0.08160359 0.074488014 0.010404717
000390 46 32 da bd ce 28 1c 3e f0 5b ea 3b f7 b1 e6 3c
       -0.1065412 0.15249941 0.007152073 0.028161032
0003a0 b3 e9 1b 3e 82 de 7a 3e bc a9 0d 3d d4 08 c8 3d
       0.15225868 0.24498942 0.0345857 0.09767309
0003b0 04 45 e6 3d 0d bb 04 3d 0b 96 37 bd a6 5c 50 3e
       0.112436324 0.032404948 -0.044820827 0.20347843
0003c0 cb de 25 3e 7b e4 80 3d ad f0 18 3e 04 eb 9d 3d
       0.1619827 0.06293579 0.1493556 0.07710841
0003d0 20 4d 73 bd 3b 47 c9 bd 0d 1d 50 3d 88 fe 28 3e
       -0.059399724 -0.09828039 0.050808955 0.16503346
0003e0 a6 69 a7 3d 48 bb 44 3c 29 be 21 3e 5b 10 7c b9
       0.08174448 0.012007542 0.15795197 -0.00024038686
0003f0 2b ce 97 bd de 67 2a bc 64 33 88 3d 77 8c 9b bd
       -0.0741237 -0.01040074 0.06650427 -0.07595151

lstm.weight_ih_l1 f4 [256, 64]
000000 8b e6 f7 3c 53 34 98 bd d9 2e 27 be ff 8a e1 3d
       0.030261299 -0.07431855 -0.16326465 0.110128395
000010 73 cb 29 3e 87 91 34 bc 9f 74 bd 3d a4 cf 9c bd
       0.16581516 -0.011021025 0.09250759 -0.07656792
000020 4f d8 a2 bc a6 4b 1e bd 23 72 4c 3d eb a9 a2 bd
       -0.019878535 -0.038646363 0.049913537 -0.079425655
000030 ae 6b 92 bc 25 06 5c 3c be a0 cb 3d 0f a8 6d 3d
       -0.017873611 0.013429199 0.099427685 0.0580216
000040 94 71 b4 bd 2b 06 80 3d c6 66 53 3e 81 b2 f9 bd
       -0.08810726 0.062511764 0.20644674 -0.1219225
000050 8b 06 02 3d b1 c2 dc bd 76 df e4 3d 31 fc 76 3d
       0.03174452 -0.10779322 0.11175434 0.060299102
000060 46 3c 3e 3e a0 95 cd bd 94 56 94 bd ea 00 bd bc
       0.1857768 -0.10038304 -0.07243076 -0.023071725
000070 ab f9 9b 3d 6a 37 78 bd 4a 44 89 3d 06 7e bb 3d
       0.0761598 -0.060599722 0.06702478 0.091548964
000080 82 f0 07 be 86 a7 84 be bc ca 1f bd 9d b6 73 3e
       -0.1327534 -0.2590906 -0.039011702 0.2380013
000090 67 6b c0 3d e6 b1 1c 3e 9e de 58 bd 4b d2 8f 3d
       0.09395485 0.15302238 -0.05294668 0.07022532
0000a0 da fc 10 3d ad 83 ce bd 64 88 b7 bd e6 32 bf bd
       0.035397388 -0.10083709 -0.08961561 -0.0933588
0000b0 0d 19 32 3c f0 8c 87 3e 31 67 8c 3e 98 fd 0c ba
       0.01087023 0.26474714 0.2742248 -0.00053783646
0000c0 a7 45 4c 3d 21 c4 1b 3d d7 62 6b bd df eb eb 3d
       0.049871113 0.03802884 -0.057467308 0.11519598
0000d0 c1 32 90 3e 0f dd 87 bd 2e 9c 3b be 78 ba 68 be
       0.28163722 -0.066339605 -0.18321297 -0.22727382
0000e0 ce 11 79 be 74 3b 91 3e 0b cf 09 bd aa ba 1e bc
       -0.24323198 0.28365672 -0.033644717 -0.009688059
0000f0 86 eb 19 bd b6 f9 b2 3e d6 30 8b be 5a 1f 67 3e
       -0.03757813 0.3495614 -0.27185696 0.22570553
000100 25 5e a8 be 7d 88 e7 3c ed af 64 3e 04 23 87 3e
       -0.32884327 0.028263325 0.22332735 0.26393902
000110 78 07 c2 bd f5 aa dc 3d 41 4a 8a be 53 a4 c1 be
       -0.09474081 0.10774795 -0.27009776 -0.37820682
000120 92 38 75 be c6 4d 22 bb 5d 1f 6c 3e d9 7c c3 3d
       -0.23947361 -0.0024765595 0.23058839 0.09545297
000130 fd 64 04 3e f5 e6 ed bd 21 3b 53 bd fb d9 94 bd
       0.12929149 -0.11616317 -0.05157006 -0.07268139
000140 41 98 8a bd 34 07 cc bd 3e 9a c7 3d da 25 02 3e
       -0.067673214 -0.099623114 0.09746216 0.12709752
000150 2e 1b 38 bd 76 70 c1 be 75 8f 5c 3a 90 20 2e bc
       -0.044947796 -0.37781113 0.0008413711 -0.010627881
000160 ef 22 0f be cd 89 b4 bd a1 29 3a 3e c3 0f 9e 3e
       -0.1397817 -0.08815346 0.18179943 0.308714
000170 9a 01 6a be b9 f6 77 3d 07 70 13 3e d8 cb c5 3e
       -0.22852173 0.060538027 0.14398204 0.38632083
000180 15 42 e9 3d b4 88 54 bb a6 70 22 be c4 9e 53 3d
       0.11389557 -0.0032430114 -0.15863284 0.051665083
000190 a3 be 0f 3c 35 ab 8b 3e 68 4c 5a be 19 9e 0b 3c
       0.008773479 0.27279058 -0.21318209 0.00852158
0001a0 34 58 a4 bd 7b e5 58 be 14 5f d7 ba 0e 01 74 bd
       -0.08024636 -0.2118129 -0.0016431534 -0.05957132
0001b0 0d ab 38 3e 28 24 40 3e fb c0 af 3e 51 fd ce bd
       0.18034 0.18763793 0.3432692 -0.1010691
0001c0 85 71 92 3e 9c 3b 01 be ec ee 19 3e 53 19 4c be
       0.28602234 -0.12620395 0.15032548 -0.19931535
0001d0 cf 39 c1 3d 95 41 89 3e c5 85 1e 3e 7c 60 0e be
       0.09434854 0.26807848 0.15480717 -0.13903993
0001e0 16 58 9a be 64 d1 ff bc 23 62 ae 3d 0b 49 9d be
       -0.3014533 -0.031227775 0.08514812 -0.3071979
0001f0 1c 0f 05 bd 10 46 a8 bd 85 f4 2f be 13 3f a7 be
       -0.032485113 -0.08216488 -0.1718312 -0.3266531
000200 b1 73 b1 be f4 3e 98 be 01 7e 13 be 94 30 a4 be
       -0.34658578 -0.2973553 -0.14403535 -0.32068312
000210 38 7c 4c bd 61 22 12 3e ed 9e c2 3c 15 fa 7b 3e
       -0.04992315 0.14270927 0.023757422 0.24607117
000220 42 7d 27 3e b8 77 87 3d 47 3e 41 3e 03 c1 2d 3e
       0.16356376 0.066146314 0.18871413 0.1696816
000230 33 fa 42 bd c9 15 42 be 77 da 83 3e 02 c1 5d 3c
       -0.04760189 -0.18953623 0.25752613 0.013534786
000240 6a 05 56 3e b3 ff 92 3e 21 9a 67 be 19 03 c1 3c
       0.20900503 0.28710708 -0.2261739 0.023561047
000250 c9 26 4d be 41 51 d6 be b1 d7 21 be 92 b0 54 be
       -0.20034327 -0.41858867 -0.15804936 -0.20770481
000260 c3 b0 f0 bd f7 38 c3 3d 47 ac 36 3e 16 0c 99 be
       -0.117524646 0.095323496 0.17839156 -0.29892033
000270 44 fc 88 3e c6 31 a2 be 64 45 51 be a6 52 77 3c
       0.26754963 -0.316786 -0.20436627 0.0150953885
000280 ee ae 07 3e 9b d3 fa bc f4 3a 41 3e 4a 15 9f 3d
       0.13250324 -0.03061848 0.18870145 0.077677324
000290 c0 2e f9 3d 36 06 ad be 9d 11 fe bc 44 89 2e bd
       0.1216712 -0.337938 -0.031014258 -0.042611375
0002a0 88 b4 2a be 49 de 07 3d a8 1d 4f 3e 9a 68 83 bd
       -0.1667043 0.033170972 0.20226157 -0.064164355
0002b0 07 5d 3e 3e 0f b8 87 3e 1a 51 93 be 26 f8 09 be
       0.18590175 0.26507613 -0.28772813 -0.13473567
0002c0 44 38 a2 bc 55 e2 10 bd ea 83 09 3d 23 e7 29 bb
       -0.01980222 -0.035372097 0.03357307 -0.0025925122
0002d0 c7 a8 d3 bd e7 3d 31 3e 06 dd 51 3e b8 a3 50 3e
       -0.10334926 0.1730877 0.2049447 0.20374954
0002e0 6b 27 a5 3c 39 15 23 3e 5d 63 d6 bd 01 4e 06 be
       0.020160398 0.15926065 -0.10468171 -0.13115694
0002f0 f5 e6 36 be 62 5b 64 3c 98 c2 98 3e e2 ac 06 bd
       -0.1786154 0.013937803 0.29835963 -0.032879718
000300 dd 67 49 bd 8f 2c 95 be c8 80 ac 3d b2 b2 69 be
       -0.049171317 -0.29135558 0.084230006 -0.22822073
000310 f9 0c f2 3d 58 72 b5 3d f1 80 d2 3d df da ac bd
       0.118188806 0.088597 0.102785 -0.08440184
000320 c6 41 52 3e 97 9c a4 bd 1e a3 ee 3d a1 83 26 bb
       0.20532903 -0.0803768 0.11652206 -0.0025408047
000330 b2 52 48 3d aa b1 66 3e 1a 33 5f be f9 43 a0 bc
       0.04890699 0.22528711 -0.21796837 -0.019563662
000340 6e 4a 6c be 09 7a 5b 3d 8b a3 78 bd 41 6a a1 be
       -0.23075268 0.05358318 -0.06070284 -0.31526378
000350 5c 2b 92 bd df ea 78 3e 4c 4a 3b 3e 64 59 35 3e
       -0.071371764 0.24308346 0.18290061 0.17709881
000360 e1 33 1b bd ad 5d 94 3d 4d c9 73 3e 79 db e1 bc
       -0.037891272 0.0724443 0.23807259 -0.027570473
000370 25 7b 86 3e 66 7f 21 bd ad df dd 3c 3e 8c 43 bd
       0.26265827 -0.039428137 0.027084196 -0.047741167
000380 1e f6 4a bd 64 7f d4 3c bd ba 80 be f5 90 6b bd
       -0.049551122 0.02593965 -0.2514247 -0.05751129
000390 23 0c aa be 31 83 bf bc 3a 31 5d 3e 25 0f 92 b8
       -0.33212385 -0.023377987 0.2160081 -6.9646434e-05
0003a0 fb ec ab bd ed e0 ed bc 66 95 56 3e 53 24 9d 3e
       -0.0839481 -0.029037917 0.20955428 0.30691776
0003b0 f0 c2 01 be 64 97 6a 3e 50 60 37 3d 0b f9 b9 3d
       -0.12672019 0.22909313 0.044769585 0.09080704
0003c0 d1 af 37 bc 8c b8 99 3e 84 c4 93 bd 3b 8b 08 3c
       -0.0112113515 0.3002361 -0.07215217 0.008333976
0003d0 87 8f 9f bd ce bb 99 bd 37 3c e9 bd db 3b 54 bd
       -0.077910475 -0.07506524 -0.11388438 -0.051814895
0003e0 a3 3c 8f 3b c1 75 4a 3e da 31 bb bd 15 78 b0 3d
       0.004371242 0.19771482 -0.09140368 0.08616654
0003f0 da 8c 28 3e cc 5a 67 3e eb dd 50 be bf c6 86 bd
       0.1645998 0.2259323 -0.20397155 -0.065808766

lstm.weight_hh_l1 f4 [256, 64]
000000 8d ba 7a 3d 47 14 e1 bd 84 6e 58 be 28 9a c6 3c
       0.061213065 -0.10990196 -0.21135908 0.02424343
000010 45 ce 85 bc f1 ad 00 be 20 57 0e 3e f1 50 00 3d
       -0.016333709 -0.12566353 0.13900423 0.03132719
000020 24 0e 31 bd 4f 9b 07 3e 77 1f a5 bd ea c0 86 bd
       -0.043226376 0.1324284 -0.08062642 -0.06579764
000030 54 bd 00 3e 3b 33 00 3d 7e c7 16 3e 04 3a e4 bc
       0.12572223 0.031298857 0.14724538 -0.027859695
000040 76 df 10 be 98 70 86 be 3e 36 83 3d 20 2f 91 bd
       -0.14147744 -0.26257777 0.0640683 -0.070890665
000050 e2 2d c3 be ea b4 52 bd 57 78 48 be 27 c8 ab 3d
       -0.38120943 -0.051442064 -0.19577156 0.083877854
000060 fa 8a 46 3c 60 68 8d bc 31 73 a9 bd 99 79 1a 3e
       0.0121180955 -0.017261684 -0.08273924 0.15085448
000070 45 10 07 3e df 77 4b be dd cd 78 be a0 e8 a6 3d
       0.131898 -0.19869946 -0.2429728 0.081498384
000080 7d be 41 3c 54 ad 3d 3e aa b6 47 3d 84 e7 a1 be
       0.011825201 0.1852315 0.048758186 -0.31621945
000090 27 0a 06 3e 0f fd 79 3d b6 b7 1a 3e db b0 56 be
       0.1308981 0.06103235 0.15109143 -0.20965903
0000a0 21 55 b4 bd c4 e4 9f bd 1d d1 af 3c ee 9d 23 bd
       -0.088052996 -0.078073055 0.021462018 -0.039945535
0000b0 7d c5 81 be 39 84 41 3e e1 fa 81 3d ba ff 23 be
       -0.25345984 0.18898095 0.063466795 -0.1601552
0000c0 db ba 31 bd 77 1e 87 bd 9a 71 0e be 1b 2e 4d 3c
       -0.04339109 -0.065976076 -0.13910523 0.012523199
0000d0 b6 3c c2 bd df 77 ef 3c 24 53 94 bc e8 76 70 3e
       -0.09484236 0.029231964 -0.01810605 0.23482859
0000e0 5a 38 02 3d ee 0a b8 3d 05 32 c2 3d d6 27 ba 3d
       0.031792022 0.0898646 0.09482197 0.09089629
0000f0 d7 9d b0 3d a5 a5 89 3d c9 c2 ab 3d 61 56 35 be
       0.086238556 0.06721047 0.08386762 -0.17708732
000100 f4 bb a9 3d d7 8b 87 bc b6 94 28 bd 59 6f 4a 3e
       0.08287802 -0.016546173 -0.041157447 0.19769038
000110 8c eb 4f 3e b2 5d 66 3c a6 47 aa 3d fe a9 eb bd
       0.20304698 0.014060425 0.08314447 -0.11507033
000120 5e ff 32 3e 3a cd 0d 3e 22 0b cd bc 0f e3 c0 3d
       0.17480227 0.13847819 -0.025029723 0.09418308
000130 db 27 db bd 78 b8 09 be b0 4e 90 be b2 c3 d9 3d
       -0.10700961 -0.13449275 -0.28185034 0.10633029
000140 93 fc c6 bd 59 7e 8a 3e 41 2c af 3d e4 68 9e bd
       -0.097161435 0.2704952 0.08553363 -0.0773485
000150 34 f8 21 bd c5 27 75 3d a8 69 e0 3d a7 25 bb 3d
       -0.039543346 0.05985238 0.10957652 0.09138041
000160 c8 3c ea bd f5 61 1b be fc bd 76 bc 25 08 a6 bd
       -0.11437374 -0.15174086 -0.015059944 -0.08107022
000170 c6 14 a1 3d 92 3f 24 bd a7 04 6f be f5 8d 5f be
       0.0786529 -0.040099688 -0.23341618 -0.21831496
000180 4f a8 64 bd 1a 6a c1 bd 72 ba 31 be 99 e0 82 be
       -0.055824574 -0.094440654 -0.1735628 -0.2556198
000190 65 ed b5 bc dc 5b 42 be 59 11 52 3d cc d7 0d be
       -0.022207925 -0.18980354 0.051286075 -0.13851851
0001a0 81 95 70 bd 7e 1c 52 3e 1a 5c d6 3d 11 0a 5c 3d
       -0.058736328 0.20518681 0.10466786 0.053720538
0001b0 d7 f0 ba bc 05 a2 e4 bd 0a 77 6d 3d 88 ce 64 be
       -0.02281992 -0.11163715 0.057974853 -0.2234441
0001c0 cc 14 0e 3e 59 b2 56 bd 60 1c 15 be 21 61 19 3e
       0.13875121 -0.05241618 -0.14561605 0.14978458
0001d0 f0 0b 2e 3d d6 ba 22 be c6 4c 84 bd 61 bd 98 3d
       0.042491853 -0.15891585 -0.06459956 0.07457996
0001e0 be 93 53 bd 62 e0 ca bc 1c 21 88 be b0 71 32 3e
       -0.05165457 -0.024765197 -0.2658776 0.17426181
0001f0 6e 8d 7d bd 17 b0 21 be 49 94 a0 3e aa 2c 1c be
       -0.061902456 -0.15789829 0.31363133 -0.15251413
000200 d8 a6 a6 3d 26 18 b2 bd 99 e5 aa bd 0e 9e 72 3d
       0.08137292 -0.08696012 -0.083445735 0.059232764
000210 d2 ab d9 bd fb e7 0a be d8 17 52 bd 6c 70 7f bd
       -0.10628475 -0.13565056 -0.05129227 -0.062363073
000220 d2 23 26 3d ef 75 00 3a 98 8a 68 3d 1c 08 3c be
       0.040561505 0.0004900386 0.0567728 -0.18362468
000230 cb f0 5c 3e e8 62 6a 3d 86 64 8b bd b4 81 c2 bd
       0.2157623 0.05722323 -0.06806283 -0.09497395
000240 b6 b1 a4 3d 66 0d 05 3e b9 99 0d bd 15 51 14 3d
       0.08041708 0.12993392 -0.03457043 0.03621014
000250 f8 b4 ae bd 24 f3 34 3d b7 b0 53 be 6f 9a 05 3d
       -0.08530611 0.04417719 -0.2067288 0.032617982
000260 2a 7d 3c 3e 16 1d 72 bc 2e a1 a1 3c 20 35 16 bd
       0.18407121 -0.014777442 0.019730177 -0.036671758
000270 4c 44 9a bd f0 ca 81 3e 76 af d6 3d ff a3 89 3c
       -0.07532558 0.25350142 0.10482685 0.016801832
000280 5b 71 81 3e 61 26 41 be 95 1b 1c be 80 3a 66 3e
       0.25281796 -0.18862297 -0.15244897 0.22483253
000290 09 a1 24 3e 7e 94 1b 3e ec c5 81 be cd 26 50 be
       0.16077055 0.15193364 -0.25346315 -0.20327301
0002a0 d8 a9 32 bd 34 43 e3 bd 4b 99 0a bd b3 fe 87 be
       -0.043619007 -0.11096802 -0.033837598 -0.26561508
0002b0 d3 1f d5 bc 45 60 ad be 53 8f 36 3e cf 12 6f 3e
       -0.026016152 -0.3386251 0.17828111 0.23347019
0002c0 9b b1 c6 bc 64 48 7e bd 84 29 bd 3c b6 7e 7f 3e
       -0.02425461 -0.062080756 0.023091085 0.2495068
0002d0 a6 49 09 be 11 c7 30 3c 89 8a 21 3e 6b f1 10 bb
       -0.13407001 0.010789649 0.15775503 -0.0022116553
0002e0 63 53 d8 3d 16 1e 00 be 03 95 a9 bb 16 55 3c 3d
       0.1056278 -0.12511477 -0.0051752343 0.04597958
0002f0 1e 37 a7 3d d2 6a 03 be a2 ee 4b be c3 55 91 3d
       0.0816481 -0.12833717 -0.1991525 0.07096436
000300 cf 1c b5 3d 52 30 8f bd 59 e6 bd bd 4a 4c 00 be
       0.088433854 -0.06991638 -0.09272451 -0.12529102
000310 e9 94 92 3d ac c5 f8 bd ac 69 8e bd a3 10 e4 3d
       0.071573086 -0.12147078 -0.06953749 0.11135986
000320 97 2d 20 3d 23 5c bc 3d ca 57 43 3d 3d 32 c6 bd
       0.039105978 0.09197261 0.047691144 -0.09677551
000330 1a 9d fe 3d 12 51 97 bd 3c 99 28 bd af 2d 0a bc
       0.124323085 -0.0738851 -0.04116176 -0.008433743
000340 c4 4c 42 bd 9f 21 4c bd d1 c9 44 3d d7 fd 22 3c
       -0.04743649 -0.04983675 0.04804403 0.009948215
000350 47 90 e5 bb 6f 33 80 be 73 f2 3e bd c8 82 09 3e
       -0.0070057246 -0.2503924 -0.046617936 0.13428795
000360 a9 93 68 3e e8 f6 03 3b 13 94 8e bd 30 86 c3 3c
       0.22712578 0.0020136181 -0.06961837 0.023867697
000370 d9 b7 a2 bd cb 0b 50 bd 7f 1a 8a be f0 4e 13 3c
       -0.079452224 -0.050792497 -0.2697334 0.008990988
000380 f6 ff 9d 3d 24 b3 35 3e 4b cb cf bd c9 fb 1d be
       0.07714836 0.17744118 -0.10146197 -0.1542808
000390 82 47 99 3d c3 68 e5 3d 28 e9 46 bd 41 b0 ca bd
       0.07484342 0.11201622 -0.0485622 -0.09896899
0003a0 95 5c 0f 3d c6 88 11 bd 3c 33 2e be 42 59 bb bd
       0.035000402 -0.035530828 -0.17011732 -0.09147884
0003b0 aa 5d 2f be 01 06 cf bb f0 54 fd 3d 43 12 e2 3d
       -0.17125574 -0.0063178544 0.12369716 0.110386394
0003c0 05 f5 a1 3b 53 f5 0e 3c 27 96 ed bc 84 d8 27 3d
       0.0049425387 0.008725482 -0.029002262 0.04097797
0003d0 ad 95 44 3d b9 d9 3c bd 19 87 a0 3e cb 56 23 be
       0.047994304 -0.046106074 0.3135307 -0.15951078
0003e0 7d bf cc bd 97 c2 83 3c d2 57 fd bd 1c bb 97 3d
       -0.09997461 0.016083999 -0.12370266 0.07408735
0003f0 b5 88 89 bd f1 6b d6 bc c4 4b a3 bd 30 12 b5 bd
       -0.06715528 -0.026174517 -0.079734355 -0.088413596

lstm.bias_ih_l1 f4 [256]
000000 83 3d 2a be 63 a3 56 bd f8 81 ae 3d e5 f4 86 3c
       -0.16625027 -0.05240191 0.08520883 0.016474197
000010 12 b1 5b be 39 51 58 bc 13 ae 02 be 93 88 a1 bd
       -0.21454266 -0.013202959 -0.12761717 -0.078873776
000020 c3 c6 10 be 46 c3 1e be 46 54 69 3d 32 1c 64 3d
       -0.14138322 -0.15504178 0.056965135 0.05569095
000030 2a 29 20 3d fc be cb bc 25 f9 e4 3d 0b f7 e3 bd
       0.039101757 -0.024871342 0.11180333 -0.11131104
000040 21 7e 69 3d 12 5e 1c bc c3 a3 17 be 9f f7 ec bd
       0.05700505 -0.0095439125 -0.14808564 -0.115706675
000050 6a 02 f2 bc ec 9a b4 bd 57 1c ae bd ad 44 90 3d
       -0.029542167 -0.088186115 -0.08501499 0.07044349
000060 11 20 ab 3e 93 44 6e 3d 3c ba 6f bc 4a f8 5c 3d
       0.33422902 0.058170866 -0.014631804 0.053947724
000070 36 e1 f2 3c ed 1b 9e bd a0 1e c0 3e 5d b7 30 be
       0.029648405 -0.0772017 0.37523365 -0.17257448
000080 94 f8 0d be f6 37 13 3e 91 8d fd 3a 8d 6f 27 be
       -0.13864356 0.14376816 0.0019344558 -0.16351147
000090 41 ed d4 bc b8 8c a5 3d 8a 57 10 bc f8 25 91 bc
       -0.025992038 0.080834806 -0.008809933 -0.0177183
0000a0 fc a1 62 3d 51 83 01 3d e0 e1 9a 3c e2 60 33 3e
       0.05533026 0.031619374 0.018906534 0.17517427
0000b0 f3 48 18 3d 47 c5 6c bd 11 2c 6c 3e d1 00 1f bd
       0.037178945 -0.057805326 0.23063685 -0.038819138
0000c0 b8 d8 02 be 5d f3 06 be 43 0c 46 bd 37 47 eb 3e
       -0.12777984 -0.13178773 -0.048351537 0.4595277
0000d0 83 be 09 bb 46 44 60 be 3e 49 67 3e ea 8c 6f bc
       -0.0021018095 -0.21901044 0.22586533 -0.014620999
0000e0 27 69 9e bd f9 76 11 3e 8d 32 02 be a9 ff a7 3d
       -0.077349 0.1420554 -0.12714596 0.0820306
0000f0 29 a5 89 bd 47 22 b5 3c 36 1d a3 bd f9 5f 08 bc
       -0.06720955 0.022111071 -0.07964556 -0.008323663
000100 7d 34 40 bd a2 29 89 bd a8 34 fc 3c 77 02 e9 3d
       -0.046925057 -0.06697394 0.030786827 0.11377423
000110 b1 98 51 3e d6 82 ce 3d 91 9d 05 be 7b 92 21 3d
       0.20468403 0.10083549 -0.13048388 0.039446335
000120 64 c0 94 3d 0e 8b cb 3d bf 7a 90 3d b3 6e c8 3d
       0.07263258 0.09938632 0.07054662 0.09786739
000130 2b 66 b2 3c dc 74 8b 3c 6a e7 17 3d ea 2e f5 3d
       0.021777233 0.017023496 0.037085928 0.11971839
000140 62 db 37 bd 32 af 51 3e bd 27 d6 3b a0 82 9e 3d
       -0.044886954 0.20476988 0.006535499 0.077397585
000150 49 9a 4d 3e df ce 63 3e f9 e6 19 3e 5e 6f 38 bd
       0.20078386 0.22246884 0.15029515 -0.045028083
000160 ea c5 c5 bc d0 15 d7 3d 8a aa 03 3e 68 9b e0 3d
       -0.024142224 0.10502207 0.12858024 0.109671414
000170 b2 59 fb 3d 56 7a 46 3d 4e c1 ab 3c 21 7e 09 3e
       0.122729674 0.048456512 0.020966198 0.1342702
000180 17 87 92 3c ea 7e 2f 3d d4 fd 0b be 17 8b c0 3d
       0.017886681 0.042845644 -0.13671046 0.09401529
000190 2a c4 47 3e 69 36 0d 3e 6c 53 76 3d d5 4b b4 3e
       0.19508424 0.13790287 0.06013815 0.35214105
0001a0 1b 6c 41 3e cf 7c 89 3d 62 b7 24 3e 89 39 9c 3d
       0.18888895 0.067132585 0.1608558 0.076281615
0001b0 63 2d c6 bc e0 9b 97 3d 8f 98 82 3d 86 ce 88 3d
       -0.024191564 0.07402778 0.063767545 0.06680016
0001c0 f7 67 94 3e ca 15 81 3d 9d e4 48 bd b3 6e 94 bd
       0.2898557 0.06302984 -0.049046148 -0.07247677
0001d0 07 b7 60 3d aa 74 a7 3d 95 ba 9e be d4 0a 2c bd
       0.05486205 0.08176549 -0.31001726 -0.042002514
0001e0 89 c6 04 3e fb 69 5b be 88 a2 92 3d 03 ae 9d 3d
       0.1296636 -0.21427147 0.071599066 0.07699206
0001f0 50 6b fb 3c ab d2 86 3d c4 f5 97 3b 61 4c 86 3e
       0.030690819 0.065831505 0.004637452 0.26230147
000200 21 57 4b be 92 ef ee bd 97 74 4d 3e a2 b6 74 bd
       -0.19857456 -0.11666788 0.20064007 -0.059744485
000210 f8 e1 99 bd 8e 15 9c 3d 2c cb b3 3d 51 3d 39 3e
       -0.07513803 0.07621299 0.08778986 0.18089797
000220 89 fe 32 bd 7e f7 ec 3b db d4 ce 3d 02 31 92 bc
       -0.043699775 0.007231652 0.10099193 -0.017845634
000230 33 91 ae bd 21 d1 ce bd 66 49 04 3e 88 24 17 bd
       -0.08523788 -0.10098482 0.12918624 -0.036900073
000240 e2 c5 bb 3c 02 9e 87 3c db c3 68 3c 67 8c 14 3e
       0.022921506 0.016554836 0.014206852 0.14506684
000250 eb a5 ff 3d fa a2 21 be 98 c1 5d 3d 13 f5 ff 3d
       0.12482818 -0.15784827 0.054139704 0.12497916
000260 16 06 32 3c 71 69 df ba 99 05 19 3e 7c d8 1a bd
       0.010865709 -0.0017044974 0.14943542 -0.03780411
000270 3f d0 7b bd 5c bf b1 3d 71 a1 5d 3c 2a 9a 84 3d
       -0.061477896 0.08679077 0.01352726 0.06474717
000280 d7 de a3 3d c8 42 7d be 0f cb c0 3d 9d 4f 2c 3e
       0.08001488 -0.24732506 0.0941373 0.16827245
000290 67 14 86 bd fe d2 f8 3d 15 47 ea bd c0 2e 21 bd
       -0.0654686 0.121496186 -0.11439339 -0.039351225
0002a0 80 4b 03 3e 18 fc 33 be f9 f5 8c bc ec 02 e3 bd
       0.1282177 -0.17576635 -0.017207133 -0.11084542
0002b0 42 b7 a9 3c fd 10 8f bd 7a ca 30 be 7e 3b 1e 3e
       0.020717267 -0.06985662 -0.17264739 0.15452382
0002c0 a9 25 a2 3c da 30 14 be 1d 43 8a bd 71 e1 b0 bd
       0.019793348 -0.1447176 -0.06751082 -0.086367495
0002d0 c9 a4 bf bd b2 67 f1 bc 1c aa cc bd 68 ae 04 be
       -0.09357602 -0.029468391 -0.09993383 -0.12957156
0002e0 68 f9 c7 bd 20 75 06 be 9a 8d 05 be 10 c5 26 be
       -0.09764367 -0.13130617 -0.13042298 -0.16286111
0002f0 1c 38 47 3d 32 0d be 3d 33 7f 84 be 6c 64 4c 3d
       0.048637494 0.092798606 -0.25878295 0.049900457
000300 96 58 18 be 1b ed 81 bd 36 fb f5 bc 58 8d 6d bc
       -0.14877543 -0.063440524 -0.030027013 -0.014499031
000310 78 17 8c 3d fa 24 ac bd fb 64 4f 3d 58 87 3d 3d
       0.06840414 -0.0840549 0.05063341 0.046271652
000320 f7 23 4f be 5e c3 fd bc e3 f2 21 be 94 dc 0f bb
       -0.20228563 -0.030976947 -0.1581531 -0.0021951543
000330 65 89 57 bd 60 7a e1 bd e1 b1 03 3e 7b 98 28 be
       -0.052621264 -0.11009669 0.12860824 -0.16464417
000340 e4 23 3f 3c 78 78 00 3e 59 14 aa bd 7b 5f f6 bd
       0.011666272 0.12545955 -0.08304662 -0.1202993
000350 1c 5f 28 bc 72 fb 23 bc 9b a2 07 3d 7f 76 63 3e
       -0.010276582 -0.01000868 0.033114057 0.22213171
000360 0b 51 95 3e c4 f2 d2 bd ff 6d ac 3d d7 92 1e bd
       0.29163393 -0.1030021 0.084194176 -0.038714256
000370 b7 ca dd bc f0 a0 c3 3d ab 75 bb 3e 26 1f 88 3b
       -0.027074201 0.09552181 0.3661321 0.004154104
000380 d5 6a f2 bd f8 0a 53 3d 5c e8 80 3e 6d 1e 74 3d
       -0.11836783 0.051524132 0.25177276 0.05959933
000390 b6 f1 4c 3c c3 80 1e be 28 85 c3 bd f1 ae 52 3e
       0.0125088 -0.15478806 -0.09546882 0.20574547
0003a0 b8 4e fb bc 45 45 64 3d 5d f3 2e bd 01 d0 20 3d
       -0.030677184 0.055730123 -0.042712558 0.039260868
0003b0 f8 4a e0 3d 89 9d 9b 3d d7 5c c0 3e a0 af e7 3b
       0.10951799 0.07598407 0.3757083 0.0070704967
0003c0 0b 73 f7 3b 18 e5 c9 bd a1 8d 7d bd cc ea 0a 3f
       0.007551556 -0.09858149 -0.061902646 0.5426452
0003d0 7b ab fb bc 0e 45 e1 bd 86 e6 50 3e 9e 4b b8 3d
       -0.030721417 -0.10999499 0.20400438 0.08998798
0003e0 4d 36 a5 3b a0 e4 54 3e 0a da 05 3d aa 40 e8 3d
       0.0050418735 0.20790339 0.03267864 0.11340459
0003f0 8a 0d b7 bd 27 4f c1 bb fa 1d bc 3c cc 4e 85 bd
       -0.08938129 -0.0058993283 0.022963513 -0.0650917
