Models/Precipitation_Models/safawi_precipitation_model.pth (torch, 224106 bytes, 11 tensors)

lstm.weight_ih_l0 f4 [256, 11]
-0.01942992 0.58112806 -0.7734714 -0.083175935 -0.08538095 0.16222341 -0.06142113 -0.108847864
0.21134378 -0.54184806 -0.1672179 0.024232266 0.36541823 -0.24061628 -0.13886788 -0.004338513
0.30080327 0.16902831 -0.5617662 -0.015282329 -0.09083811 -0.18684158 -0.043724116 0.045497883
-0.09587361 0.21255347 -0.23518807 0.41363633 -0.1596918 -0.4384414 0.19297896 -0.11960996
-0.0075786477 -0.15992926 0.009088081 -0.06003267 0.01735948 -0.1952675 0.07374252 0.20825815
0.1585978 0.2952089 -0.33346456 0.1472212 0.071907066 0.47389418 -0.6355253 -0.17419684
0.062474634 0.4389121 0.2626837 -0.092789926 -0.034683764 0.17186381 -0.16840877 0.13411036
0.09490139 0.010677358 0.15750062 -0.3130319 -0.14995673 -0.20400402 -0.16996652 0.19416842
-0.11214082 0.07411604 -0.06988743 0.08534115 -0.08406895 -0.25006324 -0.26801687 0.21219662
-0.4363652 0.085700616 -0.30643985 0.20230946 -0.30471504 -0.14007841 -0.21723613 0.32719114
0.15291612 -0.23817556 0.06010928 0.021308102 -0.4210541 -0.28315803 0.05847105 -0.006200403
-0.3273036 0.023078596 -0.078440994 0.40974522 -0.24928372 -0.12909429 -0.18096086 0.13660577
-0.10452281 0.1416737 -0.0118722515 0.062190093 0.034427837 0.28293177 0.25813496 0.115322
-0.15213975 -0.49651566 -0.20111755 -0.23414628 0.2718075 0.07597392 0.07489036 -0.050655957
0.16092394 0.011028948 0.008333271 0.049816936 0.2518967 -0.29745045 -0.27674258 -0.043248847
0.030804478 -0.38937595 0.010432395 -0.26510638 0.03324514 0.001556304 0.34906232 -0.028323911
0.07578026 -0.23163864 -0.12801409 -0.0494176 0.101366855 0.17315902 -0.038062178 -0.76599085
-0.12652265 -0.32821125 0.35928196 0.27524683 0.33171344 -0.16156517 -0.06398389 -0.11679986
-0.077472076 0.16083868 0.1876878 -0.20991051 0.023792442 0.027097937 0.1241611 0.24217649
-0.045900453 -0.05050344 -0.10729455 0.058388654 -0.018819392 -0.26246837 -0.19450265 0.60284543
-0.07404702 -0.42509508 0.22700869 0.013429271 -0.28552103 -0.07816926 -0.2612174 0.10194355
0.3215986 -0.102587596 0.62691176 -0.54462296 0.26433113 -0.14490418 0.060984697 0.11165537
-0.47860256 0.008785641 -0.22209649 0.29513827 -0.03205687 0.049564257 0.05938688 -0.2678639
0.29931587 -0.1362309 -0.11220594 -0.04119652 0.0009055395 -0.13550115 0.045103703 0.00014790481
0.45609918 0.42267764 -0.170325 0.16765168 -0.13029896 -0.062318195 -0.0070514027 -0.24524614
0.05205787 0.008285114 -0.3907813 -0.3540431 0.12426014 -0.24690458 0.25311565 0.052712597
0.06030572 0.23521592 0.13769999 0.16104636 -0.47339693 -0.014069507 -0.024469508 -0.06838813
-0.58074373 -0.031803083 0.2085491 -0.23932351 0.10457004 0.095086 -0.20163508 -0.039367575
-0.3656118 -0.447395 -0.24098846 -0.4337264 0.19170941 -0.055524122 -0.23565583 -0.088008195
0.2169351 -0.3446195 0.022778822 0.1266818 -0.030074924 -0.37549248 0.1691138 0.13254842
-0.2830233 0.039205614 0.0036677623 0.003317472 0.14611733 -0.22922415 -0.22142166 0.15176705
0.07057792 0.086967655 -0.21285999 0.26675826 -0.3783853 -0.18504556 0.18970297 -0.12004141
00000000: 7f2b 9fbc cfc4 143f 3902 46bf 2558 aabd
00000010: 35dc aebd e51d 263e b994 7bbd a1eb debd
00000020: 816a 583e 8eb6 0abf 2b3b 2bbe bf82 c63c
00000030: 1918 bb3e 1d64 76be 6233 0ebe 162a 8ebb
00000040: e302 9a3e c215 2d3e e9cf 0fbf bc62 7abc
00000050: 5509 babd 6653 3fbe 0f18 33bd fd5b 3a3d
00000060: 6259 c4bd 9ea7 593e 24d5 70be 24c8 d33e
00000070: 3f86 23be 647b e0be 479c 453e 11f6 f4bd
00000080: 4e56 f8bb 7fc4 23be 2de6 143c d1e4 75bd
00000090: 7835 8e3c 34f4 47be 5106 973d a041 553e
000000a0: 7667 223e 9f25 973e debb aabe 27c1 163e
000000b0: 0344 933d 42a2 f23e c9b1 22bf a860 32be
000000c0: 67e5 7f3d 16b9 e03e 7a7e 863e a508 bebd
000000d0: 9010 0ebd 11fd 2f3e 5973 2cbe 3a54 093e
000000e0: a95b c23d 16f0 2e3c d847 213e b845 a0be
000000f0: 428e 19be 6ee6 50be b40b 2ebe 16d4 463e
00000100: 16aa e5bd 26ca 973d 2421 8fbd 57c7 ae3d
00000110: 572c acbd 4a08 80be 8239 89be 124a 593e
00000120: 426b dfbe ce83 af3d afe5 9cbe 362a 4f3e
00000130: 9c03 9cbe b770 0fbe 2673 5ebe 9985 a73e
00000140: 0b96 1c3e 4be4 73be 2635 763d 548e ae3c
00000150: 6794 d7be 17fa 90be 577f 6f3d c02c cbbb
00000160: 5694 a7be 530f bd3c aca5 a0bd 20ca d13e
00000170: 3b44 7fbe 4b31 04be ce4d 39be 62e2 0b3e
00000180: 0e10 d6bd e912 113e d583 42bc 0abb 7e3d
00000190: 3404 0d3d 6fdc 903e 442a 843e f12d ec3d
000001a0: 86ca 1bbe 4d37 febe c2f1 4dbe 0bc4 6fbe
000001b0: 5a2a 8b3e 3798 9b3d 1e60 993d 9f7c 4fbd
000001c0: 3fc9 243e c3b2 343c 4688 083c d80c 4c3d
000001d0: 9bf8 803e 6d4b 98be 34b1 8dbe b425 31bd
000001e0: ac59 fc3c 495c c7be a3ec 2a3c 06bc 87be
000001f0: 0e2c 083d e6fc cb3a 4cb8 b23e 8c07 e8bc
00000200: ae32 9b3d ae32 6dbe 2016 03be 1c6a 4abd
00000210: 6d99 cf3d 9950 313e 16e7 1bbd fa17 44bf
00000220: 278f 01be 4e0b a8be cef3 b73e 27ed 8c3e
00000230: 58d6 a93e 5771 25be fc09 83bd c434 efbd
00000240: aea9 9ebd e5b2 243e 3b31 403e c8f2 56be
00000250: 5ee8 c23c 7efc dd3c 2d48 fe3d 1dfd 773e
00000260: 1d02 3cbd b2dc 4ebd 3fbd dbbd f128 6f3d
00000270: 202b 9abc 4162 86be b42b 47be 1454 1a3f
00000280: f7a5 97bd 10a6 d9be f774 683e 7206 5c3c
00000290: d02f 92be 3417 a0bd 49be 85be c8c7 d03d
000002a0: 92a8 a43e 7219 d2bd 4a7d 203f 696c 0bbf
000002b0: 6956 873e c361 14be 17cb 793d 92ab e43d
000002c0: 650b f5be a6f1 0f3c 436d 63be 5d1c 973e
000002d0: 114e 03bd e403 4b3d a83f 733d 7525 89be
000002e0: ee3f 993e 1d80 0bbe 3acc e5bd afbd 28bd
000002f0: ba61 6d3a d0c0 0abe a9be 383d e516 1b39
00000300: d585 e93e 3469 d83e ad69 2ebe e2ac 2b3e
00000310: 176d 05be 5d41 7fbd 740f e7bb ce21 7bbe
00000320: a23a 553d 49be 073c 7d14 c8be 2345 b5be
00000330: 1a7c fe3d 8ed4 7cbe 6098 813e 2ae9 573d
00000340: 2103 773d 71dc 703e 3a01 0d3e 56e9 243e
00000350: 1561 f2be ca83 66bc 4774 c8bc 130f 8cbd
00000360: 9fab 14bf f343 02bd e58d 553e 3911 75be
00000370: d128 d63d 73bc c23d 6d79 4ebe e53f 21bd
00000380: 7831 bbbe f510 e5be aec5 76be 6311 debe
00000390: 794f 443e 436d 63bd c34f 71be a43d b4bd
000003a0: 3c24 5e3e f871 b0be a79a ba3c e0b8 013e
000003b0: b05f f6bc 8d40 c0be 2b2c 2d3e c6ba 073e
000003c0: 6ee8 90be 1196 203d d75e 703b f269 593b
000003d0: c89f 153e bcb9 6abe 5cbc 62be d268 1b3e
000003e0: 288b 903d 191c b23d f8f7 59be 8a94 883e
000003f0: b8bb c1be 957c 3dbe 7f41 423e 45d8 f5bd

lstm.weight_hh_l0 f4 [256, 64]
-0.13294153 -0.1220595 0.012768996 0.28749785 -0.008599639 0.24983278 -0.012838929 -0.030724455
-0.40088543 0.10519649 0.20562816 -0.18017894 -0.15813747 -0.09820947 0.02961372 -0.23133428
0.10144126 -0.04866054 -0.2934795 -0.15802093 0.2002641 0.12723877 -0.056147348 -0.16329618
-0.44264492 0.17767753 0.19718906 -0.0119916275 -0.1629967 0.2876513 -0.44052848 -0.0032828832
-0.06363893 0.18233655 -0.0853399 0.18130602 0.116060816 0.032785993 0.5765079 -0.27312833
0.21697678 0.011078827 -0.13767898 0.40077722 0.20145293 -0.0856722 0.08524899 0.21564661
0.33908233 -0.2987911 0.16492054 0.0032600593 -0.14464074 0.18072052 -0.04131804 -0.056482412
0.31294674 0.016887486 -0.1344461 -0.038881447 0.2298117 0.47721455 -0.05880778 -0.095476136
-0.008006427 0.01834994 0.22414608 -0.12144582 -0.08580434 -0.16428913 0.047157813 0.3855132
0.0040149246 0.006527623 -0.005526644 0.008707882 -0.045921355 0.44843253 -0.26069745 0.21812432
0.016052015 -0.22279143 0.089808166 -0.43464836 -0.26440936 -0.13969997 0.19031821 -0.27102274
-0.034578376 -0.01794903 0.07384612 -0.036239024 0.20755295 0.30161136 -0.06658372 0.17316808
-0.4246875 0.02910173 -0.020976346 -0.15693922 -0.16822898 0.01061546 0.26896447 0.06315786
-0.31793398 0.22084324 0.25524896 0.033261187 -0.16557312 -0.3238978 -0.2528203 -0.007914976
0.13337897 0.13960199 0.091303855 -0.10119596 0.32509667 0.13931474 -0.22793274 -0.12662119
0.1580795 0.015710289 0.1610192 0.31801608 -0.15925173 -0.010432125 -0.10613446 0.05119166
0.24995984 -0.14867389 0.2342752 -0.048748493 -0.19303536 -0.1412745 -0.14495744 0.34705386
0.03133729 0.108397186 -0.06561721 0.11131256 0.2241973 0.0847457 -0.13087904 -0.06348895
0.038993567 -0.009198535 -0.001332997 -0.0518224 -0.0424738 0.06804152 0.1431202 -0.074085325
-0.43863916 0.13033028 -0.26395372 0.027879672 -0.23476948 -0.011259472 0.0055471403 -0.058285806
-0.043427296 0.0010840752 -0.18931139 0.106091745 -0.09714447 -0.47940215 -0.1755844 0.020749366
0.03431651 0.19757457 -0.04795283 -0.30700505 -0.032757554 -0.14638859 -0.15663339 0.03319822
0.12116506 0.3172826 0.21791704 0.009623089 0.024896976 0.14367795 -0.17051664 0.34001294
-0.33947992 -0.15604055 -0.023907315 0.15089618 0.002730163 0.048161764 0.0964233 -0.21381082
0.13513207 0.21611631 -0.4039352 -0.013066538 0.31972066 -0.10622823 0.3854201 -0.15152034
-0.3656449 0.10711371 0.524566 -0.46778953 -0.25258148 0.022187678 -0.11333713 -0.17037351
-0.23224969 0.023964692 -0.1732114 0.25622633 -0.28716815 -0.119254075 -0.20784287 -0.09130468
-0.20532995 0.21993464 -0.35688892 -0.005558535 -0.28759578 0.17811066 0.2951502 0.0840041
-0.07097834 -0.14309122 -0.29082695 -0.20496531 0.27208307 0.16624713 0.069862 0.20446253
0.18689005 -0.062362578 -0.20855413 0.023843177 0.1714848 0.06457734 -0.16964068 -0.052385896
-0.1502835 0.044070117 -0.029098246 -0.4089175 -0.0030664527 -0.043367676 0.46028718 -0.3824832
-0.13613245 -0.15118024 -0.48483852 -0.15840377 -0.08562661 -0.21775213 -0.23118614 -0.081449874
00000000: d321 08be 55fa f9bd 0d35 513c eb32 933e
00000010: 80e5 0cbc 2ad4 7f3e 5f5a 52bc dab1 fbbc
00000020: db40 cdbe 4271 d73d 3090 523e d480 38be
00000030: caee 21be 0c22 c9bd 7998 f23c e5e2 6cbe
00000040: 6fc0 cf3d 4650 47bd f242 96be 3dd0 21be
00000050: 0812 4d3e e14a 023e c3fa 65bd 1d37 27be
00000060: 5ba2 e2be 19f1 353e eeeb 493e 8878 44bc
00000070: 9be8 26be 0847 933e f38c e1be a425 57bb
00000080: 2155 82bd 6fb6 3a3e afc6 aebd 49a8 393e
00000090: 4bb1 ed3d 9b4a 063d 0696 133f 7ad7 8bbe
000000a0: 292f 5e3e f883 353c b8fb 0cbe ac32 cd3e
000000b0: ad49 4e3e e874 afbd 0697 ae3d 77d2 5c3e
000000c0: 339c ad3e 26fb 98be eee0 283e b8a6 553b
000000d0: b41c 14be cd0e 393e 1b3d 29bd 1a5a 67bd
000000e0: 8e3a a03e a057 8a3c 3dac 09be 2742 1fbd
000000f0: c253 6b3e 7755 f43e 6de0 70bd fe88 c3bd
00000100: 642d 03bc 9d52 963c 8d86 653e 96b8 f8bd
00000110: 30ba afbd 693b 28be 8d28 413d fc61 c53e
00000120: a18f 833b ace5 d53b da18 b5bb 81ab 0e3c
00000130: 0818 3cbd f398 e53e 237a 85be fb5b 5f3e
00000140: 847f 833c 7023 64be 58ed b73d 3b8a debe
00000150: aa60 87be 820d 0fbe c7e2 423e 7ec3 8abe
00000160: 0ea2 0dbd d809 93bc a23c 973d 5f6f 14bd
00000170: c388 543e ce6c 9a3e 0c5d 88bd f952 313e
00000180: a470 d9be c066 ee3c 96d6 abbc adb4 20be
00000190: 3844 2cbe 77ec 2d3c b6b5 893e e858 813d
000001a0: 3ec8 a2be bb24 623e feaf 823e e23c 083d
000001b0: 008c 29be efd5 a5be aa71 81be d1ad 01bc
000001c0: 7f94 083e d3f3 0e3e 84fd ba3d d43f cfbd
000001d0: 1273 a63e 86a8 0e3e 3367 69be fca8 01be
000001e0: 98df 213e ddb2 803c 38e2 243e 01d3 a23e
000001f0: e312 23be 81eb 2abc 065d d9bd 59ae 513d
00000200: 79f5 7f3e f83d 18be d7e5 6f3e 80ac 47bd
00000210: 10ab 45be 43aa 10be b96f 14be 0bb1 b13e
00000220: 885b 003d 58ff dd3d 5162 86bd d7f7 e33d
00000230: fa93 653e 278f ad3d 2805 06be 7f06 82bd
00000240: b8b7 1f3d 74b5 16bc f5b7 aeba ba43 54bd
00000250: 02f9 2dbd 5a59 8b3d 1a8e 123e 0cba 97bd
00000260: 5095 e0be 4d75 053e f124 87be e963 e43c
00000270: 6967 70be a679 38bc c9c4 b53b 19bd 6ebd
00000280: d2e0 31bd 8717 8e3a d8da 41be a146 d93d
00000290: aef3 c6bd 3374 f5be 66cc 33be 93fa a93c
000002a0: 788f 0c3d fd50 4a3e 306a 44bd c42f 9dbe
000002b0: c92c 06bd e4e6 15be 8164 20be dbfa 073d
000002c0: 6325 f83d dd72 a23e a525 5f3e 29aa 1d3c
000002d0: bef4 cb3c 5020 133e ea9b 2ebe 2d16 ae3e
000002e0: 50d0 adbe 18c9 1fbe 46d9 c3bc 8784 1a3e
000002f0: 89ec 323b 4545 453d 9479 c53d 39f1 5abe
00000300: 1060 0a3e 984d 5d3e 98d0 cebe 0815 56bc
00000310: 6db2 a33e 308e d9bd c955 c53e 2628 1bbe
00000320: cf35 bbbe 6f5e db3d f549 063f 1c82 efbe
00000330: 5c52 81be efc2 b53c 4c1d e8bd 6576 2ebe
00000340: ddd2 6dbe 9a51 c43c 545e 31be 1930 833e
00000350: b407 93be 7b3b f4bd c3d4 54be f3fd babd
00000360: 0442 52be 8c36 613e 25ba b6be 5f24 b6bb
00000370: c13f 93be a462 363e ed1d 973e 570a ac3d
00000380: 185d 91bd 8186 12be 45e7 94be 6de2 51be
00000390: 794e 8b3e b03c 2a3e cf13 8f3d a05e 513e
000003a0: 1b60 3f3e e76f 7fbd 378f 55be c452 c33c
000003b0: b699 2f3e 2041 843d 49b6 2dbe 9892 56bd
000003c0: ebe3 19be de82 343d 725f eebc a25d d1be
000003d0: 8af6 48bb 4ea2 31bd c3aa eb3e d7d4 c3be
000003e0: 4e66 0bbe fece 1abe c13c f8be 9934 22be
000003f0: 015d afbd 6afa 5ebe 0fbc 6cbe 31cf a6bd

lstm.bias_ih_l0 f4 [256]
-0.13739114 -0.09338015 -0.12320022 -0.08336417 -0.11781421 0.043432385 -0.16180423 -0.003486853
-0.041736837 0.11179301 0.077709466 -0.032118384 -0.19478732 -0.11453116 -0.18433887 0.076651305
-0.019715045 0.109447695 -0.03646275 0.09245468 -0.12852629 -0.1098258 0.0029964605 -0.198417
-0.20645219 -0.046818685 -0.07646289 -0.056772582 0.33625692 -0.1529381 -0.14464098 -0.04089365
0.01530554 -0.353347 0.13977085 0.066614434 -0.17544244 -0.107877575 -0.013377043 0.18625866
-0.109666556 -0.3230063 -0.1026218 -0.012833187 0.09888833 0.00496017 0.011781027 -0.014979146
-0.05284736 -0.016684854 -0.0106652705 0.018728603 0.06536847 -0.014443937 -0.20179364 -0.027159246
-0.019217947 -0.030646924 -0.18847285 0.12855498 -0.09754696 -0.0024927019 -0.03847737 -0.03736837
-0.03395792 0.0015016444 0.14981568 0.09749802 0.26127788 0.030953119 -0.079287894 0.04637556
0.15798862 0.123679966 0.20520805 0.08105139 0.08035523 -0.11329105 0.10277669 0.07577293
0.04823973 -0.0073566013 0.068579935 0.16238868 0.3502577 0.00064246083 0.115325525 0.032815322
0.008055826 -0.100139186 -0.123722896 0.11384057 -0.048239894 0.045841552 0.079640165 0.12627488
0.20445131 0.09160322 -0.0733642 -0.053572465 0.013193587 0.14732508 0.060238115 0.072196424
-0.11497261 0.21236084 0.09159371 0.28225613 -0.18041766 0.22948334 0.1767137 0.21168442
0.06418674 0.24016644 0.31684333 0.20589863 0.05140944 0.122676045 0.068494275 0.11556604
0.06657546 0.10873538 -0.145239 -0.05837467 -0.09913004 -0.03014392 0.2407744 0.06849345
0.09959662 -0.09549067 -0.122608386 0.146185 0.03635308 0.026068807 -0.14683254 -0.2563991
0.16017337 0.10835629 0.11387176 -0.03528069 -0.032551937 -0.050308313 -0.007096839 0.020890731
-0.023724506 -0.16069259 -0.15258668 0.10010366 -0.032593053 0.007496657 -0.07237001 0.11221093
-0.1062516 -0.110862374 -0.10104451 -0.0074824784 -0.0084228385 -0.0040224656 -0.16432004 -0.086067215
0.16392536 0.11656726 -0.08954726 0.05158516 -0.04542716 0.17820802 0.20380129 -0.076834515
0.06138433 -0.11236064 -0.017078936 -0.0003377541 0.13130489 -0.09307753 -0.12922321 0.08658361
-0.028977674 0.03112279 0.010840033 -0.021897605 0.089344285 0.02554079 0.16832834 -0.21384554
0.12499057 -0.03287129 0.0077778962 -0.07139649 -0.033413142 -0.018572522 -0.076290146 0.1312005
0.071822315 -0.047370814 0.01514999 -0.05708713 0.23315233 0.0142062595 0.037320253 0.05480652
0.12354006 0.2808566 0.21239355 0.07979602 -0.009341105 0.019999223 0.085275054 0.21983317
-0.1073301 -0.09336672 0.09585322 0.15179093 0.05247022 -0.05190571 0.1580713 0.06928025
0.046359457 0.06308189 0.11812242 0.06133936 0.08295274 -0.013763266 -0.01722529 0.19176799
0.15080583 0.10620237 0.0753153 0.19707921 0.0060090916 -0.016949665 0.123727016 0.15554924
0.10733696 -0.06672592 -0.080338806 0.06700648 0.029323824 0.10150065 0.048723247 -0.15618768
0.08756187 0.012243293 0.064152606 0.071058884 0.0007745474 -0.03417498 0.072932355 0.11917733
0.0064042914 0.082458004 0.0025263778 0.09609586 0.024484579 -0.08000212 0.23404905 0.09886146
00000000: 43b0 0cbe 183e bfbd 6650 fcbd d5ba aabd
00000010: 9448 f1bd 28e6 313d 02b0 25be b083 64bb
00000020: 3ff4 2abd bcf3 e43d 2426 9f3d 918e 03bd
00000030: 5476 47be 508f eabd 54c3 3cbe 5cfb 9c3d
00000040: 7281 a1bc 1d26 e03d f759 15bd e158 bd3d
00000050: 659c 03be 59ec e0bd 4460 443b d32d 4bbe
00000060: 3468 53be f3c4 3fbd 9398 9cbd 5e8a 68bd
00000070: de29 ac3e ce9b 1cbe c41c 14be 1a80 27bd
00000080: 16c4 7a3c e6e9 b4be 1720 0f3e 266d 883d
00000090: 2fa7 33be ebee dcbd 632b 5bbc 97ba 3e3e
000000a0: dc98 e0bd 1561 a5be 612b d2bd 4a42 52bc
000000b0: f785 ca3d ec88 a23b 3505 413c 186b 75bc
000000c0: 7976 58bd adae 88bc 63bd 2ebc ba6c 993c
000000d0: e8df 853d 43a6 6cbc fea2 4ebe 117d debc
000000e0: f56e 9dbc 420f fbbc 07ff 40be eba3 033e
000000f0: b3c6 c7bd 995c 23bb 729a 1dbd 930f 19bd
00000100: 7617 0bbd d3d2 c43a 4869 193e 0bad c73d
00000110: 37c6 853e 6591 fd3c b161 a2bd 4df4 3d3d
00000120: c5c7 213e ec4b fd3d 0f22 523e 45fe a53d
00000130: 4891 a43d 2305 e8bd 967c d23d d72e 9b3d
00000140: 0697 453d a50f f1bb a373 8c3d 3849 263e
00000150: fa54 b33e d16a 283a ca2f ec3d 5c69 063d
00000160: 95fc 033c c615 cdbd 6e62 fdbd 3f25 e93d
00000170: 3297 45bd 5ac4 3b3d 621a a33d 344e 013e
00000180: af5b 513e 789a bb3d f83f 96bd cd6e 5bbd
00000190: ea29 583c 63dc 163e 3ebc 763d b8db 933d
000001a0: c276 ebbd 1f75 593e 7c95 bb3d e083 903e
000001b0: 68bf 38be aefd 6a3e 70f4 343e cdc3 583e
000001c0: 5674 833d 31ee 753e 4a39 a23e 17d7 523e
000001d0: b492 523d 943d fb3d ba46 8c3d e3ad ec3d
000001e0: b758 883d a8b0 de3d 88b9 14be 471a 6fbd
000001f0: b104 cbbd 62f0 f6bc 908d 763e 4b46 8c3d
00000200: 50f9 cb3d 9d90 c3bd 1b1a fbbd 85b1 153e
00000210: f8e6 143d 408e d53c 455b 16be be46 83be
00000220: 7d04 243e e7e9 dd3d 9935 e93d 7c82 10bd
00000230: 2e55 05bd 1710 4ebd 9a8c e8bb 0a23 ab3c
00000240: e559 c2bc 998c 24be af3f 1cbe 2603 cd3d
00000250: 4b80 05bd 84a6 f53b ba36 94bd d8ce e53d
00000260: 709a d9bd d00b e3bd 6df0 cebd 942f f5bb
00000270: f2ff 09bc e3ce 83bb 8343 28be 0244 b0bd
00000280: 0ddc 273e d1ba ee3d 8e64 b7bd f64a 533d
00000290: d411 3abd 2a7c 363e 49b1 503e 6a5b 9dbd
000002a0: 236e 7b3d 561d e6bd 20e9 8bbc 9714 b1b9
000002b0: ca74 063e 6f9f bebd 1753 04be bf52 b13d
000002c0: 9662 edbc 39f5 fe3c 659a 313c 9b62 b3bc
000002d0: 23fa b63d eb3a d13c 445e 2c3e 53fa 5abe
000002e0: 0efb ff3d 0ca4 06bd b9dd fe3b 5338 92bd
000002f0: 38dc 08bd 6725 98bc 023e 9cbd 6d59 063e
00000300: 9417 933d e607 42bd aa37 783c 32d4 69bd
00000310: 7cbf 6e3e 5fc1 683c 1fdd 183d cd7c 603d
00000320: 9202 fd3d 70cc 8f3e b27d 593e 196c a33d
00000330: 6f0b 19bc 69d5 a33c b0a4 ae3d f21b 613e
00000340: e2cf dbbd 0d37 bfbd b14e c43d 156f 1b3e
00000350: 03eb 563d 159b 54bd 71dd 213e cee2 8d3d
00000360: 6ae3 3d3d 1431 813d 2bea f13d fb3e 7b3d
00000370: 20e3 a93d 527f 61bc 0d1c 8dbc d45e 443e
00000380: d86c 1a3e a180 d93d e83e 9a3d 22cf 493e
00000390: eae7 c43b 06da 8abc 9764 fd3d 4d48 1f3e
000003a0: 7bd3 db3d 99a7 88bd ac88 a4bd b23a 893d
000003b0: 8438 f03c 93df cf3d 0792 473d aaef 1fbe
000003c0: a353 b33d 1898 483c 7162 833d 5287 913d
000003d0: ff0a 4b3a 10fb 0bbd 8f5d 953d 3e13 f43d
000003e0: 17db d13b bedf a83d 9691 253b e8cd c43d
000003f0: e293 c83c 27d8 a3bd 8eaa 6f3e e177 ca3d

lstm.bias_hh_l0 f4 [256]
0.007930826 -0.12950514 -0.00913086 -0.10037456 -0.12784266 0.20242904 -0.32651266 -0.09090325
0.13251212 -0.015632326 0.043806877 -0.17204301 -0.31193176 0.05895125 -0.09672674 0.08177744
-0.15480334 0.12639281 -0.037116293 0.14682478 0.033847973 0.08303398 -0.17575087 -0.09536187
-0.016776413 -0.039466456 -0.1673092 -0.07874959 0.23533982 -0.08862796 -0.058356043 0.032334644
0.0139654735 -0.34271893 -0.0005235364 0.09283089 -0.17070337 -0.13320194 -0.12149715 -0.03305554
-0.009093401 -0.22050743 -0.059522927 -0.007848088 0.100597486 0.07956062 -0.08671395 -0.040999822
0.05016756 0.066189244 -0.22186443 -0.028872786 0.08372721 0.052638616 -0.11428609 -0.14305767
-0.09913965 -0.10114336 0.009103755 0.06498912 -0.0629343 0.15024824 0.003049306 -0.026550835
0.12611073 -0.0014088205 0.160786 0.14817299 0.14045249 0.04616358 -0.0725224 0.104274474
0.13171951 0.06771628 0.27257124 -0.10301617 -0.14286707 0.07145222 0.15645505 0.0929825
-0.08795589 0.03733974 0.13122562 -0.042506568 0.38619387 0.07785661 0.07549001 0.059515014
0.07733167 0.008701261 -0.017508885 0.119943865 0.03191721 0.20714723 0.225953 0.20080884
0.011825391 0.26556382 0.08243426 -0.121387884 0.12285712 -0.03188494 0.1331765 -0.07107898
-0.058326032 0.2218197 0.07177217 0.3846972 0.062146038 0.14965737 0.03700797 -0.0015450866
-0.079530284 0.090712905 0.2818879 0.10541105 -0.08268591 0.013628757 -0.07397577 0.06989685
0.19575706 0.028247925 -0.105182976 0.12568763 0.0004730817 0.087285206 0.216803 0.09287914
0.11681469 0.14944007 -0.23908572 0.053853128 -0.13129127 -0.016791835 -0.023462756 -0.08078152
0.11901738 0.0137259895 0.071986794 0.08649848 0.029940186 -0.00016440604 0.11654106 -0.14168698
-0.027176285 -0.08569653 -0.16705585 0.16861343 -0.0721784 0.14842804 -0.059062995 0.12281233
0.028828999 -0.02637289 -0.13438712 0.011888748 -0.21516702 0.10580711 -0.09325875 -0.07901069
0.08905981 -0.08501423 0.11845646 0.043859225 0.07246712 0.23373586 0.13722068 -0.110949606
0.14178911 -0.17145388 -0.10200775 0.026652236 0.18649648 0.053373385 0.03453954 0.09847823
0.008621488 0.09417675 -0.16067997 -0.119537316 -0.009876385 0.12695836 0.12735334 -0.08545287
0.10271091 -0.20359035 0.19034436 -0.11083596 -0.09267713 0.11083076 -0.00510326 -0.0492496
0.040518273 -0.09931399 0.031745113 -0.0993069 0.13793223 0.19512682 -0.17025968 0.0676121
0.14167084 0.27164868 0.009955533 0.117552705 0.09027434 0.11172781 -0.06638687 0.07756928
-0.05679976 0.06379465 -0.118116744 0.28666297 0.14330147 -0.11564587 0.12205419 -0.14635478
0.08022301 0.15322733 0.08113947 0.089613706 0.24155118 0.038488023 -0.14877215 0.10917983
0.025092354 0.054964766 0.111966 0.024657864 0.11162688 -0.010923728 0.063116506 0.18941237
0.20968297 -0.05797923 0.02294582 0.062094346 0.015503079 0.20544443 -0.11558464 -0.02325578
0.06384906 0.18942055 -0.047687966 -0.0098295165 -0.15433566 0.14990032 -0.0028452864 0.008174159
0.15781473 0.16927685 -0.08968984 -0.0053810407 -0.057753354 0.01843707 0.07527853 0.024732646
00000000: 4cf0 013c ff9c 04be 9a99 15bc 2d91 cdbd
00000010: 30e9 02be 8f49 4f3e ab2c a7be 7c2b babd
00000020: 42b1 073e 5d0f 80bc d76e 333d 0b2c 30be
00000030: 85b5 9fbe de76 713d ab18 c6bd ee7a a73d
00000040: c484 1ebe 1e6d 013e 4107 18bd 3c59 163e
00000050: 2ca4 0a3d b80d aa3d 09f8 33be 164d c3bd
00000060: b06e 89bc 94a7 21bd 1a53 2bbe 7747 a1bd
00000070: ecfc 703e 9382 b5bd bf06 6fbd 5571 043d
00000080: 71cf 643c db78 afbe ef3d 09ba 1f1e be3d
00000090: ddcc 2ebe 1766 08be 7fd3 f8bd 3f65 07bd
000000a0: 7dfc 14bc b3cc 61be 50ce 73bd 4495 00bc
000000b0: 0e06 ce3d aef0 a23d 1597 b1bd 6eef 27bd
000000c0: 807c 4d3d 3a8e 873d 6e30 63be 9f86 ecbc
000000d0: 2c79 ab3d 979b 573d d30e eabd b67d 12be
000000e0: bb09 cbbd 4024 cfbd ea27 153c 0419 853d
000000f0: b3e3 80bd adda 193e ded6 473b 2381 d9bc
00000100: 2c23 013e 2ca8 b8ba 16a5 243e a9ba 173e
00000110: c7d2 0f3e 0616 3d3d a086 94bd db8d d53d
00000120: 7be1 063e d5ae 8a3d 758e 8b3e 24fa d2bd
00000130: bf4b 12be 8b55 923d c135 203e 9c6d be3d
00000140: 3822 b4bd 8ef1 183d 0260 063e 5e1b 2ebd
00000150: 34bb c53e 4973 9f3d 829a 9a3d 04c6 733d
00000160: 1160 9e3d bc8f 0e3c cb6e 8fbc 21a5 f53d
00000170: 9fbb 023d 671e 543e 3960 673e d5a0 4d3e
00000180: 49bf 413c fbf7 873e 4bd3 a83d 369a f8bd
00000190: 849c fb3d c899 02bd 6c5f 083e db91 91bd
000001a0: 47e7 6ebd b424 633e 4afd 923d 08f7 c43e
000001b0: d88c 7e3d c83f 193e ab95 173d 8184 caba
000001c0: c6e0 a2bd b0c7 b93d 9c53 903e c0e1 d73d
000001d0: 3b57 a9bd 264b 5f3c 9c80 97bd 1426 8f3d
000001e0: 8a74 483e 3168 e73c 2c6a d7bd 42b4 003e
000001f0: f307 f839 96c2 b23d 9b01 5e3e 6b37 be3d
00000200: 8a3c ef3d d106 193e e3d2 74be 1995 5c3d
00000210: 3871 06be 088f 89bc f734 c0bc c870 a5bd
00000220: 62bf f33d f9e2 603c d06d 933d 1d26 b13d
00000230: 1f45 f53c 6964 2cb9 14ad ee3d 6416 11be
00000240: cda0 debc aa81 afbd b010 2bbe 00a9 2c3e
00000250: 45d2 93bd 85fd 173e 0aec 71bd 0885 fb3d
00000260: cb2a ec3c f60b d8bc c79c 09be 06c9 423c
00000270: be54 5cbe 66b1 d83d 72fe bebd 5bd0 a1bd
00000280: fd64 b63d f11b aebd 4d99 f23d bba5 333d
00000290: a469 943d 7458 6f3e 9483 0c3e 8c39 e3bd
000002a0: 2a31 113e 9b91 2fbe 70e9 d0bd ca55 da3c
000002b0: eff8 3e3e 0d9e 5a3d 5579 0d3d f4ae c93d
000002c0: 2441 0d3c bddf c03d 4a89 24be fbcf f4bd
000002d0: 90d0 21bc 5f01 023e ea68 023e ea01 afbd
000002e0: 195a d23d fd79 50be a2e9 423e f7fd e2bd
000002f0: 82cd bdbd 3dfb e23d 3f39 a7bb f3b9 49bd
00000300: 7df6 253d 2265 cbbd 2a07 023d 6a61 cbbd
00000310: 1b3e 0d3e 53cf 473e 8e58 2ebe 3678 8a3d
00000320: 2912 113e 8915 8b3e 881c 233c 79bf f03d
00000330: c1e1 b83d 8dd1 e43d d7f5 87bd a5dc 9e3d
00000340: dda6 68bd c5a6 823d 31e7 f1bd 7dc5 923e
00000350: 9fbd 123e bed7 ecbd 8cf7 f93d 07de 15be
00000360: f64b a43d a0e7 1c3e 732c a63d 6487 b73d
00000370: 3159 773e 9ea5 1d3d ba57 18be ad99 df3d
00000380: 7b8e cd3c bc22 613d 6e4e e53d 4aff c93c
00000390: a29c e43d 70f9 32bc 3a43 813d 51f5 413e
000003a0: 22b7 563e a17b 6dbd dff8 bb3c a456 7e3d
000003b0: a000 7e3c 0660 523e a4b7 ecbd e882 bebc
000003c0: 4cc3 823d 76f7 413e 7554 43bd fb0b 21bc
000003d0: 2b0a 1ebe 787f 193e fc77 3abb e8ec 053c
000003e0: 2f9a 213e e956 2d3e 4faf b7bd 7153 b0bb
000003f0: c88e 6cbd 5709 973c a12b 9a3d 1e9c ca3c

lstm.weight_ih_l1 f4 [256, 64]
0.47591284 -0.106125884 -0.087342136 0.32609028 0.09350299 0.063863955 0.038218565 0.21931314
0.15098423 0.13061087 -0.3347106 0.23039486 0.083006285 0.036210217 -0.038443763 0.2655807
-0.062029943 -0.30117136 -0.1890112 0.04068169 -0.42321613 -0.024024077 -0.12502645 0.09200906
0.33818164 -0.14277673 -0.53615445 0.27829865 -0.0073683374 0.19183314 -0.076931626 -0.33946478
-0.03262642 -0.4270246 0.31763235 -0.22323482 0.119101286 -0.17606032 0.05691209 -0.15206377
0.19268563 -0.15161477 0.04441954 0.4751946 0.041581035 -0.08913445 -0.0077267196 0.12204823
0.012848133 -0.098023 -0.40670207 0.04443267 0.11901924 0.15349571 0.3125268 0.20709386
0.27028015 -0.28617308 0.06762153 -0.054789178 -0.2703279 -0.14666337 0.17013964 0.12700234
0.08493135 -0.3126988 -0.39361945 -0.03352356 -0.3034034 -0.056592293 0.15829164 -0.055087034
0.39048538 -0.013534655 0.057009023 -0.09919591 -0.19705853 -0.16364567 0.087860174 0.17900822
-0.020400317 -0.32507962 -0.15268728 0.050106402 0.10310469 -0.25008768 0.043085873 0.14890803
0.39215657 -0.24456112 -0.20742095 0.03287672 0.1794041 -0.21039778 -0.44607115 0.23342486
0.2124104 -0.34975982 0.20213081 -0.086948045 -0.115016036 0.34400034 0.055277076 -0.13512243
-0.08767979 -0.20442893 0.13789582 -0.19998418 -0.18952717 -0.10269944 -0.30689827 -0.053162422
0.10074117 -0.21806785 0.12366346 0.15490225 0.11329349 0.21549228 -0.2454402 -0.45512867
0.078406304 -0.10133554 -0.044258524 -0.19738337 -0.13384256 0.19178522 0.11868759 -0.1774114
-0.016271854 -0.10781561 -0.47963247 0.05296289 -0.43505207 0.19134134 -0.19783127 0.11418449
0.0014990487 -0.24413158 -0.081345454 0.21759903 -0.105627865 -0.029529225 0.037738964 0.11332003
0.28197688 -0.3983129 -0.16018797 -0.01921061 -0.3796491 0.11479293 0.1251276 0.14725138
0.11828959 -0.36302748 0.015087415 -0.26256087 0.18862581 -0.23085962 -0.34266353 0.43264565
-0.14304468 -0.22215286 0.30727127 0.23815422 -0.35125354 0.21116458 0.116796695 -0.28140828
-0.0690316 -0.13892943 -0.053784896 0.0057056607 -0.23433216 -0.20355925 0.13166887 0.12148963
0.2859541 0.11755922 0.16204245 -0.38780436 -0.08665276 0.23172766 -0.08940629 -0.22052513
0.024369584 0.24826567 0.08874804 -0.1220702 -0.25104743 -0.048694324 0.1248131 0.07046891
0.13192677 0.060645342 -0.01638889 0.3931505 0.091990024 0.19333111 0.13975398 0.15858227
-0.2543523 0.24648778 -0.07652379 0.31681746 0.062152244 -0.059603557 -0.031222232 -0.10104613
-0.14334472 -0.048950974 0.1832998 0.2897418 -0.43518057 -0.31660944 0.23281613 0.17020655
0.10102567 -0.21249643 -0.1267667 -0.35176262 -0.24474989 0.04573099 0.026691345 -0.32335874
-0.3694216 -0.19814672 0.071981095 0.24599832 -0.003939498 0.3880781 0.30517325 -0.4149871
0.25784275 0.02686805 -0.10145933 0.22075845 -0.039668076 0.02661599 -0.30861953 0.013221538
0.014614926 0.21970011 -0.21209653 -0.16955076 0.26510558 0.14429508 0.058761783 0.02534532
0.06152291 -0.09115509 -0.13835536 -0.06871257 -0.0661511 -0.09870266 -0.18595743 0.1428564
00000000: d9aa f33e 8758 d9bd 6fe0 b2bd 4ef5 a63e
00000010: 7f7e bf3d 1bcb 823d 128b 1c3d a093 603e
00000020: 9c9b 1a3e dbbe 053e 305f abbe a1ec 6b3e
00000030: 33ff a93d 2a51 143d 3577 1dbd 32fa 873e
00000040: 1c13 7ebd 2233 9abe 278c 41be d8a1 263d
00000050: c9af d8be 24ce c4bc ef06 00be 3f6f bc3d
00000060: 2526 ad3e 1034 12be 6b41 09bf 297d 8e3e
00000070: 1872 f1bb e86f 443e 548e 9dbd 54ce adbe
00000080: 48a3 05bd f8a2 dabe b5a0 a23e ab97 64be
00000090: 60eb f33d 2849 34be a71c 693d 9bb6 1bbe
000000a0: 624f 453e e740 1bbe 43f1 353d b54c f33e
000000b0: e050 2a3d 1f8c b6bd 6c30 fdbb 6cf4 f93d
000000c0: fa80 523c 48c0 c8bd 413b d0be 08ff 353d
000000d0: 5cc0 f33d fb2d 1d3e 8303 a03e 6a10 543e
000000e0: 2962 8a3e 4785 92be 287d 8a3d 9e6a 60bd
000000f0: 6b68 8abe ec2e 16be 1639 2e3e e70c 023e
00000100: 7df0 ad3d 0f1a a0be 7d88 c9be 0050 09bd
00000110: b157 9bbe 52cd 67bd 3417 223e f1a2 61bd
00000120: b3ed c73e 75c0 5dbc 4b82 693d 3a27 cbbd
00000130: b6c9 49be bb92 27be 09f0 b33d ee4d 373e
00000140: 911e a7bc d670 a6be 0e5a 1cbe 5f3c 4d3d
00000150: 8d28 d33d 7e0b 80be d07a 303d 597b 183e
00000160: bfc8 c83e 3b6e 7abe 2866 54be bda9 063d
00000170: b5b5 373e 8472 57be 7063 e4be ed06 6f3e
00000180: 1d82 593e b813 b3be 61fb 4e3e d111 b2bd
00000190: 878d ebbd d020 b03e 376a 623d 895d 0abe
000001a0: 7691 b3bd d155 51be 9034 0d3e a7c8 4cbe
000001b0: 6913 42be 1654 d2bd c521 9dbe d7c0 59bd
000001c0: 6351 ce3d 2e4d 5fbe 4543 fd3d b29e 1e3e
000001d0: 6b06 e83d 02aa 5c3e ad54 7bbe a006 e9be
000001e0: 7c93 a03d 0289 cfbd 6d48 35bd de1e 4abe
000001f0: 060e 09be 5863 443e 7b12 f33d 56ab 35be
00000200: 8d4c 85bc 6ece dcbd 6392 f5be 9eef 583d
00000210: 25bf debe fcee 433e 4894 4abe 8fd9 e93d
00000220: ba7b c43a a1fd 79be 7298 a6bd 48d2 5e3e
00000230: 6c53 d8bd 46e7 f1bc 2c94 1a3d 5514 e83d
00000240: 465f 903e abef cbbe 5108 24be 925f 9dbc
00000250: 5e61 c2be 8e18 eb3d 7321 003e 11c9 163e
00000260: d041 f23d bdde b9be 3531 773c 616e 86be
00000270: 2027 413e 7766 6cbe 9871 afbe bb83 dd3e
00000280: 4e7a 12be 0a7c 63be a952 9d3e b3de 733e
00000290: 81d7 b3be 873b 583e 1b33 ef3d bf14 90be
000002a0: 7160 8dbd 8443 0ebe 8d4d 5cbd 8df6 ba3b
000002b0: c5f4 6fbe d671 50be 34d4 063e 8ecf f83d
000002c0: 9368 923e e3c2 f03d 75ee 253e 4b8e c6be
000002d0: 0177 b1bd 044a 6d3e a51a b7bd 57d1 61be
000002e0: b9a2 c73c 5b39 7e3e 88c1 b53d f1ff f9bd
000002f0: 4a89 80be b373 47bd 039e ff3d 0152 903d
00000300: d017 073e 4067 783d fe41 86bc 064b c93e
00000310: 4465 bc3d 97f8 453e ab1b 0f3e 6463 223e
00000320: 773a 82be 4b67 7c3e 81b8 9cbd e635 a23e
00000330: 5a93 7e3d dc22 74bd c4c5 ffbc 46f1 cebd
00000340: f5c8 12be d180 48bd f1b2 3b3e 0a59 943e
00000350: fdcf debe a21a a2be 5a67 6e3e a04a 2e3e
00000360: 8ce6 ce3d aa98 59be 21cf 01be 3b1a b4be
00000370: b79f 7abe 6b50 3b3d cfa7 da3c 478f a5be
00000380: d424 bdbe f9e6 4abe d36a 933d fce6 7b3e
00000390: e816 81bb 2cb2 c63e ab3f 9c3e 3079 d4be
000003a0: f703 843e 631a dc3c e9c9 cfbd 810e 623e
000003b0: fe7a 22bd c709 da3c 6103 9ebe 269f 583c
000003c0: 7173 6f3c 11f9 603e d52f 59be b79e 2dbe
000003d0: ebbb 873e 17c2 133e 32b0 703d fda0 cf3c
000003e0: 72ff 7b3d 85af babd 07ad 0dbe 2db9 8cbd
000003f0: 3a7a 87bd 9f24 cabd a06b 3ebe f348 123e

lstm.weight_hh_l1 f4 [256, 64]
-0.10069537 0.35606626 0.016642822 -0.14362825 0.016931603 0.04556039 -0.18720381 -0.2891814
-0.004713796 0.16324365 0.08299512 -0.15165083 -0.12520535 -0.12615258 0.08979635 0.14137024
0.008450672 0.05788079 -0.10046885 0.06413751 -0.025936235 -0.2067535 -0.0067889877 -0.22256827
0.105897084 0.18909462 0.33671355 0.2939242 -0.13471702 0.091924995 -0.24120337 0.15337358
-0.10048716 0.1574899 -0.20311819 -0.18059787 0.027504358 0.19614717 0.24748738 -0.10297225
0.09248133 0.12810956 0.023140682 -0.109028675 0.16441329 -0.1655774 -0.25507814 -0.0036074575
0.2449073 -0.06990794 0.1354702 -0.03369271 -0.21075773 -0.0015858047 0.42406029 0.05707774
-0.10510082 -0.026444761 -0.27983811 0.36350706 0.4406003 -0.22352487 -0.25010327 0.08523349
-0.15957691 0.188428 0.09627929 -0.21219255 -0.1165819 -0.020998629 0.062419783 -0.25709605
-0.21405385 -0.18008034 0.2275345 0.22978048 -0.07444537 0.16235507 -0.019056069 -0.18260156
-0.051524907 0.1711001 -0.2679627 0.0063267136 -0.23131447 -0.09588983 0.0665604 0.2205726
-0.047558203 -0.11374057 0.3431054 0.18169273 0.095557354 -0.22666012 -0.0884627 -0.31469893
-0.31826097 0.3055731 -0.019272143 -0.08312209 0.083466545 0.09341472 0.23088473 -0.06109813
-0.15834928 0.038368907 0.31866756 -0.01597209 0.21958034 -0.14181876 -0.022070164 -0.068072446
-0.04654635 0.16253291 -0.22687215 0.16744533 0.25861663 0.097465046 -0.031357247 0.29516473
0.009871398 0.2171507 -0.008244528 0.3958894 0.0741925 0.03410565 0.004786756 -0.2583381
0.15190202 0.070625216 -0.03725013 -0.11372771 0.038948633 -0.17152208 -0.09754722 0.008374478
-0.2060607 -0.113059804 0.08917773 -0.027141796 -0.08783852 -0.025423033 -0.15837811 0.2971205
0.016139343 0.24551283 0.066578865 0.15489751 0.09225222 0.07269395 -0.039729062 -0.02867787
-0.024596099 -0.0266856 0.1552213 -0.24644965 -0.0039936984 0.006312268 0.35052162 -0.39812446
-0.053042807 -0.110430315 0.08800681 0.22700633 0.008011934 -0.12933141 -0.12277581 -0.08492571
0.40793285 0.002355474 -0.17879501 0.026581898 0.08503906 0.084253065 0.349987 -0.20494425
0.16739488 0.202622 0.17251748 -0.29817975 0.06691491 0.10021934 -0.18361932 -0.1853974
-0.036619656 0.09793034 -0.12650123 -0.023003835 0.18892604 -0.18111016 -0.08848198 -0.29174715
-0.05674615 -0.0056005246 -0.25739187 0.10399708 -0.059568163 0.12127452 -0.22715907 0.15104467
-0.20067152 -0.041831244 0.12999117 0.09106399 -0.12216226 0.14952444 0.12292889 -0.08580314
0.16633204 0.11531347 0.065219484 0.15922491 0.100902066 0.2157423 -0.19308794 0.038090978
0.037860464 -0.14439595 -0.18098973 -0.2710521 0.09303433 -0.10610002 0.13919735 -0.57561696
0.030687751 -0.148967 -0.051174726 0.058061313 -0.22733383 0.12381659 -0.009125276 -0.2184312
-0.06993661 -0.025911435 0.06454158 -0.13850579 -0.26120505 0.007272011 0.45858443 -0.029265575
0.028425125 -0.0077361595 0.055294883 0.04501868 -0.034864634 0.29294753 -0.010707302 0.026294848
-0.090356626 -0.11051974 -0.16971071 -0.12115359 -0.18366586 -0.013086383 -0.05863567 -0.26187146
00000000: 6039 cebd 514e b63e 8756 883c 4913 13be
00000010: 25b4 8a3c 889d 3a3d 5bb2 3fbe 960f 94be
00000020: 3076 9abb 5829 273e 58f9 a93d 5b4a 1bbe
00000030: d535 00be 242e 01be 26e7 b73d 5cc3 103e
00000040: b074 0a3c 6814 6d3d 9dc2 cdbd 875a 833d
00000050: 3a78 d4bc 31b7 53be 2876 debb f0e8 63be
00000060: 92e0 d83d 05a2 413e b865 ac3e 3c7d 963e
00000070: 42f3 09be 2c43 bc3d 04fe 76be f70d 1d3e
00000080: 36cc cdbd 0845 213e 37fe 4fbe a6ee 38be
00000090: d250 e13c ceda 483e 556d 7d3e 1de3 d2bd
000000a0: da66 bd3d 272f 033e 8791 bd3c 6d4a dfbd
000000b0: f55b 283e 1f8d 29be 9a99 82be 186b 6cbb
000000c0: fbc8 7a3e e52b 8fbd b3b8 0a3e 5e01 0abd
000000d0: e0d0 57be c7da cfba 6e1e d93e 59ca 693d
000000e0: 193f d7bd afa2 d8bc f146 8fbe 991d ba3e
000000f0: 5d96 e13e b4e3 64be 890d 80be e58e ae3d
00000100: 2168 23be 45f3 403e 142e c53d 0149 59be
00000110: 7ec2 eebd 5105 acbc e3ab 7f3d 18a2 83be
00000120: ef30 5bbe fb66 38be cefe 683e 934b 6b3e
00000130: d076 98bd 6840 263e 791b 9cbc e7fb 3abe
00000140: c80b 53bd dd34 2f3e 6832 89be 5250 cf3b
00000150: b3dd 6cbe e361 c4bd d250 883d c9dd 613e
00000160: 64cc 42bd d1f0 e8bd 83ab af3e a90d 3a3e
00000170: 93b3 c33d 9719 68be ef2b b5bd 3820 a1be
00000180: 1af3 a2be 1474 9c3e 9de0 9dbc ea3b aabd
00000190: 82f0 aa3d 3750 bf3d 0c6d 6c3e 0842 7abd
000001a0: 5026 22be b728 1d3d 6528 a33e e7d7 82bc
000001b0: abd9 603e f038 11be 7dcc b4bc 9169 8bbd
000001c0: 63a7 3ebd 076f 263e 2c51 68be ca76 2b3e
000001d0: 6669 843e c19b c73d 7570 00bd d51f 973e
000001e0: a5bb 213c c15c 5e3e 0f14 07bc 04b2 ca3e
000001f0: 3df2 973d 5eb2 0b3d 38da 9c3b e444 84be
00000200: 348c 1b3e f4a3 903d 9893 18bd 13ea e8bd
00000210: 9a88 1f3d 7ca3 2fbe d6c6 c7bd 1b35 093c
00000220: 9301 53be e68b e7bd d0a2 b63d 7958 debc
00000230: afe4 b3bd f743 d0bc df2d 22be 2e20 983e
00000240: a836 843c b767 7b3e 805a 883d 749d 1e3e
00000250: bbee bc3d 91e0 943d f1ba 22bd daed eabc
00000260: c27d c9bc c29b dabc 55f2 1e3e 4c5d 7cbe
00000270: 92dd 82bb 24d7 ce3b 9277 b33e f8d6 cbbe
00000280: 6a43 59bd 4a29 e2bd ea3c b43d 5974 683e
00000290: 7d44 033c 746f 04be e271 fbbd 88ed adbd
000002a0: 93dc d03e 4c5e 1a3b 0a16 37be 48c2 d93c
000002b0: f528 ae3d df8c ac3d 7f31 b33e e8dc 51be
000002c0: 9069 2b3e 247c 4f3e 6ca8 303e 04ab 98be
000002d0: af0a 893d cc3f cd3d b406 3cbe d1d8 3dbe
000002e0: 7efe 15bd b48f c83d 8a89 01be 8a72 bcbc
000002f0: d475 413e f174 39be 0a36 b5bd e25f 95be
00000300: a76e 68bd 9b84 b7bb dec8 83be 6cfc d43d
00000310: bffd 73bd c75e f83d 639c 68be 74ab 1a3e
00000320: d67c 4dbe 3d57 2bbd 681c 053e c27f ba3d
00000330: 3530 fabd ef1c 193e 24c2 fb3d 8fb9 afbd
00000340: f252 2a3e 7829 ec3d cb91 853d db0b 233e
00000350: bea5 ce3d 8deb 5c3e d8b8 45be 4905 1c3d
00000360: 9313 1b3d 88dc 13be 5f55 39be 57c7 8abe
00000370: c888 be3d f84a d9bd c089 0e3e a25b 13bf
00000380: e164 fb3c ce8a 18be 979c 51bd b3d1 6d3d
00000390: 33ca 68be 8d93 fd3d 2e82 15bc 6eac 5fbe
000003a0: ed3a 8fbd 3844 d4bc 602e 843d 76d4 0dbe
000003b0: abbc 85be 0d4a ee3b 94cb ea3e 5cbe efbc
000003c0: cfdb e83c 9c7f fdbb e37c 623d 8265 383d
000003d0: 38ce 0ebd 38fd 953e ae6d 2fbc 4b68 d73c
000003e0: e50c b9bd 2c58 e2bd a5c8 2dbe 601f f8bd
000003f0: e712 3cbe 4568 56bc f52b 70bd 0414 86be

lstm.bias_ih_l1 f4 [256]
-0.21302566 -0.17481507 -0.34362462 -0.079433896 -0.15647817 -0.13175456 -0.2304899 0.23506442
-0.077719904 0.07446324 0.09551133 -0.008523177 -0.18937454 0.28538302 -0.15079719 -0.048912734
0.12019138 -0.0773251 -0.07847242 0.21205705 -0.01581867 0.03704063 -0.06507269 -0.11740618
0.013290117 -0.10776677 0.11711691 -0.21079244 -0.11607099 -0.10737526 0.04111888 -0.044708062
-0.18258667 -0.08779881 0.12387479 -0.087167814 -0.1144599 -0.17366852 -0.04239925 0.08407407
-0.012522081 -0.29386732 0.13000561 0.2013841 -0.007559613 -0.15576512 -0.082152665 0.17216036
-0.0031941007 -0.051518384 -0.1635169 -0.09798564 0.62658733 -0.13534482 -0.073408276 0.029562429
-0.089987 0.026818473 -0.0900236 0.59878975 -0.2143652 -0.09781976 0.11042218 -0.1629848
0.08872371 -0.028418813 -0.19712074 0.07530726 -0.00027582192 0.06426424 -0.061919216 -0.302301
0.03048972 0.040532786 0.00362996 -0.3052538 0.15322909 -0.28008035 0.10698975 -0.10531253
0.019154698 0.013573404 -0.17415026 -0.004878155 0.09973001 -0.17991544 0.062637165 0.23044224
0.2259912 -0.110978015 -0.26162815 0.060046125 -0.0015452541 0.015994543 -0.06493772 -0.0044216774
-0.044663742 -0.1084336 -0.2660999 0.010762203 -0.04643473 0.11737727 0.050557207 0.24579936
0.15819937 -0.04417644 -0.0018089233 -0.17032626 -0.05947812 0.27899045 -0.1391837 0.005850251
0.10003445 0.0436241 0.12518935 0.2526882 -0.11545031 -0.17667684 0.025841093 0.2049837
0.22977751 0.10557626 0.10582983 -0.2045967 -0.0033736522 -0.26316875 0.2675354 -0.122799814
0.057798624 -0.07671914 -0.043508854 0.021346223 0.06029578 -0.080593705 0.13221245 0.16724432
0.27172163 -0.099079356 -0.039593488 -0.11091215 0.15834637 -0.00081895536 -0.106843874 0.2013658
-0.03540238 -0.13948637 0.1970715 0.03894182 0.23852053 -0.18438767 0.22319086 0.12781936
-0.20120546 0.22019914 -0.03931957 0.12580414 0.15010253 0.09319814 0.100013934 0.10166543
0.19381115 -0.15144077 0.06969577 0.0681368 0.05201642 -0.18793735 -0.17698495 0.29622886
0.16339907 -0.11095377 -0.12428876 -0.02982499 -0.05063698 0.23519093 -0.26842958 -0.16827194
-0.14513554 0.14228089 0.1143112 -0.03828109 0.08293482 -0.20623255 -0.07601983 -0.15464172
-0.16296296 -0.28734288 -0.00712449 -0.10193293 0.10768647 -0.029877337 0.25589937 0.083025716
-0.017033128 0.005058371 -0.24388881 0.09556275 -0.096151 -0.1992899 -0.13100378 0.2862865
-0.15657662 0.089439966 -0.022149371 -0.053161055 -0.08333308 0.19479847 -0.017495764 -0.17905551
-0.050269958 -0.015998654 -0.08464405 0.23632637 -0.11112207 -0.039811693 0.0011257891 0.10309974
0.13648008 -0.1972379 0.16865668 0.13867994 -0.0142092295 0.01315245 -0.036567613 0.020737832
-0.17254525 -0.0946375 0.33593306 -0.045804985 0.02793697 -0.020392906 -0.14080667 -0.1248423
0.039805867 -0.2927472 0.20407955 0.21081205 0.042485774 -0.0075037302 -0.18850046 -0.05329435
-0.091848634 -0.08647382 -0.060529817 -0.040566586 0.72528595 -0.13750823 -0.05410747 -0.10418849
-0.02692019 -0.16618878 -0.10012769 0.36579794 -0.0652761 -0.12246689 -0.087805174 -0.014300282
00000000: 6623 5abe b902 33be 91ef afbe 3dae a2bd
00000010: d03b 20be abea 06be 8b05 6cbe bab4 703e
00000020: 9d2b 9fbd 2f80 983d 729b c33d cca4 0bbc
00000030: 66eb 41be b91d 923e 946a 1abe b858 48bd
00000040: e626 f63d 9f5c 9ebd 26b6 a0bd 7c25 593e
00000050: 2896 81bc eab7 173d d544 85bd a772 f0bd
00000060: cabe 593c d3b4 dcbd feda ef3d f9d9 57be
00000070: a1b6 edbd 8fe7 dbbd 456c 283d cd1f 37bd
00000080: 00f8 3abe ddcf b3bd 11b2 fd3d 0a85 b2bd
00000090: f469 eabd 29d6 31be d6aa 2dbd 072f ac3d
000000a0: 6a29 4dbc c775 96be 3120 053e a237 4e3e
000000b0: a1b6 f7bb e480 1fbe a83f a8bd ce4a 303e
000000c0: 1e54 51bb f104 53bd f970 27be b2ac c8bd
000000d0: 0768 203f d597 0abe 1457 96bd e82c f23c
000000e0: 1b4b b8bd 6ab2 db3c 4b5e b8bd 494a 193f
000000f0: 8d82 5bbe ba55 c8bd 0625 e23d 7de5 26be
00000100: c7b4 b53d 92ce e8bc 05da 49be b13a 9a3d
00000110: 319c 90b9 f89c 833d 019f 7dbd 32c7 9abe
00000120: 94c5 f93c b505 263d 9fe4 6d3b 3a4a 9cbe
00000130: 16e8 1c3e b166 8fbe 711d db3d 19ae d7bd
00000140: 50ea 9c3c fc62 5e3c 7254 32be eed8 9fbb
00000150: 3f3f cc3d c13b 38be ea47 803d 0df9 6b3e
00000160: 3d6a 673e 7148 e3bd 20f4 85be edf2 753d
00000170: 208a caba fd06 833c 11fe 84bd b8e3 90bb
00000180: 54f1 36bd 6f12 debd 3f3e 88be f353 303c
00000190: 5832 3ebd 7e63 f03d 1315 4f3d d4b2 7b3e
000001a0: 04ff 213e 5bf2 34bd 6519 edba 026a 2ebe
000001b0: 549f 73bd d6d7 8e3e 2c86 0ebe 76b3 bf3b
000001c0: ddde cc3d 2faf 323d a331 003e 5960 813e
000001d0: 3671 ecbd c6ea 34be b3b0 d33c 3fe7 513e
000001e0: cc4a 6b3e 5e38 d83d 4fbd d83d cc81 51be
000001f0: 7e18 5dbb 0ebe 86be 66fa 883e 787e fbbd
00000200: 40be 6c3d ed1e 9dbd 5736 32bd 46de ae3c
00000210: b5f8 763d 500e a5bd b362 073e 1842 2b3e
00000220: 191f 8b3e 1eea cabd c82c 22bd e925 e3bd
00000230: 8d25 223e 2aaf 56ba f6d0 dabd d632 4e3e
00000240: 1602 11bd 84d5 0ebe 1ccd 493e 7581 1f3d
00000250: ba3e 743e 1fd0 3cbe 258c 643e 14e3 023e
00000260: ce08 4ebe e27b 613e 8f0d 21bd cdd2 003e
00000270: 7ab4 193e abde be3d 1bd4 cc3d f735 d03d
00000280: 6e76 463e 4a13 1bbe a8bc 8e3d 4e8b 8b3d
00000290: 2b0f 553d a672 40be 8b3b 35be 4fab 973e
000002a0: 1652 273e bb3b e3bd 1b8b febd 8a53 f4bc
000002b0: b968 4fbd e4d5 703e 9a6f 89be 7b4f 2cbe
000002c0: 699e 14be 15b2 113e fe1b ea3d a2cc 1cbd
000002d0: bbd9 a93d a02e 53be 49b0 9bbd 665a 1ebe
000002e0: c3df 26be 9b1e 93be 8e74 e9bb 36c2 d0bd
000002f0: b98a dc3d 51c1 f4bc 3e05 833e 6309 aa3d
00000300: 0f89 8bbc b1c0 a53b fdbd 79be 67b6 c33d
00000310: d1ea c4bd a712 4cbe db25 06be 2594 923e
00000320: 9f55 20be 4d2c b73d 9972 b5bc 68bf 59bd
00000330: 89aa aabd 4079 473e 4753 8fbc 545a 37be
00000340: dfe7 4dbd 9c0f 83bc dc59 adbd 8aff 713e
00000350: f893 e3bd 9611 23bd 378f 933a f525 d33d
00000360: 6fc1 0b3e bbf8 49be 56b4 2c3e 1d02 0e3e
00000370: d4cd 68bc 607d 573c ecc7 15bd 63e2 a93c
00000380: b4af 30be 4ed1 c1bd 6bff ab3e 029e 3bbd
00000390: 13dc e43c 060f a7bc a02f 10be 52ad ffbd
000003a0: 7a0b 233d f6e2 95be 3bfa 503e 1ddf 573e
000003b0: 9005 2e3d dae1 f5bb 4406 41be 2d4b 5abd
000003c0: 231b bcbd 3019 b1bd 1dee 77bd 2629 26bd
000003d0: 57ac 393f f5ce 0cbe cb9f 5dbd c660 d5bd
000003e0: bb87 dcbc 642d 2abe bf0f cdbd de49 bb3e
000003f0: 7aaf 85bd eccf fabd 33d3 b3bd bb4b 6abc

lstm.bias_hh_l1 f4 [256]
-0.14342386 -0.20985742 -0.40143296 0.060756296 -0.16173583 -0.102191664 -0.13804048 0.1030113
-0.122125685 0.21364866 0.1145002 0.044216894 -0.21603529 0.3087227 -0.020115832 0.05584703
-0.024281856 -0.140813 -0.2136536 0.14342532 -0.12931266 -0.08431194 -0.07175526 -0.14480297
-0.043398343 -0.25904673 0.23018175 -0.23493558 -0.09128313 -0.12824109 -0.039668124 -0.031179788
-0.11575938 -0.19442526 0.23396586 -0.19908662 -0.07546507 -0.062096592 -0.1716104 0.05924281
0.014315765 -0.25405252 0.058321074 0.21770307 0.046327088 -0.13437812 -0.24592991 -0.050787665
0.081880614 -0.035449944 -0.15661812 -0.017069113 0.72566164 -0.2307611 -0.055637944 0.051745027
-0.060733102 0.10661309 -0.15807816 0.641881 -0.18248716 -0.08600768 -0.08080138 -0.09346269
0.018074568 -0.062190227 -0.19582422 0.29999733 0.11803277 -0.07227482 -0.13629372 -0.26042446
0.10144719 0.03468664 0.013061816 -0.20075253 0.11586668 -0.3902762 0.012447538 0.010858344
0.19016959 -0.030427407 -0.15686463 -0.10043763 0.17499582 -0.11664409 0.024566643 0.22726074
0.1244226 0.06864163 -0.10416339 -0.10768716 0.008627928 0.14733449 -0.06622462 0.010275977
0.10741259 0.060285933 -0.4237523 -0.07192949 -0.21893345 0.06890171 0.08288937 0.28966826
0.2190895 -0.019594287 -0.07631304 -0.032702185 0.04148956 0.14710903 -0.08481015 -0.050700516
0.10501377 -0.0017583692 0.05448251 0.062354635 -0.2013883 -0.13354397 0.11618971 0.064556524
0.04804925 0.17580913 0.07382044 0.0024677664 -0.022181483 -0.26907486 0.12628925 -0.12642486
0.1670115 -0.08172694 -0.08979407 0.2038561 0.28435734 -0.17847282 0.18987058 0.10457837
0.119713016 0.0023521995 -0.19415781 0.016354524 0.084817745 0.008434334 0.077941224 0.06476616
-0.1369943 -0.23032616 0.07467279 0.13055943 0.13111827 -0.15705006 0.17034236 -0.010455768
-0.0052276016 0.18981263 0.036891274 0.07283875 -0.011724233 0.03740581 0.12960057 0.08702776
0.06632552 -0.05159307 0.010580846 0.11720166 0.1387614 -0.17984676 -0.17417426 0.07307425
0.14311796 -0.14757426 -0.06955382 -0.09570047 -0.09723466 0.2316155 -0.16986156 0.012625919
-0.03379467 0.13774051 0.13543053 -0.12308412 0.12505166 -0.09134628 -0.24148263 -0.029923784
-0.22490938 -0.13481173 -0.01057065 -0.04426239 0.20341326 -0.09631867 0.15440287 0.1209532
-0.19150122 0.023524763 -0.26264936 0.12784885 -0.15105644 0.015205364 -0.20262043 0.29239592
-0.11766262 0.15377717 0.15289159 0.037587017 -0.084239386 0.32603738 -0.21545893 -0.023805935
0.0023421235 0.020142598 -0.22141281 0.3553756 -0.17622504 -0.06704021 -0.00154186 0.20230308
-0.0671328 -0.17670485 0.0041547646 -0.06105945 -0.03747517 0.062286075 -0.093034066 0.042651035
-0.2387116 -0.109680615 0.37522006 -0.13281031 0.035363562 -0.17635694 -0.15002607 -0.09602952
-0.100834 -0.23621988 0.1487445 0.12202844 0.07655671 -0.03320724 -0.13826935 -0.0152574405
-0.17124476 -0.17688753 -0.2331443 -0.122429304 0.6331272 -0.24038252 0.046246685 -0.07736006
-0.047020774 -0.15568048 -0.056122705 0.5230311 0.014323974 -0.13714531 -0.10148083 -0.16230662
00000000: b4dd 12be dde4 56be 9f88 cdbe 98db 783d
00000010: 149e 25be dd49 d1bd 7c5a 0dbe 97f7 d23d
00000020: 081d fabd b7c6 5a3e 157f ea3d c61c 353d
00000030: 5b38 5dbe e710 9e3e f5c9 a4bc dbbf 643d
00000040: beea c6bc 4831 10be 02c8 5abe 16de 123e
00000050: 8a6a 04be bdab acbd 6cf4 92bd 3b47 14be
00000060: 76c2 31bd c6a1 84be c4b4 6b3e f492 70be
00000070: a6f2 babd a251 03be 0b7b 22bd c16c ffbc
00000080: 4113 edbd 6a17 47be bf94 6f3e 5ddd 4bbe
00000090: 6e8d 9abd ff58 7ebd a3ba 2fbe 97a8 723d
000000a0: ac8c 6a3c 2c13 82be 14e2 6e3d 8eed 5e3e
000000b0: 79c1 3d3d 6b9a 09be 0dd5 7bbe ba06 50bd
000000c0: 06b1 a73d f633 11bd 8060 20be 86d4 8bbc
000000d0: f6c4 393f a34c 6cbe 9de4 63bd 98f2 533d
000000e0: 46c3 78bd f757 da3d 3edf 21be 5052 243f
000000f0: eadd 3abe cb24 b0bd 327b a5bd 5e69 bfbd
00000100: 1e11 943c 2ebb 7ebd 2586 48be 4099 993e
00000110: 2abb f13d d204 94bd 9590 0bbe 5b56 85be
00000120: 8bc3 cf3d 9413 0e3d 3a01 563c 1292 4dbe
00000130: 834b ed3d 48d2 c7be c2f0 4b3c 32e7 313c
00000140: d1bb 423e e642 f9bc 1fa1 20be 3fb2 cdbd
00000150: 1b32 333e 19e3 eebd fc3f c93c 0ab7 683e
00000160: 47d1 fe3d fc93 8c3d 9e53 d5bd 168b dcbd
00000170: 275c 0d3c dade 163e c6a0 87bd 925c 283c
00000180: 22fb db3d 62ee 763d 10f6 d8be c54f 93bd
00000190: 1730 60be 571c 8d3d e7c1 a93d 664f 943e
000001a0: ff58 603e 3384 a0bc 034a 9cbd baf2 05bd
000001b0: f5f0 293d c0a3 163e f2b0 adbd 58ab 4fbd
000001c0: 7611 d73d 1479 e6ba 0d29 5f3d 9367 7f3d
000001d0: bc38 4ebe c0bf 08be dff4 ed3d 3636 843d
000001e0: 4acf 443d 4f07 343e 2c2f 973d 40ba 213b
000001f0: f1b5 b5bc 2ec4 89be f851 013e 8575 01be
00000200: 1005 2b3e 7460 a7bd f4e5 b7bd a7bf 503e
00000210: 4997 913e 94c1 36be 6f6d 423e 2f2d d63d
00000220: 192c f53d 5c27 1a3b 4ed1 46be ecf9 853c
00000230: edb4 ad3d 2930 0a3c a69f 9f3d 1fa4 843d
00000240: 3c48 0cbe 9fda 6bbe 0cee 983d 5fb1 053e
00000250: de43 063e bbd1 20be 3a6e 2e3e ab4e 2bbc
00000260: 4d4c abbb 3e5e 423e 4e1b 173d 7c2c 953d
00000270: ff16 40bc d636 193d 03b6 043e 9c3b b23d
00000280: add5 873d 4153 53bd 495b 2d3c 6d07 f03d
00000290: 7817 0e3e c029 38be bd5a 32be f4a7 953d
000002a0: 848d 123e b51d 17be 3c72 8ebd 9cfe c3bd
000002b0: f722 c7bd 9d2c 6d3e 30f0 2dbe f1dc 4e3c
000002c0: 486c 0abd d90b 0d3e 4dae 0a3e 8713 fcbd
000002d0: 8b0d 003e c213 bbbd 3947 77be b922 f5bc
000002e0: a54e 66be 160c 0abe 8530 2dbc 7b4c 35bd
000002f0: 914b 503e b942 c5bd c91b 1e3e 50b6 f73d
00000300: e518 44be 01b7 c03c fa79 86be cfea 023e
00000310: 8aae 1abe eb1f 793c bb7b 4fbe ebb4 953e
00000320: 1af9 f0bd c377 1d3e 9d8f 1c3e d8f4 193d
00000330: b385 acbd 5fee a63e 44a1 5cbe aa04 c3bc
00000340: 507e 193b 1702 a53c 0aba 62be caf3 b53e
00000350: 5674 34be 614c 89bd 3d18 caba 8a28 4f3e
00000360: ec7c 89bd 1ef2 34be b124 883b 7919 7abd
00000370: 907f 19bd af1f 7f3d a588 bebd dab2 2e3d
00000380: d070 74be 3ba0 e0bd d81c c03e 6dff 07be
00000390: 62d9 103d ea96 34be 6fa0 19be 20ab c4bd
000003a0: 0e82 cebd a0e3 71be 7a50 183e 0cea f93d
000003b0: c4c9 9c3d 5104 08bd 7b96 0dbe 58fa 79bc
000003c0: c95a 2fbe 0122 35be 61bd 6ebe 37bc fabd
000003d0: a014 223f d626 76be 2a6d 3d3d f36e 9ebd
000003e0: db98 40bd b46a 1fbe ece0 65bd 5ee5 053f
000003f0: 1aaf 6a3c d26f 0cbe 2ed5 cfbd b533 26be
